char_emb/code/model_neonate_gru.pt (torch_old, 85582 bytes, 7 tensors)

weight f4 [80, 15]
00000000: 28c7 073f eb6c 15bf dc96 83bf 63c0 f93e
00000010: c5a6 81bf 75e0 d73f 5e73 053e bffd a43f
00000020: e43c 66bf d593 a73f 3974 0ac0 a145 4c3f
00000030: 0a09 043e 7d2d 703f 64d4 6b3f f89b ebbd
00000040: 0972 9dbe 06e9 38bf 55a6 2fbe ac70 6b3e
00000050: 49b5 97bf 5c74 ac3e 907b 9f3e 9974 b8be
00000060: c972 cd3f 8070 72be 3cda debe 8c47 f63f
00000070: 0209 213b ae9a 693e c849 0ebf 891b aabf
00000080: 28f7 91be de8b 003e 1594 9abf 11ca b13e
00000090: f4b0 be3f dcfa 9f3e 29f3 2f3f b256 b5be
000000a0: 9aca b3bf d014 bd3f 1d77 b83e 5e8c e0bf
000000b0: 51f7 36bf 7cc8 5a3f 31db 4cbe 5bc4 163f
000000c0: 5600 2dbd fa71 8d3f f8d5 0b3f ae55 c03f
000000d0: ba8a 94bf 60d3 a5bf 837d 95be be3f febe
000000e0: 6a8a f73e 54a8 76bf 619f 3bbe 9c45 243f
000000f0: e442 1e3f dca0 dd3d 5e45 513f 348c c23e
00000100: 3bbc 78be d7bc 84bf 93b0 f6bd 3dae 81bf
00000110: bcbd c9be c598 993f 526d 67bf e1e8 46be
00000120: 64e3 20bf 691d 8b3e 013d bdbf 6ffc ebbe
00000130: fc0a 84be 7474 9e3f b40c f43d f4b2 fd3f
00000140: 5a0f 5d3f c6ea 97bd 2f82 c63e e545 6bbf
00000150: 2482 8d3f 0525 c4bf 12a6 64bf 872c adbe
00000160: f76a 51be 9e84 8ebe 7638 44bf cadb 803f
00000170: f9bc 8a3e 7a50 02bf 453e 87bf 8b56 483f
00000180: 5516 a7bc 16d9 1ebf 27a0 913f fcf6 363f
00000190: 511c 653f d244 18bf 8a07 11be b47a 683f
000001a0: e77b d13f 0137 eb3e fad0 373f 07db 97be
000001b0: df45 253f 0095 dbbf 5c34 7c3e a735 b4be
000001c0: 708b 1cbe e33a ec3e bcd8 48c0 e86d e93f
000001d0: 898b 75bf bd3f 243f fee9 80be e3f1 08bf
000001e0: a3af 873e ae22 8cbe b2be 94bc 17d0 523f
000001f0: 252c 4d3f d99e 3ebf d154 9abf f36f 3fbf
00000200: 096d 6b3f 5936 74bf 415b 01bf a98b c5bf
00000210: 278a a93e af3d 05bf 9a6f 6cbf ada7 34bf
00000220: 0fc8 013f 5f84 a0bf 3401 0e40 d4f8 ce3e
00000230: 451c 4cbe 3529 9cbe 6144 9abf b317 d8bf
00000240: f819 363e 47a8 9dbf d80d e63e f7b9 bdbf
00000250: 2161 b0be 1683 5d3f 9940 7d3e 2b72 24bf
00000260: 712e 113f d5e6 dd3d 4568 94bf 3b76 7f3e
00000270: c347 94bf 74e1 dabd 0432 533f 18dd 6a3f
00000280: 1bb5 dabd 00b4 423e 2a8d 65bf b3ca b43d
00000290: 8d00 503f 0c75 bf3e 7b43 25bf b665 5cbe
000002a0: 347c ffbf 1024 e8bc 7dda 2b3f 0843 5fbf
000002b0: b8bc 99bf 7dc4 393f 5cbb 4fbf 7275 6abd
000002c0: db2f 0ebe 8134 1440 f308 e83e 80c5 14c0
000002d0: a272 34be 4260 c43f a226 7b3f 2d43 fc3d
000002e0: b68f 643e 1f9d dd3e c128 313f e2ff 773f
000002f0: abb3 ce3f d250 653f 5072 533e 3453 293f
00000300: 6d4e 3cbe 8f7a dabe c8eb b13e 50e8 a7bf
00000310: 5a2e e03c 7144 9cbf db90 303f 9601 993c
00000320: 0634 503f 37ac 7c3f 2e3a d53e 1bd6 0dbf
00000330: 4627 b4bf 9fbd cebe 54f0 77be 570d 063f
00000340: a06a 823f 7eb3 c93e c2bc ac3d 43e0 04be
00000350: 6e01 ee3f acd8 cfbf 35c7 f03e 7132 89bc
00000360: deb4 6cbf e6cc 053f 4feb e23d 9e79 16c0
00000370: c630 44bf 5985 063f 6d5c 943e 26e0 9bbd
00000380: a1f2 adbf d17a e73d 65b1 813f 67ae 04bf
00000390: 5e0c d93f 2ae4 5d3f e43a f73e 3419 053f
000003a0: bc32 84be 9d64 e0bc 9963 813e 089a ad3c
000003b0: 944e 413f 71b8 16c0 1193 d13f 46a7 d4be
000003c0: 1051 943f 8b07 96be 21ec b73e 95aa 8c3f
000003d0: c294 5fbf 9837 8c3f 7b25 6b3f 7515 873e
000003e0: 6f79 2b3e 020c 49bf 4602 6b3d de2a 53bf
000003f0: 987d 10bf 55f0 26be 92db 643f ecf5 0540
0.53038263 -0.5836932 -1.0280414 0.48779592 -1.0129019 1.6865374 0.1303229 1.2889937
-0.8993666 1.309199 -2.1633437 0.79793745 0.12894073 0.9381941 0.9212096 -0.11504358
-0.30751064 -0.72230566 -0.17153294 0.229922 -1.1852199 0.33682525 0.31148958 -0.36026457
1.6050655 -0.23675728 -0.43525875 1.9240584 0.002457202 0.22812912 -0.5558133 -1.3289653
-0.28508878 0.12553355 -1.2076441 0.34724477 1.4897752 0.31246078 0.6873041 -0.35417706
-1.4046204 1.4771976 0.36028376 -1.7542837 -0.71471125 0.85462165 -0.2000549 0.58893365
-0.04223665 1.1050408 0.54623365 1.5026147 -1.1604836 -1.2955132 -0.2919732 -0.49658006
0.4834779 -0.963506 -0.18322517 0.64168715 0.61820817 0.10821697 0.8174647 0.37997591
-0.24290554 -1.0370129 -0.120453976 -1.0131298 -0.39402568 1.1999747 -0.90401185 -0.19424774
-0.6284697 0.27170876 -1.4784242 -0.4609103 -0.2578963 1.2379289 0.119164854 1.9820237
0.8635155 -0.07417826 0.38771197 -0.91903526 1.1055341 -1.5323797 -0.89315903 -0.33823034
-0.2045096 -0.27835554 -0.7664865 1.0067074 0.270973 -0.5090405 -1.0565878 0.78257054
-0.02039639 -0.62049997 1.1377 0.7147062 0.8949633 -0.5948001 -0.14163032 0.9081223
1.6365937 0.45940402 0.7180325 -0.29659292 0.6455974 -1.7154846 0.24629349 -0.35197183
-0.15287566 0.46138677 -3.1382284 1.8236666 -0.9591604 0.64159757 -0.25178522 -0.5349409
0.26501188 -0.27370209 -0.018157337 0.8234877 0.80145484 -0.7446113 -1.2057134 -0.74780196
0.9196325 -0.9539543 -0.5052987 -1.5433246 0.33113214 -0.52047247 -0.9235779 -0.7056835
0.5069589 -1.2540396 2.2188234 0.40424216 -0.19932659 -0.30500188 -1.2052118 -1.6882232
0.17783344 -1.2316979 0.44932437 -1.4822377 -0.34449103 0.86528146 0.24731673 -0.64236706
0.5671149 0.10835043 -1.159432 0.24947445 -1.15844 -0.10687533 0.8249819 0.9174361
-0.106790744 0.19013977 -0.89668524 0.08827724 0.8125084 0.37393987 -0.6455609 -0.21523175
-1.9959779 -0.028337508 0.6713026 -0.87211657 -1.2010717 0.7256544 -0.8114526 -0.05724091
-0.13885443 2.3157046 0.45319328 -2.3245544 -0.17621854 1.5341876 0.98105824 0.123175
0.22320446 0.43283936 0.6920281 0.9687482 1.614858 0.89576447 0.20649076 0.6614258
-0.18389292 -0.4267163 0.347502 -1.3117771 0.027365852 -1.2208387 0.6897103 0.018677514
0.8132938 0.9870028 0.4164595 -0.55404824 -1.4074485 -0.40379044 -0.24212772 0.52364105
1.0188789 0.39394754 0.0843444 -0.12976174 1.8594186 -1.6237998 0.47026983 -0.016747685
-0.9246348 0.52265775 0.11080038 -2.351173 -0.7663692 0.5254722 0.28976765 -0.07611112
-1.358967 0.11302722 1.0132262 -0.51828617 1.6956899 0.86676276 0.48287117 0.5199158
-0.25819957 -0.027391726 0.252713 0.021191612 0.75510526 -2.3550074 1.6373006 -0.4153387
1.1587238 -0.2930263 0.3592234 1.0989558 -0.8733636 1.0954466 0.91854066 0.26383558
0.16745542 -0.7853395 0.057375215 -0.82487285 -0.5644164 -0.16302617 0.8939754 2.0931349

weight_ih_l0 f4 [192, 15]
00000000: 7ce1 5cbd 30e5 5e3d a2fe f43d 02e6 a5bd
00000010: 4433 29bd 98e9 9f3c bc82 a13d 367c b43d
00000020: d0da 553c 200e 673d 34d9 8e3d 4833 edbd
00000030: c0af 4d3c e86b 933d 5031 c93c 4cd1 d13d
00000040: 60e7 8a3c e0d1 69bc 501e c03c 8aa4 f93d
00000050: ec1f 02bd 0e59 b9bd 5e4d e2bd 7058 f53d
00000060: e801 4a3d 72f0 a2bd c802 fdbc 06f7 96bd
00000070: 3a84 963d 28e5 af3c 228e a53d a030 a3bb
00000080: 782b 5bbd ac63 e23d 605e eabc c423 713d
00000090: 48a9 44bd cc24 09bd 9034 8abd 0014 93bb
000000a0: bc08 943d c2cf cb3d ec98 0bbd f836 08bd
000000b0: feb9 8c3d 20a9 e93b 5863 93bd 48cc 48bd
000000c0: a625 e0bd 12ab b8bd f054 85bd 0285 873d
000000d0: a08d 61bd 6056 f13b 1e94 f2bd 2826 74bd
000000e0: 5e45 da3d 6e14 f4bd 9ab3 b0bd 0e91 83bd
000000f0: 5892 163d bcff 22bd 7860 e53d e8bc 84bd
00000100: c6d2 d6bd d457 3e3d e60d ef3d 607a b2bb
00000110: f008 85bc f0a8 c3bc 1e64 b43d 00da 4abb
00000120: b018 833c 0e37 bfbd 9ce7 85bd 184b 2e3d
00000130: cae9 c8bd a85f b93c 086f e4bd 8655 f43d
00000140: 220b dcbd e8cc be3c dcc2 fdbd fcc4 b93d
00000150: fea3 a1bd 600f 29bc 8037 44bc f0be 633d
00000160: c0b3 12bb b41e 533d a0c3 10bc 025b 98bd
00000170: b05b ac3c 882d 143d 8e34 d33d c600 d33d
00000180: b0c6 84bd 5a01 bb3d 4c96 25bd 78c8 dbbc
00000190: 3478 6abd 90d0 40bc 5899 893d 308c 353c
000001a0: f854 b13c ced0 9cbd 6c4c 0b3d 7e05 af3d
000001b0: 206f 52bd 40f8 c33b 5006 183c 66b8 843d
000001c0: 1092 18bd 7ca4 9d3d 4059 4abb 66e1 c03d
000001d0: 10e7 37bd b0b8 d7bc 0812 153d 8685 eebd
000001e0: 288b c13d 58de b1bc 7830 84bd 6895 7dbd
000001f0: 8047 2c3b 2009 82bc 80db 433c 08c5 a43c
00000200: 7091 a2bd c0e8 9a3c ec33 05bd e07b acbd
00000210: 826e ad3d 7cc1 91bd c005 cd3d e22b 8c3d
00000220: 8c20 403d c63a abbd 6c67 1bbd 2cb7 70bd
00000230: bc26 4b3d f47e ee3d 701b d6bd f44a a83d
00000240: 800a ad3d bc1f 983d 7e40 823d c40c 2dbd
00000250: 2ad3 eb3d 54dd de3d 2092 e03d b8c0 b63c
00000260: 0eb8 a13d 06c4 f43d e0e8 053c 648e 9dbd
00000270: 34c1 a43d 2425 40bd 06bf 8bbd 68e9 f5bd
00000280: 0077 1c3a 4848 bb3c ecc2 e5bd 30d7 19bc
00000290: a03a 3abd e4b8 3e3d 5c83 d73d 0017 27bc
000002a0: 30f3 89bc 9cc1 553d b836 973d 72c6 c0bd
000002b0: 22e0 a43d dcd0 cebd 9abe a9bd 74bd 363d
000002c0: 8098 35bc 3092 cf3c c631 acbd e2f8 e2bd
000002d0: 3878 be3d 5cc2 b1bd e03e adbb 00f0 5e39
000002e0: 3c66 023d 0abd c83d 80cb 4cbb 4895 f6bc
000002f0: 70c2 f3bd 90e5 7ebc 28a9 e43c d46e f43d
00000300: 103b 343d 8247 cabd ea88 b2bd c0c5 40bc
00000310: baf2 d5bd cc39 153d 8a5c 923d 86f1 e5bd
00000320: c8f3 083d 8292 973d 7099 61bd 9010 043d
00000330: acb2 d7bd 3833 eabc 8cd5 ef3d f26b 8abd
00000340: 0c11 8cbd 9467 9cbd 38c2 dd3c d031 e33c
00000350: f282 c2bd 4cdc 613d f2eb fa3d 5cd4 fb3d
00000360: d0c1 92bd ec6a 9c3d ccca e7bd 8e13 c9bd
00000370: 363d 8e3d b8e2 9bbd b015 f03d 54aa 923d
00000380: a01b 38bc 2ce2 be3d dce3 8abd 7c30 183d
00000390: 3eab b3bd d01f efbc 2a7a fbbd b688 c73d
000003a0: 90d0 903d 4afe dcbd 3a5d b2bd 4cc6 a83d
000003b0: 502b 523d 30e2 7dbc 10a5 ac3d d040 6abd
000003c0: e038 953b e0e4 35bd 6813 9dbc 8cbf 43bd
000003d0: 2020 bf3b 8a74 f63d faf2 a6bd 68ac d33c
000003e0: cea1 bf3d 4a40 8e3d 7095 583c 26e9 99bd
000003f0: e4ec ec3d f49e ae3d 2411 c13d e8fe b8bd
-0.053925976 0.05441779 0.1196263 -0.08100511 -0.041308656 0.019520566 0.07886264 0.08812754
0.013052657 0.056409955 0.06975022 -0.11582047 0.012554109 0.07198316 0.024559647 0.10244998
0.016956031 -0.0142712295 0.023451954 0.121895865 -0.031768724 -0.09050189 -0.11049913 0.11979759
0.049318224 -0.079560176 -0.030885115 -0.07371335 0.07349439 0.021471575 0.0808375 -0.004980162
-0.053508252 0.11054167 -0.028609455 0.058872 -0.048013 -0.033482358 -0.06748307 -0.004488468
0.072282284 0.09951736 -0.034081385 -0.033255547 0.06871413 0.007130757 -0.07196683 -0.049022943
-0.10944681 -0.09017004 -0.06510341 0.06617166 -0.055066705 0.007365033 -0.11844657 -0.0596067
0.10657762 -0.11917959 -0.08628006 -0.06424151 0.036760658 -0.03979467 0.112000406 -0.064813435
-0.104894206 0.04647048 0.11672573 -0.005446717 -0.016239613 -0.023884267 0.08808158 -0.0030952692
0.016002983 -0.09336673 -0.065383166 0.042552084 -0.09810217 0.02262862 -0.1115399 0.11930375
-0.10744311 0.023291066 -0.12390682 0.09070775 -0.07892607 -0.010318607 -0.011976123 0.055602014
-0.0022384971 0.051542953 -0.008835703 -0.07439233 0.021039814 0.036176234 0.103127584 0.10302882
-0.06483209 0.09131117 -0.040426537 -0.02682899 -0.05724354 -0.011768475 0.06718701 0.011080787
0.021646962 -0.07657014 0.03400843 0.085459694 -0.05137551 0.0059805214 0.009278849 0.06480484
-0.03724867 0.076973885 -0.003087595 0.09417991 -0.044898093 -0.026333183 0.03639415 -0.11646561
0.0945037 -0.021712467 -0.06454557 -0.061910063 0.0026287735 -0.015873492 0.011954188 0.020113483
-0.07937896 0.018909812 -0.03252022 -0.08422065 0.08468343 -0.07116982 0.10010862 0.068443075
0.04690604 -0.083608195 -0.037940428 -0.058768436 0.049597487 0.11645308 -0.10454452 0.08217421
0.08449268 0.07427928 0.06359957 -0.042248502 0.11514886 0.10882059 0.10965371 0.022308692
0.07896434 0.11951451 0.0081731975 -0.076931745 0.08044663 -0.04691042 -0.06823544 -0.12007409
0.000596866 0.022861615 -0.11218819 -0.009389684 -0.045466065 0.046563044 0.10523102 -0.010198355
-0.016839594 0.052186593 0.07383484 -0.094128504 0.080505624 -0.100984305 -0.082883075 0.04461427
-0.011083722 0.025338262 -0.08407931 -0.11082627 0.09300274 -0.08679649 -0.0052870363 0.00021260977
0.03183578 0.09801681 -0.0031249225 -0.03010048 -0.119023204 -0.015557662 0.027912691 0.11935201
0.04400164 -0.0987692 -0.087175205 -0.011765897 -0.10446687 0.036432073 0.07146557 -0.112277076
0.033435613 0.07400991 -0.05507797 0.032242358 -0.10532126 -0.028588876 0.11710653 -0.0675887
-0.06839189 -0.076369435 0.02707015 0.027733713 -0.09497632 0.055141732 0.12252034 0.12296364
-0.07165873 0.07637581 -0.11317977 -0.09818183 0.06945269 -0.076116025 0.117228866 0.07161394
-0.011237055 0.093204826 -0.06781742 0.037155613 -0.08772896 -0.029189974 -0.1227916 0.097428724
0.0707103 -0.10790689 -0.08709188 0.08240947 0.051310837 -0.015495822 0.08429921 -0.057190716
0.004553899 -0.044407725 -0.019174293 -0.047790095 0.005832687 0.12033947 -0.08151813 0.025839046
0.09357034 0.06945856 0.013219222 -0.07515173 0.11568621 0.08526412 0.094270974 -0.090329945

weight_hh_l0 f4 [192, 64]
00000000: 048d 2d3d 38d4 f13c b481 573d a80e f8bd
00000010: 8c0a c43d fe01 d23d 80c1 f2bc c6d3 8c3d
00000020: 5cd7 dbbd 8615 d53d 8865 b7bc 9c1d d83d
00000030: 0a7a fc3d 847c a8bd 06d8 d5bd fc75 ca3d
00000040: 42ee c53d f42a a03d 127d a73d 60b3 bd3b
00000050: 1cb7 debd 20ef b33b 005f 213b 3c85 41bd
00000060: 9270 c43d 72a7 dd3d 9056 043c e68e acbd
00000070: d027 5d3d 74b4 4abd 10ce 40bd 1446 9ebd
00000080: 2624 813d 14f0 053d 54f5 72bd c0ae d1bc
00000090: ba31 8a3d 4851 8e3d c4d8 e1bd 6c40 923d
000000a0: e0f9 ac3c 1c72 3e3d d8ec c43d e0ee 81bc
000000b0: 8451 10bd 2c6f 30bd 80a6 723b 30db be3c
000000c0: 445f 6f3d bcec 6b3d c415 363d 00d7 e4bc
000000d0: b89d ac3d 80f7 42bb 300f 7c3c b48e a4bd
000000e0: d4e2 833d b4ee 40bd 3ef1 96bd 8a94 a13d
000000f0: 341d ddbd 8040 a3bb 1cd2 1cbd 200f cabb
00000100: c0cf 163b 9ce8 3abd 405f eb3d 20a7 babc
00000110: 3abe 95bd ec8c cdbd fa87 d53d 802a 4fbc
00000120: 90eb d23d 68e6 b9bd 4a8e c5bd 2006 41bc
00000130: 38bf a7bd e4b8 9b3d d206 c13d 507d 393d
00000140: ca80 de3d 80be 7ebb bca1 8cbd c89c 8d3d
00000150: 8896 103d 2884 a7bc d4d3 3c3d 7047 58bd
00000160: a0d0 c7bb b612 babd 32e3 fabd 9a02 be3d
00000170: 4c2f 073d 1c48 9c3d f4ae f8bd 6c7c 23bd
00000180: 0829 c0bd e80e c7bc 1095 c4bc ccb9 e23d
00000190: 302f 5f3c 2e1b c63d b807 433d 46c7 9bbd
000001a0: 7870 ef3c d441 cbbd 5ea6 c83d 8a5b b5bd
000001b0: 80ad fb3d 54cc 413d a8f8 14bd 72c9 a23d
000001c0: 6822 6c3d 8425 f63d 78ee d93c 507a c63c
000001d0: 845d 12bd 8450 7dbd 38ad f5bc 26c3 cc3d
000001e0: c030 6f3d 7c78 eebd 6054 6ebd 0aa7 b03d
000001f0: 607b c33c 9000 d03c 10e3 e93c ae5a b13d
00000200: c0bd 3dbb e44f fc3d cce8 e1bd 06be ccbd
00000210: f233 cb3d b2f9 97bd 86a7 a9bd 3816 3abd
00000220: e452 8c3d 6cfc e93d a476 233d 18d8 2ebd
00000230: de1e 9a3d 00e0 113b 125c f5bd 92ef a4bd
00000240: b85b ba3c c0bc d03d 4055 1fbb b007 fb3c
00000250: 20ec 9e3d c012 213b 1052 fdbc 6070 a33d
00000260: 006d f93b 5aae cfbd 2a91 a23d 3cb6 36bd
00000270: bc7a 20bd 6835 a53c b01b 8cbd 88c9 c4bd
00000280: ec32 5f3d 6808 8abc f046 663d d062 183c
00000290: d891 d83c a825 e43d b09d 183c d26d d13d
000002a0: 9035 b6bc 54f0 5fbd ec76 793d 58af 56bd
000002b0: 78af adbd 84fb 253d 6c16 b9bd 8cee 113d
000002c0: c029 833b f0ee c43d e800 65bd 3002 553d
000002d0: 4cae b53d fe46 d1bd a4a1 9a3d 1800 afbd
000002e0: f0db 723d 486f c4bc 72b9 b5bd 044a 4dbd
000002f0: 607c b5bd 409a fd3d ec0f dc3d c0cf 62bb
00000300: 60d8 8ebc e013 e33b e4f7 0fbd f4e7 cf3d
00000310: 54d6 4c3d c6db dcbd 7826 7e3d 1842 90bd
00000320: b0e3 083c 8c07 653d 0874 87bc 9082 8a3c
00000330: 708d e73d 40e8 6abd 6454 ce3d 3aff b73d
00000340: d829 ad3c b64b d6bd e45e c7bd 961b c33d
00000350: bcd3 f73d f8b5 dcbc a8bc 6f3d 483e cb3d
00000360: c07f 723d 7648 f23d f8b4 05bd 0877 b93d
00000370: f86b 0f3d 609c d5bb d87f 633d a83f 713d
00000380: bad7 a8bd 5249 833d 301b 34bc bc83 563d
00000390: 480c 603d a02f 31bc 80af 213b c410 bbbd
000003a0: c29a e6bd cebc 983d a886 053d b8b0 8abd
000003b0: c0cf f9bc 1a5d c23d 2088 453d dafb 9abd
000003c0: ac1b 00bd 4cbe f53d ee76 86bd 9641 edbd
000003d0: 7cbe 3a3d 640a 6f3d 2825 39bd e419 35bd
000003e0: 1e65 d1bd 5a71 ccbd d447 a73d 8009 ea3b
000003f0: c402 5b3d ae4e dabd 5494 32bd 60f8 fabc
0.04237081 0.02952014 0.05261393 -0.121121705 0.09572324 0.10254286 -0.029633284 0.0687633
-0.10734436 0.10404496 -0.022387281 0.105525225 0.123279646 -0.082268745 -0.10441594 0.09885785
0.09664585 0.07820693 0.08178152 0.0057892054 -0.10874769 0.0054911524 0.0024623275 -0.047246203
0.095917836 0.10822953 0.008077279 -0.08425693 0.053993046 -0.0494885 -0.047071517 -0.0772821
0.06305723 0.03269966 -0.059315994 -0.025596023 0.06747766 0.06949097 -0.11027673 0.07141194
0.021115243 0.046495542 0.09615487 -0.015860975 -0.03523399 -0.04307477 0.0037025511 0.023297876
0.05844046 0.057598814 0.04445435 -0.027934551 0.0842852 -0.0029749572 0.01538448 -0.08035031
0.064397484 -0.047102645 -0.07370232 0.0788966 -0.10796586 -0.0049820542 -0.038286313 -0.006166354
0.0023012012 -0.04563199 0.11492777 -0.02278477 -0.073116735 -0.10036644 0.10426326 -0.01264441
0.10298836 -0.0907715 -0.0964628 -0.0117812455 -0.08190769 0.076036245 0.09425129 0.045285523
0.10864408 -0.003887087 -0.06866786 0.06914669 0.035299808 -0.02044876 0.046100453 -0.052802503
-0.006097868 -0.090856 -0.12250365 0.0927784 0.03300409 0.07630941 -0.12142745 -0.03991358
-0.09382826 -0.0242991 -0.02399686 0.11070594 0.01362209 0.09673153 0.047614783 -0.07606368
0.029228434 -0.09924665 0.09797357 -0.0885535 0.12288952 0.047314003 -0.03636995 0.07948579
0.05765 0.12018874 0.026602969 0.024228245 -0.035733715 -0.061844364 -0.029989824 0.09998159
0.0583961 -0.11644074 -0.058185935 0.0862561 0.02386254 0.025390893 0.028550655 0.08659874
-0.002895221 0.123199254 -0.110307306 -0.099971816 0.09922017 -0.074206725 -0.08283906 -0.045431346
0.06851748 0.11425099 0.039908066 -0.04268655 0.07525419 0.0022258759 -0.11980452 -0.08053507
0.022748813 0.10192251 -0.0024312288 0.030643314 0.07759881 0.0024577826 -0.03092292 0.07980418
0.0076118708 -0.10140677 0.07937844 -0.044607386 -0.03917955 0.020167068 -0.068412185 -0.096087515
0.054491922 -0.016849712 0.056219995 0.0093009025 0.026436731 0.11139995 0.009314939 0.10226025
-0.022242337 -0.054672554 0.06090443 -0.052413315 -0.08480734 0.040523067 -0.0903748 0.035627887
0.0040027797 0.09615886 -0.055909067 0.05200404 0.08871135 -0.10218619 0.07550362 -0.0854494
0.05929178 -0.023978844 -0.088732615 -0.050119415 -0.08861613 0.123829365 0.10745224 -0.0034608692
-0.01743716 0.0069298595 -0.035148516 0.101516634 0.050009087 -0.10784106 0.062048405 -0.070438564
0.008355066 0.0559154 -0.01653482 0.01690796 0.11306274 -0.057350397 0.1007469 0.089842275
0.021138117 -0.104636595 -0.09734896 0.09526746 0.12100932 -0.026942238 0.058529526 0.099239886
0.059203863 0.11830227 -0.03264329 0.090559065 0.035015076 -0.0065188855 0.055541843 0.058898598
-0.082442716 0.06410469 -0.01099281 0.052371725 0.054699212 -0.010814577 0.0024671257 -0.09134057
-0.112599865 0.07457887 0.03259912 -0.06771988 -0.03049457 0.09490414 0.048225522 -0.07567568
-0.03127639 0.11999187 -0.06565653 -0.11584775 0.045591816 0.05835952 -0.04520145 -0.044214144
-0.10224365 -0.099825576 0.08167997 0.007142246 0.053469434 -0.10659538 -0.043598488 -0.030636013

bias_ih_l0 f4 [192]
00000000: 6020 edbc f68d 8abd e055 b1bb 500d 3f3d
00000010: 7afb 8bbd 66c8 c1bd 407a 1e3d 920a e53d
00000020: e6a0 c53d 1ebc f23d 5894 c0bc b878 893d
00000030: 4ada 93bd e606 f33d 4093 a83b 40b2 403d
00000040: 3819 8a3c 7a22 f1bd 28f2 3b3d 302a cd3d
00000050: 30f0 11bd 7077 ac3c 883b 81bd 5ca3 d13d
00000060: 08ea 5dbd 506c ebbc 9a69 c9bd 04ce f7bd
00000070: 5038 b93d 141e 843d 9ca6 7cbd b451 e13d
00000080: 20cc f1bb f8a5 0fbd 08db 143d 42bc 97bd
00000090: c0bc 0fbc 286f 98bd 4050 2ebc 688c 91bd
000000a0: 9806 d23d 6e29 9d3d 506b b63d bc24 57bd
000000b0: b005 89bc c491 c33d 78b4 39bd 6ce3 d5bd
000000c0: d089 fdbc 604c 863b 5c16 a6bd 70bb 7dbc
000000d0: d817 853c 3ede 98bd a423 443d 4067 713b
000000e0: 24f8 753d 8435 273d 10eb cc3c d8ed 2dbd
000000f0: c0b7 61bc beef 82bd e08a e1bd c8f3 a3bc
00000100: 94e9 33bd 104b 913c e0f4 0e3c a437 37bd
00000110: c6e4 fc3d 76ea e6bd 7887 b53d 2e83 eabd
00000120: b8cb d9bc f013 44bc 96df 953d 7ab0 933d
00000130: d07f a83d 88b6 ce3d 187e 83bc 603b 78bd
00000140: d679 d0bd ce12 943d 0e45 f4bd 20fa e23d
00000150: 4003 a93c ee2f 9dbd cc95 92bd 4c31 6cbd
00000160: 8ccd b3bd 9058 7f3c 2000 66bd 5adf 933d
00000170: 447f 42bd 54c1 163d 8067 003d 7c44 2a3d
00000180: a066 503c 8c91 b4bd dc1d 8f3d 8cef 36bd
00000190: 9822 033d e83d d83d c8e2 3a3d fa5f 823d
000001a0: 9476 80bd 4c01 ac3d 50b0 623d e091 4dbc
000001b0: 78ce e13c 7c91 25bd 407b f4bc 3481 0e3d
000001c0: 4023 abbc 966d 8cbd acdb 76bd 9646 d8bd
000001d0: 28c8 da3d dc05 e23d 889f be3d a4a3 4f3d
000001e0: 9861 77bd 2ce1 a43d 1674 c7bd e0b2 c23b
000001f0: d02c 9fbd b0ce c5bc 5659 abbd 943e 6ebd
00000200: 0ce1 f03d 6c7c aebd 90af 923d 4e58 e33d
00000210: ccd3 943d aca8 6dbd 78f6 093d 8431 ed3d
00000220: b471 28bd a097 11bd 8abf a5bd 0e64 bebd
00000230: 0032 81ba 2c5e a63d 20cf 65bd a072 63bc
00000240: 54a6 79bd d012 633c 803b 953b 0030 1f3d
00000250: 0c9f bcbd 68c5 ea3d acdc 7b3d 0a67 97bd
00000260: 00a7 66ba 8ad1 a6bd 3e21 d73d 227b 93bd
00000270: 24f1 54bd b6ab dfbd 60b0 fabc f0ce e73c
00000280: 76d5 803d a035 93bb 5c0d 2f3d 46ee b1bd
00000290: 40c0 903b 8ce4 84bd b67b c23d 8856 d1bc
000002a0: d848 b93c 38ad c0bd 08ce a63c 2024 14bd
000002b0: fae3 923d 0272 e2bd f00d 92bc 3c67 46bd
000002c0: 42a8 c03d 8c77 a83d 64eb 4b3d c4c7 123d
000002d0: 8002 273b 685a eabd d8e5 05bd 5c09 31bd
000002e0: e071 ae3c d019 d53d c04a cabb c413 17bd
000002f0: 142a 1cbd a08d 5f3d f8bf 2e3d 024d a33d
-0.028946102 -0.06765358 -0.0054118484 0.046643555 -0.06835075 -0.09462051 0.038690805 0.11183657
0.096498296 0.11852287 -0.023508236 0.067124784 -0.0721937 0.1186655 0.0051445067 0.047044992
0.016857728 -0.11774154 0.045885235 0.10017812 -0.03562945 0.021053046 -0.06310183 0.102362365
-0.054178268 -0.02873817 -0.09834595 -0.12099841 0.09043944 0.064510494 -0.06168233 0.11001912
-0.00737907 -0.03507039 0.036341697 -0.07408954 -0.008773029 -0.07443076 -0.01063925 -0.071068585
0.10255164 0.07673918 0.08907187 -0.052525267 -0.016726345 0.09549287 -0.045338124 -0.10443768
-0.030949503 0.00409846 -0.081097335 -0.015486583 0.016246721 -0.07464264 0.047885552 0.0036835223
0.0600511 0.04082252 0.02501443 -0.042463154 -0.01377672 -0.063933834 -0.110128164 -0.020013705
-0.04392393 0.017735988 0.008725375 -0.044730797 0.123483226 -0.112751886 0.08863729 -0.11450802
-0.026586398 -0.011967644 0.07318036 0.072113946 0.08227503 0.10093409 -0.016051337 -0.0606035
-0.10179488 0.07230149 -0.11927234 0.11082864 0.020631433 -0.076751575 -0.07157478 -0.0576642
-0.08779439 0.01558508 -0.056152463 0.07220335 -0.04748465 0.036805466 0.031348705 0.041569218
0.01271978 -0.08816823 0.06988117 -0.044662043 0.032015413 0.10558683 0.04562643 0.06365962
-0.06272617 0.08398685 0.055343926 -0.012546986 0.027564272 -0.040421948 -0.029843926 0.034791186
-0.020890832 -0.06856839 -0.06026809 -0.10560338 0.10682708 0.11036274 0.09307772 0.05069317
-0.060395807 0.080507606 -0.097389385 0.0059417337 -0.07772219 -0.024146408 -0.08366649 -0.058165148
0.11761674 -0.08519825 0.07162392 0.11100827 0.072669595 -0.058022186 0.033682317 0.1158171
-0.04112406 -0.03554499 -0.08093174 -0.09296428 -0.000985682 0.081234306 -0.056105733 -0.013882309
-0.06094964 0.013859466 0.004554212 0.038864136 -0.09210023 0.114634335 0.061489746 -0.073927
-0.00087986887 -0.08145435 0.10504387 -0.0720122 -0.051987782 -0.10921423 -0.03060168 0.028296918
0.062907144 -0.0044924766 0.04273735 -0.08688025 0.0044174492 -0.06488904 0.09496252 -0.025553957
0.022617742 -0.09408039 0.020361915 -0.036167264 0.07172389 -0.110569015 -0.017828912 -0.048438296
0.09407093 0.08225927 0.049785033 0.035835043 0.0025483668 -0.11443025 -0.0326899 -0.043221816
0.021294534 0.10405314 -0.0061734617 -0.036884084 -0.038126066 0.054578424 0.042663544 0.079736724

bias_hh_l0 f4 [192]
00000000: cc62 453d 08f2 3a3d d84f f7bd 60a0 803c
00000010: da0c dfbd 0adf debd 10c0 b6bc 52ec a6bd
00000020: 32e8 c6bd 408a 56bb 1ec9 b7bd 58f1 bcbd
00000030: 80d8 75bd c0fa 7dbc d022 323d a0f3 9ebc
00000040: 102b 87bd 5846 e93c a204 87bd 001c a3bc
00000050: bc12 f93d 5805 9cbd 4e4b 8ebd ac9b 26bd
00000060: a0a2 b73b 209d 583c 3c78 f83d 1ef1 a43d
00000070: 349b 09bd 1414 4bbd 58dd 0abd 840c dabd
00000080: 2a53 bc3d 1a0b e8bd 7852 b6bd b067 e83d
00000090: d06d 62bc ca1e d83d ecc7 ba3d d8d6 80bc
000000a0: f003 cabc ca50 a23d 002f f83c dee7 d33d
000000b0: c47f 46bd f278 a9bd a061 c33b b4ce 38bd
000000c0: 5cda adbd 90ae 3f3c 6081 84bb c0f0 0b3c
000000d0: 4e9d e63d a0f2 bdbb a042 e7bc fcc9 22bd
000000e0: 18ea 453d 00aa 59ba 20d2 333c bee2 b73d
000000f0: 8818 cf3c 1847 d93c de71 c4bd d683 9dbd
00000100: 6a99 813d d856 22bd fc6c 84bd e8c0 623d
00000110: c836 a9bc a0a2 24bc 6051 fa3b 404e 613c
00000120: 78d0 d3bc 503c e23d c82e 46bd d83f b0bc
00000130: 9c4c d8bd d8bf f5bc b4ee 69bd a865 e3bc
00000140: 40cf c5bc 9056 21bc 4817 f2bc ba63 ee3d
00000150: 48bd a03d dc33 00bd a264 bf3d 6e8c f83d
00000160: 9e54 f9bd f43f 653d a246 813d 604f 233c
00000170: 6a19 f63d c005 c9bb f058 1a3c a000 bf3b
00000180: ecbf f9bd a007 3d3c 48d9 8bbd 26b0 a5bd
00000190: e4f1 74bd 0026 0dba 40a1 5dbb 2864 5b3d
000001a0: a887 98bc e045 a0bd c4e4 f3bd 7279 db3d
000001b0: e4e7 51bd e048 8b3c 60b9 103d c02f 883c
000001c0: d80c f83d 181e 9b3c e0e5 0e3d 3405 623d
000001d0: fca7 a4bd 9c2a 983d ec13 bebd 7604 debd
000001e0: 72c9 8c3d 0017 be3a 4ea4 d53d 183e f4bc
000001f0: 8c72 f63d 9001 de3d ba39 9dbd e0d3 c03b
00000200: f24a d13d 7845 3ebd c236 813d b8bc b8bc
00000210: b85a eabd d0a0 903c a031 183d c814 963d
00000220: 547d e9bd fc3f 973d 844f 61bd 70a7 22bc
00000230: 2e4d cb3d c0bc 3cbc b4ba 60bd c003 b73d
00000240: 9084 e4bd 607f 9bbb e45e fabd 08b5 613d
00000250: 64bf bcbd c0a1 00bb 78db 7b3d 0aee 833d
00000260: 781a 8e3d d6c5 c6bd e8a6 b0bd a891 f73c
00000270: 1ca4 c6bd 20e8 d1bb 605a 3d3d aee9 d03d
00000280: 26e7 983d 00e6 ad3b 8855 7e3d 8441 16bd
00000290: 0425 103d 0427 823d 6043 08bc 8039 143c
000002a0: 02e1 adbd 9020 063d 6a1e d7bd 64f4 723d
000002b0: 8e77 893d 3ec8 c63d 42bd acbd ecb2 69bd
000002c0: ac31 80bd 14e5 bebd a075 76bc d43a 2e3d
000002d0: def2 86bd 90d0 44bc ccbc 91bd 0098 0f3d
000002e0: fcab 27bd 82da fcbd a480 2c3d f801 563d
000002f0: 6812 95bc 36b0 a4bd 8097 d63c d0d5 c0bd
0.048189923 0.045640975 -0.12075776 0.015701473 -0.10891123 -0.10882385 -0.02230838 -0.08150543
-0.097122565 -0.0032736212 -0.08973907 -0.0922572 -0.060020924 -0.015501678 0.04349023 -0.019403279
-0.066000104 0.028475925 -0.065926805 -0.019910812 0.121617764 -0.07618207 -0.06947957 -0.040675804
0.005604103 0.013221055 0.12132308 0.08053802 -0.03359528 -0.049579695 -0.033902496 -0.106469184
0.0919555 -0.113302425 -0.089024484 0.11347902 -0.013820127 0.105527475 0.09120163 -0.015727445
-0.02466008 0.079255655 0.030295849 0.103469595 -0.04846169 -0.082750216 0.0059625655 -0.045119002
-0.08488914 0.011699334 -0.004043743 0.008541286 0.11260472 -0.0057967454 -0.028230011 -0.03974341
0.048318952 -0.0008303225 0.010975391 0.089787945 0.025280252 0.026523158 -0.09592031 -0.07691161
0.063280895 -0.039633602 -0.064660996 0.05535975 -0.020656005 -0.010048538 0.007639095 0.013751566
-0.025856242 0.1104666 -0.048384458 -0.021514818 -0.10561487 -0.029998705 -0.05711241 -0.027758434
-0.024146676 -0.009847298 -0.029552117 0.11640115 0.078486025 -0.031299457 0.09345366 0.1213616
-0.121743426 0.055969194 0.063123 0.009967655 0.12016566 -0.0061347187 0.009420618 0.005828932
-0.12194809 0.0115374625 -0.068285525 -0.08090238 -0.059800997 -0.00053843856 -0.0033818036 0.053562313
-0.018619373 -0.078258276 -0.11908868 0.10716523 -0.05124654 0.017002523 0.035333037 0.016624331
0.12111825 0.018935248 0.034887195 0.055180743 -0.08039853 0.07430002 -0.092811435 -0.108406946
0.0687436 0.0014502704 0.10431729 -0.029814765 0.12033567 0.10840142 -0.07677026 0.0058846325
0.10219373 -0.04645297 0.06309272 -0.022550926 -0.114430845 0.017654806 0.0371567 0.073281825
-0.114008576 0.07385251 -0.055007473 -0.0099276155 0.0992683 -0.011519611 -0.054865554 0.08936262
-0.11158097 -0.004745409 -0.1222513 0.055104285 -0.09216192 -0.001962766 0.0614886 0.06441887
0.06938642 -0.09705703 -0.08625585 0.030220821 -0.0969927 -0.0064058453 0.046228766 0.10200821
0.07465963 0.005306959 0.062093288 -0.036683574 0.03519155 0.06355098 -0.008316845 0.009046912
-0.084901825 0.032745898 -0.10503848 0.0593151 0.06712256 0.09706162 -0.084345356 -0.0570554
-0.06259474 -0.09321037 -0.015042692 0.04253657 -0.06589292 -0.012012616 -0.07116088 0.035057068
-0.0409355 -0.123463646 0.04211487 0.05224797 -0.018197253 -0.08041422 0.026195288 -0.094157815

weight f4 [5, 64]
00000000: 1e63 dabd 185d 64bd 18f2 e03c 74b6 ec3d
00000010: cc90 c4bd 50a8 aebc 68f2 e83d d07a 64bd
00000020: 5e0e b4bd ba63 b7bd e0de d0bd f885 d3bd
00000030: 5498 c6bd e874 6f3d 444b 0e3d 98af 723d
00000040: d028 91bd 44ef 76bd 62ca b8bd 381e bebc
00000050: 8015 f3bb e4ce 89bd 4422 5f3d 38fa 06bd
00000060: 3cc7 cb3d e073 543c 18b0 e43d a04f fb3d
00000070: c046 d0bd f6a4 a0bd d8d2 74bd 367d b03d
00000080: b60e e9bd e40d fbbd acd8 b2bd 64a6 b93d
00000090: e8da 10bd 8632 fdbd e060 aebc e842 de3c
000000a0: a405 e23d e04d 083c 2ac6 b03d 5e00 e33d
000000b0: 080b d53d 8269 d1bd 8e62 d9bd 489e d0bc
000000c0: c0d4 533c eca8 1fbd 8a9d fcbd b220 fc3d
000000d0: 1436 67bd 965a c53d e897 d63d a89f c73d
000000e0: 4ee9 f5bd a2d2 fd3d 88d9 ca3c d0fa 933c
000000f0: 321d c8bd 7625 b13d e89a f73d 2c11 c03d
00000100: 3805 ec3d b85f a73c 28a3 98bd a07c a13d
00000110: eaa6 c23d 6026 debc 40c9 a63b e02e 8f3c
00000120: fa4a 8ebd a8e5 8fbc 58d8 90bc d0a1 263c
00000130: de36 debd 8856 f03d d06d 6ebd 8005 f53b
00000140: 529c 993d b4f6 0f3d 0868 d3bd 6002 d1bc
00000150: 200f ce3b ec20 f23d 0ca8 413d 3c3c 483d
00000160: c4d8 0d3d b8e2 eebc 1824 9cbd 005f ef3b
00000170: 20c7 303c be21 abbd 32cd c7bd 182f bc3c
00000180: 789e ae3d 1ca0 1fbd 8059 84bc 000d db3b
00000190: 18a6 c73c 2c9b 213d e47a d2bd c0b1 90bc
000001a0: 7c20 8d3d c0a6 58bb fad8 d53d 64a5 5d3d
000001b0: e408 3c3d 9003 68bd fc73 81bd 76c9 91bd
000001c0: 4a46 f33d 6039 e6bb f017 393c 0c8b 303d
000001d0: 405a 74bc 2cc2 0dbd bccb 833d a8a3 4e3d
000001e0: 3cdc 32bd 0062 b33b 0a6d 81bd 78a2 bf3d
000001f0: c80b 4fbd 3c4e 713d 0cc6 e53d 503e 53bc
00000200: e0cc 1f3c 44c4 84bd 6cfb d13d 603f abbd
00000210: f682 9c3d cc76 453d 1e03 a9bd d49d 2e3d
00000220: 50da 343c 2c87 bcbd a6f2 efbd c2a9 b23d
00000230: 862e 933d d832 613d 12b1 ba3d 60f0 263d
00000240: 9e52 b23d 2ccc 193d 5e6e d7bd 34d6 67bd
00000250: f0a1 a8bc 028a a93d f4b6 503d 62f2 e0bd
00000260: 88cf a53c 8af7 87bd 8001 29bc a060 ab3d
00000270: 1caa 50bd 486d e9bd ecea 073d 4e48 8dbd
00000280: 9e02 92bd b000 eb3c 7e9d b6bd 9abe 8c3d
00000290: 2628 8c3d d088 353c 7475 a03d b036 41bd
000002a0: 86d5 963d 60f5 ca3d 28e0 d9bd 7665 de3d
000002b0: 28a1 27bd 7848 cc3d e6c3 95bd 80f7 d23a
000002c0: b85e c1bd 1221 ee3d 18f5 803d 74b7 5a3d
000002d0: cab7 de3d e859 5ebd b494 963d 083e f23d
000002e0: e646 cc3d f8c4 bfbc 009e cb3a 6c6f e23d
000002f0: 6869 a33c 0487 bfbd cc7d 563d b0eb 273d
00000300: bcdc a1bd ae51 f53d 1049 65bd 183c 853d
00000310: 2062 0f3c f05b 443d 0826 f93c 1839 6cbd
00000320: 2a22 e1bd acfc d6bd b04c 15bc e23c d3bd
00000330: c02c 7d3c 40bb 553d 20e3 52bc c07a acbc
00000340: 50cc c03c 1ee2 f0bd e464 6cbd 58ff 443d
00000350: 3c88 833d 8af4 a73d 4ee4 b23d a4e6 00bd
00000360: 1064 97bc 0053 ef3c 7069 7f3d 1005 40bd
00000370: aa04 933d 980a cb3c 56d3 9bbd 5c99 7a3d
00000380: 40e7 6f3c 4a69 9d3d 4011 0cbb 3095 43bd
00000390: c8fc bdbc eee8 f3bd 36eb 9e3d b6b6 ef3d
000003a0: ea1b 92bd 4c25 ef3d b0af 203d 78e7 40bd
000003b0: 80e7 a63c aecc 873d f8ea 4bbd 5097 883c
000003c0: f014 2cbd c8cf d0bc d6a7 a8bd da64 f9bd
000003d0: 9693 80bd 906a d33d e01b f8bd 2cd1 45bd
000003e0: 7074 26bd 149d 7c3d 4421 91bd 649c ecbd
000003f0: 6473 2bbd 648a b23d 1631 95bd 008d 793a
-0.10663436 -0.055752844 0.02745919 0.11558238 -0.0959793 -0.021320492 0.1137436 -0.055781186
-0.08791803 -0.08954568 -0.1019876 -0.10328287 -0.09697023 0.0584611 0.034739748 0.05924949
-0.070878625 -0.060286775 -0.090229765 -0.023207769 -0.0074183345 -0.067289144 0.054476038 -0.03295347
0.0995011 0.01296708 0.111664 0.12271047 -0.101697445 -0.07843964 -0.05977139 0.08617632
-0.11379759 -0.12258509 -0.08732733 0.090649396 -0.035365015 -0.12363152 -0.021286428 0.027131513
0.11036232 0.008319348 0.08631547 0.110840544 0.10402495 -0.10225202 -0.10614501 -0.0254661
0.0129291415 -0.038979456 -0.12334736 0.12310924 -0.056448057 0.096364185 0.104781926 0.09747249
-0.1200739 0.12393691 0.02476193 0.018063933 -0.097711936 0.08649723 0.12090093 0.09378275
0.11524433 0.020431384 -0.074529946 0.078850985 0.095044926 -0.027117908 0.005089909 0.017478406
-0.069478944 -0.017565563 -0.017681286 0.010170415 -0.10850309 0.117352545 -0.058210194 0.0074774623
0.07500519 0.035147384 -0.10322577 -0.025513828 0.006288424 0.118226856 0.047279403 0.04888557
0.034630552 -0.029160842 -0.07624072 0.007305026 0.010789663 -0.08356045 -0.09755935 0.022971675
0.08526319 -0.03897105 -0.016155958 0.0066848993 0.024371192 0.039454624 -0.10277346 -0.017662883
0.068909615 -0.0033058375 0.104417756 0.054112807 0.045906916 -0.056644022 -0.063209504 -0.07118504
0.11878641 -0.0070258826 0.011297211 0.043101355 -0.014914095 -0.034609005 0.064353436 0.050449044
-0.043667063 0.005474329 -0.06319626 0.0935716 -0.050548345 0.0589125 0.11219415 -0.012893274
0.009753436 -0.06482747 0.10253033 -0.08361697 0.07642166 0.048208997 -0.08252548 0.042630985
0.011038378 -0.092054695 -0.117162034 0.08723785 0.07186608 0.05498013 0.09115805 0.040756583
0.08707164 0.03754823 -0.10519098 -0.056600764 -0.02058503 0.08278276 0.050955728 -0.10983731
0.02024056 -0.06639011 -0.010315299 0.08368039 -0.05094348 -0.11397797 0.033183023 -0.06898557
-0.071294054 0.028686851 -0.08916758 0.06872292 0.06843595 0.011079982 0.078349024 -0.047171295
0.07364945 0.09910083 -0.106384575 0.10859196 -0.040925175 0.0997476 -0.07312755 0.0016095489
-0.09441894 0.116274014 0.06296748 0.05339761 0.10874899 -0.05428496 0.073525816 0.11828238
0.0997446 -0.023409352 0.0015534759 0.11056408 0.019947723 -0.09351924 0.052366063 0.040996253
-0.0790343 0.1197847 -0.05597788 0.065056026 0.008751422 0.04793924 0.030413643 -0.057671636
-0.109928444 -0.10497412 -0.009112522 -0.10314347 0.015452564 0.05218053 -0.012871534 -0.021054626
0.023534924 -0.117618784 -0.057713404 0.048095077 0.06422469 0.08200939 0.08734952 -0.031469956
-0.01848033 0.029214382 0.062356412 -0.046879828 0.07178624 0.024785325 -0.076086685 0.06118141
0.014642537 0.07686098 -0.0021372586 -0.0477497 -0.023191825 -0.11909662 0.07759707 0.11704771
-0.071342304 0.11677036 0.03923005 -0.047095746 0.02037406 0.066308364 -0.04978463 0.016673714
-0.042012155 -0.025489703 -0.08235137 -0.12177439 -0.0627815 0.103230596 -0.12114692 -0.048295185
-0.040638387 0.06167324 -0.07086423 -0.11553267 -0.041858092 0.08717802 -0.07284753 0.0009519607

bias f4 [5]
00000000: b6f6 9f3d 54f7 aabd 4044 65bb e825 e2bd
00000010: a099 c4bb
0.07810728 -0.08347955 -0.0034983307 -0.11042386 -0.005999759
