char_emb/code/model_temp.pt (torch_old, 334093 bytes, 7 tensors)

weight f4 [80, 20]
0.08718409 0.12070129 0.15295371 0.5501991 -1.2817119 -0.54197365 -0.64168817 0.114955656
-1.0805999 -0.23735265 0.10268716 -0.1054061 -0.1424243 1.7450604 -0.18311958 -0.37232935
-0.46089378 -1.3541129 -0.22249176 -0.010606497 0.0554175 -0.2857165 -0.5533253 -0.77018505
-1.0135574 -0.58191913 2.7486968 1.3884016 0.21345583 -0.449743 -0.1320443 -0.90203834
1.4629412 1.2398878 0.7478167 0.52457666 0.18932164 -0.83632433 -0.37414 0.059119157
0.6900825 0.5244831 -1.0324389 -0.289628 1.5254467 0.6962704 -0.28577328 -0.63800293
-1.2655544 0.3192087 -1.4387907 1.3158916 0.2554781 0.16065402 2.041297 0.45791292
1.2072021 -1.1846126 0.9429948 0.63236326 -1.5224615 0.38846633 0.16957183 -0.2561634
2.7367537 0.40628886 1.755547 -0.77737087 0.8218251 0.16093254 0.9303135 0.24787423
-0.21172497 0.5717708 1.8186194 -0.51011443 0.5565198 -0.32660764 1.3321884 0.9290227
-0.80327207 -0.6319565 -1.9031307 -0.56392646 -0.18358706 -0.7216153 0.792764 0.79945225
-0.27349702 -1.4767821 -0.084531456 0.97282493 0.048184436 -0.38328233 1.2249607 -0.570759
0.8642358 0.23820533 -1.0465803 1.1224343 -0.43177792 -0.38139397 1.1782744 1.6129194
0.019399514 0.9151568 -0.3598558 0.7993114 0.9523117 0.69873 -0.38897875 -0.12593287
-1.9351228 0.9824661 -0.98377097 0.19259731 -3.213935 0.32205895 0.19422394 1.3996414
1.2258348 1.7509235 -0.4238204 -1.0399332 -1.4098225 -1.046383 0.26623884 -0.14043425
-1.4739405 0.33319208 -1.2589431 1.922708 -0.28464353 -1.0172355 -0.99909866 -0.5457575
0.28282267 0.98116875 -0.7422588 -0.67676866 1.2048634 -1.1090074 1.813075 0.3147593
-0.8634506 0.34681976 -0.67770004 -0.78431135 -0.3417413 -0.13995259 1.4906152 1.8708096
-1.2180293 -1.2375028 -0.557822 -0.7552008 -0.90323395 -0.81605715 -0.13085623 0.16605988
1.9571888 -0.12892301 1.5523065 -1.0852385 0.59282386 0.36311787 1.273159 -0.64440024
-0.0904999 -0.76434785 -1.0203038 -0.6398997 2.1984437 2.885941 3.4306977 -2.4961202
3.6166852 -1.6812263 0.046886407 -1.272655 0.9700601 -2.2821567 2.1803973 -0.5338718
-0.34943557 -0.5418973 1.3930063 -0.9213845 1.4997542 -0.82546467 0.11606609 -2.923074
-0.7300425 0.41292718 -1.0515429 -0.54154944 0.6835056 -0.8106797 -0.8612269 0.027309962
1.2414299 0.36843145 -0.20183924 0.68749505 0.6373825 -1.8969442 0.39435208 0.1831736
0.5770313 -1.010176 0.91565263 -2.2287369 -0.10042672 1.2681478 0.92504483 0.1842813
0.554768 -0.1551082 -0.13822167 1.3738148 -0.36330667 -1.2685533 1.7909844 -0.98794156
0.3098359 -0.34935454 -1.6826553 -0.9073357 -0.51992273 -1.120242 -0.14387982 0.47655034
-0.38969472 -0.7814047 -2.8416893 0.0019242213 0.7460416 1.1407517 1.9625142 -1.0625441
-1.4521822 -1.2899611 -1.6590027 -0.55769676 -1.0199548 0.97872823 1.0196875 2.9360626
2.7041292 0.63037795 0.85163623 -0.42493033 -0.29261544 2.335762 0.46542493 1.5824445
00000000: 928d b23d 3d32 f73d e69f 1c3e d9d9 0c3f
00000010: 230f a4bf c9be 0abf ad45 24bf df6d eb3d
00000020: 1951 8abf 930c 73be a54d d23d 27df d7bd
00000030: add7 11be 245e df3f b383 3bbe f4a1 bebe
00000040: 45fa ebbe 9253 adbf e1d4 63be dfc6 2dbc
00000050: 76fd 623d 6f49 92be baa6 0dbf d92a 45bf
00000060: 40bc 81bf a7f8 14bf a6ea 2f40 25b7 b13f
00000070: 2a94 5a3e b744 e6be 9f36 07be fceb 66bf
00000080: a841 bb3f a5b4 9e3f ea70 3f3f a84a 063f
00000090: 88dd 413e 5a19 56bf 478f bfbe ee26 723d
000000a0: 3fa9 303f 8644 063f f526 84bf 1f4a 94be
000000b0: d641 c33f c73e 323f e050 92be 2954 23bf
000000c0: b0fd a1bf 536f a33e 4b2a b8bf 236f a83f
000000d0: 07ce 823e 7d82 243e 9ca4 0240 9073 ea3e
000000e0: 9985 9a3f 63a1 97bf 1b68 713f 8fe2 213f
000000f0: 05e0 c2bf 0fe5 c63e 3da4 2d3e d927 83be
00000100: f926 2f40 1805 d03e c4b5 e03f c701 47bf
00000110: 2163 523f 80cb 243e 0729 6e3f bed2 7d3e
00000120: 6ece 58be 925f 123f 85c8 e83f dc96 02bf
00000130: 1578 0e3f 1e39 a7be 2685 aa3f 6fd4 6d3f
00000140: 3da3 4dbf e7c7 21bf c999 f3bf 7c5d 10bf
00000150: 3ffe 3bbe c8bb 38bf 95f2 4a3f e7a8 4c3f
00000160: cd07 8cbe 3207 bdbf d41e adbd 0e0b 793f
00000170: 0b5d 453d 953d c4be 83cb 9c3f 431d 12bf
00000180: 8f3e 5d3f 19ec 733e 58f6 85bf edab 8f3f
00000190: ff11 ddbe 1246 c3be b2d1 963f 2574 ce3f
000001a0: bbeb 9e3c b747 6a3f 053f b8be ac9f 4c3f
000001b0: b3ca 733f f8df 323f 3928 c7be 8cf4 00be
000001c0: 1bb2 f7bf e682 7b3f 6ad8 7bbf 3b38 453e
000001d0: 1cb1 4dc0 e9e4 a43e a4e2 463e 7327 b33f
000001e0: 28e8 9c3f 431e e03f fdfe d8be 881c 85bf
000001f0: 1075 b4bf e1ef 85bf 7550 883e ffcd 0fbe
00000200: 15aa bcbf 2798 aa3e 0c25 a1bf 4c1b f63f
00000210: ccbc 91be c634 82bf eec4 7fbf c3b6 0bbf
00000220: 22ce 903e e02d 7b3f ac04 3ebf b640 2dbf
00000230: f738 9a3f f4f3 8dbf d712 e83f 2228 a13e
00000240: 190b 5dbf 5c92 b13e c07d 2dbf a1c8 48bf
00000250: b7f8 aebe bb4f 0fbe 7bcc be3f b076 ef3f
00000260: 62e8 9bbf 7e66 9ebf 6ccd 0ebf d754 41bf
00000270: 573a 67bf 1fe9 50bf 2dff 05be 9a0b 2a3e
00000280: 2a85 fa3f 6504 04be fbb1 c63f 18e9 8abf
00000290: 4ec3 173f 96ea b93e e0f6 a23f 6af7 24bf
000002a0: 0358 b9bd 4dac 43bf 5199 82bf 77d0 23bf
000002b0: 4db3 0c40 42b3 3840 8d90 5b40 6fc0 1fc0
000002c0: c577 6740 6c32 d7bf f60b 403d 5ce6 a2bf
000002d0: dc55 783f db0e 12c0 a18b 0b40 d3ab 08bf
000002e0: 38e9 b2be c8b9 0abf 084e b23f dbdf 6bbf
000002f0: f2f7 bf3f a751 53bf 0fb4 ed3d a513 3bc0
00000300: 11e4 3abf 316b d33e f598 86bf fca2 0abf
00000310: 39fa 2e3f b488 4fbf 5e79 5cbf 24b9 df3c
00000320: 2de7 9e3f 0ca3 bc3e f2ae 4ebe adff 2f3f
00000330: 802b 233f 11cf f2bf 84e8 c93e dc91 3b3e
00000340: 53b8 133f 724d 81bf 3668 6a3f a0a3 0ec0
00000350: 86ac cdbd ab52 a23f bdcf 6c3f 3db4 3c3e
00000360: 4705 0e3f afd4 1ebe fb89 0dbe 2ad9 af3f
00000370: 5503 babe f45f a2bf fa3e e53f bde9 7cbf
00000380: d0a2 9e3e 99de b2be 4061 d7bf 2747 68bf
00000390: a819 05bf 1764 8fbf 3b55 13be 68fe f33e
000003a0: 1186 c7be 230a 48bf 3dde 35c0 2736 fc3a
000003b0: 95fc 3e3f 2704 923f aa33 fb3f 7201 88bf
000003c0: 1be1 b9bf 721d a5bf 335a d4bf 37c5 0ebf
000003d0: e18d 82bf ef8d 7a3f 1f85 823f 73e8 3b40
000003e0: 7410 2d40 7360 213f d504 5a3f 7890 d9be
000003f0: b1d1 95be 207d 1540 2d4c ee3e 8b8d ca3f

weight_ih_l0 f4 [512, 20]
0.6545969 0.33267105 -1.5824237 0.315942 -0.7080203 -0.82512796 -0.7749091 0.15279113
-0.4623368 -0.35685638 0.1555413 1.0193319 0.8670803 -0.6533226 -0.44573078 -0.8383922
0.15009552 0.50240314 0.30507186 0.41181162 0.9819289 0.24719696 0.24240367 -0.4486495
0.10744213 0.01928073 0.13385482 -0.06441279 -0.13587931 0.4201045 -0.1914216 -0.21561363
0.46687213 0.42711705 0.34484747 -0.22839315 -0.048901647 -0.5044389 0.43526435 0.5437208
0.9662343 -0.28315714 0.49400985 0.11021316 -0.37971655 0.7298231 0.1051688 -0.04391215
-0.80124795 -0.46543235 -0.21165663 0.027457887 -0.09855331 -0.40790287 -0.012374883 0.5845365
-0.8892818 -1.1658068 0.51062334 -0.5055508 -0.20577289 -0.4905302 0.40882742 0.6868338
0.4978788 0.30077085 0.6828285 -0.47314158 -0.64903045 -0.4085657 -0.27310923 -0.9508893
-0.7336109 0.30885693 0.7275225 0.38765794 0.4209929 -0.8009996 0.3003367 0.12448339
0.85288227 -0.33644217 0.12417624 -0.24252449 -0.42257544 -0.28722855 -0.75838864 -0.03141898
-0.06686448 0.17624334 -0.0028566415 1.0560436 0.69213086 0.942734 0.35729307 0.2981547
0.02503801 0.57202697 0.085271254 0.3692898 0.46056443 0.16133566 -0.6328378 0.24557018
0.110910706 -0.49510983 -0.019995164 -0.94267386 0.60008925 0.099738054 -0.6954435 0.684624
0.46836194 -0.0595775 -0.08242374 -0.5590221 0.24178556 0.05007384 -0.17142886 0.5123709
0.017362684 -0.09439447 -0.9637962 0.16904682 -1.1072615 -0.3728254 -0.74622315 0.0013562634
1.024901 0.14320111 0.44295034 -0.35376966 0.20843135 0.36660662 -0.29215872 0.23495252
0.2540002 -0.34477213 -0.7191888 1.2375817 1.0610541 0.50563395 1.1114994 -0.16881548
-0.8269975 0.26720747 -0.103337035 0.10064431 0.8337761 0.6200823 -0.9787722 -0.5657378
-0.2733795 0.026020914 -0.15458092 0.40196207 -1.0817293 -0.6303549 -0.2223344 0.8077817
0.63928735 -0.04993304 -0.3703743 0.12585093 -0.2809849 0.76482016 0.14341842 -0.4908197
-0.46177152 -0.021337349 -0.104645565 0.13087387 -0.24510658 0.15044717 -0.012250081 -0.65597254
-0.7872381 -0.36428508 -0.3825907 0.1306572 0.12488884 0.17210214 -0.2920411 0.38833117
-0.33140916 0.47979236 0.05467898 -0.67319566 -0.7293252 0.7508902 0.82024467 -0.10399317
0.45916402 1.6058444 1.5057265 0.3667401 0.7304002 0.26513374 0.08196495 0.15187368
0.15609342 0.35735488 -0.77396506 -0.19656019 -0.55330557 0.23420532 -0.028609138 0.61057365
-0.95039004 -0.022379054 0.5549593 -0.12369587 -0.5308508 -0.087106325 0.24735838 0.046878565
0.17110634 -0.19594616 -0.44773003 -0.00037773664 0.20039524 0.60454077 -0.27073556 -0.3783368
0.17180984 0.17926772 1.0831553 -0.36982733 -0.106303506 -0.72758645 0.59692574 0.48625952
0.53442913 -0.86250764 0.22721188 -0.9627301 -0.027352642 0.29513705 -0.31824934 -0.26758295
0.6494937 0.08566143 0.6158447 -0.047774356 -0.28677344 0.8084622 -0.066089705 0.953791
-0.12535357 0.50278956 0.6884936 -0.5857312 0.36245477 0.046812132 0.54476887 0.8657423
00000000: aa93 273f dc53 aa3e dc8c cabf 26c3 a13e
00000010: d240 35bf 963b 53bf 7160 46bf 4775 1c3e
00000020: 69b7 ecbe e1b5 b6be 3846 1f3e 7879 823f
00000030: f9f8 5d3f 2640 27bf d336 e4be dfa0 56bf
00000040: a4b2 193e 7e9d 003f 6132 9c3e f9d8 d23e
00000050: b15f 7b3f 3321 7d3e ab38 783e 63b5 e5be
00000060: 9f0a dc3d 9ff2 9d3c 3d11 093e daea 83bd
00000070: f223 0bbe f017 d73e 0604 44be d2c9 5cbe
00000080: dd09 ef3e 16af da3e d98f b03e e5df 69be
00000090: 184d 48bd e822 01bf f8da de3e 4931 0b3f
000000a0: 225b 773f f9f9 90be dcee fc3e 70b7 e13d
000000b0: 356a c2be b0d5 3a3f bd62 d73d 3add 33bd
000000c0: 961e 4dbf 264d eebe 84bc 58be 5def e03c
000000d0: 51d6 c9bd a5d8 d0be 05c0 4abc 2fa4 153f
000000e0: f9a7 63bf 2839 95bf 36b8 023f c76b 01bf
000000f0: 21b6 52be c626 fbbe d451 d13e 57d4 2f3f
00000100: f8e9 fe3e a3fe 993e d9cd 2e3f 9d3f f2be
00000110: dc26 26bf 862f d1be f9d4 8bbe 7b6d 73bf
00000120: edcd 3bbf 7f22 9e3e ea3e 3a3f 1a7b c63e
00000130: 628c d73e 4f0e 4dbf bbc5 993e 26f1 fe3d
00000140: 7e56 5a3f 2642 acbe 1d50 fe3d 5758 78be
00000150: cf5b d8be 9f0f 93be c225 42bf 30b1 00bd
00000160: 3ff0 88bd 2279 343e 7e36 3bbb 702c 873f
00000170: 7d2f 313f 0457 713f 1eef b63e bca7 983e
00000180: 831c cd3c 5c70 123f b2a2 ae3d 8d13 bd3e
00000190: 1acf eb3e 2d35 253e a801 22bf c076 7b3e
000001a0: 2725 e33d 097f fdbe e6cc a3bc 1353 71bf
000001b0: 739f 193f 7743 cc3d 9608 32bf 8543 2f3f
000001c0: 23cd ef3e 8907 74bd c7cd a8bd 131c 0fbf
000001d0: a296 773e 3a1a 4d3d 0c8b 2fbe bd2a 033f
000001e0: 303c 8e3c e351 c1bd 59bb 76bf 9c1a 2d3e
000001f0: bfba 8dbf f9e2 bebe 7b08 3fbf a6c4 b13a
00000200: f52f 833f 50a3 123e 63ca e23e 4c21 b5be
00000210: 076f 553e ddb3 bb3e d495 95be 6597 703e
00000220: 500c 823e f985 b0be c21c 38bf 1469 9e3f
00000230: 9fd0 873f 3a71 013f 9d45 8e3f f7dd 2cbe
00000240: 1cb6 53bf 6bcf 883e 5ea2 d3bd 9b1e ce3d
00000250: 5a72 553f b7bd 1e3f d190 7abf 31d4 10bf
00000260: 66f8 8bbe d029 d53c 764a 1ebe f9cd cd3e
00000270: 1b76 8abf f05e 21bf a1ab 63be c8ca 4e3f
00000280: 56a8 233f 9686 4cbd b3a1 bdbe 11df 003e
00000290: 41dd 8fbe 41cb 433f 47dc 123e b84c fbbe
000002a0: 516d ecbe aacb aebc 6a50 d6bd cd03 063e
000002b0: 38fd 7abe d30e 1a3e 90b4 48bc d1ed 27bf
000002c0: 7088 49bf 9383 babe eee2 c3be 00cb 053e
000002d0: b8c5 ff3d 8b3b 303e 6986 95be 58d3 c63e
000002e0: 76ae a9be 58a7 f53e 11f7 5f3d 8d56 2cbf
000002f0: 0eb5 3abf 573a 403f 8efb 513f 5ffa d4bd
00000300: 8c17 eb3e 4f8c cd3f a5bb c03f 5cc5 bb3e
00000310: 82fb 3a3f 9cbf 873e 3ddd a73d c684 1b3e
00000320: f4d6 1f3e 38f7 b63e 9322 46bf 1347 49be
00000330: 6fa5 0dbf 85d3 6f3e b65d eabc 8e4e 1c3f
00000340: c34c 73bf 4754 b7bc d011 0e3f 4354 fdbd
00000350: d7e5 07bf cd64 b2bd 844b 7d3e bd03 403d
00000360: 8036 2f3e 1ca6 48be df3c e5be f40a c6b9
00000370: 6934 4d3e 2fc3 1a3f da9d 8abe 5cb5 c1be
00000380: ebee 2f3e f591 373e d5a4 8a3f 025a bdbe
00000390: a7b5 d9bd 1b43 3abf 20d0 183f 02f7 f83e
000003a0: 59d0 083f 4dcd 5cbf 3baa 683e 7b75 76bf
000003b0: a612 e0bc 341c 973e 94f1 a2be a200 89be
000003c0: 3845 263f 436f af3d 00a8 1d3f 0baf 43bd
000003d0: f8d3 92be 61f7 4e3f 0a5a 87bd a62b 743f
000003e0: b05c 00be d1b6 003f 1e41 303f 7bf2 15bf
000003f0: ac93 b93e 14be 3f3d f975 0b3f 4aa1 5d3f

weight_hh_l0 f4 [512, 128]
-0.61307687 0.9450113 0.32207504 0.08052187 0.43407857 -0.09497968 0.9918273 -0.18151248
-1.3997015 -0.04817605 -0.597045 0.4971524 -0.040991705 -0.18084727 -0.37578937 -0.5100105
-0.24100876 0.21379331 0.4101422 0.20414421 0.5871965 0.13287327 -0.23778686 -0.43922746
-0.4053221 -0.96580666 -0.26827317 0.06261787 -0.10716263 -0.22426756 0.42849284 -0.40539056
0.44192487 -0.17217141 -0.6607698 -0.055772923 0.54187346 -0.0676281 0.076908596 0.39618
-0.2139462 -0.43943316 -1.4883521 -0.52718216 -0.680857 -0.044372194 -0.31641635 0.43311805
0.13659605 0.53917634 -0.02152081 0.18059997 0.086809576 0.05134553 0.13586025 -0.5365512
0.12266591 0.0009067952 0.35885793 -0.55436367 0.42676303 -0.52233934 0.33157697 0.2740638
-0.26995203 -0.59206694 0.8050279 0.8240907 -0.55993104 0.95006174 -0.21092647 -0.8877408
0.97502077 0.88614666 0.04529455 -0.7604291 0.31793243 0.6382798 -0.32606977 0.48157498
-0.56419516 -0.6200187 1.2340982 -1.0958865 -1.3047341 0.54411465 0.49905434 0.29675668
0.8435064 0.47512946 -0.035279937 0.11004633 0.20109546 0.7887266 0.71544075 -0.1807514
0.38329393 -0.8117236 -0.65481097 0.49475023 0.083854176 -0.6786617 -0.5108172 -0.42461196
1.1319509 -0.9858648 -0.019200098 -0.29686457 -0.04396463 0.27197874 -0.48556316 0.28471473
-0.5250228 -0.21628329 0.5362124 -0.43085566 -0.523324 0.64339894 -0.54223984 -0.21758409
0.67774147 0.21673615 0.61470926 0.3874267 0.98169225 -0.3209321 -0.5669117 -0.15797399
-0.31971097 -0.34517306 -0.072676145 -0.8827129 -0.15248714 0.046700604 0.012877757 -0.47215745
-0.36526522 0.07895614 0.2598107 -1.1977054 0.9090922 -0.93769425 0.5725696 0.22734918
0.9464238 0.774749 0.41475987 -0.1790835 0.66927063 -0.56807476 -0.6323109 0.40895137
0.67164075 0.2694613 0.10574052 -0.42874286 0.119020514 1.2537602 -1.2189473 0.75909036
-0.23941244 -0.094062574 0.7468693 -0.88658136 -0.6883323 -0.015868377 0.2375222 -0.06754012
0.17665872 -0.20987314 -1.0807353 -0.471261 -0.60498923 1.4830165 -0.37955782 0.79349196
0.744055 -0.12068812 -0.37076777 -0.53020155 -0.34394932 -0.67184013 -0.21393992 0.8084028
0.09662037 -1.330963 0.3357097 0.5528919 0.07423591 0.15334938 -0.38801947 -0.41046274
0.96294296 0.0690867 0.2164498 0.4490586 0.8127017 0.1076386 0.33924636 0.6974613
-1.4224946 0.18090416 0.03535978 -0.26334214 0.61937135 0.11449365 0.18691681 -0.767256
0.19254364 0.45413026 -0.084301315 0.9659436 0.22870982 -0.37326202 -0.3510044 0.7784906
-0.6045291 -0.49962375 -0.17275162 0.7167872 0.9737452 0.6309523 -0.5943436 -0.4074358
-0.23465917 -0.33615068 -0.343119 -1.3158541 0.09910676 0.35332227 0.40717843 -0.16899681
-0.7607085 0.27824897 0.16460364 0.6132073 -0.1794477 1.0555984 -0.6555904 -0.68751013
1.025564 -0.16140048 0.34918508 0.23254389 -0.05149174 -1.3583049 -0.91483164 -0.42474633
0.16908436 -0.32055935 -0.41014385 -0.002150831 -0.29609978 1.3420023 0.3199941 0.28171015
00000000: 9bf2 1cbf 43ec 713f 05e7 a43e a6e8 a43d
00000010: 8c3f de3e b584 c2bd 65e8 7d3f 68de 39be
00000020: 6b29 b3bf 4054 45bd f1d7 18bf c28a fe3e
00000030: ebe6 27bd 0730 39be 7767 c0be 0c90 02bf
00000040: 00cb 76be a2ec 5a3e 29fe d13e 2e0b 513e
00000050: 8352 163f ee0f 083e 667e 73be 6ce2 e0be
00000060: 6186 cfbe 1b3f 77bf 1a5b 89be cc3d 803d
00000070: 1578 dbbd 65a6 65be 6a63 db3e 5a8f cfbe
00000080: fa43 e23e b44d 30be 3628 29bf 2672 64bd
00000090: 38b8 0a3f 9a80 8abd 4182 9d3d 1bd8 ca3e
000000a0: b614 5bbe 62fd e0be 5282 bebf 69f5 06bf
000000b0: a54c 2ebf 9ebf 35bd 5301 a2be a6c1 dd3e
000000c0: d6df 0b3e 7607 0a3f 694c b0bc 33ef 383e
000000d0: 38c9 b13d b14f 523d f31e 0b3e 6b5b 09bf
000000e0: 4438 fb3d ffb5 6d3a 3abc b73e c7ea 0dbf
000000f0: af80 da3e 08b8 05bf 75c4 a93e 1752 8c3e
00000100: 2737 8abe b391 17bf 4f16 4e3f 9cf7 523f
00000110: a457 0fbf 3f37 733f 1cfd 57be fb42 63bf
00000120: f69a 793f 82da 623f c786 393d 7bab 42bf
00000130: 0ac8 a23e 4e66 233f 9ef2 a6be ff90 f63e
00000140: 186f 10bf 8cb9 1ebf eef6 9d3f 0246 8cbf
00000150: 8701 a7bf 194b 0b3f 0d84 ff3e 7ef0 973e
00000160: 09f0 573f 2b44 f33e b281 10bd f85f e13d
00000170: f8eb 4d3e fde9 493f 2027 373f e516 39be
00000180: 1a3f c43e 1ecd 4fbf b1a1 27bf e74f fd3e
00000190: bdbb ab3d c6bc 2dbf ebc4 02bf bd66 d9be
000001a0: c4e3 903f a361 7cbf 8649 9dbc a2fe 97be
000001b0: 4214 34bd cc40 8b3e bc9b f8be 21c6 913e
000001c0: e567 06bf 5e79 5dbe 3745 093f 1d99 dcbe
000001d0: 90f8 05bf cbb5 243f 3bd0 0abf 5dce 5ebe
000001e0: 7780 2d3f 15f0 5d3e 965d 1d3f cb5c c63e
000001f0: 2f50 7b3f 3651 a4be 2021 11bf efc3 21be
00000200: 28b1 a3be 86ba b0be 3bd7 94bd 79f9 61bf
00000210: 9725 1cbe 2249 3f3d 3afd 523c 9fbe f1be
00000220: 0b04 bbbe c2b3 a13d e805 853e 694e 99bf
00000230: 44ba 683f bb0c 70bf ec93 123f 39ce 683e
00000240: d548 723f f355 463f 685b d43e aa61 37be
00000250: 5255 2b3f 596d 11bf 21df 21bf 1362 d13e
00000260: a6f0 2b3f d5f6 893e 7c8e d83d 2f84 dbbe
00000270: 07c1 f33d 377b a03f 7706 9cbf bf53 423f
00000280: 8928 75be e1a3 c0bd d432 3f3f fff6 62bf
00000290: 8c36 30bf 66fe 81bc 0539 733e 7952 8abd
000002a0: 06e6 343e fce8 56be 8955 8abf 1f49 f1be
000002b0: 93e0 1abf 7cd3 bd3f 6755 c2be 4a22 4b3f
000002c0: 637a 3e3f 552b f7bd 46d5 bdbe 4abb 07bf
000002d0: 201a b0be b7fd 2bbf 1113 5bbe 7cf3 4e3f
000002e0: e7e0 c53d ff5c aabf 24e2 ab3e 538a 0d3f
000002f0: ff08 983d 9f07 1d3e 7daa c6be 2c28 d2be
00000300: 6e83 763f 547d 8d3d 04a5 5d3e 02eb e53e
00000310: 380d 503f a071 dc3d b3b1 ad3e d38c 323f
00000320: 4e14 b6bf f13e 393e 6bd5 103d c8d4 86be
00000330: 1f8f 1e3f a67b ea3d 1f67 3f3e e46a 44bf
00000340: 292a 453e c383 e83e 2ba6 acbd 1448 773f
00000350: e832 6a3e 331c bfbe d9b6 b3be 294b 473f
00000360: 6bc2 1abf afce ffbe cde5 30be 5e7f 373f
00000370: 5e47 793f 1786 213f e726 18bf 6d9b d0be
00000380: 7e4a 70be f11b acbe 4bad afbe e86d a8bf
00000390: 7cf8 ca3d a8e6 b43e b179 d03e 800d 2dbe
000003a0: cbbd 42bf a676 8e3e db8d 283e 27fb 1c3f
000003b0: 23c1 37be d91d 873f c6d4 27bf aa00 30bf
000003c0: ae45 833f 2b46 25be 63c8 b23e fc1f 6e3e
000003d0: 01e9 52bd efdc adbf 6832 6abf 5a78 d9be
000003e0: 7324 2d3e 5b20 a4be 60fe d1be f5f4 0cbb
000003f0: 649a 97be bbc6 ab3f 44d6 a33e 503c 903e

bias_ih_l0 f4 [512]
-0.87996805 -0.03089028 0.07764642 0.35020196 -0.9494466 -1.0718806 -0.86146975 -1.1359391
-0.0028725262 -0.8712465 -0.34383467 0.3037113 -0.41992745 -0.74243325 -0.17572165 -0.35539997
0.25720063 -0.6300244 0.2726885 0.16986303 -0.4937318 -0.70096505 -0.7194851 0.44329262
-0.88456184 -0.6724255 0.26598206 -0.6884012 0.47923452 -0.70502895 -0.93108517 -1.7632219
-0.5318085 -0.4851198 -0.90689164 -0.197763 0.11640785 0.22372372 0.43881643 -0.10543166
-0.38380572 -0.5499908 -0.4116731 -0.29086632 0.91306484 0.05018199 -1.0191556 -0.25321457
-0.8752146 -0.1389742 -1.0756735 -0.8854483 -0.9571738 0.58472705 0.025986578 0.31127843
-1.0458792 -0.578978 0.73805386 -0.07330757 -0.85949266 0.9315585 0.0747003 -0.54214483
-0.07873652 -0.59546834 -0.83845115 -0.6501495 0.13452657 -0.7734119 -0.2871595 -0.31865177
-0.9090948 -0.80105805 -0.22614725 -0.9842946 -0.41787866 -0.04429145 -0.26775473 -0.58772516
0.056581937 -0.093241125 -0.27684015 -0.5421764 -0.6678066 -1.2077419 -0.8677712 -0.059247065
0.33712918 0.5287274 -0.7564127 0.3870793 0.64859325 -1.1135364 0.22418524 0.13188918
-1.0711809 -0.53934264 -0.4414945 -0.6993485 0.14667287 -0.70390505 0.37541837 -0.22157177
-0.21979669 -0.18309441 0.11322752 0.64806473 0.5025937 -1.0377816 -0.6394478 0.046352834
0.14818852 -0.619097 -0.66675776 0.62358576 0.8136608 0.097553775 -0.27029333 0.23925668
-1.087695 -0.15969034 0.37591437 -1.318354 0.029604163 -0.22510248 -0.87486774 -0.010899006
-0.13253348 0.05446868 -0.49651405 0.23596519 -0.6622454 -0.06818527 -0.58664817 -0.5084219
0.08688868 -1.8729469 -0.76244193 -0.039445482 0.2922822 -0.86608803 0.2864922 -0.20173599
-0.15080309 -0.8392049 -0.48277578 -1.151518 -0.78824157 -0.8487167 -0.30072722 0.6139338
-0.29813996 -0.6728814 -0.1569871 0.38473234 -0.5503431 -0.5670986 -0.13573581 -0.19224155
0.4861529 -0.41052273 -0.524339 0.29667902 0.23390687 0.20466456 0.09880118 -0.084080525
-0.24583288 0.16581593 0.5979541 -0.1922216 0.55323994 0.35392085 -0.7579104 0.46321288
0.3276611 0.48246762 -0.5192361 0.04403576 -1.0192792 0.16120222 0.12821354 -0.096729234
-0.85192025 0.8251177 0.867507 -0.5406494 0.27469325 -0.31346107 -0.07070147 0.8789638
-0.2512741 -0.7646476 0.2904109 -0.7049005 0.5612064 -0.4314689 -0.14582124 -0.6066939
-1.0593715 -0.27991337 -0.8556521 -0.83644766 -1.1221728 -0.094548315 -0.32141843 0.081612475
-0.5493174 0.7342177 -0.026946003 0.3565512 -0.5125404 0.18193972 -0.8974939 0.21470284
-0.95220214 -0.692195 -0.37538263 0.078129984 1.0233517 0.16967747 -0.25882795 0.47090003
-0.100574754 -0.8561559 -0.18158063 0.7921419 0.3903183 0.33803776 0.0460123 -0.332909
-0.1680988 -0.0019303175 -0.0061510145 0.8625842 -0.18479158 -0.9492411 -0.46506965 -0.05763398
-0.23642851 -0.19123006 -0.26746964 -0.3485517 0.070749976 0.83004576 -1.529433 -0.6492083
-0.30210346 -0.10510431 -0.25537512 -0.5672398 -0.055496328 0.26076192 -0.22840141 -0.13173044
00000000: 9645 61bf 9d0d fdbc 1605 9f3d ac4d b33e
00000010: ef0e 73bf 6233 89bf 4889 5cbf 7466 91bf
00000020: fe40 3cbb 030a 5fbf 190b b0be 0c80 9b3e
00000030: bb00 d7be 1b10 3ebf 60f0 33be fcf6 b5be
00000040: cdaf 833e 4749 21bf d49d 8b3e 93f0 2d3e
00000050: 6aca fcbe 7272 33bf 2d30 38bf 40f7 e23e
00000060: a572 62bf 1424 2cbf cd2e 883e 103b 30bf
00000070: 3a5e f53e c77c 34bf 995b 6ebf 41b1 e1bf
00000080: 9a24 08bf 9f61 f8be 0d2a 68bf 6282 4abe
00000090: 3d67 ee3d d517 653e 8cac e03e 8eec d7bd
000000a0: 2f82 c4be 32cc 0cbf d1c6 d2be 6eec 94be
000000b0: 9ebe 693f a18b 4d3d b173 82bf 57a5 81be
000000c0: 100e 60bf 414f 0ebe abaf 89bf bdac 62bf
000000d0: 5809 75bf acb0 153f cee1 d43c e35f 9f3e
000000e0: 5fdf 85bf e737 14bf 19f1 3c3f 4722 96bd
000000f0: b607 5cbf 9e7a 6e3f 79fc 983d 01ca 0abf
00000100: 9d40 a1bd 9d70 18bf bca4 56bf 3370 26bf
00000110: 55c1 093e 53fe 45bf 9206 93be 5326 a3be
00000120: 70ba 68bf 2412 4dbf 2593 67be bbfa 7bbf
00000130: 31f4 d5be f46a 35bd 2617 89be 2875 16bf
00000140: 76c2 673d 34f5 bebd febd 8dbe 13cc 0abf
00000150: 60f5 2abf 4997 9abf 4126 5ebf 0dad 72bd
00000160: 329c ac3e ae5a 073f 43a4 41bf 422f c63e
00000170: 350a 263f 5c88 8ebf d190 653e f50d 073e
00000180: 751c 89bf 5c12 0abf 910b e2be 8108 33bf
00000190: 6a31 163e 1f33 34bf d636 c03e b6e3 62be
000001a0: 6212 61be 1a7d 3bbe d4e3 e73d 92e7 253f
000001b0: fba9 003f 07d6 84bf dab2 23bf 78dc 3d3d
000001c0: bbbe 173e 247d 1ebf a3b0 2abf 51a3 1f3f
000001d0: 134c 503f 46ca c73d e363 8abe b4ff 743e
000001e0: 9739 8bbf dd85 23be d977 c03e d3bf a8bf
000001f0: 6e84 f23c 4481 66be 55f7 5fbf bf91 32bc
00000200: dbb6 07be 8d1a 5f3d 1737 febe dca0 713e
00000210: ea88 29bf b8a4 8bbd 932e 16bf f027 02bf
00000220: b1f2 b13d b9bc efbf 652f 43bf 9691 21bd
00000230: 03a6 953e f2b7 5dbf 1baf 923e e193 4ebe
00000240: 206c 1abe 22d6 56bf 632e f7be f164 93bf
00000250: 33ca 49bf 7f45 59bf ebf8 99be c42a 1d3f
00000260: cda5 98be f541 2cbf 3ac1 20be a3fb c43e
00000270: 49e3 0cbf 602d 11bf 54fe 0abe f8da 44be
00000280: 08e9 f83e 0930 d2be 153b 06bf 50e6 973e
00000290: 4885 6f3e 9693 513e 4658 ca3d 6932 acbd
000002a0: 9dbb 7bbe a7cb 293e 8513 193f bdd5 44be
000002b0: 22a1 0d3f 1d35 b53e 6a06 42bf 3d2a ed3e
000002c0: 32c3 a73e ff05 f73e a8ec 04bf d75e 343d
000002d0: be77 82bf 3212 253e 694a 033e fa19 c6bd
000002e0: 7217 5abf ea3a 533f f014 5e3f 0068 0abf
000002f0: 98a4 8c3e f87d a0be efcb 90bd c603 613f
00000300: 00a7 80be f2bf 43bf bdb0 943e 5c74 34bf
00000310: 39ab 0f3f 7ee9 dcbe 2a52 15be 4b50 1bbf
00000320: 7c99 87bf ce50 8fbe 040c 5bbf 6f21 56bf
00000330: 5ca3 8fbf 8ca2 c1bd f590 a4be 7124 a73d
00000340: 11a0 0cbf b1f5 3b3f ddbd dcbc e18d b63e
00000350: d935 03bf 684e 3a3e 29c2 65bf 10db 5b3e
00000360: 85c3 73bf b133 31bf 2732 c0be 9d02 a03d
00000370: 30fd 823f eebf 2d3e 1985 84be cf19 f13e
00000380: 23fa cdbd 082d 5bbf 46f0 39be d0c9 4a3f
00000390: cdd7 c73e 4913 ad3e 6577 3c3d 0c73 aabe
000003a0: 1822 2cbe b502 fdba 738e c9bb 51d2 5c3f
000003b0: 013a 3dbe 7701 73bf 9c1d eebe 9c11 6cbd
000003c0: 511a 72be d0d1 43be c8f1 88be 5e75 b2be
000003d0: 5de5 903d e17d 543f 76c4 c3bf 8432 26bf
000003e0: 4ead 9abe ee40 d7bd 87c0 82be a136 11bf
000003f0: 1e50 63bd 9682 853e 0fe2 69be 58e4 06be

bias_hh_l0 f4 [512]
-0.82453406 -0.07622811 0.023627184 0.39711654 -1.0238255 -0.94942003 -0.7918085 -1.0210028
-0.01899086 -0.75326556 -0.35563 0.24304208 -0.507115 -0.82973915 -0.15180466 -0.27678174
0.37234402 -0.62230295 0.1603914 0.12011965 -0.52201575 -0.792634 -0.6842813 0.38049388
-0.8889515 -0.737447 0.34136745 -0.6503967 0.5350908 -0.75841635 -0.90328246 -1.7385014
-0.5922035 -0.42646876 -0.7816302 -0.27983183 0.17188074 0.2822361 0.3292163 -0.16125426
-0.36518824 -0.50163853 -0.41981903 -0.15100904 0.90073633 -0.001066238 -1.0488471 -0.3088782
-0.9236875 -0.1143311 -1.1270667 -0.9069076 -0.9325647 0.5404379 0.06273897 0.34614357
-1.022444 -0.70009404 0.79999393 -0.025067875 -0.722713 0.90237314 0.028981362 -0.43054095
-0.07792751 -0.50253844 -0.7375423 -0.4771292 0.0856651 -0.72963214 -0.32493448 -0.16821511
-0.8907845 -0.92876434 -0.17943984 -0.92923826 -0.55062306 0.08157597 -0.37641436 -0.7512797
0.047182523 0.014595529 -0.3011177 -0.5059068 -0.635315 -1.156572 -0.88311774 -0.19295308
0.31037694 0.4511657 -0.66615087 0.32643986 0.6430562 -1.0406933 0.3690798 0.1376894
-0.97663724 -0.4854186 -0.47043815 -0.56352764 0.19228956 -0.68252236 0.23855376 -0.25254682
-0.20281653 -0.31190905 0.099166825 0.7066461 0.5453072 -0.89716434 -0.66952693 0.055561252
-0.0008824921 -0.55710936 -0.72766334 0.5588419 0.7459648 0.08428571 -0.2813696 0.19320774
-1.1723219 -0.19201158 0.36063668 -1.3136698 0.14875714 -0.35012648 -0.79544646 0.0069878744
-0.099935606 -0.044737022 -0.52117693 0.15411161 -0.5028427 -0.03544014 -0.5521918 -0.39693955
0.15533891 -1.8334988 -0.8590775 -0.0703511 0.29869124 -0.9209629 0.44974777 -0.15114678
-0.15234216 -0.81246483 -0.47879288 -1.082746 -0.8920531 -0.85126966 -0.31550238 0.7173395
-0.26691666 -0.6461084 -0.15743694 0.40597937 -0.42450672 -0.57263124 -0.16211838 -0.19015816
0.42043835 -0.33169118 -0.38747066 0.29362148 0.32853797 0.31982893 0.23295708 -0.18243891
-0.2670808 0.1533856 0.7164192 -0.10820151 0.45658293 0.35367498 -0.74998856 0.55832964
0.2981357 0.5435244 -0.5281775 0.08322001 -1.0601201 0.09025729 0.0878245 -0.15102832
-0.9497341 0.92357886 0.8040608 -0.6161179 0.18376848 -0.37225473 -0.13618162 1.0075314
-0.15512645 -0.7056287 0.34585103 -0.66507447 0.6925374 -0.3000257 -0.1427143 -0.5657229
-1.1835018 -0.20423235 -0.8138721 -0.8504047 -1.1482935 -0.006848648 -0.35637435 -0.037325244
-0.47886327 0.65077525 0.12558502 0.4134787 -0.5700545 0.076765135 -0.84535915 0.20228407
-0.860455 -0.74518055 -0.34395608 0.025699379 1.1652869 0.047703948 -0.22865434 0.4775612
-0.20841037 -0.73810756 -0.120434895 0.7321498 0.37347817 0.29795912 0.157616 -0.19236915
-0.18618399 0.008766167 0.008527974 0.8638684 -0.27179462 -1.0317351 -0.4672215 -0.09200851
-0.30553997 -0.09536645 -0.25679827 -0.28053325 0.048918054 0.8949568 -1.6515636 -0.63153577
-0.22498208 -0.12655407 -0.2281519 -0.70396996 -0.09359337 0.24474603 -0.25192565 -0.021534858
00000000: aa14 53bf 7c1d 9cbd cc8d c13c dc52 cb3e
00000010: b70c 83bf 310d 73bf f6b3 4abf 38b0 82bf
00000020: b892 9bbc 03d6 40bf 2315 b6be 06e0 783e
00000030: 4ad2 01bf c969 54bf ae72 1bbe 56b6 8dbe
00000040: e0a3 be3e 3f4f 1fbf a53d 243e 4b01 f63d
00000050: d3a2 05bf 10ea 4abf 0f2d 2fbf 18d0 c23e
00000060: 5392 63bf 54c9 3cbf b7c7 ae3e 6680 26bf
00000070: b6fb 083f 9327 42bf 853d 67bf 3787 debf
00000080: a69a 17bf 1d5a dabe eb18 48bf 1e46 8fbe
00000090: 8101 303e 4081 903e 0a8f a83e d61f 25be
000000a0: f4f9 babe 626b 00bf 85f2 d6be 1da2 1abe
000000b0: a896 663f 03c1 8bba 9f40 86bf 4925 9ebe
000000c0: c976 6cbf 6c26 eabd b943 90bf 192b 68bf
000000d0: 8fbc 6ebf 235a 0a3f 4a7d 803d bb39 b13e
000000e0: 72df 82bf 5d39 33bf 67cc 4c3f 255b cdbc
000000f0: b803 39bf ed01 673f 526a ed3c dd6f dcbe
00000100: 7598 9fbd 5ca6 00bf 92cf 3cbf 474a f4be
00000110: 2f71 af3d 2cc9 3abf d05d a6be 9540 2cbe
00000120: 740a 64bf 80c3 6dbf 14bf 37be 8fe2 6dbf
00000130: a2f5 0cbf 4d11 a73d 62b9 c0be de53 40bf
00000140: 7642 413d 1622 6f3c 192c 9abe 1c83 01bf
00000150: 01a4 22bf 8d0a 94bf 0114 62bf 7e95 45be
00000160: bae9 9e3e 31ff e63e dd88 2abf 2023 a73e
00000170: 559f 243f 7035 85bf 07f8 bc3e 73fe 0c3e
00000180: e604 7abf c988 f8be 45dd f0be 5943 10bf
00000190: 8ee7 443e c9b9 2ebf 7047 743e d14d 81be
000001a0: 23af 4fbe 8bb2 9fbe fa17 cb3d c2e6 343f
000001b0: 4199 0b3f 90ac 65bf 1e66 2bbf 3294 633d
000001c0: 0b57 67ba b89e 0ebf 2548 3abf 4310 0f3f
000001d0: 8df7 3e3f fc9d ac3d ad0f 90be 40d8 453e
000001e0: a50e 96bf af9e 44be 5fa5 b83e 5526 a8bf
000001f0: cb53 183e c743 b3be 61a2 4bbf 8afa e43b
00000200: 0aab ccbd 2b3e 37bd da6b 05bf 6fcf 1d3e
00000210: 4dba 00bf ae29 11bd 715c 0dbf a93b cbbe
00000220: 2a11 1f3e 17b0 eabf 81ec 5bbf 3d14 90bd
00000230: 0fee 983e 3ac4 6bbf 5745 e63e 39c6 1abe
00000240: 95ff 1bbe b2fd 4fbf 5724 f5be 6c97 8abf
00000250: 985d 64bf cfec 59bf 8789 a1be 90a3 373f
00000260: 4da9 88be 5c67 25bf 2637 21be 87dc cf3e
00000270: f258 d9be f697 12bf 5c02 26be d2b8 42be
00000280: b243 d73e 6dd3 a9be 8e62 c6be 8e55 963e
00000290: 2136 a83e 9ec0 a33e 4d8c 6e3e 44d1 3abe
000002a0: d1be 88be 1d11 1d3e 4067 373f c198 ddbd
000002b0: 3dc5 e93e e314 b53e 40ff 3fbf b1ee 0e3f
000002c0: 3ea5 983e 6a24 0b3f a436 07bf 416f aa3d
000002d0: 04b2 87bf d0d8 b83d 55dd b33d 2ba7 1abe
000002e0: c621 73bf aa6f 6c3f eed6 4d3f e7b9 1dbf
000002f0: ce2d 3c3e 2c98 bebe 3273 0bbe caf6 803f
00000300: 78d9 1ebe 15a4 34bf 6313 b13e 5242 2abf
00000310: 224a 313f f89c 99be b323 12be 37d3 10bf
00000320: fd7c 97bf 4922 51be ec59 50bf 1fb4 59bf
00000330: 48fb 92bf a06a e0bb b376 b6be 5be2 18bd
00000340: 912d f5be 3599 263f 5c99 003e 7bb3 d33e
00000350: 17ef 11bf 0a37 9d3d 7569 58bf 8e23 4f3e
00000360: c746 5cbf 27c4 3ebf 031b b0be 8187 d23c
00000370: 1f28 953f 3765 433d 5d24 6abe e782 f43e
00000380: 8769 55be 9ef4 3cbf 92a6 f6bd 2b6e 3b3f
00000390: 8838 bf3e 198e 983e 1766 213e 6bfc 44be
000003a0: 04a7 3ebe f89f 0f3c eab8 0b3c 7b26 5d3f
000003b0: aa28 8bbe e50f 84bf a837 efbe f56e bcbd
000003c0: bc6f 9cbe 7c4f c3bd 107b 83be 0ea2 8fbe
000003d0: 4c5e 483d e41b 653f 7066 d3bf 54ac 21bf
000003e0: b461 66be 6497 01be a7a0 69be 6037 34bf
000003f0: e1ad bfbd b49e 7a3e 66fc 80be df69 b0bc

weight f4 [5, 128]
-0.09856095 0.011327444 -0.43638167 0.22360376 -0.93897104 -0.38021293 -0.48137027 -0.04440889
0.23417123 -0.14228623 -0.34269208 -0.52580404 -0.021138884 -0.0905042 -0.52128 0.4719217
-0.99187624 -0.55177593 -0.08832544 -0.5371341 0.12284082 -0.23177856 0.22932547 0.009187564
-0.22930354 0.37263727 0.32148033 0.31053185 0.3936652 -0.057350058 -0.72336185 -0.13559012
-0.07673043 -0.30655533 -0.17263854 0.01980919 -0.2516455 -0.044627585 -0.57520264 -0.019554555
0.2201495 -0.075783186 0.10675351 -0.7353225 -0.32293686 1.11764 -0.39514548 -0.2593428
-0.25127488 -0.3089572 0.5678646 -0.005070604 0.57291347 0.042824835 -0.28776327 -0.0006059068
-0.04193441 -0.920235 -0.06744483 0.13121073 -0.36641464 -0.30643442 0.5219045 0.7745767
0.03778575 -0.06496314 -0.11317452 -0.074515656 -0.21342562 1.0376915 -0.27505225 0.21788348
-0.8273418 -0.34165633 -0.18027194 0.014829898 0.015721925 -0.4144579 0.5961347 -0.0113066975
-0.4991551 0.19117077 0.109608 0.42109582 -0.31155688 -0.24034664 -0.042982083 -0.11248351
-0.4073209 0.82510424 -0.33904776 -0.048930805 -0.056446686 0.664032 -0.5580674 0.46172047
-0.11277028 -0.0058000423 -0.010709069 0.3803157 -0.48513728 0.5796528 0.22160904 -1.0609778
-0.19241181 -0.25646663 0.34631932 0.13543774 -0.11338245 0.4884075 0.33190575 -0.18616132
0.5159275 0.41036966 0.050341815 -0.287286 -0.011502034 -0.4762968 -0.18858987 0.1937378
0.6811361 0.5685757 -0.2016966 0.28964323 -0.5246684 0.6012835 -0.4484388 0.084068134
-0.27580374 0.3253822 0.13162543 0.3548834 0.043416657 0.43932277 0.031101964 0.16363195
0.034679297 -0.19721024 -0.116238855 -0.5605994 -0.25661245 0.006864337 0.0018253784 -0.107458375
0.05803764 0.071767345 -0.32572094 -0.28227532 0.08506168 -0.18029541 0.22726612 -0.120086506
0.40564123 -0.25162292 0.068651184 -0.49576074 0.19876356 -0.020788886 0.16601141 0.026606353
-0.49294007 -0.124642186 -0.10245529 -0.59827596 -0.10844854 -0.17667854 0.11861979 -0.18891658
0.14137106 0.37375343 0.36544603 0.08735361 -0.9264605 -0.81421417 0.048385143 0.33776826
0.11140965 -0.029799484 -0.14270338 -0.12806875 -0.06034559 -0.38756767 -0.0022854318 -0.05020356
0.1527873 0.4158858 -0.023169596 0.0043966584 0.07342062 0.32963893 -0.3998842 0.3189183
0.09421333 -0.1516802 0.006334843 -0.41484752 -0.5365247 -0.6359136 0.18315855 -0.21197286
-0.11616449 -0.21748553 0.541947 -0.18067075 -0.30567357 0.23351115 0.00888457 0.19993299
0.30232352 -0.01833978 -0.14575727 0.95156777 0.1543761 -0.36917505 0.3377952 -0.29084778
0.116101734 0.36392057 -0.5893936 0.3724274 -0.31739727 -0.24137408 -0.014899747 -0.17345743
-0.70935965 -0.0002859621 -0.289332 -0.28313735 0.50628024 0.054725453 0.2868101 0.60810727
-0.25239724 0.50851077 -0.27545264 0.13619019 0.028922148 -0.4020777 -0.19722821 -0.015495337
-0.14470935 0.18382744 0.43866596 -0.46195516 -0.23332694 0.36069188 -0.2564991 0.048765115
-0.29583523 0.35412958 0.17051834 0.53310865 0.36476502 -0.084797665 0.3212079 0.05384308
00000000: 53da c9bd be96 393c 6b6d dfbe 62f8 643e
00000010: 6860 70bf 45ab c2be 2a76 f6be 19e6 35bd
00000020: 95ca 6f3e 7bb3 11be 5675 afbe 189b 06bf
00000030: 742b adbc 445a b9bd 9b72 05bf b99f f13e
00000040: 9aeb 7dbf 3041 0dbf f8e3 b4bd 9f81 09bf
00000050: f893 fb3d 5c57 6dbe 4cd4 6a3e 7087 163c
00000060: 8cce 6abe 50ca be3e 1299 a43e 08fe 9e3e
00000070: 7c8e c93e e5e7 6abd 3e2e 39bf 23d8 0abe
00000080: d824 9dbd d2f4 9cbe 28c8 30be e246 a23c
00000090: aed7 80be 6acb 36bd 7b40 13bf e030 a0bc
000000a0: df6e 613e 3734 9bbd 96a1 da3d 183e 3cbf
000000b0: fb57 a5be d40e 8f3f 8250 cabe 94c8 84be
000000c0: 1aa7 80be a32f 9ebe 935f 113f 4f27 a6bb
000000d0: 75aa 123f 1869 2f3d b555 93be b8d5 1eba
000000e0: 6ac3 2bbd 8594 6bbf 8420 8abd 1b5c 063e
000000f0: b39a bbbe f9e4 9cbe 899b 053f a94a 463f
00000100: 3bc5 1a3d 650b 85bd 0bc8 e7bd aa9b 98bd
00000110: 3f8c 5abe 13d3 843f a6d3 8cbe d91c 5f3e
00000120: accc 53bf 94ed aebe 3599 38be 1af9 723c
00000130: 44cb 803c d333 d4be 499c 183f ba3f 39bc
00000140: 4291 ffbe 45c2 433e 297a e03d df99 d73e
00000150: 6284 9fbe 6e1d 76be fb0d 30bd c15d e6bd
00000160: 5d8c d0be 083a 533f ab97 adbe ab6b 48bd
00000170: a434 67bd 00fe 293f 81dd 0ebf a066 ec3e
00000180: 1bf4 e6bd 480e bebb 1775 2fbc bdb8 c23e
00000190: ea63 f8be 2064 143f 7bed 623e 1fce 87bf
000001a0: 9a07 45be 984f 83be c450 b13e 31b0 0a3e
000001b0: 0f35 e8bd 8c10 fa3e 8def a93e 13a1 3ebe
000001c0: d313 043f f91b d23e 3833 4e3d 2717 93be
000001d0: 0773 3cbc 2ddd f3be b41d 41be 3463 463e
000001e0: ef5e 2e3f 2d8e 113f 8e89 4ebe 1e4c 943e
000001f0: ab50 06bf b7ed 193f c599 e5be ea2b ac3d
00000200: 2636 8dbe 7f98 a63e d1c8 063e 47b3 b53e
00000210: aad5 313d eaee e03e 8cc9 fe3c 228f 273e
00000220: e10b 0e3d 7bf1 49be a30e eebd 7183 0fbf
00000230: b562 83be 3bee e03b 8941 ef3a 2313 dcbd
00000240: e0b8 6d3d c2fa 923d e5c4 a6be 6486 90be
00000250: d134 ae3d 5c9f 38be 73b8 683e eaef f5bd
00000260: 35b0 cf3e b8d4 80be fe98 8c3d 5ad4 fdbe
00000270: ad88 4b3e 744d aabc e5fe 293e 91f5 d93c
00000280: a462 fcbe 6744 ffbd 14d4 d1bd 9d28 19bf
00000290: 451a debd 38eb 34be efee f23d 5973 41be
000002a0: 93c3 103e 9c5c bf3e be1b bb3e 73e6 b23d
000002b0: 842c 6dbf 5770 50bf 802f 463d f6ef ac3e
000002c0: be2a e43d 0c1e f4bc d620 12be 7424 03be
000002d0: f02c 77bd 456f c6be 2fc7 15bb 40a2 4dbd
000002e0: 4674 1c3e fcee d43e 2ace bdbc d811 903b
000002f0: 8d5d 963d 6fc6 a83e 9fbd ccbe 4249 a33e
00000300: ebf2 c03d 0e52 1bbe 8494 cf3b e566 d4be
00000310: af59 09bf 3ccb 22bf ea8d 3b3e 6a0f 59be
00000320: a6e7 edbd 87b4 5ebe 0abd 0a3f c101 39be
00000330: 3f81 9cbe 8c1d 6f3e 9690 113c 3cbb 4c3e
00000340: 26ca 9a3e 4e3d 96bc 6541 15be f299 733f
00000350: c514 1e3e 8304 bdbe 7ef3 ac3e 00ea 94be
00000360: bfc6 ed3d cc53 ba3e 80e2 16bf ceae be3e
00000370: e581 a2be c42a 77be 121e 74bc d39e 31be
00000380: 9898 35bf 2fed 95b9 5323 94be 61f7 90be
00000390: 959b 013f cc27 603d c6d8 923e ebac 1b3f
000003a0: 363a 81be c32d 023f 2108 8dbe 7175 0b3e
000003b0: 24ee ec3c 21dd cdbe 31f6 49be 27e0 7dbc
000003c0: b02e 14be 433d 3c3e d398 e03e 6385 ecbe
000003d0: 42ed 6ebe 9bac b83e da53 83be eebd 473d
000003e0: b777 97be 7950 b53e 5c9c 2e3e cf79 083f
000003f0: 7bc2 ba3e 66aa adbd 5d75 a43e 908a 5c3d

bias f4 [5]
0.23586327 0.29500806 0.113237955 -0.43726343 -0.39087272
00000000: 2486 713e 4c0b 973e 4de9 e73d fee0 dfbe
00000010: 7820 c8be
