char_emb/code/model_cnn.pt (torch_old, 46482 bytes, 17 tensors)

weight f4 [80, 20]
0	0x3f08bc1b	0.53412026
1	0x3eaed8f2	0.3414989
2	0x3eb0ce11	0.34532216
3	0xbeded386	-0.43520755
4	0xbed49f08	-0.4152758
5	0xbf11f036	-0.5700716
6	0xbea794e5	-0.32730785
7	0xbd4a4ccb	-0.04938964
8	0x3d0fd9e4	0.035119906
9	0x3e0c9d37	0.13731848
10	0xbdd8a134	-0.10577622
11	0x3e9c59b5	0.3053719
12	0x3ea143e0	0.31497097
13	0xbf3771f1	-0.71658236
14	0x3eab785f	0.33490273
15	0xbe9d6510	-0.30741167
16	0xbe2e06cb	-0.16994779
17	0xbed4042a	-0.41409427
18	0x3e1ae700	0.15127182
19	0xbf1b7d01	-0.60737616
20	0x3ed2d920	0.41181278
21	0xbfa757df	-1.3073691
22	0xbe0aa8c2	-0.13540938
23	0xbe31c5ed	-0.17360659
24	0xbec3d111	-0.38245443
25	0x3ee9fc7c	0.45700443
26	0xbfab593f	-1.3386611
27	0xbe0e39d7	-0.13889252
28	0xc0238a3c	-2.5553122
29	0x3edbd80b	0.42938265
30	0xbfcbf68a	-1.5934613
31	0xbde8fd24	-0.11376408
32	0x3f150182	0.58205426
33	0x3f4c1f5b	0.79735345
34	0xbf6424c7	-0.8911862
35	0xbeed5554	-0.46354163
36	0xbeaf7de3	-0.3427573
37	0xbd8662d4	-0.06561819
38	0x3f828eff	1.0199889
39	0xbe727325	-0.23676737
40	0x3f8504c8	1.0392084
41	0x3f13a4c1	0.5767327
42	0x3f096d4d	0.53682405
43	0xbf9b4181	-1.2129365
44	0xbe719690	-0.23592591
45	0x3f098b00	0.5372772
46	0xbf9227d5	-1.1418406
47	0x3ee1dbaf	0.44112918
48	0x3f01398f	0.5047845
49	0x3f317d51	0.6933184
50	0xbfa0e178	-1.2568808
51	0x3e141a76	0.14463219
52	0xbedd0cbe	-0.43173784
53	0x3ed19ad4	0.40938437
54	0xbe6d1e12	-0.23156002
55	0x3f96d731	1.1784421
56	0xbea884fa	-0.32913953
57	0xbed2e38d	-0.41189232
58	0xbf780f34	-0.968982
59	0x3ee3047d	0.44339362
60	0x3ea183c4	0.31545842
61	0x3dec7975	0.115466036
62	0x3ed1eec3	0.41002473
63	0xbd27683b	-0.040870886
64	0x3c0c3166	0.008556699
65	0xbe0d1001	-0.13775636
66	0xbea2b603	-0.3177949
67	0xbe41ef82	-0.18939021
68	0x3dacb71b	0.08433362
69	0xbe54fa62	-0.20798638
70	0xbc7b0a00	-0.015322208
71	0xbd476223	-0.048677575
72	0x3e8911c2	0.2677136
73	0xbeb2f5a4	-0.34953034
74	0x3d6fed4a	0.058575906
75	0xbee1a888	-0.44073892
76	0xbc062bb3	-0.00818913
77	0xbe7d8d75	-0.24760993
78	0x3e1ab723	0.15108924
79	0x3e07fcc5	0.13280018
80	0x3e33b247	0.17548476
81	0xbf7ba463	-0.9829771
82	0x3de59d0d	0.11211596
83	0x3fb0bb28	1.3807116
84	0x3f375106	0.71608007
85	0xbba5c0dd	-0.0050583915
86	0x3fc5a321	1.5440408
87	0x3fdc57d6	1.7214305
88	0x3e990b6f	0.29891536
89	0x3fbe24b5	1.4854952
90	0xbe14f4c5	-0.14546497
91	0x3f245c9a	0.642038
92	0xbeeb9cc1	-0.4601803
93	0xbf51bda5	-0.8193
94	0xbfe02657	-1.75117
95	0xbf0c93e7	-0.5491318
96	0x3f532b22	0.8248769
97	0x3f1b4729	0.60655457
98	0x3f346b8e	0.70476615
99	0x3fafb20b	1.3726209
100	0x3eabad73	0.3353077
101	0xbdc0256d	-0.093821384
102	0xbc41e5d1	-0.011834578
103	0xbf277b99	-0.6542297
104	0xbf9ee5b2	-1.2413847
105	0x3f5bdebd	0.85886747
106	0xbf00e2bb	-0.50345963
107	0xbe12bbac	-0.14329404
108	0x3f8c1606	1.0944221
109	0xc00500cd	-2.0781739
110	0x3e665062	0.22491601
111	0x3f98e57c	1.1945033
112	0xbfd3d4e3	-1.6549343
113	0x3efb508e	0.49084896
114	0xbde0eb6d	-0.10982404
115	0x3ea05588	0.31315255
116	0x3ec39ec2	0.3820706
117	0x3d1b794b	0.03795747
118	0x3e85471b	0.26030812
119	0xbf7c002f	-0.9843778
120	0x3fc8e0a3	1.5693554
121	0xbe52ae7d	-0.20574374
122	0x3e3a17c6	0.18173131
123	0xbef54cac	-0.47910058
124	0xbe08be85	-0.13353927
125	0x3f047adb	0.5174996
126	0xbf731dc1	-0.94967276
127	0xbfada956	-1.3567302
128	0xbf9940bb	-1.1972879
129	0xbe3ced3c	-0.18449873
130	0xbd820e4e	-0.06350385
131	0xbe2db2ea	-0.16962782
132	0x3f5ef9c3	0.87099856
133	0xbe176a12	-0.14786556
134	0x3f48166c	0.78159213
135	0x3f72bf0c	0.94822764
136	0x3f805403	1.0025638
137	0xbf20771b	-0.6268174
138	0x4047d4c9	3.1223624
139	0xbfdedc09	-1.7410899
140	0xbe32832c	-0.1743285
141	0xbf80b80f	-1.005617
142	0xbf9ba1b0	-1.2158718
143	0xbead7b89	-0.33883312
144	0x3ef8a95b	0.48566708
145	0x3f6ba3da	0.9204689
146	0x3fa4d070	1.287611
147	0x3f297fc7	0.662106
148	0x3f8f5b7e	1.1199796
149	0x3ce30965	0.02771444
150	0xbf8286b9	-1.0197364
151	0xbf9e6e86	-1.2377479
152	0xbbd2103f	-0.006410628
153	0x3d0e5451	0.03474838
154	0x3fc4aa1f	1.5364417
155	0xbecf7a99	-0.40523222
156	0x3e48acb2	0.19597128
157	0xbf205f87	-0.62645763
158	0xbf0be71e	-0.5464953
159	0x40084fb6	2.1298652
160	0x3c8fb9b4	0.017544605
161	0xbf909c6a	-1.1297734
162	0x3f6f5de1	0.9350262
163	0x400a50f1	2.1611903
164	0x3f26d90e	0.6517495
165	0x3e479cc9	0.19493403
166	0x3f5d522f	0.8645353
167	0x3de0090a	0.10939224
168	0xc02a1c65	-2.657983
169	0xbce9b393	-0.02852801
170	0x3d63c90f	0.055611666
171	0xbf658012	-0.89648545
172	0xbea7dd64	-0.32786095
173	0xbfc0e56b	-1.5070013
174	0xbf4cfa0b	-0.80069035
175	0xbf07982f	-0.5296659
176	0x3ee1be23	0.44090375
177	0xbfa10043	-1.2578205
178	0xbeb110bf	-0.3458309
179	0x3e20e35a	0.15711728
180	0x3f85a0ee	1.0439737
181	0xbf882077	-1.0634907
182	0x3e7bbf1c	0.24584621
183	0x4001f16e	2.0303607
184	0x3e9b55bd	0.3033885
185	0xbd26dfb9	-0.040740702
186	0xbf1ff240	-0.6247902
187	0xbf390d74	-0.7228615
188	0x3fbdbf55	1.4824015
189	0xbe9533be	-0.2914104
190	0xbfe1a8c6	-1.762963
191	0xc000cbc8	-2.0124378
192	0x3de79d97	0.11309355
193	0xbf814db4	-1.0101838
194	0xbfd75fad	-1.6826073
195	0xbf27916c	-0.6545627
196	0x4016d7ca	2.3569207
197	0xbea88094	-0.32910597
198	0x3fc3e19f	1.5303229
199	0x3fddb68c	1.7321334
200	0xbec9bccb	-0.3940185
201	0x3f78215c	0.969259
202	0xbf8c10f4	-1.0942674
203	0xbeb63b16	-0.35591954
204	0xbf3197fd	-0.6937254
205	0x3df6b6a8	0.12046558
206	0x3d47cf0c	0.04878144
207	0x3ed5244b	0.41629252
208	0x3df711d0	0.12063944
209	0xbff69f0a	-1.9267285
210	0x3ea01f52	0.31273896
211	0x3fa364d2	1.2765143
212	0xbe6845e3	-0.2268291
213	0xbf9a315d	-1.2046314
214	0x3cd789e2	0.026310865
215	0x3fd35d5f	1.651287
216	0xbfa86a50	-1.3157444
217	0x3ffb8554	1.9650064
218	0x4006a88e	2.1040378
219	0x3f0183f1	0.5059195
220	0x3ede7791	0.43450597
221	0x3f5cae97	0.862039
222	0x3f4df83c	0.804569
223	0x3f0d51f2	0.55203164
224	0x3f5bbd91	0.8583613
225	0xbf2b9f85	-0.6704028
226	0xbefcfa33	-0.49409637
227	0xbf8282e4	-1.0196195
228	0x3e8cef24	0.275262
229	0x3ee496fe	0.44646448
230	0x3fadb297	1.3570126
231	0xbcf76f48	-0.03020443
232	0x3f56348f	0.8367395
233	0x3f7dc37b	0.99126405
234	0xbf255356	-0.64580286
235	0x3f54c69d	0.8311556
236	0xbe5d7b77	-0.2162913
237	0x3f8000e8	1.0000277
238	0x3ed37352	0.4129892
239	0xbebbd59f	-0.36686417
240	0xbf797ba9	-0.97454315
241	0xbee5cb8a	-0.4488185
242	0x3f577eda	0.84177935
243	0x3f020d11	0.5080119
244	0x3e148acc	0.14506072
245	0xbe5e8a74	-0.21732503
246	0xbf31f186	-0.6950916
247	0x3f786a49	0.9703718
248	0xbf331e0d	-0.6996773
249	0xbf6f184c	-0.9339645
250	0xbf878815	-1.0588404
251	0xbfaadc09	-1.3348399
252	0x3f6979f0	0.91201687
253	0xbe4c895d	-0.19974275
254	0x3f59b992	0.8504878
255	0xbf87199c	-1.055469

weight f4 [3, 1, 2, 20]
0	0xbe1ecbc6	-0.15507421
1	0xbdcf8a98	-0.101338565
2	0xbe305a67	-0.17221986
3	0x3e0661a3	0.13123183
4	0x3cda8e72	0.026679251
5	0x3e561c2b	0.20909183
6	0xbe472f8e	-0.19451734
7	0x3e07e173	0.13269596
8	0x3df40c1b	0.119163714
9	0xbcc29f6a	-0.023757655
10	0xbc74521a	-0.014912153
11	0x3d0160e7	0.031586554
12	0xbe92aa32	-0.28645474
13	0x3d660a79	0.05616233
14	0x3db79f82	0.089659706
15	0x3dcecf64	0.1009815
16	0x3d46b6ec	0.04851429
17	0x3e816e57	0.25279495
18	0x3c833f5f	0.016021429
19	0x3cec71ff	0.028862951
20	0x3ca636a7	0.020289732
21	0xbca410b7	-0.020027502
22	0xbeb0cdaa	-0.3453191
23	0xbe92c8b8	-0.2866876
24	0x3e22638d	0.15858288
25	0xbdcb4d55	-0.09926859
26	0xbdba8521	-0.091074236
27	0x3de437de	0.11143468
28	0xbc90cdd8	-0.017676279
29	0x3e4341ee	0.19068119
30	0xbe24e5ba	-0.16103259
31	0x3da5a779	0.080885835
32	0xbea7cd78	-0.32773948
33	0x3e3d7432	0.18501356
34	0xbdebbd64	-0.11510733
35	0xbd145536	-0.036214076
36	0xbd5ba41c	-0.053623304
37	0x3e1cd020	0.15313768
38	0xbddff3ec	-0.10935196
39	0xbe2c9187	-0.1685239
40	0xbe70827f	-0.2348728
41	0x3ea03197	0.31287834
42	0xbe8e4064	-0.277835
43	0xbe0dfdfe	-0.13866422
44	0x3ec42af2	0.38314015
45	0x3e9cc9e8	0.30622792
46	0x3e730872	0.2373369
47	0x3d77dc7f	0.060513016
48	0xbd501670	-0.050802648
49	0xbe336b79	-0.17521466
50	0x3d5c3de1	0.05376995
51	0xbe193f24	-0.14965492
52	0xbd678737	-0.056525435
53	0x3ca47f69	0.020080285
54	0xbe2a920f	-0.1665728
55	0x3e38e25a	0.18055096
56	0x3e973ae4	0.29537117
57	0x3e80d0a4	0.2515918
58	0x3e5f282f	0.21792673
59	0x3da1f2f1	0.079076655
60	0x3d0020b9	0.031281207
61	0xbf095476	-0.536445
62	0xbee353bc	-0.44399822
63	0x3eb24437	0.3481767
64	0xbe1f6957	-0.15567528
65	0x3e607bb5	0.2192219
66	0x3ea44eef	0.32091472
67	0xbe6a49fa	-0.22879782
68	0x3d301b48	0.042994767
69	0x3e595587	0.21224032
70	0x3d24254c	0.04007463
71	0xbdaaa0ac	-0.08331427
72	0xbdfd0be0	-0.123557806
73	0x3f28510d	0.65748674
74	0x3e4bc77f	0.1990032
75	0xbe034d4e	-0.12822458
76	0x3cf2f64c	0.02965846
77	0x3e5b238c	0.21400279
78	0xbe0d7575	-0.13814338
79	0xbe0aefdd	-0.13568063
80	0xbe6c6c9b	-0.23088305
81	0xbd8ca0fd	-0.068666436
82	0xbd8fe76c	-0.07026562
83	0x3d82b912	0.063829556
84	0xbc035538	-0.008015923
85	0x3e2cfc90	0.1689322
86	0x3cdbc56b	0.026827535
87	0x3d4b5a62	0.049646743
88	0x3c7ea796	0.015542885
89	0x3e41aa98	0.18912733
90	0xbde3a805	-0.111160316
91	0x3c94847b	0.018129578
92	0xbe5cc509	-0.21559538
93	0x3d8e98c1	0.06962729
94	0x3e35e1dd	0.17761941
95	0x3d8fd6d4	0.07023397
96	0xbe2a053f	-0.16603564
97	0x3e3730c6	0.178897
98	0xbd61c95d	-0.055123676
99	0xbdcf712f	-0.1012901
100	0xbdebec65	-0.11519698
101	0x3db59cc4	0.08867791
102	0xbeb1f3e9	-0.347564
103	0x3e4d11ed	0.2002637
104	0x3d9cebf1	0.0766219
105	0x3d1ea91e	0.0387355
106	0xbc1b24ce	-0.009469224
107	0x3da8796e	0.08226286
108	0x3dd419a6	0.103564546
109	0x3e2333a0	0.15937662
110	0xbd518986	-0.051156543
111	0xbc9c186c	-0.019054614
112	0x3c9a551c	0.018839411
113	0xbddf547a	-0.109047845
114	0x3e420a44	0.18949229
115	0x3e484864	0.19558865
116	0xbe02b7a2	-0.12765363
117	0x3e63403d	0.22192474
118	0x3cd2aa0c	0.02571585
119	0x3de7fe95	0.113278545

bias f4 [3]
0	0xbf721d47	-0.94575924
1	0xbf934f12	-1.1508505
2	0xbf5f8a9e	-0.8732089

weight f4 [3, 1, 3, 20]
0	0xbe3f991b	-0.18710749
1	0xbea3308a	-0.3187297
2	0xbe214f3f	-0.15752886
3	0xbe453204	-0.1925736
4	0x3ef2e0d5	0.47437158
5	0x3e7ba834	0.24575883
6	0x3e0bc426	0.13649043
7	0x3e897e07	0.26853964
8	0xbdd08f0d	-0.10183535
9	0x3e193647	0.14962111
10	0x3e8a61b1	0.27027658
11	0xbe5846dc	-0.2112078
12	0xbef13e11	-0.47117665
13	0x3e2288b8	0.15872467
14	0x3f093a93	0.53605
15	0x3e4f086f	0.20218061
16	0x3eb88cf3	0.36045036
17	0x3e1e2a60	0.15445852
18	0xbe8115bf	-0.25211903
19	0x3e3a950b	0.18220918
20	0x3e925fe2	0.28588778
21	0x3d8b5fa7	0.068053536
22	0xbe50809c	-0.2036156
23	0xbd928920	-0.07155061
24	0x3dcb7855	0.09935061
25	0x3ea996e3	0.3312293
26	0xbe9019ad	-0.2814459
27	0x3e22d98a	0.15903297
28	0xbe623bb4	-0.22093087
29	0x3d8670d6	0.065644905
30	0xbce087d4	-0.027408518
31	0xbeb2d29a	-0.349263
32	0x3bfa3ba6	0.007636505
33	0x3ea96f7f	0.33092877
34	0x3e3e34f2	0.18574885
35	0x3e6774ea	0.22603193
36	0x3e3a9c9f	0.18223809
37	0x3ea2e117	0.31812355
38	0xbc40b466	-0.01176176
39	0xbe215b43	-0.1575747
40	0x3e2cbe04	0.1686936
41	0xbe564567	-0.20924912
42	0xbf0154e2	-0.50520146
43	0x3cae28c8	0.02125968
44	0x3e314070	0.17309737
45	0x3eac1b00	0.3361435
46	0x3ddc0b46	0.10744338
47	0x3e77b96d	0.24191828
48	0x3e07ff0b	0.13280885
49	0x3d6b0f15	0.05738743
50	0x3d84ad39	0.06478352
51	0x3e209354	0.15681201
52	0xbe5171e4	-0.20453602
53	0x3ec76aad	0.38948575
54	0x3e5acf73	0.21368198
55	0x3eccb8b3	0.39984664
56	0xbc835cb3	-0.016035413
57	0x3dbb5cd4	0.09148565
58	0xbf1f459c	-0.6221559
59	0x3e831745	0.2560369
60	0xbe3f2ac1	-0.18668653
61	0x3c8e9b8a	0.017408151
62	0xbe9e5a7f	-0.30928418
63	0x3c8be399	0.0170763
64	0x3e4e1d1d	0.20128293
65	0xbbe05e86	-0.0068472056
66	0x3ec034bd	0.37540236
67	0x3ee42400	0.44558716
68	0x3e372d0c	0.17888278
69	0x3df37adf	0.1188867
70	0x3c262059	0.010139548
71	0x3e19495e	0.14969394
72	0xbe6a0f01	-0.22857286
73	0xbd28108d	-0.04103141
74	0x3dddb751	0.108259805
75	0x3ee4305b	0.44568142
76	0x3da0a133	0.07843246
77	0x3e07da6d	0.13266917
78	0xbeaed5be	-0.34147447
79	0x3c3a030d	0.011353266
80	0x3db8c32d	0.09021602
81	0xbe8a2a91	-0.269856
82	0xbee2c9a6	-0.4429447
83	0x3d8f2aca	0.06990583
84	0xbd543797	-0.051810827
85	0x3e4c6bb1	0.19962956
86	0x3e0d9abe	0.1382856
87	0x3d676518	0.056492895
88	0x3e1d07de	0.15335032
89	0x3bfd6624	0.0077331234
90	0xbc70a0ac	-0.014686745
91	0xbe432aae	-0.1905925
92	0xbedea713	-0.43486843
93	0x3e744e97	0.23858105
94	0x3e5cd222	0.21564534
95	0x3dadce02	0.084865585
96	0xbdd167a6	-0.102248475
97	0x3e9ca6c0	0.3059597
98	0xbd46a4f9	-0.048497174
99	0x3de8b580	0.113627434
100	0x3e6db313	0.23212843
101	0xbe84cc26	-0.25937003
102	0xbe61f9eb	-0.22067992
103	0x3cb7809c	0.022400193
104	0x3e5e9917	0.21738087
105	0x3e47e887	0.19522296
106	0x3dcc0118	0.09961146
107	0xbd49d871	-0.04927868
108	0xbdd5d4f1	-0.10441006
109	0x3d16efe2	0.036849864
110	0x3cf9b0e3	0.030479854
111	0xbd809ddc	-0.06280109
112	0xbec4008b	-0.38281664
113	0x3e95dce1	0.2927008
114	0x3d7491d0	0.05970937
115	0x3e49388e	0.1965048
116	0x3d4004bb	0.04687951
117	0xbc960423	-0.01831252
118	0xbe5eac42	-0.21745399
119	0x3e409702	0.18807605
120	0xbea81e59	-0.32835653
121	0xbe8154fb	-0.25260147
122	0xbdb901e0	-0.09033561
123	0x3e020857	0.12698494
124	0x3e37c5eb	0.17946593
125	0x3e376652	0.17910126
126	0xbd997484	-0.07492927
127	0x3f15504d	0.58325654
128	0xbcf0ecb0	-0.029409736
129	0xbee76fcb	-0.4520248
130	0xbebdf3b4	-0.37099993
131	0xbf01365e	-0.5047358
132	0xbe326b5f	-0.17423771
133	0x3ea864b4	0.3288933
134	0x3ee85786	0.45379275
135	0xbe69796c	-0.22800225
136	0xbf132deb	-0.5749194
137	0x3f360e9b	0.71116036
138	0x3e4af4df	0.19819973
139	0x3edc4c01	0.43026736
140	0x3e1825f8	0.14858234
141	0xbe84a0e4	-0.25904
142	0xbe613474	-0.21992666
143	0xbbab2a7e	-0.0052235713
144	0x3eeee373	0.46657905
145	0x3e121d15	0.14268906
146	0xbceb43a5	-0.028718779
147	0x3d8629bd	0.0655093
148	0xbdc0c508	-0.09412581
149	0xbe3303e9	-0.1748196
150	0x3e39ce97	0.18145214
151	0xbb38b67e	-0.0028184946
152	0xbe12be2f	-0.14330362
153	0x3ec97cef	0.3935313
154	0x3ec9d66c	0.39421403
155	0x3b99885a	0.004685444
156	0xbdfd63f6	-0.12372582
157	0x3e951b81	0.29122546
158	0xbe2ecf85	-0.1707135
159	0x3e22bb2c	0.15891713
160	0xbeac767c	-0.33684146
161	0x3e2a2c65	0.16618498
162	0xbe8c6814	-0.27423155
163	0xbdd3bfa1	-0.10339285
164	0x3e0faac9	0.14029993
165	0x3ef887da	0.48541147
166	0x3e4d6a33	0.20060043
167	0xbe1a284e	-0.15054438
168	0x3e8f5d35	0.280008
169	0xbd6cc176	-0.057801686
170	0xbc875843	-0.016521579
171	0xbe79748d	-0.24360867
172	0xbe510ce8	-0.2041508
173	0xbcf88ce5	-0.030340621
174	0x3eb3f0bd	0.35144606
175	0x3e491dac	0.19640225
176	0xbdfee518	-0.1244604
177	0xbbe7cfac	-0.007074317
178	0xbe0cc885	-0.13748367
179	0x3ec202f4	0.37892878

bias f4 [3]
0	0xbf88fb79	-1.0701743
1	0xbf95edd4	-1.1713204
2	0xbf34e0c2	-0.70655453

weight f4 [3, 1, 4, 20]
0	0xbe8c3b89	-0.27389172
1	0xbe916344	-0.28396046
2	0xbf2161ad	-0.63039666
3	0xbe6e33b1	-0.23261906
4	0x3f212e50	0.6296129
5	0xbe10af1a	-0.14129296
6	0x3e31c4a7	0.17360173
7	0x3f107289	0.56424767
8	0xbb867509	-0.004103307
9	0x3d80850f	0.06275379
10	0x3e1091ff	0.14118193
11	0x3bc76f22	0.006086246
12	0xbf101bed	-0.5629261
13	0x3ed9f816	0.42572087
14	0x3e00c5e3	0.12575488
15	0x3e4940f8	0.1965369
16	0xbd24f259	-0.040270183
17	0x3ec36f18	0.38170695
18	0xbdcaa498	-0.09894675
19	0x3e2fa577	0.17152964
20	0xbdf02256	-0.11725299
21	0xbec4b60a	-0.38420135
22	0xbf046760	-0.5172024
23	0x3cd9a6f2	0.026568864
24	0x3ea4d768	0.32195592
25	0x3e9fcbe6	0.3121025
26	0x3e34c1f6	0.17652115
27	0xbcd55a00	-0.026043892
28	0xbd698d1b	-0.057019334
29	0x3e173cf0	0.1476934
30	0xbcb2bcb5	-0.021818498
31	0x3da13422	0.07871272
32	0xbf026401	-0.50933844
33	0x3f0388cb	0.51380605
34	0x3e81f194	0.25379622
35	0x3e60ffa4	0.21972519
36	0xbcb9dc08	-0.022687927
37	0x3f1a3136	0.6023134
38	0xbdef9567	-0.11698418
39	0x3e91b0ed	0.28455296
40	0xbe49eaaa	-0.19718423
41	0xbcd36e96	-0.025809567
42	0xbe448110	-0.19189858
43	0x3ea20295	0.31642595
44	0x3e269833	0.16268997
45	0x3de6dc54	0.11272493
46	0x3e99fa45	0.30073753
47	0xbe4ffdb2	-0.20311621
48	0x3eee3598	0.46525264
49	0xbbe79ecf	-0.007068492
50	0x3e56cba4	0.2097612
51	0x3d4eead8	0.050516933
52	0x3d455b38	0.048182696
53	0x3f0ad2c8	0.54227877
54	0x3ec0195f	0.37519357
55	0x3e31660e	0.17324087
56	0x3d8d75bd	0.069072224
57	0x3f0687a3	0.52550715
58	0xbdbb04e8	-0.09131795
59	0x3e985332	0.29750973
60	0xbe537d3c	-0.20653242
61	0xbe8b5d4c	-0.27219617
62	0xbe925176	-0.28577775
63	0x3d1b3f67	0.037902262
64	0x3e2dfb29	0.16990341
65	0x3ec7d83a	0.39032155
66	0xbd1207a8	-0.035651833
67	0x3dab4def	0.08364474
68	0xbf14be1c	-0.58102584
69	0x3ea2d8ec	0.31806123
70	0x3e587858	0.21139657
71	0x3e2ac021	0.16674854
72	0xbebc3982	-0.36762625
73	0x3e5a2ab5	0.21305354
74	0x3e20cebf	0.15703867
75	0xbcff1035	-0.031135658
76	0x3e09d7e6	0.13461265
77	0x3e78edfa	0.24309531
78	0x3b286545	0.0025695127
79	0x3eaf263a	0.34208852
80	0xbe6df7ed	-0.23239107
81	0xbe36a2c4	-0.17835528
82	0xbeae4e0e	-0.34043926
83	0xbdbe75a4	-0.09299782
84	0x3d106bef	0.035259183
85	0xbd32f8ed	-0.043694425
86	0x3cb9ccb0	0.02268061
87	0x3e0c992d	0.13730307
88	0x3eb5132d	0.35366192
89	0x3dc3d1e7	0.0956152
90	0x3d883499	0.06650657
91	0x3db2e8a7	0.08735781
92	0xbedbc9c2	-0.42927366
93	0x3ea80edf	0.32823846
94	0x3d8c7d0d	0.06859789
95	0x3ee35390	0.4439969
96	0xbdfd5d98	-0.12371367
97	0x3e01adbf	0.12663935
98	0xbe0a926b	-0.13532417
99	0x3ec25cc4	0.379614
100	0x3e333fa4	0.17504746
101	0xbd5abadc	-0.05340086
102	0xbec34943	-0.38141832
103	0x3dfff6f1	0.12498272
104	0xbdc70224	-0.09717205
105	0xbcb9f908	-0.022701755
106	0xbc250552	-0.010072069
107	0xbede153f	-0.43375584
108	0xbe217730	-0.15768123
109	0x3d5a66a1	0.05332053
110	0xbd1cdfa3	-0.038299214
111	0xbc7590f0	-0.014988169
112	0xbe9ca363	-0.30593404
113	0xbcd22e7e	-0.025656935
114	0xbca6790f	-0.020321397
115	0x3e1fd904	0.15610129
116	0x3db273f0	0.087135196
117	0xbe090f4b	-0.1338474
118	0x3e34e858	0.17666757
119	0x3e0b8408	0.13624585
120	0xbe2bea35	-0.16788562
121	0xbe835a1a	-0.2565468
122	0xbe6c07b9	-0.23049821
123	0x3ec1696d	0.37775746
124	0xbbc21170	-0.005922489
125	0x3e5e1f7d	0.216917
126	0x3e6bbc21	0.23020984
127	0x3d4e222f	0.05032557
128	0x3e423895	0.18966897
129	0x3dd2c02d	0.10290561
130	0x3de8535d	0.11344025
131	0x3e276320	0.16346407
132	0xbdb1cf8c	-0.086821645
133	0x3ebc4659	0.3677242
134	0x3dae325e	0.085057005
135	0x3da139f8	0.07872385
136	0xbe297b53	-0.1655095
137	0x3e897984	0.26850522
138	0xbe2f70e1	-0.17132904
139	0xbe87882e	-0.26471084
140	0xbe2933b7	-0.16523634
141	0xbdaba00e	-0.083801374
142	0xbee6ac7a	-0.45053464
143	0x3e8f24ec	0.27957857
144	0x3db2af62	0.08724858
145	0x3c8cdea5	0.017196009
146	0x3e0a8858	0.13528574
147	0xbcf5a7a6	-0.029987168
148	0x3d49fc84	0.049313083
149	0xbcdbf019	-0.026847886
150	0x3e73ddb2	0.23815039
151	0xbd9b0312	-0.07568945
152	0xbe8d941d	-0.27652064
153	0x3ea86c61	0.32895187
154	0x3e3b859a	0.18312684
155	0x3e89dfab	0.26928458
156	0xbd87821b	-0.066166125
157	0x3dffc02e	0.12487827
158	0x3e8d981a	0.27655107
159	0x3e2110d2	0.15729073
160	0xbeaa3225	-0.33241382
161	0xbe966cfc	-0.29380023
162	0xbeb7c8a9	-0.3589528
163	0xbd8fe3af	-0.07025849
164	0x3cbe53de	0.02323335
165	0x3e9937c7	0.29925367
166	0x3e07f0de	0.13275477
167	0x3e938e65	0.28819576
168	0x3e6bafaa	0.2301623
169	0xbe01534e	-0.12629434
170	0x3aad737d	0.0013233271
171	0xbe5f0425	-0.21778925
172	0xbe8d7f9b	-0.27636418
173	0x3e2fcdc4	0.17168337
174	0x3e852f5c	0.26012695
175	0x3e4b422f	0.19849466
176	0x3d786638	0.06064436
177	0xbce493e9	-0.02790256
178	0xbdc53e13	-0.0963098
179	0xbda2e4ad	-0.07953773
180	0xbeec7e89	-0.4619029
181	0xbf39033f	-0.7227058
182	0xbeb169cd	-0.34651032
183	0xbe357fba	-0.17724505
184	0x3e146c49	0.14494433
185	0x3d428999	0.047494505
186	0xbd481317	-0.04884633
187	0x3e90ce40	0.28282356
188	0x3e172792	0.14761189
189	0x3e35ec9f	0.17766045
190	0x3e758c1a	0.23979226
191	0x3d838913	0.06422629
192	0xbe373c76	-0.17894158
193	0x3e3faf7b	0.18719284
194	0x3e99f332	0.30068356
195	0xbcc75598	-0.024332806
196	0x3eb31b2d	0.3498167
197	0xbe5a1bc0	-0.21299648
198	0xbe2b358b	-0.16719644
199	0xbd9efb28	-0.07762748
200	0xbe1cf4b9	-0.1532773
201	0xbec187d9	-0.37798956
202	0xbe6ff08c	-0.23431605
203	0x3d9c78e3	0.07640245
204	0x3d98a9e8	0.07454282
205	0x3e958cd5	0.2920901
206	0x3e9f8844	0.3115865
207	0xbe003257	-0.12519203
208	0xbd2c9b07	-0.042140033
209	0xbdd59550	-0.1042887
210	0x3d9b6edc	0.07589504
211	0xbd8b9a97	-0.06816595
212	0xbf0af4e6	-0.54279935
213	0x3efb7cb0	0.49118567
214	0x3d688220	0.056764722
215	0x3e1e24e2	0.15443757
216	0x3da3d12c	0.07998881
217	0x3e915317	0.28383705
218	0xbc35b313	-0.011090058
219	0x3e51f606	0.20504007
220	0xbedf3f0d	-0.4360279
221	0xbe79a603	-0.24379735
222	0xbea6e57d	-0.3259696
223	0x3e17a8c5	0.14810474
224	0x3e0a6632	0.13515547
225	0x3ed70b56	0.42000836
226	0xb92c07b0	-0.00016406062
227	0xbc8c34e2	-0.01711506
228	0x3ed7567e	0.42058176
229	0xbd50515a	-0.050858833
230	0xbdf94864	-0.121720105
231	0x3d568fdb	0.052383285
232	0xbf1561d3	-0.5835239
233	0x3e1632dc	0.14667839
234	0xbda5e5a9	-0.08100445
235	0x3b7d7868	0.0038676504
236	0x3e28e0d5	0.16492017
237	0x3e1ddaf5	0.15415557
238	0x3d85045b	0.06494971
239	0x3eb1fbcf	0.34762427

bias f4 [3]
0	0xbf870e34	-1.055121
1	0xbf209a55	-0.6273549
2	0xbf80e6ca	-1.0070431

weight f4 [3, 1, 5, 20]
0	0xbe222934	-0.1583603
1	0xbdfa9ad3	-0.122365616
2	0xbee6934a	-0.45034248
3	0x3e94c21b	0.2905434
4	0x3ecc8f5e	0.3995313
5	0x3e4bc142	0.19897941
6	0x3ea84a65	0.3286926
7	0x3dac67bb	0.084182225
8	0xbe0c6543	-0.13710503
9	0x3e560fe8	0.20904505
10	0xbdd7ab1c	-0.105306834
11	0x3d0060d2	0.031342335
12	0xbd25e882	-0.04050494
13	0xbc91280d	-0.017719293
14	0x3ed600db	0.41797528
15	0x3e3c762d	0.18404455
16	0xbe8759b7	-0.26435634
17	0x3ed63d4c	0.4184364
18	0xbe272d30	-0.16325831
19	0x3de8ac86	0.11361031
20	0xbe406591	-0.18788745
21	0x3dcedb6d	0.10100446
22	0xbeb7b10e	-0.3587727
23	0xbe0585c8	-0.13039315
24	0x3d2ff616	0.042959295
25	0x3e4a05c7	0.19728766
26	0x3e8465c3	0.25858888
27	0x3e686516	0.22694811
28	0xbe42ea2f	-0.19034646
29	0x3d270cce	0.040783696
30	0xbe38addd	-0.18035074
31	0x3de251d4	0.11050764
32	0xbeb46899	-0.35236052
33	0x3f11316b	0.5671603
34	0x3d83bdf1	0.06432713
35	0x3e84c4a0	0.25931263
36	0x3d227cc7	0.03966978
37	0x3ecef49e	0.40421003
38	0xbc786fab	-0.0151633425
39	0x3b77df29	0.0037822223
40	0xbd8ab7e2	-0.06773354
41	0xbe4619e6	-0.19345817
42	0xbe8de2e3	-0.27712163
43	0xbe7af178	-0.24506176
44	0x3d47867c	0.04871224
45	0x3c2b9574	0.010472644
46	0x3e3c8287	0.18409167
47	0x3d61a089	0.05508474
48	0x3d9c7e1a	0.076412395
49	0x3eac9375	0.3370625
50	0xbd6afd2d	-0.057370353
51	0xbd05784d	-0.03258543
52	0xbefb3d2c	-0.49070108
53	0x3eac5fe3	0.33666906
54	0x3e567f86	0.20947084
55	0x3f0ef2c4	0.5583918
56	0xbe998582	-0.2998467
57	0x3bec2fbb	0.0072078384
58	0xbe0325c9	-0.12807383
59	0x3d9c06c5	0.07618479
60	0x3dc5f0b8	0.09665054
61	0xbe8de704	-0.27715313
62	0xbebbc012	-0.36669976
63	0xbd8b8b7e	-0.068137154
64	0x3e99fd31	0.30075982
65	0x3e52da38	0.20591056
66	0x3e8cfbdf	0.27535912
67	0xbd4978ab	-0.049187344
68	0x3ca9dafa	0.020734299
69	0x3eace689	0.33769634
70	0x3e8fa794	0.2805754
71	0x3e1e777a	0.15475264
72	0xbe8d6dee	-0.27622932
73	0x3e678f20	0.22613192
74	0x3dd0e39d	0.10199664
75	0xbc69e7d7	-0.014276466
76	0xbbe28454	-0.0069127474
77	0x3ddf644d	0.10907803
78	0x3ced1255	0.028939405
79	0x3e720c57	0.2363752
80	0xbe1ad766	-0.1512123
81	0xbe1b8e51	-0.15191008
82	0xbecd6cc8	-0.40122056
83	0x3e44cedb	0.19219534
84	0x3e1855f8	0.14876544
85	0x3d80b338	0.06284183
86	0xbda4887d	-0.080338456
87	0x3e69e8d5	0.22842725
88	0xbd4aa1c5	-0.04947068
89	0x3dfb8213	0.12280669
90	0x3e65aeef	0.22430013
91	0xbe5f4ad8	-0.21805894
92	0xbe763d3f	-0.24046801
93	0x3e9635b9	0.29337862
94	0x3e4d0d3f	0.20024584
95	0x3efe304d	0.49646226
96	0xbd918718	-0.07105845
97	0x3ea170da	0.3153141
98	0xbd9ac1d7	-0.07556503
99	0x3ddce33c	0.10785529
100	0x3d82d1b8	0.06387657
101	0xbd5135aa	-0.05107657
102	0xbefc637b	-0.49294648
103	0x3df001d8	0.11719102
104	0x3d2e5d05	0.04256918
105	0x3ecb5c94	0.3971907
106	0x3e9bd940	0.30439186
107	0xbba4cfc2	-0.0050296495
108	0xbab1faf2	-0.0013578816
109	0x3e35e501	0.1776314
110	0xbc8165ea	-0.015795667
111	0xbd06f1dc	-0.0329455
112	0xbee62603	-0.44950876
113	0x3e24d548	0.16096985
114	0x3ec5dd19	0.38645247
115	0x3d91c109	0.07116897
116	0xbc27baf8	-0.010237448
117	0x3d213dd9	0.039365623
118	0xbe4b747c	-0.19868654
119	0x3e948207	0.29005453
120	0x3d869e72	0.0657319
121	0xbe916d79	-0.28403834
122	0xbeb40bf3	-0.35165367
123	0x3d40acf5	0.047039945
124	0x3ee5c380	0.44875717
125	0x3d4a5fb2	0.04940767
126	0x3dc598d6	0.09648292
127	0x3e0c135d	0.13679262
128	0x3e549000	0.20758057
129	0x3dac53d4	0.084144264
130	0x3dc3a195	0.09552304
131	0xbd132169	-0.035920534
132	0xbe018ea2	-0.12652066
133	0x3ed22f19	0.41051558
134	0x3e37fe8e	0.17968199
135	0x3e793fc7	0.24340735
136	0x3e4a3960	0.1974845
137	0x3e22954a	0.15877262
138	0xbeac54c6	-0.33658427
139	0x3d8604c7	0.0654388
140	0xbe2c47e8	-0.16824305
141	0xbc452904	-0.012033705
142	0xbeaace45	-0.33360496
143	0x3e3f7695	0.18697579
144	0x3e196cf4	0.14982969
145	0x3e86532a	0.26235324
146	0x3e1503d7	0.14552246
147	0x3d93cee3	0.07217195
148	0x3e276a59	0.16349162
149	0xbe6fbaf6	-0.23411164
150	0xbe20ac15	-0.15690644
151	0x3e179a82	0.14805034
152	0xbebcf5c9	-0.3690627
153	0x3e864a7a	0.26228696
154	0x3dff8dc6	0.12478213
155	0x3e23f148	0.1601001
156	0x3d87802f	0.06616246
157	0x3eb21b3b	0.347864
158	0xbe190760	-0.1494422
159	0x3e90b201	0.28260806
160	0xbd7bc5e2	-0.061468013
161	0xbda13ce7	-0.07872944
162	0xbe6b6473	-0.22987537
163	0x3dbb32d3	0.09140553
164	0x3de0a034	0.10968056
165	0x3e62b325	0.2213865
166	0xbe13b77d	-0.14425464
167	0xbc8b5afd	-0.01701116
168	0x3e212faa	0.15740839
169	0x3cf3452f	0.029696075
170	0xbe6d5a11	-0.23178889
171	0x3db145d7	0.08655899
172	0xbe17ef9c	-0.14837497
173	0x3db401f2	0.087894335
174	0x3eafb130	0.3431487
175	0x3e114da3	0.14189772
176	0xbe14defb	-0.14538185
177	0x3e827de0	0.2548666
178	0xbe0c918b	-0.13727395
179	0xbe446ffd	-0.19183345
180	0x3cdb03fa	0.026735295
181	0xbec1fbfd	-0.37887564
182	0xbeb82905	-0.35968795
183	0x3dc439f8	0.09581369
184	0x3e7cbe75	0.24682029
185	0x3e47a178	0.19495189
186	0x3dd9dd26	0.10637884
187	0x3e6fcc08	0.23417675
188	0xbcfdc23f	-0.030976413
189	0x3e52c4cb	0.20582883
190	0xbe57e940	-0.21085072
191	0x3d20b92b	0.03923909
192	0xbdfb0b30	-0.12257993
193	0x3e97c956	0.29645795
194	0x3e6fd0be	0.23419473
195	0x3e29f110	0.16595864
196	0xbead0f18	-0.33800578
197	0x3e08e1ad	0.13367338
198	0xbe1a0c7e	-0.15043828
199	0x3e2433ad	0.16035338
200	0xbeb1f6cc	-0.34758604
201	0xbdcb52c7	-0.09927898
202	0xbe9de313	-0.30837306
203	0x3e22f506	0.15913782
204	0x3e833532	0.25626522
205	0xbd0b6dc7	-0.03404024
206	0xbe315a7b	-0.17319672
207	0x3e2edb3c	0.17075819
208	0xbd4ecc44	-0.05048777
209	0x3e864cfb	0.26230606
210	0xbed05f4b	-0.40697703
211	0xbea6cda9	-0.3257878
212	0x3dc7f9f1	0.097644694
213	0x3d2778c0	0.04088664
214	0x3ec9090a	0.3926471
215	0x3e1de20e	0.15418264
216	0x3e32a7c3	0.17446809
217	0x3ea42f5a	0.32067376
218	0xbe86707c	-0.26257694
219	0xbe617663	-0.22017817
220	0x3e240e4f	0.16021083
221	0xbd5ca405	-0.05386736
222	0xbe013209	-0.12616743
223	0x3d833eb7	0.06408446
224	0x3e7bed2d	0.24602194
225	0x3e9d9337	0.3077638
226	0x3ddc80e0	0.107667685
227	0xbdd4d3a5	-0.103919305
228	0xbe085dae	-0.13316986
229	0x3e38dce9	0.1805302
230	0xbe3efe09	-0.18651594
231	0xbef8c198	-0.485852
232	0x3cb8c48f	0.022554664
233	0x3e8b1b9e	0.27169508
234	0xbd8cc820	-0.06874108
235	0xbe0cc58b	-0.13747232
236	0x3eaeca76	0.3413884
237	0x3e8144a8	0.25247693
238	0x3e3f4c4a	0.18681446
239	0xbd1f67c3	-0.038917314
240	0xbe4a50ac	-0.19757336
241	0x3e997c69	0.2997773
242	0xbea42349	-0.3205817
243	0xbd8c9037	-0.06863444
244	0x3e45002f	0.19238351
245	0x3f162946	0.5865673
246	0x3dcc8938	0.0998711
247	0xbdd53a0c	-0.10411462
248	0xbdf64dae	-0.12026535
249	0x3e095c35	0.1341408
250	0x3dece5e0	0.11567283
251	0xbe21c815	-0.15798981
252	0x3da17670	0.07883918
253	0x3ee10db7	0.43955776
254	0x3d184d40	0.037183046
255	0xbe7c9c8f	-0.24669097

bias f4 [3]
0	0xbf4d8a6a	-0.8028933
1	0xbf7b7c6d	-0.98236734
2	0xbf402d1a	-0.7506882

weight f4 [3, 1, 6, 20]
0	0xbed991b6	-0.4249398
1	0xbe8ddb0f	-0.2770619
2	0xbeb517f6	-0.35369843
3	0xbed0ff31	-0.40819696
4	0xbdcc9e50	-0.09991133
5	0x3e00baa2	0.12571195
6	0x3ecbb0fc	0.39783466
7	0x3e2f694f	0.17130016
8	0x3e79e81f	0.24404953
9	0x3e9441ed	0.28956547
10	0x3df08cdc	0.11745617
11	0x3e1a221c	0.15052074
12	0xbef0666b	-0.4695314
13	0xbc22f3e4	-0.009945843
14	0x3e6af9c0	0.22946835
15	0x3efe10a7	0.4962208
16	0xbd84f413	-0.06491866
17	0x3e6c4f9b	0.23077242
18	0xbeedb303	-0.46425638
19	0x3e20b22e	0.1569297
20	0xbe0b98c0	-0.13632488
21	0xbdd57f02	-0.104246154
22	0xbeb31788	-0.3497889
23	0x3ece14d4	0.40250266
24	0x3f1bd4fc	0.60871863
25	0x3e0c6be1	0.13713028
26	0x3eed8b24	0.46395218
27	0x3dc84892	0.09779467
28	0x3e10aaea	0.14127699
29	0x3df30a50	0.11867201
30	0xbee95455	-0.45572153
31	0xbf0955ee	-0.53646743
32	0xbe5864c1	-0.21132185
33	0x3ed2d8b3	0.41180953
34	0x3ed228a2	0.41046625
35	0x3ef5be43	0.4799672
36	0xbe017868	-0.12643588
37	0x3e8aad77	0.27085468
38	0xbe83b071	-0.25720552
39	0x3f116ef2	0.56809914
40	0xbe2e228c	-0.17005366
41	0xbdc531c8	-0.09628636
42	0xbf041fab	-0.5161082
43	0xbde6e2fc	-0.112737626
44	0x3e4ba284	0.19886214
45	0x3e986cfb	0.29770645
46	0x3eafad7e	0.34312052
47	0x3d847c28	0.064689934
48	0x3d75d434	0.060016826
49	0xbdd62e54	-0.10458055
50	0x3d395077	0.045242753
51	0x3ea59719	0.3234184
52	0xbed1e259	-0.40993002
53	0x3efba35e	0.49148077
54	0x3ede781e	0.43451017
55	0x3e23b717	0.15987812
56	0xbe0fceff	-0.14043806
57	0x3cce9b04	0.025220402
58	0xbe111d1c	-0.1417126
59	0xbe2916d1	-0.1651261
60	0x3e002a8d	0.12516232
61	0xbe7cf1d5	-0.24701627
62	0xbbef223e	-0.007297783
63	0xbc847adf	-0.01617187
64	0x3f05ba6b	0.52237576
65	0x3e0ee20a	0.13953415
66	0x3db619b3	0.088916205
67	0x3d9da356	0.076971695
68	0x3e55eca7	0.20891057
69	0x3e49ab8a	0.19694343
70	0xbe78f22a	-0.24311128
71	0x3e6faa49	0.23404802
72	0xbe7283ed	-0.23683138
73	0x3e45beee	0.19311115
74	0x3dc53e3b	0.0963101
75	0x3e7857ff	0.24252318
76	0xbdfd6899	-0.12373466
77	0x3e909f7c	0.28246677
78	0xbecab8a9	-0.3959401
79	0x3e72aad4	0.23697978
80	0xbc93de94	-0.01805047
81	0x3e56ebae	0.20988342
82	0xbe84e97a	-0.25959378
83	0x3d017bd5	0.031612236
84	0x3f13117a	0.5744854
85	0x3eb03b1f	0.34420106
86	0x3eccb9d0	0.39985514
87	0x3e64e4c5	0.22352894
88	0x3e8c3176	0.27381486
89	0x3db257c0	0.08708143
90	0x3de18a42	0.11012699
91	0x3e98914c	0.29798353
92	0xbeeebea4	-0.46629822
93	0x3e8cb373	0.2748066
94	0x3d0b3294	0.033983782
95	0x3f649cfd	0.89302045
96	0x3d9d6ce6	0.07686786
97	0x3ea2b9b4	0.31782305
98	0xbe933991	-0.28754857
99	0xbe249117	-0.16070972
100	0xbe562b1b	-0.20914881
101	0xbe9ce613	-0.30644283
102	0xbe93536b	-0.2877458
103	0x3c85f058	0.016349956
104	0x3d51845a	0.05115161
105	0x3eccca0b	0.39997897
106	0x3e9885bc	0.2978953
107	0x3d7d459f	0.061833974
108	0x3eae1666	0.34001464
109	0x3eb179dc	0.34663284
110	0x3ecb5546	0.39713496
111	0x3b8e1300	0.004335761
112	0xbea81252	-0.32826477
113	0x3e749229	0.2388388
114	0xbdc30176	-0.09521763
115	0xbe98c9ca	-0.29841453
116	0x3d36b822	0.044609196
117	0x3f2e2060	0.6801815
118	0x3e610e94	0.21978217
119	0x3f1a207a	0.60205805
120	0xbded8598	-0.115977466
121	0xbe198e4e	-0.14995691
122	0xbe6d5641	-0.23177435
123	0x3ea335df	0.31877038
124	0x3d8d7aec	0.06908211
125	0x3e0f29aa	0.13980737
126	0x3e4c8724	0.19973427
127	0x3c935f69	0.017989831
128	0xbdad4c45	-0.08461813
129	0x3e40151d	0.18758054
130	0xbf0de905	-0.55433685
131	0x3f1f3190	0.62185
132	0xbce920e4	-0.028458066
133	0x3eb751f6	0.3580472
134	0xbe6067fd	-0.21914668
135	0x3d3c5bdb	0.045986038
136	0xbd9561e7	-0.07294064
137	0xbd8c3d57	-0.06847637
138	0xbd161a19	-0.036645982
139	0x3c8d239f	0.0172289
140	0x3dcf646e	0.10126577
141	0xbe851386	-0.25991458
142	0xbf0891c9	-0.5334745
143	0xbe4fc690	-0.2029059
144	0x3e374593	0.17897634
145	0x3e068d48	0.13139832
146	0xbdcccc88	-0.09999949
147	0x3eb30272	0.34962803
148	0xbe18d84d	-0.14926262
149	0x3e6ec81f	0.23318528
150	0xbda469bc	-0.0802798
151	0xbdd9b453	-0.10630097
152	0xbd348b84	-0.044078365
153	0x3e6a55bd	0.22884269
154	0x3ed1a51e	0.40946287
155	0x3b7b7d9c	0.003837443
156	0x3e3dc6a5	0.18532808
157	0x3e785535	0.24251254
158	0x3c6f5408	0.014607437
159	0x3ea246eb	0.3169473
160	0x3e45e902	0.19327167
161	0xbee73bfb	-0.4516295
162	0x3dd03ab3	0.10167446
163	0xb8682190	-5.5344368e-05
164	0x3e1d1956	0.15341696
165	0x3e84a158	0.25904346
166	0xbed5fd3f	-0.41794774
167	0x3e819540	0.2530918
168	0xbea1149c	-0.31461036
169	0x3e079fc4	0.1324454
170	0x3dbdb6c0	0.092633724
171	0x3e6a7b1e	0.22898528
172	0xbd976187	-0.07391649
173	0x3ea15f4d	0.3151802
174	0x3edf79cf	0.4364762
175	0x3f14faef	0.58195394
176	0xbd951287	-0.072789244
177	0xba8801bd	-0.0010376495
178	0xbe6deed0	-0.23235631
179	0x3e29bc68	0.16575778
180	0x3e24bf5c	0.16088623
181	0x3da63f30	0.08117521
182	0xbeca4755	-0.39507547
183	0xbc3b98fc	-0.011450049
184	0x3e164170	0.146734
185	0x3df30031	0.11865271
186	0x3dc8e8ec	0.09810051
187	0xbe21b7a0	-0.15792704
188	0xbe1f75f6	-0.15572342
189	0xbdad395a	-0.084582046
190	0xbdcc99ea	-0.09990294
191	0x3d8837de	0.06651281
192	0xbe8fd6b5	-0.28093496
193	0x3e477adb	0.1948046
194	0x3e81a391	0.25320104
195	0x3e1d04a1	0.15333797
196	0xbe3378b3	-0.17526512
197	0x3cdbf283	0.026849037
198	0x3c9300ae	0.01794466
199	0x3f03321d	0.5124834
200	0xbeadd0cf	-0.3394837
201	0xbe7f58f7	-0.24936281
202	0xbddd699b	-0.10811158
203	0x3ed7fc4b	0.42184672
204	0x3f2ab63a	0.66684306
205	0x3e339ce5	0.1754032
206	0xbdb7f25c	-0.08981773
207	0x3e30815b	0.17236845
208	0xbe58d3e5	-0.21174581
209	0x3b04d624	0.002026924
210	0x3cec4d74	0.028845526
211	0xbe9daaaf	-0.30794284
212	0xbf0a371e	-0.5399035
213	0x3ef689e5	0.4815208
214	0x3eea9365	0.45815578
215	0x3eaa0d7c	0.33213413
216	0x3db09d44	0.08623746
217	0xbd7ccee1	-0.061720733
218	0xbe2c9a12	-0.16855648
219	0x3ea18ef6	0.31554383
220	0xbe838321	-0.2568598
221	0xbededd4e	-0.43528217
222	0xbf1de19b	-0.6167237
223	0x3f049c29	0.5180078
224	0x3f051ba5	0.5199531
225	0x3ee02700	0.43779755
226	0x3e8d7bc3	0.27633485
227	0x3e534f6e	0.20635769
228	0xbde37d42	-0.111078754
229	0xbe220db5	-0.15825541
230	0xbeb3dc5d	-0.3512906
231	0x3e10d4d4	0.14143687
232	0xbebac8f8	-0.36481452
233	0x3d8121cf	0.063052766
234	0x3e2614f3	0.16218929
235	0xbdbbea04	-0.09175494
236	0xbd167802	-0.036735542
237	0x3f11f349	0.5701185
238	0xbdf42b51	-0.119223244
239	0x3ee2fdcf	0.44334266
240	0xbdc2f616	-0.095195934
241	0xbdbb1223	-0.09134319
242	0x3cc0fa84	0.023556955
243	0xbe58d8d8	-0.2117647
244	0x3f0a3dba	0.5400044
245	0x3f154962	0.583151
246	0x3eab9c8e	0.3351788
247	0xbcb99680	-0.022654772
248	0xbe9b7302	-0.30361181
249	0xbda6b5d8	-0.08140153
250	0x3ee0125b	0.43764004
251	0xbd77b1f3	-0.06047244
252	0xbf281952	-0.65663636
253	0x3f362a57	0.71158355
254	0x3e37486b	0.17898719
255	0x3eb3d6a5	0.35124698

bias f4 [3]
0	0xbf6acc20	-0.9171772
1	0xbf9784c7	-1.1837395
2	0xbf573d6c	-0.840781

weight f4 [3, 1, 7, 20]
0	0xbe827215	-0.25477663
1	0x3e351024	0.17681938
2	0xbe7dca66	-0.2478424
3	0x3e14bb8d	0.1452467
4	0x3ebad308	0.3648913
5	0x3de1baf3	0.11021986
6	0xbe267deb	-0.16258971
7	0xbd0e85f2	-0.03479571
8	0x3e276415	0.16346772
9	0x3e0fafe1	0.14031936
10	0x3e5dcc31	0.21659924
11	0xbe5d4c17	-0.21611057
12	0xbd6bc634	-0.057562068
13	0x3e95ef53	0.29284152
14	0x3c86a192	0.016434465
15	0x3f02f44e	0.5115403
16	0xbe0192c0	-0.12653637
17	0x3e08e4ad	0.13368483
18	0x3d892343	0.06696179
19	0x3d843c8d	0.06456862
20	0xbeebb677	-0.46037647
21	0x3c467e9a	0.012115145
22	0xbecd0347	-0.40041563
23	0xbcc52542	-0.024065617
24	0x3e0227ee	0.12710544
25	0x3f24c4f7	0.64363045
26	0x3eb08095	0.344731
27	0x3e8ab934	0.27094424
28	0x3dd35e22	0.10320689
29	0x3db40b69	0.08791239
30	0xbe701888	-0.23446858
31	0x3d9ba72c	0.07600245
32	0xbe40cc83	-0.18828015
33	0x3efddf89	0.49584606
34	0x3e0d9f6f	0.1383035
35	0x3de2a987	0.11067491
36	0xbe64b3d0	-0.22334218
37	0x3ed57f9e	0.41698927
38	0xbecb1cf2	-0.3967052
39	0xbeaf9a76	-0.34297532
40	0xbe2cd3a4	-0.1687761
41	0xbe59e872	-0.21280077
42	0x3eb13f44	0.3461858
43	0x3e72a4bd	0.23695655
44	0x3eda621a	0.4265297
45	0x3eed557f	0.4635429
46	0x3dd6be51	0.10485519
47	0x3b2b2956	0.0026117167
48	0xbdd2f54a	-0.103006914
49	0x3e16f3ac	0.14741391
50	0x3d946b7e	0.07247065
51	0xbb83b176	-0.0040189577
52	0xbef74122	-0.4829188
53	0x3f4a6476	0.7905954
54	0x3e6eda8d	0.23325558
55	0x3e4fc5d8	0.20290315
56	0xbe90ce42	-0.28282362
57	0x3e156cc6	0.14592275
58	0x3e8c279f	0.27373978
59	0x3e8c9bba	0.2746256
60	0xbeb4c968	-0.3530991
61	0x3e0c8683	0.13723187
62	0xbe51eb68	-0.20499957
63	0xbe5d4a62	-0.21610406
64	0x3eef79ce	0.46772617
65	0x3e338468	0.17530978
66	0x3e83ba35	0.25728002
67	0xbebe97e0	-0.37225246
68	0xbd56a2e0	-0.052401423
69	0x3e9f33b9	0.3109415
70	0xbe6b2df5	-0.2296675
71	0xbe8fd6d0	-0.28093576
72	0xbedf6b97	-0.43636772
73	0x3e658622	0.22414449
74	0x3e826c70	0.25473356
75	0x3e0ee154	0.13953143
76	0xbd7da4e8	-0.061924845
77	0x3eabb367	0.3353531
78	0xbcb8a6d8	-0.022540495
79	0x3e9a76da	0.30168802
80	0xbe8ab35a	-0.2708996
81	0xbe496aea	-0.1966969
82	0xbe893d19	-0.26804426
83	0x3d3775f4	0.044790223
84	0x3e636cd0	0.22209477
85	0x3e4de7a1	0.2010789
86	0xbd94bf5d	-0.07263062
87	0xbd9d5de4	-0.07683924
88	0xbdef67dc	-0.116897315
89	0xbe12d457	-0.14338814
90	0x3d64d156	0.0558637
91	0xbe92613e	-0.28589815
92	0xbec3d637	-0.3824937
93	0xbd11157b	-0.035420876
94	0x3e32a140	0.17444324
95	0x3e900917	0.28131935
96	0x3eaa2bac	0.33236444
97	0x3d8fddb9	0.07024712
98	0x3df543f7	0.11975854
99	0x3f0e5e8b	0.5561301
100	0x3e7c789b	0.24655382
101	0x3daaf35a	0.08347197
102	0xbecf31a7	-0.4046757
103	0x3ec979e3	0.39350805
104	0x3ebfd16f	0.37464473
105	0x3e94919c	0.2901734
106	0x3e8a9f4e	0.27074665
107	0x3e84265d	0.2581052
108	0x3e7f9dd6	0.24962553
109	0xbeac8c90	-0.3370099
110	0xbd88aed3	-0.0667397
111	0x3e07182b	0.13192813
112	0xbea42415	-0.32058778
113	0x3e2601a6	0.16211566
114	0x3cb8b9c6	0.022549521
115	0xbce05f34	-0.027389146
116	0x3eac2117	0.33618996
117	0x3ef6091b	0.48053822
118	0x3e3664a4	0.17811829
119	0x3e1d59a3	0.15366225
120	0xbee52d6f	-0.44761226
121	0xbe9b5c80	-0.3034401
122	0xbf2ecd4a	-0.68281996
123	0xbeacc2da	-0.3374241
124	0xbe9f9dfd	-0.31175223
125	0x3e80b2d8	0.25136447
126	0x3ef72d5d	0.48276797
127	0x3eee8c3e	0.4659137
128	0x3e04240a	0.12904373
129	0x3e0d4ade	0.13798091
130	0x3d5a16eb	0.053244513
131	0x3e266994	0.16251212
132	0xbf18a163	-0.59621257
133	0x3ec53e9c	0.3852433
134	0x3d2a022f	0.04150599
135	0x3ebb6cd2	0.3660646
136	0xbdb9fc91	-0.09081376
137	0x3c9deb0b	0.019277116
138	0x3d9ae2eb	0.075628124
139	0x3e99a9cf	0.30012366
140	0x3d80f391	0.062964566
141	0xbc45d634	-0.012074996
142	0xbe7ffea7	-0.24999486
143	0x3ed5d03c	0.41760433
144	0x3ed76611	0.42070058
145	0x3ec75d40	0.38938332
146	0x3e9f0264	0.3105651
147	0xbd687e35	-0.056760985
148	0xbea29b8a	-0.31759292
149	0x3e0ebe97	0.13939892
150	0xbe13d58f	-0.14436935
151	0xbe862e92	-0.26207405
152	0xbd6a19f6	-0.057153665
153	0x3f07f730	0.53111553
154	0x3e6e63ba	0.2328023
155	0xbd140bb8	-0.03614399
156	0x3d984cab	0.07436498
157	0x3e9fa6e0	0.31182003
158	0xbda847c6	-0.08216815
159	0x3deeb183	0.116549514
160	0xbd1a04f3	-0.037602376
161	0xbeaddcda	-0.3395756
162	0xbec37689	-0.38176373
163	0x3ececcec	0.40390718
164	0x3eb52d43	0.35386094
165	0x3e33ba2e	0.1755149
166	0x3dd72f0a	0.10507019
167	0xbcbe0421	-0.023195328
168	0x3e16eed4	0.14739543
169	0xbd720741	-0.05908895
170	0xbe7285d5	-0.23683865
171	0xbe118c8a	-0.14213768
172	0xbdf36929	-0.11885292
173	0x3f03ef10	0.51536655
174	0x3e4d97f4	0.20077497
175	0x3e1ccadd	0.15311761
176	0xbf2d6e8c	-0.67746806
177	0x3eaa0291	0.33205083
178	0xbe899bc3	-0.2687665
179	0x3e2c1d64	0.16808087
180	0xbe3ed5e4	-0.1863628
181	0xbd8d1d91	-0.06890405
182	0xbf14ded5	-0.58152515
183	0xbd5c4e18	-0.053785414
184	0x3e5148c1	0.2043791
185	0x3e6b173d	0.22958083
186	0x3ed84cb2	0.42246014
187	0x3ecf003e	0.40429872
188	0x3d645a3f	0.055750128
189	0xbdbce236	-0.09222834
190	0xbea2cf82	-0.3179894
191	0x3d7bcb2b	0.061473053
192	0xbed9f53c	-0.4256991
193	0x3e833a91	0.2563062
194	0x3d80f0d6	0.06295936
195	0x3e4f64be	0.20253274
196	0x3d063085	0.032761116
197	0x3d4a1746	0.0493386
198	0x3db4e3dc	0.08832523
199	0x3da30257	0.07959431
200	0xbf066579	-0.52498585
201	0xbdd3754b	-0.10325106
202	0xbef5eaa5	-0.48030582
203	0xbdc67058	-0.096893966
204	0xbe4a092f	-0.19730066
205	0xbcb25555	-0.021769205
206	0x3ed4efd3	0.4158922
207	0x3eeb1a5f	0.45918557
208	0xbe6638db	-0.22482626
209	0x3cb48a76	0.02203868
210	0xbe251a16	-0.16123232
211	0x3c99557d	0.018717522
212	0xbed631de	-0.4183492
213	0x3f4baea1	0.7956334
214	0x3ea30390	0.31838655
215	0xbb9f3564	-0.0048586596
216	0x3ea5d673	0.32390174
217	0x3d23bd3d	0.039975394
218	0x3e6b016b	0.2294976
219	0x3e7d8653	0.24758272
220	0x3be89c99	0.007098746
221	0xbdcb6308	-0.09930998
222	0xbf260fd2	-0.6486789
223	0xbe47d721	-0.19515659
224	0xbe02c9db	-0.12772314
225	0x3da662f9	0.08124346
226	0x3e7d7abc	0.2475385
227	0xbe1660c6	-0.14685354
228	0xbe029926	-0.12753734
229	0x3ce641a6	0.028107475
230	0x3d521463	0.051288974
231	0xbe7cc7c5	-0.24685581
232	0x3d38ec52	0.045147248
233	0x3e532412	0.20619228
234	0x3ef9617a	0.4870718
235	0xbc2678be	-0.010160623
236	0xbea59127	-0.32337305
237	0xbc251ea5	-0.010078107
238	0xbe8c1a79	-0.27363947
239	0xbe5ab81b	-0.21359293
240	0xbdc929b4	-0.09822407
241	0xbebb01b0	-0.36524725
242	0xbe5cbeb8	-0.21557128
243	0x3e0f38a8	0.13986456
244	0x3e7ed800	0.24887085
245	0x3ec935c4	0.39298832
246	0x3e9cc921	0.306222
247	0x3e122e9c	0.14275593
248	0xbc800c06	-0.015630733
249	0xbd5d48cf	-0.054024514
250	0xbe03fddb	-0.12889807
251	0xbe9ebe6f	-0.31004664
252	0xbef73e86	-0.4828989
253	0x3f07fd94	0.53121305
254	0x3e155234	0.14582139
255	0xbca28c3c	-0.01984226

bias f4 [3]
0	0xbf5525d6	-0.8326086
1	0xbf880dd0	-1.0629215
2	0xbf215a05	-0.63027984

weight f4 [3, 1, 8, 20]
0	0x3c75b830	0.014997527
1	0xbec36d63	-0.38169393
2	0xbee6b17f	-0.45057294
3	0x3d247e90	0.040159762
4	0x3e11c2c7	0.14234458
5	0x3e531dac	0.20616788
6	0x3e213376	0.15742287
7	0xbe574c85	-0.21025284
8	0x3cace69e	0.02110606
9	0x3e0a9f8a	0.13537422
10	0x3e405677	0.18782984
11	0xbd464162	-0.048402198
12	0xbe9ccb8c	-0.30624044
13	0x3e314793	0.1731246
14	0x3d7b93d9	0.061420295
15	0x3dedb9ce	0.11607705
16	0x3d92d9c5	0.071704425
17	0x3e4ea865	0.20181425
18	0x3d8da482	0.06916143
19	0xbd988d22	-0.07448794
20	0x3a58830c	0.00082592736
21	0xbecf3866	-0.40472716
22	0xbee9ea97	-0.4568679
23	0x3e10c1da	0.14136449
24	0x3f06f3cf	0.5271577
25	0x3e2bc995	0.16776116
26	0x3da3b8d2	0.07994236
27	0x3d047131	0.03233451
28	0x3d34b5a0	0.044118524
29	0x3e3f0233	0.18653183
30	0xbd3485f6	-0.044073068
31	0xbe4bbc68	-0.1989609
32	0xbd220180	-0.03955221
33	0xb8fad511	-0.00011960616
34	0x3e48bd7c	0.19603533
35	0x3e4dca32	0.20096663
36	0xbe0d7ae3	-0.13816409
37	0x3ebe4bfc	0.37167346
38	0x3c8da75d	0.01729172
39	0x3de87759	0.11350889
40	0xbc5c404c	-0.013443064
41	0xbeb261e2	-0.34840304
42	0xbed604be	-0.41800493
43	0x3da6caa6	0.08144121
44	0x3eb246cc	0.3481964
45	0xbce34937	-0.027744872
46	0x3e79a95d	0.24381013
47	0x3e6997bd	0.2281179
48	0x3bb7fa81	0.005614579
49	0xbc3de041	-0.011589111
50	0x3e4f6c6c	0.20256203
51	0xbe71bbc1	-0.23606779
52	0xbeee64be	-0.46561235
53	0x3e1a6df3	0.15081005
54	0x3e710691	0.23537661
55	0x3ed4c1bf	0.41554067
56	0xbe3c279f	-0.18374489
57	0x3e9c78f9	0.30561045
58	0xbd62b189	-0.055345092
59	0x3de858c4	0.11345056
60	0x3d8ff2dc	0.070287436
61	0xbe1b468c	-0.1516363
62	0xbeae4739	-0.34038714
63	0x3da8e8da	0.08247538
64	0x3e89b86f	0.26898524
65	0x3d55e2d5	0.052218277
66	0x3e34fafd	0.1767387
67	0x3e0bfe30	0.13671184
68	0x3e2a8164	0.16650921
69	0xbde99f12	-0.114072934
70	0x3e67444a	0.22584644
71	0xbbbaf6df	-0.005705699
72	0xbf258253	-0.64651984
73	0x3e61ea15	0.22061951
74	0x3e8fac9c	0.28061378
75	0x3d7a6882	0.061134823
76	0x3d46e1a3	0.048555028
77	0x3f10b040	0.56518936
78	0xbeb39b8b	-0.35079607
79	0xbd7f6ec6	-0.0623615
80	0x3e1ff9ae	0.15622589
81	0xbe38cb72	-0.18046358
82	0xbe39b275	-0.18134482
83	0x3da725d4	0.08161512
84	0x3e8955bf	0.26823232
85	0x3df5eeed	0.12008462
86	0xbd19b423	-0.037525307
87	0xbd7570a7	-0.059921887
88	0xbd60c1dc	-0.05487238
89	0x3d546b18	0.051859945
90	0x3e83526c	0.2564882
91	0xbdbeb179	-0.09311194
92	0xbeaa6f1a	-0.3328789
93	0x3e15439f	0.14576577
94	0x3eb26e49	0.34849766
95	0x3e6f7ece	0.23388216
96	0xbe8718fd	-0.26386252
97	0x3e8a421e	0.27003568
98	0x3c07e0e7	0.008293367
99	0xbd880c08	-0.0664292
100	0xbe1a2f22	-0.15057042
101	0xbe5c57aa	-0.21517816
102	0xbdbf28b4	-0.093339354
103	0xbb968d1e	-0.004594459
104	0x3e6d367e	0.23165318
105	0x3d642beb	0.055705946
106	0x3e2b881a	0.16751137
107	0x3e777181	0.24164392
108	0x3dab37e7	0.08360272
109	0xbcc10752	-0.02356306
110	0xbd48bb25	-0.0490066
111	0xbd9ab4d1	-0.07554019
112	0xbea7d0ce	-0.32776493
113	0x3e04c12c	0.12964314
114	0x3e77404c	0.24145621
115	0x3eb321d4	0.34986746
116	0xbe0637c5	-0.13107212
117	0x3ebf0def	0.37315318
118	0xbea60516	-0.32425755
119	0x3dc0b8cc	0.09410247
120	0xbd6d3063	-0.057907473
121	0xbeb04f52	-0.34435517
122	0xbebb5bb3	-0.36593398
123	0xbdc339b6	-0.09532492
124	0x3f010320	0.50395393
125	0x3d1494a7	0.03627458
126	0x3d21a44f	0.039463338
127	0x3e55b478	0.20869625
128	0x3e832871	0.25616792
129	0xbe4e64ab	-0.2015559
130	0xbc06da04	-0.00823069
131	0xbe96823a	-0.2939623
132	0xbeab0331	-0.33400872
133	0x3e5d8258	0.21631753
134	0x3e945693	0.289723
135	0x3ea49e7f	0.32152173
136	0xbddbde29	-0.10735733
137	0x3ee92846	0.4553854
138	0xbe48622d	-0.19568701
139	0xbd980071	-0.07421959
140	0x3d1fd084	0.039017215
141	0xbe8942df	-0.2680883
142	0xbf01bd51	-0.506795
143	0xbdb5e7db	-0.088821135
144	0x3e17cce0	0.14824247
145	0xbb1c7f1f	-0.002387948
146	0x3e6f4326	0.23365459
147	0x3d60d704	0.054892555
148	0x3e8502a7	0.25978586
149	0xbcc69ddd	-0.024245197
150	0x3dc45099	0.09585685
151	0xbeadeac0	-0.33968163
152	0xbeaab50e	-0.3334126
153	0x3e6a2d26	0.22868785
154	0x3e219ede	0.1578326
155	0x3e7005cb	0.2343971
156	0xbd63b731	-0.055594627
157	0x3f350e83	0.7072527
158	0xbd3345d2	-0.043767758
159	0xbe19af10	-0.15008187
160	0xbded2d2c	-0.115808815
161	0xbe921cb9	-0.2853754
162	0xbf04d1d2	-0.5188266
163	0x3e1ccb67	0.15311967
164	0x3e50b1c1	0.20380308
165	0x3e085e49	0.13317217
166	0x3e1eb044	0.15496927
167	0x3d97d981	0.074145325
168	0xbe8017ad	-0.25018063
169	0xbd906083	-0.07049658
170	0x3d9bce0d	0.076076604
171	0x3e194ae4	0.14969975
172	0xbe96eba1	-0.29476646
173	0x3ea2cc02	0.3179627
174	0x3e16555e	0.14681002
175	0x3f1e6605	0.6187442
176	0xbd9f57fb	-0.07780453
177	0x3ed23c7d	0.41061774
178	0xbe01c1ac	-0.12671536
179	0x3bed07da	0.007233602
180	0xbeeff471	-0.46866181
181	0xbe269e54	-0.16271335
182	0xbecf9354	-0.4054209
183	0x3e7e8231	0.24854352
184	0x3e92802c	0.28613412
185	0x3d899f8c	0.06719884
186	0xbd127fd6	-0.035766445
187	0x3e1be38f	0.15223525
188	0x3d69868d	0.057013083
189	0x3da8233b	0.08209845
190	0xbd4b0ef3	-0.049574804
191	0xbec11eeb	-0.377189
192	0xbeeb7e6f	-0.459949
193	0x3e8a8f73	0.27062568
194	0x3eccee4a	0.4002555
195	0x3ea469fe	0.32112116
196	0x3cb6041e	0.02221876
197	0x3da634d1	0.08115543
198	0xbe279212	-0.16364315
199	0x3e5e2da9	0.21697105
200	0xbb305fd1	-0.002691258
201	0xbe90ac05	-0.2825624
202	0xbeb77246	-0.3582937
203	0x3e185d96	0.1487945
204	0x3e11f952	0.14255264
205	0x3f0471d1	0.5173617
206	0x3ed6a5ca	0.41923362
207	0x3e325f5a	0.17419186
208	0xbe711f3a	-0.23547068
209	0xbdbd09e3	-0.09230401
210	0xbdfa1bbe	-0.12212323
211	0xbd273dc2	-0.04083038
212	0xbf170bb0	-0.5900221
213	0xbd124c39	-0.035717223
214	0x3e671a0c	0.2256853
215	0x3edf75bb	0.4364451
216	0xbef7a058	-0.4836452
217	0x3e829e5f	0.25511453
218	0x3da3a1de	0.07989858
219	0x3ec1f9e2	0.37885958
220	0xbd7a37f2	-0.06108851
221	0xbea5d900	-0.3239212
222	0xbeb111ef	-0.34583995
223	0x3db45a0a	0.08806236
224	0x3dc5cd29	0.09658272
225	0x3d1a1ad0	0.037623227
226	0x3e3e790c	0.18600863
227	0x3e601820	0.21884203
228	0xbcd47c7b	-0.025938263
229	0xbd85fae3	-0.065419935
230	0x3d2c4f5e	0.042067878
231	0x3e0d9545	0.13826473
232	0x3c79ab56	0.015238604
233	0x3e432aef	0.19059347
234	0x3befaad9	0.007314068
235	0xbd73002c	-0.059326336
236	0x3e926401	0.28591922
237	0x3f0a28ee	0.53968704
238	0xbe1b8d41	-0.15190603
239	0x3edb92a4	0.42885315
240	0xbeceffa4	-0.40429413
241	0x3d1e750e	0.03868585
242	0xbe9f4f00	-0.3111496
243	0x3dbe8fac	0.09304747
244	0x3e4609ed	0.19339724
245	0xbd1a8580	-0.03772497
246	0x3daa8036	0.083252355
247	0xbe1a5d3b	-0.15074627
248	0x3e3304d2	0.17482308
249	0xbdf3f708	-0.11912352
250	0x3e73e82c	0.23819035
251	0x3eca1695	0.39470354
252	0xbef2eaa2	-0.47444636
253	0x3eadac48	0.33920503
254	0x3f01e4aa	0.5073954
255	0x3eec9c4d	0.46212998

bias f4 [3]
0	0xbf229a4f	-0.63516706
1	0xbf46f5aa	-0.77718604
2	0xbf09d79c	-0.5384462
