char_emb/code/output/model_adult_gru_test_64.pt (torch_old, 88503 bytes, 7 tensors)

weight f4 [71, 15]
0	0xbfae1a33	-1.3601745
1	0x3f4453d4	0.7669041
2	0x3eb5b9e7	0.35493395
3	0xbe05cae9	-0.13065685
4	0x3fa999ed	1.32501
5	0x3eff99fd	0.4992217
6	0x3f37f925	0.7186454
7	0x4000c738	2.0121593
8	0xbebff867	-0.37494203
9	0x3f024e9a	0.50901186
10	0xbcfee33c	-0.031114213
11	0x3c16bbdf	0.009200065
12	0x3f3d3164	0.7390349
13	0xbf146430	-0.57965374
14	0x3eb70a65	0.35750118
15	0xbeae737e	-0.3407249
16	0x3f27751f	0.6541309
17	0xbfb4c87d	-1.4123684
18	0xc000f6cf	-2.015064
19	0xbf89fe8b	-1.0780805
20	0xc00fa2b9	-2.2443068
21	0x3e275b88	0.1634351
22	0x40093640	2.1439362
23	0x4029d786	2.6537795
24	0x3fb53824	1.4157758
25	0x3e971134	0.29505312
26	0x4032fe0e	2.7967563
27	0x3f35efd2	0.7106906
28	0x3fe39a23	1.7781414
29	0x3ec5e2f0	0.38649702
30	0xc02730f1	-2.6123621
31	0xbe32dd98	-0.17467344
32	0x3efd4d2b	0.49472937
33	0x3f8edfd2	1.1162055
34	0xbf6906f8	-0.9102626
35	0xbfb1fe5d	-1.390575
36	0xbe57789c	-0.21042103
37	0x4011143c	2.26686
38	0x400395ee	2.056026
39	0x3f486771	0.7828284
40	0x3e9a2079	0.301029
41	0xbf05b59d	-0.52230245
42	0xbf2f6e5f	-0.6852779
43	0xbef6f49e	-0.48233503
44	0x3e99589a	0.2995041
45	0xbfcc915e	-1.5981863
46	0x3f9635a2	1.1735117
47	0x3f8608b5	1.0471407
48	0xbc52f60d	-0.012876046
49	0x3d1ac982	0.03778983
50	0xbeeda7b1	-0.46417
51	0x3e768b4a	0.24076572
52	0xbf21a997	-0.631494
53	0x3baf4b39	0.0053495434
54	0x3f927667	1.1442384
55	0x3eb5fa40	0.35542488
56	0x3f1b4aae	0.6066083
57	0xbf99bf9c	-1.20116
58	0xbf97e002	-1.1865237
59	0xbfec6c46	-1.8470542
60	0x3f888734	1.0666261
61	0x401634ac	2.3469648
62	0x3f8d061f	1.1017493
63	0x3f81363d	1.0094677
64	0xc000b6c5	-2.0111554
65	0xbf1090c6	-0.56470907
66	0xbd3febb6	-0.04685565
67	0x40371c89	2.8611166
68	0x3e4f18b7	0.20224272
69	0x3d8668f4	0.06562987
70	0x3fbff45b	1.4996446
71	0xbe6c4c54	-0.23075992
72	0xc0239e5f	-2.5565412
73	0x3ff4aabb	1.9114603
74	0xbf83a65a	-1.0285141
75	0xbfa3120c	-1.2739882
76	0xc0027fbe	-2.0390468
77	0x3fa193f3	1.2623276
78	0xbf7b5438	-0.9817538
79	0xbf99a8cd	-1.2004639
80	0xbf709eaf	-0.9399213
81	0x3f2ab0c4	0.6667597
82	0xbf336fda	-0.70092547
83	0x3fe10f71	1.7582837
84	0x3f124f66	0.571524
85	0x3fa86fcb	1.3159117
86	0x3e7006ba	0.23440066
87	0xbfbacb99	-1.4593383
88	0x3fc1e2ab	1.5147299
89	0x3ede7593	0.43449077
90	0x3f6e5113	0.9309246
91	0x3d45f37b	0.048327904
92	0xbf62135f	-0.8831081
93	0xc00cb643	-2.1986244
94	0xbf0e4447	-0.5557293
95	0x3f2bb39a	0.67070925
96	0xbf8f5666	-1.1198242
97	0xbeca5c20	-0.3952341
98	0xc05d4b36	-3.4577155
99	0x3d6ffc76	0.058590375
100	0xc03ddee8	-2.96673
101	0xbfbd7808	-1.4802256
102	0x3f61ce14	0.88205075
103	0x3f122ed9	0.57102734
104	0x3fbc738a	1.472276
105	0x3e03907b	0.12848084
106	0xbfa90088	-1.3203287
107	0x3ff79883	1.9343418
108	0x3eb1f481	0.34756854
109	0xbbc9a712	-0.0061539495
110	0xbe02a901	-0.12759782
111	0xbe2407de	-0.16018626
112	0xbff699fa	-1.926574
113	0x3efb50ed	0.4908518
114	0x3f8531b0	1.0405788
115	0xbe7bed7d	-0.24602313
116	0x3e6d50e9	0.23175396
117	0xbf0fb87e	-0.5614089
118	0x3f7fffdb	0.9999978
119	0x3e68cc9f	0.22734307
120	0xbf046f5a	-0.5173241
121	0x3fdf754e	1.7457674
122	0x3f881a87	1.0633096
123	0x3dbdbde0	0.092647314
124	0x3fe67e31	1.800726
125	0xbf19b504	-0.6004183
126	0xbe92c020	-0.28662205
127	0xbe8a6f9e	-0.27038282
128	0x3fb29ea2	1.3954661
129	0x3f5f0646	0.8711895
130	0xbeac6bee	-0.33676094
131	0xbf501160	-0.8127651
132	0xbf99b77d	-1.2009121
133	0x4010c583	2.2620552
134	0x3fb0c026	1.3808639
135	0xbea91db2	-0.33030468
136	0x3ec15d53	0.37766513
137	0x3f9c08fd	1.2190243
138	0x40762ddd	3.8465493
139	0x3fc232e8	1.5171785
140	0xbf95331b	-1.1656221
141	0x4032939c	2.7902594
142	0x3f7771ce	0.9665803
143	0xc00da864	-2.2134027
144	0x3fa5260d	1.2902237
145	0xbef72d19	-0.48276594
146	0x3ede8424	0.4346019
147	0xbf1640aa	-0.5869242
148	0x4011567b	2.2709033
149	0xc0233922	-2.550362
150	0xbf6e7e5e	-0.9316157
151	0xbe902a90	-0.28157473
152	0xbf897020	-1.0737343
153	0xbfb75ab8	-1.432456
154	0x3f2e9b9f	0.6820621
155	0xbfdcb9ec	-1.7244239
156	0x3f7df906	0.99208105
157	0x3e325736	0.17416081
158	0x4013b952	2.308186
159	0xbf6e8fb1	-0.93188006
160	0x3fb2e009	1.397462
161	0xbed0bdf4	-0.40769923
162	0xbfbed409	-1.4908458
163	0x3eb43431	0.3519607
164	0x4015253f	2.3303983
165	0xbe9f8072	-0.31152683
166	0xbf3ec7b0	-0.7452345
167	0xc09e33fb	-4.9438453
168	0x40023d68	2.034998
169	0x40519e85	3.2753003
170	0xbf59153a	-0.84798014
171	0x3fea2e06	1.8295295
172	0x3ea32402	0.3186341
173	0xbfb2cf59	-1.3969527
174	0x3fd1d62a	1.6393483
175	0xbe85c08a	-0.26123458
176	0x3ec865a4	0.39140046
177	0x3f972100	1.1806946
178	0xbeb1eab2	-0.3474937
179	0xbff88859	-1.941661
180	0xbe8a0e9f	-0.2696428
181	0xbfa5afdd	-1.2944294
182	0x3ff8ab5b	1.9427294
183	0x3f904818	1.1272001
184	0x3f84008c	1.0312667
185	0xbfb1ad3f	-1.3880996
186	0xbea3a859	-0.31964377
187	0xbf8aeb9c	-1.0853152
188	0xbf80196d	-1.0007759
189	0x3f983b01	1.1893007
190	0xbf3ce860	-0.73792076
191	0xbf72937f	-0.9475631
192	0x3e1b5525	0.15169199
193	0x3f1c2a47	0.6100201
194	0x3dd3defc	0.10345265
195	0x3fddc89e	1.7326849
196	0x3f5214a0	0.8206272
197	0xbf4e639c	-0.8062074
198	0xbec7c8b4	-0.39020312
199	0xbc7fa681	-0.0156036625
200	0x403cb41e	2.9484935
201	0xbc6dfbd1	-0.01452537
202	0x3f88ef96	1.0698116
203	0xbfb868e2	-1.4407008
204	0x3f0f799d	0.5604494
205	0x3f4fa2db	0.8110787
206	0x3f5f515e	0.8723353
207	0xbfc6d7fe	-1.5534666
208	0x3f1ff6a2	0.62485707
209	0x40044486	2.0666823
210	0xbe87c4ff	-0.26517484
211	0xbd9984b9	-0.07496018
212	0x403089e9	2.7584174
213	0x3e765332	0.24055174
214	0xbfa671c6	-1.3003471
215	0xbf690b06	-0.91032445
216	0x3e4156d4	0.18880779
217	0xbfef8180	-1.8711395
218	0x3f8a67b3	1.0812896
219	0xc02dc18b	-2.714938
220	0xbef6b919	-0.48188093
221	0xbefb3ca2	-0.49069697
222	0x3fa039f1	1.2517682
223	0xbef0920d	-0.46986428
224	0xbf85e86c	-1.0461555
225	0xbf8d726f	-1.1050547
226	0x402eece5	2.733209
227	0xbfc8fe58	-1.570262
228	0xbf843376	-1.0328205
229	0x402031b5	2.5030339
230	0xbfde024b	-1.734445
231	0x3e972896	0.29523152
232	0x3ff5c14c	1.9199615
233	0xbff63939	-1.9236213
234	0x405918e2	3.3921437
235	0x3f51b878	0.819221
236	0x3fc24a08	1.5178843
237	0x3edbfde2	0.42967135
238	0x400d8045	2.210954
239	0xbf2e20ec	-0.68018985
240	0x3e87079e	0.26373
241	0xbed15f73	-0.40893134
242	0x3f1b766d	0.6072758
243	0xc0900deb	-4.501699
244	0xc04b4440	-3.1760406
245	0xbe9c35d6	-0.30509824
246	0x3f84dd94	1.038012
247	0x3e2b0999	0.1670288
248	0xbe28dc5c	-0.1649031
249	0xc03d0e17	-2.953985
250	0xc02d1f2f	-2.7050283
251	0x3f86f2c5	1.0542837
252	0x3f8f4920	1.1194191
253	0xbe9c422d	-0.30519238
254	0xbfd6ca66	-1.6780517
255	0x3f504690	0.8135767

weight_ih_l0 f4 [192, 15]
0	0xbce074da	-0.02739947
1	0x3ec433e1	0.3832083
2	0x3ede9685	0.43474212
3	0x3f75ebdf	0.96063036
4	0xbfb26d70	-1.3939648
5	0xbdf51cd2	-0.11968388
6	0x3f6ab091	0.9167567
7	0xbd453677	-0.048147645
8	0x3d983f03	0.074338935
9	0xbf674309	-0.9033666
10	0x3ebc33fa	0.36758405
11	0xbf663b90	-0.89934635
12	0xbf549bd7	-0.8305029
13	0x3f3923ca	0.72320235
14	0x3e2aafba	0.16668597
15	0xc01211a9	-2.282328
16	0x3e0e1d7e	0.13878438
17	0xbf0b2c06	-0.5436405
18	0x4033369a	2.8002076
19	0x3fb0a824	1.3801312
20	0x3ceeedbf	0.0291661
21	0x3f7c2fac	0.9851024
22	0x3fc9449e	1.5724065
23	0xbf5cc74b	-0.86241597
24	0x3fdbbe13	1.7167381
25	0x3ea2452f	0.31693408
26	0xbfe420b6	-1.7822483
27	0xbde12f38	-0.109953344
28	0xbf76719d	-0.9626711
29	0xbf020cf8	-0.5080104
30	0xbf9ca149	-1.223672
31	0xbe17e14c	-0.14832038
32	0xbf8390f2	-1.0278609
33	0xbf75b979	-0.95986134
34	0x3f9ef358	1.2418013
35	0xbf802e0b	-1.0014051
36	0xbf7e89bd	-0.9942892
37	0x3e74fcca	0.23924556
38	0x3f90a625	1.1300703
39	0x3fddf896	1.7341487
40	0xbf6d6e44	-0.92746377
41	0xbf354eae	-0.7082318
42	0x3fddc353	1.7325233
43	0x3f3d061d	0.73837453
44	0x3f97e51c	1.1866794
45	0xbe278d3d	-0.16362472
46	0xbf86e2de	-1.0537984
47	0x3f6e7d8d	0.93160325
48	0x3fe23aa4	1.7674146
49	0xbfcf984c	-1.6218352
50	0xbf288de0	-0.65841484
51	0x3f6961e8	0.9116502
52	0x3f6365c7	0.88827175
53	0x3c9e5726	0.019328665
54	0x4009982e	2.1499133
55	0xbf9ccbe2	-1.224972
56	0xbdfbb20d	-0.1228982
57	0xbc98e6e8	-0.018664792
58	0xbecb944a	-0.39761573
59	0xbe69a0cf	-0.2281525
60	0x3fa1d1d2	1.2642157
61	0x3fe198ee	1.7624795
62	0x3ce74234	0.02822981
63	0xbf956f20	-1.1674538
64	0xc0232cf8	-2.5496197
65	0x3fbed47a	1.4908593
66	0x3e934512	0.28763634
67	0xbf0945df	-0.5362224
68	0xbf414ddf	-0.75509447
69	0x3fac4e09	1.3461314
70	0xbf0deb06	-0.5543674
71	0x3e83854a	0.2568763
72	0xbf23c9b5	-0.63979656
73	0x3f36afc7	0.71361965
74	0x3f14d48d	0.58136827
75	0xbf3acb9a	-0.7296692
76	0x3f04721d	0.51736623
77	0xbe5b5242	-0.21418098
78	0x3f456109	0.7710119
79	0xbfe8d51d	-1.8190037
80	0xbf1d46d1	-0.6143618
81	0xbfbe58cd	-1.487085
82	0xbfe49e31	-1.7860776
83	0x3e781015	0.24224885
84	0x3f322060	0.6958065
85	0x3f3eb76c	0.7449863
86	0x3f888458	1.0665388
87	0x3f05618b	0.52101964
88	0x3ee66949	0.450022
89	0xbe21283e	-0.15738007
90	0x3b4dfa50	0.0031429715
91	0xbe43fe0f	-0.19139884
92	0xbecebd1a	-0.40378648
93	0x3c967c04	0.018369682
94	0xbf15b1d1	-0.5847445
95	0xbf1eb3fd	-0.6199339
96	0x3f48a5df	0.783781
97	0x3f2c8753	0.6739399
98	0x3ea08906	0.3135454
99	0x3e7c9012	0.24664333
100	0xbf34b317	-0.7058577
101	0xbf7c9480	-0.98664093
102	0x3f9b8fec	1.2153296
103	0xbfa45b85	-1.284043
104	0x3eacd0a3	0.33752927
105	0xbfa1d306	-1.2642524
106	0xbec2473b	-0.3794497
107	0xbff728c1	-1.9309312
108	0xc0180f06	-2.375917
109	0xbe65e96d	-0.22452326
110	0x3f682bb0	0.9069166
111	0x3fc43a43	1.533028
112	0xc0107766	-2.2572875
113	0xbea242f4	-0.31691706
114	0x3f5a437a	0.8525921
115	0xc01833cc	-2.3781614
116	0xbd92365d	-0.07139275
117	0x3edef538	0.43546462
118	0xbf4bf3e4	-0.7966902
119	0xbf9318f8	-1.1491995
120	0xbfa74e4d	-1.307077
121	0xbe8dbc81	-0.2768288
122	0xbe261a67	-0.16221009
123	0x3fd55161	1.666546
124	0x3ef491ee	0.47767586
125	0x3f2b8f9e	0.6701602
126	0x3f5b2d9c	0.8561647
127	0x3fe6b87d	1.8025051
128	0x3fa15c67	1.2606324
129	0x3fa9d9d8	1.3269606
130	0x3dfa9e65	0.122372426
131	0xbfa892bc	-1.316978
132	0x3f7190fa	0.9436184
133	0xbfcb2196	-1.5869625
134	0xbf9005fc	-1.1251826
135	0xbe837c89	-0.2568095
136	0xbdfcf4cf	-0.12351381
137	0xbf567c0d	-0.83783036
138	0x3f7586d7	0.95908874
139	0xbdcfd98e	-0.10148917
140	0xbf3049b4	-0.6886246
141	0x4095e852	4.6846094
142	0x4039507f	2.895538
143	0x3f9cfc54	1.2264504
144	0x3e76f457	0.24116646
145	0xbf2c9073	-0.6740791
146	0x3eff8a31	0.4991012
147	0xbe9a89a2	-0.3018313
148	0xbdf0f809	-0.11766059
149	0xbf8eab3a	-1.1146004
150	0x3f3b34d1	0.73127466
151	0x401f376d	2.487758
152	0x3f89858d	1.0743881
153	0x3f076011	0.5288096
154	0xbf1b76bb	-0.60728043
155	0xbfaa27d8	-1.3293409
156	0xbfa59cce	-1.2938478
157	0x3e857977	0.26069233
158	0x3f74d41c	0.95636153
159	0xbfb62eb9	-1.4233009
160	0x3eb0e101	0.34546664
161	0x3d8f8920	0.070085764
162	0xc0180748	-2.3754444
163	0x3fe8ed13	1.8197349
164	0x3f1a1bcc	0.60198665
165	0xbf5cef10	-0.8630228
166	0x3f4843c3	0.78228396
167	0xbe767968	-0.2406975
168	0x3de41e92	0.11138643
169	0x3fee81e8	1.8633394
170	0xbfa54ea1	-1.2914621
171	0x3d9349b4	0.07191792
172	0x3f2128f8	0.6295314
173	0xbf5d145c	-0.8635919
174	0x3f0b07b3	0.54308623
175	0xbffe3a1d	-1.9861485
176	0x3e5b4f10	0.21416879
177	0x3f13b95c	0.5770471
178	0x3fd83113	1.6889976
179	0x3caf8f96	0.021430772
180	0xbf8e29e2	-1.1106532
181	0xbf798d12	-0.9748088
182	0xbd8e4710	-0.06947148
183	0x401aade4	2.4168634
184	0x3e899647	0.26872465
185	0xbeabb366	-0.33535308
186	0xbf995e3a	-1.1981881
187	0x3f5b8927	0.8575615
188	0x3fa9fc3f	1.3280104
189	0xbf2affa8	-0.6679635
190	0xbf46db6a	-0.7767855
191	0xbebaf6e5	-0.3651649
192	0xbf0bd9e0	-0.54629326
193	0xbeb081b2	-0.3447395
194	0xbf787fc3	-0.9706995
195	0xbfcedcbc	-1.6161113
196	0xbf99b231	-1.2007505
197	0xbee08b34	-0.43856204
198	0xc0042449	-2.0647147
199	0xbf94a72b	-1.1613516
200	0x3f740bbb	0.953304
201	0x3eb5a6c8	0.35478806
202	0x3f5c6161	0.8608609
203	0xbe958d65	-0.29209438
204	0x3e7d1d56	0.24718222
205	0x3fae6cdd	1.3626972
206	0xbf1209e2	-0.5704633
207	0x3f04ef5e	0.51927745
208	0xbf8d3218	-1.1030912
209	0xbec66ea5	-0.3875629
210	0xbbc84061	-0.00611119
211	0x3e18ba9e	0.14914939
212	0x400699ef	2.1031454
213	0xbdb1473f	-0.08656167
214	0xbffaa9e2	-1.9583094
215	0xbebba525	-0.36649433
216	0xbfccc4f0	-1.59976
217	0xbf9f9fcf	-1.2470645
218	0x3e95deb3	0.2927147
219	0xbec4db51	-0.38448575
220	0x3e94f000	0.29089355
221	0xbf564fde	-0.8371562
222	0xbf9eea22	-1.2415202
223	0x400fd886	2.2475905
224	0xbe365d0d	-0.17808934
225	0xbf5bf88d	-0.85926133
226	0xbf49ba39	-0.7879978
227	0x3f89afe3	1.0756801
228	0xbea52007	-0.32250997
229	0x3f98a991	1.1926748
230	0x4000c9e1	2.0123217
231	0x3e5a395e	0.21310946
232	0xbf489fbe	-0.7836875
233	0xbfff38e2	-1.9939234
234	0xc08aa36c	-4.332449
235	0x3fea7824	1.8317914
236	0xbf92ab34	-1.1458497
237	0xbf58664e	-0.84531105
238	0xbff3a352	-1.9034216
239	0x3fc3d04e	1.5297945
240	0xbfa93277	-1.3218526
241	0xbfbdaaed	-1.4817787
242	0x3fb348af	1.4006556
243	0xbda4a0d5	-0.08038489
244	0x3f96c079	1.1777488
245	0xbf107caa	-0.5644022
246	0x3f95d9a7	1.1707047
247	0x3d929077	0.07156461
248	0xbfb3f426	-1.4058883
249	0x3f9132d7	1.134364
250	0x3efef8da	0.49799234
251	0x3d21795f	0.03942239
252	0xbf2cb05c	-0.67456603
253	0xbdc0a746	-0.09406905
254	0x3f227096	0.6345304
255	0xbfe63e6c	-1.79878

weight_hh_l0 f4 [192, 64]
0	0x3f8225ee	1.0167825
1	0x3f101aa6	0.5629066
2	0xbe4e6bfe	-0.20158383
3	0xbf315774	-0.6927407
4	0xbf8c036f	-1.0938548
5	0x40076b8f	2.1159399
6	0x3f638ffc	0.8889158
7	0x3f97672a	1.1828358
8	0x3e16ff91	0.14745928
9	0x3f552999	0.832666
10	0x3eeda91e	0.4641809
11	0xc00b58f4	-2.1773043
12	0xbd2f87c2	-0.042854078
13	0x3f430191	0.76174265
14	0xbfc19297	-1.5122861
15	0xbf4109f1	-0.75405794
16	0xbe1d3d6e	-0.15355465
17	0xbe46e7fa	-0.1942443
18	0xbf6c878a	-0.92394316
19	0xbf16bdb0	-0.5888319
20	0xbedf2a55	-0.43586984
21	0x3e310cab	0.17289989
22	0xbf613dd0	-0.87984943
23	0xbf93fdc7	-1.1561822
24	0xbf81bcfe	-1.0135801
25	0x3f837f28	1.027318
26	0xbf148e5c	-0.58029723
27	0x3fe37ab9	1.7771827
28	0xbfbda3d2	-1.4815619
29	0x3f9b2c0e	1.212282
30	0xbc6070de	-0.013698785
31	0xbf297347	-0.66191524
32	0xbf805134	-1.0024781
33	0xbf3376e2	-0.70103276
34	0x3fbcc470	1.4747448
35	0x3ee35c34	0.44406283
36	0x3fac48dd	1.3459736
37	0xc009ba3c	-2.1519918
38	0x3ee591a6	0.44837683
39	0xbeb1dc57	-0.34738418
40	0xc0084cfb	-2.1296985
41	0xbc20108a	-0.009769568
42	0xbe2831d3	-0.16425256
43	0x403bcbc3	2.9343116
44	0xbeaa0f81	-0.33214954
45	0xbfe01aaa	-1.7508137
46	0x3f8d13ab	1.1021627
47	0x3f55d9e6	0.8353561
48	0x3f3aa35e	0.7290553
49	0xbf080cab	-0.5314433
50	0x3ea64056	0.3247096
51	0xbe51a924	-0.20474678
52	0x3f3ad529	0.72981507
53	0xbf4e538c	-0.8059623
54	0x3fa445b6	1.2833774
55	0x3f5e910f	0.8694009
56	0xbf463029	-0.77417237
57	0xbf065ae3	-0.5248243
58	0x3dcc9620	0.099895716
59	0xbcb8ddcf	-0.022566704
60	0xbfe495de	-1.7858236
61	0x3fb21b08	1.3914499
62	0xc025ba95	-2.589513
63	0x3f329895	0.6976407
64	0x3e5045e5	0.20339163
65	0xbfad906f	-1.3559703
66	0xbf896f16	-1.0737026
67	0x3fd3c944	1.6545796
68	0x3f2e3325	0.6804679
69	0xbf8a7aad	-1.0818688
70	0xbf1bcc96	-0.6085905
71	0xbf3c7f2c	-0.7363155
72	0x3fcfa1c2	1.622124
73	0xbf58fc98	-0.8476043
74	0x3f94a87f	1.1613921
75	0x3bb90f14	0.0056475494
76	0x3fa12875	1.2590472
77	0xc0193958	-2.394125
78	0x3fbd96d7	1.4811658
79	0x3f52e46b	0.8237979
80	0xc0115560	-2.2708359
81	0x3f5d0361	0.8633328
82	0x3da17151	0.078829415
83	0xbda3c12a	-0.079958275
84	0x3eb81ae8	0.35958028
85	0xbe86eea3	-0.2635394
86	0xbfd1ec7e	-1.6400297
87	0xbf5a0952	-0.8517047
88	0xbca4fcf9	-0.020140158
89	0xbff58a25	-1.9182783
90	0xbef3a6b8	-0.47588134
91	0xbffcb5df	-1.9743003
92	0x400b9ede	2.1815715
93	0x3f38094f	0.71889204
94	0x3f981ea9	1.1884357
95	0x3ef444c0	0.47708702
96	0x3f97396c	1.1814399
97	0x3e8c143f	0.27359197
98	0xbf450f83	-0.76976794
99	0x3e88b4e8	0.2670052
100	0xbf1b32c1	-0.6062432
101	0x3fc637d4	1.5485787
102	0xbf792ac8	-0.97330904
103	0xbedf4bd1	-0.4361253
104	0x3f609045	0.8772014
105	0x3e6621f1	0.22473885
106	0x404acd7c	3.1687918
107	0xbf0d441c	-0.5518205
108	0xbfdd7fbc	-1.7304606
109	0x3f3a9e25	0.7289756
110	0x3ee9d7c5	0.45672432
111	0xbf5a38f3	-0.8524315
112	0xbf76e8c6	-0.96448934
113	0xbf9ef87a	-1.2419579
114	0x3fd4cccc	1.6624999
115	0xbf1d192e	-0.61366546
116	0x3d611a1c	0.05495654
117	0x3f721592	0.94564164
118	0x3f4fcb49	0.81169564
119	0x3e044773	0.1291788
120	0x3f666857	0.9000296
121	0x3ec70eab	0.38878378
122	0xbc48bca3	-0.012252006
123	0x3d8f4d13	0.069971226
124	0x3e0d41c5	0.1379462
125	0xbf912abb	-1.1341165
126	0x3f8d9d39	1.1063606
127	0xbe6941c6	-0.22778997
128	0xbf71a8f1	-0.9439841
129	0xbfb50258	-1.414134
130	0x3fd93af2	1.6971114
131	0xbf7a926c	-0.9787967
132	0x3f3faf3e	0.74876773
133	0x3f685d66	0.90767515
134	0x3eda2e3a	0.42613393
135	0x3f7eda8e	0.9955224
136	0x3e960967	0.29304048
137	0xbf0d6441	-0.552311
138	0x3e96c5de	0.29447836
139	0xbf17f8bc	-0.59363914
140	0xbb5ced05	-0.003371061
141	0x3e70bf55	0.23510487
142	0xbf61a7c6	-0.88146627
143	0x3ff3a8a2	1.9035838
144	0xbd9af82c	-0.07566866
145	0xbe985615	-0.29753175
146	0x3eed2104	0.4631425
147	0x3ffc6381	1.9717866
148	0x3fb48978	1.4104452
149	0xbfcb051d	-1.5860935
150	0x3f8886f5	1.0666186
151	0x3fd15c89	1.6356364
152	0x3f5c874a	0.86143935
153	0x3f2eb041	0.6823769
154	0xbfdea73b	-1.7394785
155	0xbebe326d	-0.37147847
156	0xbe6cc51a	-0.23122063
157	0x4010acaa	2.2605386
158	0xbf97f36a	-1.1871159
159	0x3e877af6	0.26461
160	0x3e83ce3a	0.25743276
161	0xbed03cab	-0.40671286
162	0x3e82a369	0.25515297
163	0x3f94c7ab	1.1623434
164	0xbf580861	-0.84387785
165	0x3f7d692d	0.9898861
166	0x3e47eead	0.19524641
167	0xbe82ba02	-0.25532538
168	0x3f3b695a	0.7320763
169	0xbf8e0273	-1.1094497
170	0xbf3dc08b	-0.7412192
171	0x3d4d0cbd	0.050060976
172	0x4041f158	3.0303555
173	0x3f89d10f	1.0766925
174	0x3fb48608	1.4103403
175	0xbeb66b04	-0.3562852
176	0x3e88caa3	0.267171
177	0x3e936073	0.28784522
178	0xbf77aaac	-0.967448
179	0xbfa989ac	-1.3245139
180	0x3ee929f0	0.45539808
181	0x400215d9	2.0325835
182	0xbf6fac1d	-0.93622
183	0x3fec09af	1.8440455
184	0x3f540bae	0.8283032
185	0xbe80271c	-0.25029838
186	0x3f3c12bb	0.7346608
187	0xbef50b87	-0.47860357
188	0x3ef6ed7a	0.48228055
189	0x3fbd3566	1.4781921
190	0xbea05f51	-0.3132272
191	0xbe945cd5	-0.28977075
192	0x4040a135	3.0098393
193	0xbf94f0ae	-1.163595
194	0xbe7baf16	-0.24578509
195	0xbe44b9e3	-0.19211535
196	0x4012bc72	2.2927518
197	0x3c94ddab	0.018172106
198	0x3e986a4c	0.29768598
199	0xbfba249e	-1.4542425
200	0xbf21a282	-0.6313859
201	0xbfcc2938	-1.5950079
202	0x3fa140c2	1.2597888
203	0x3f62d3a7	0.88604206
204	0x40125e0a	2.2869897
205	0xbf6821d1	-0.906766
206	0xbe4489a9	-0.19193138
207	0xbf52933d	-0.8225592
208	0xc02ef3f6	-2.7336402
209	0xbe718b47	-0.23588286
210	0x3f29d178	0.6633525
211	0xbf91500b	-1.1352552
212	0xbfcbf518	-1.5934172
213	0xbf2fbb9d	-0.6864565
214	0xbf85fc45	-1.0467612
215	0x3dee99f9	0.11650462
216	0x3f4a5a87	0.79044384
217	0xbf9ac03d	-1.2089916
218	0xbc29ecb3	-0.010371375
219	0xbf3d3bce	-0.7391938
220	0x3f385d5e	0.7201747
221	0xbf30df76	-0.69090974
222	0x3e2df5ad	0.16988249
223	0xbe4cbfd8	-0.19995058
224	0x4085da66	4.18291
225	0xbf2a1f1c	-0.6645372
226	0x4004ca4f	2.074848
227	0xbfa2d56d	-1.2721382
228	0x3eabf47d	0.33584967
229	0xbf0bb8a8	-0.5457864
230	0xbe8c4cb2	-0.27402264
231	0x3fe9f92e	1.8279169
232	0x3f1c6cd7	0.61103576
233	0xbfbde9c0	-1.483696
234	0xbfb4682b	-1.409429
235	0xbec5a502	-0.38602453
236	0x3fb0ef3e	1.3823011
237	0x3fbd153e	1.4772108
238	0xbe279e84	-0.16369063
239	0xbc081729	-0.008306303
240	0xbfd31121	-1.6489602
241	0xbfba62b1	-1.4561368
242	0xbb65aae7	-0.0035044493
243	0xbf1c796f	-0.6112279
244	0x3f486731	0.7828246
245	0x3f9c06e0	1.2189598
246	0x3f1ae37d	0.6050337
247	0xbf729290	-0.94754887
248	0xbffad43e	-1.9596021
249	0x3f4f9864	0.81091905
250	0x3db15b5e	0.08660005
251	0x3fd19722	1.6374247
252	0xbff5d0fe	-1.9204404
253	0xbe405bfb	-0.18785088
254	0xbf40d5f6	-0.7532648
255	0xc005f2e6	-2.0929503

bias_ih_l0 f4 [192]
0	0x3ff4fccb	1.9139646
1	0xbff6620b	-1.924867
2	0x3d3ce80f	0.046119746
3	0xbe3e918c	-0.18610209
4	0x3fa04c0f	1.2523211
5	0x3e806531	0.25077203
6	0x4026f4d7	2.6086938
7	0x3f1a2e10	0.60226536
8	0xbf9fa548	-1.2472315
9	0x3efed7c0	0.4977398
10	0x3f3be014	0.7338879
11	0xbe5c92c7	-0.21540366
12	0xc014dc62	-2.325951
13	0x3ef265ef	0.47343394
14	0x3fba96ec	1.4577308
15	0xbf5c8f99	-0.8615661
16	0xbf1c522f	-0.610629
17	0x3fafa571	1.3722364
18	0x3ecb39ef	0.39692637
19	0xbd211364	-0.039325133
20	0xbe4cd0ce	-0.20001528
21	0x3f3880c2	0.7207147
22	0xbfb52a15	-1.4153467
23	0xbf85c2c3	-1.0450062
24	0xbdeb32fb	-0.11484333
25	0xbe939850	-0.28827143
26	0x3fabc3f7	1.3419179
27	0x3f635abb	0.8881032
28	0xbf90a7d3	-1.1301216
29	0xbe1cdc8a	-0.15318504
30	0xc0132795	-2.299291
31	0xbfdfe0cb	-1.7490476
32	0x3df2fddf	0.11864828
33	0xbfcf3ca7	-1.6190385
34	0xbf7b7a60	-0.98233604
35	0xbf48b531	-0.78401476
36	0x3f26e920	0.6519947
37	0x3cfc6827	0.030811382
38	0xbf2f81fc	-0.68557715
39	0xbf91e735	-1.1398684
40	0x3f1a9eb5	0.6039842
41	0xbf492bcb	-0.7858245
42	0x3f9cb069	1.2241336
43	0x4010dd50	2.2635078
44	0x40117c3e	2.2732081
45	0xbf506085	-0.8139728
46	0x4015467c	2.332427
47	0xbec34447	-0.3813803
48	0x3fcacd99	1.5843993
49	0xbff3b9c4	-1.9041066
50	0x3cbd357c	0.023096792
51	0xbf7912ad	-0.9729412
52	0xbfb0f47e	-1.3824613
53	0xbff758ce	-1.9323976
54	0xc03592df	-2.8370893
55	0xbd90306a	-0.07040484
56	0x3f52bc9e	0.82319057
57	0x3f547786	0.8299488
58	0x3ee38993	0.44440898
59	0x3fa18055	1.2617289
60	0x3fa55426	1.2916305
61	0x3ec7a959	0.3899639
62	0x3f720d39	0.94551426
63	0x3f025322	0.509081
64	0xbe3718ff	-0.17880629
65	0x3ee0d35d	0.43911257
66	0x3f5f573f	0.872425
67	0x3e8e4e54	0.27794135
68	0x4001d14f	2.0284002
69	0xbe4e0ef6	-0.20122895
70	0xbf2ffce4	-0.68745255
71	0x3e0c78a9	0.13717903
72	0xbfaff615	-1.3746973
73	0xbfb74ecc	-1.4320922
74	0x3c503707	0.012708432
75	0x3f9da9a2	1.2317393
76	0xbe95a87a	-0.292301
77	0xbf1a7757	-0.6033835
78	0xbf364b52	-0.7120868
79	0xbfa748a3	-1.3069042
80	0xbf7963ac	-0.9741771
81	0x403ac1bf	2.9180753
82	0x4024dc86	2.5759597
83	0xbf6c5d79	-0.9233013
84	0xbd9ea2d3	-0.077459
85	0x4030bf4e	2.7616763
86	0x3f266f97	0.6501402
87	0x4067f730	3.6244621
88	0xbe95d00b	-0.29260287
89	0x3f88a8cc	1.0676513
90	0xbebab8c0	-0.36469078
91	0xc00bcd2b	-2.1843975
92	0x3fb72721	1.4308816
93	0xbfd4e32f	-1.6631831
94	0xc04597b7	-3.087385
95	0xbfac8277	-1.3477315
96	0x404688f5	3.1021092
97	0x3f6f863a	0.9356419
98	0xbf5e4bc0	-0.86834335
99	0x3f747e56	0.95505273
100	0x40851645	4.1589684
101	0xbfc10bca	-1.5081723
102	0x3f1c5824	0.6107199
103	0x3eeec043	0.4663106
104	0x3f58d1cd	0.8469513
105	0xbfc1afa8	-1.5131731
106	0xbf5afad0	-0.8553896
107	0x3e174af8	0.14774692
108	0x3eb2d2fa	0.34926587
109	0xbe0b7f4f	-0.13622783
110	0xbff400a7	-1.9062699
111	0x3fd21da0	1.6415291
112	0xbfea9a95	-1.8328425
113	0x3fec21c8	1.8447809
114	0x3f370627	0.7149376
115	0x3f5a4e57	0.8527579
116	0xbf28f1bd	-0.65993863
117	0xbfd94472	-1.6974013
118	0x3d3ea174	0.046540692
119	0x3fa0f0c1	1.2573472
120	0x3febf4e1	1.8434106
121	0x3f193e25	0.5986045
122	0xbf5333e1	-0.82501036
123	0x3fb93a6a	1.4470952
124	0xbf3dcb94	-0.7413876
125	0x3e8318b8	0.25604796
126	0xbffe7c33	-1.9881653
127	0x40378f3d	2.8681176
128	0xbef3cdaa	-0.47617847
129	0x3faa1066	1.3286254
130	0x3ff3ebe3	1.9056362
131	0xbe9cd36b	-0.3063005
132	0xbe8e0842	-0.27740675
133	0x3fa3364b	1.2750944
134	0x3fce6506	1.612458
135	0x3e3d09d6	0.18460783
136	0xbfa18a05	-1.2620245
137	0x3f43ca94	0.76480985
138	0xbf549586	-0.83040655
139	0xbefdbabe	-0.49556535
140	0xbf97f8f7	-1.1872853
141	0x3f9bc0c2	1.21682
142	0xc00d6064	-2.2090082
143	0x3f90bf3f	1.1308364
144	0xbf18c7cc	-0.59679866
145	0x3fa25181	1.2681123
146	0x3ed4fd5a	0.41599542
147	0xbe7b588c	-0.24545497
148	0x3fdf5eed	1.7450844
149	0x3fbc9c21	1.4735147
150	0x3f151c83	0.5824663
151	0x3f68e103	0.9096834
152	0x3eee4567	0.46537325
153	0x3eb0de9b	0.34544834
154	0xbf867b6c	-1.0506415
155	0xbee8c30c	-0.4546131
156	0x3d16ef18	0.03684911
157	0x3ee0c2e3	0.43898687
158	0x3f33dfc5	0.7026332
159	0x3eb04def	0.3443446
160	0xbea3d710	-0.32000017
161	0x3daa606a	0.08319171
162	0x3fd2e8a4	1.6477246
163	0xbed7a1e5	-0.42115703
164	0xbe0c6d7b	-0.13713638
165	0xbe00d3c2	-0.12580779
166	0x3f550422	0.8320943
167	0x3f1aca01	0.60464483
168	0xbfa84a4d	-1.3147675
169	0x3f30dd0e	0.690873
170	0x3f632b53	0.8873798
171	0x4008a6a3	2.1351707
172	0xbc4d4415	-0.012528439
173	0xbf2f0bee	-0.6837758
174	0xbf26bd72	-0.6513282
175	0x3eec6393	0.4616972
176	0xbebeceb2	-0.3726707
177	0x3f2e15b2	0.68001854
178	0xbf84f7aa	-1.0388081
179	0x3dccaf88	0.099944174
180	0xbf4491fe	-0.76785266
181	0xbf980b26	-1.1878402
182	0xbfa20aa4	-1.2659497
183	0x403881fb	2.8829334
184	0xbe266454	-0.1624921
185	0x3f14bc01	0.5809937
186	0xbdfbbf84	-0.12292388
187	0xbf2f90eb	-0.685805
188	0x3ea834a5	0.32852665
189	0xbe93ef98	-0.28893733
190	0xc0021e7c	-2.0331106
191	0x40054939	2.0825942

bias_hh_l0 f4 [192]
0	0x3ff87269	1.9409915
1	0xbff7b481	-1.935196
2	0x3e0cd59e	0.13753363
3	0xbdf297bb	-0.118453465
4	0x3f99232c	1.1963859
5	0x3edec215	0.43507448
6	0x401da8d8	2.4634304
7	0x3f10bbff	0.5653686
8	0xbfa36853	-1.2766212
9	0x3e9998a2	0.29999262
10	0x3f6cf24a	0.92557204
11	0xbed47dba	-0.41502172
12	0xc0186726	-2.3812957
13	0x3ed1819a	0.4091919
14	0x3fbc53e7	1.4713105
15	0xbf5e5b89	-0.8685842
16	0xbf1db3de	-0.6160258
17	0x3fb0d209	1.3814098
18	0x3ec2c438	0.38040328
19	0xbe23e328	-0.16004622
20	0xbd4706b4	-0.048590377
21	0x3f423e50	0.7587633
22	0xbfc6730a	-1.5503857
23	0xbf802bf1	-1.001341
24	0xbdecb433	-0.11557808
25	0xbe4c9ded	-0.19982119
26	0x3fa2b009	1.2709972
27	0x3f79352c	0.9734676
28	0xbf8f91e0	-1.1216393
29	0xbddf0ce2	-0.10891129
30	0xc0075123	-2.1143272
31	0xbfd6acc6	-1.6771476
32	0x3eac6960	0.33674145
33	0xbfdc2d9b	-1.7201418
34	0xbf658b62	-0.89665806
35	0xbf6b2ede	-0.9186839
36	0x3f25af85	0.64720947
37	0x3b5d9604	0.003381134
38	0xbf1ff7f4	-0.6248772
39	0xbf8349b4	-1.0256867
40	0x3f03a37f	0.5142135
41	0xbf6d6d35	-0.9274476
42	0x3fa66e88	1.3002481
43	0x4012e109	2.294985
44	0x401b857c	2.4300222
45	0xbf85557f	-1.0416716
46	0x40170a72	2.3600125
47	0xbeb50372	-0.3535419
48	0x3fc1e71f	1.5148658
49	0xbfec6336	-1.8467777
50	0xbd8880de	-0.066652045
51	0xbf85e397	-1.046008
52	0xbf9f116f	-1.2427195
53	0xbff47f53	-1.9101356
54	0xc030fc3d	-2.7653954
55	0xbd5569b4	-0.05210276
56	0x3f631cec	0.88716006
57	0x3f427854	0.75964856
58	0x3f12d810	0.57360935
59	0x3f9fbe18	1.2479887
60	0x3fa76d61	1.3080255
61	0x3f059701	0.5218354
62	0x3f8e4feb	1.1118139
63	0x3f05cd2a	0.5226618
64	0xbd739c8b	-0.059475463
65	0x3ef04d12	0.469338
66	0x3f56985c	0.8382623
67	0x3e86fd51	0.2636514
68	0x40093b5e	2.1442485
69	0xbe6bc577	-0.23024546
70	0xbf5085cf	-0.81454176
71	0x3e7138e3	0.23556857
72	0xbfa46590	-1.2843494
73	0xbfbb21d4	-1.4619699
74	0x3d8f7a26	0.0700572
75	0x3f8868be	1.0656965
76	0xbe9e5cda	-0.30930215
77	0xbf141d36	-0.5785707
78	0xbf13d697	-0.57749313
79	0xbfad1abe	-1.3523786
80	0xbf8e56a2	-1.1120188
81	0x403bdd74	2.9353914
82	0x402b9c88	2.681429
83	0xbf4b4726	-0.7940544
84	0xbdd6d29b	-0.104893886
85	0x4031d0be	2.7783656
86	0x3f343625	0.7039512
87	0x4068c2ec	3.636897
88	0xbe616a82	-0.22013286
89	0x3f924790	1.1428089
90	0xbe9c765f	-0.3055906
91	0xc00730f8	-2.1123638
92	0x3fa2c71b	1.2717012
93	0xbfd0c0a4	-1.6308789
94	0xc04a0db3	-3.1570861
95	0xbfaba04a	-1.3408291
96	0x4044b5d0	3.073597
97	0x3f6bdfb2	0.92138207
98	0xbf654ad4	-0.89567304
99	0x3f97df56	1.1865032
100	0x4088ad01	4.2711186
101	0xbfca2ea2	-1.5795481
102	0x3efe5ebd	0.49681655
103	0x3eb4fe58	0.353503
104	0x3f30b4b5	0.6902574
105	0xbfb5eae5	-1.4212309
106	0xbf3b1af0	-0.7308798
107	0x3e8a3ce0	0.2699957
108	0x3e2adb9a	0.16685334
109	0xbe870b69	-0.26375893
110	0xbff20237	-1.8906926
111	0x3fbcf758	1.4762983
112	0xbfebecb1	-1.8431607
113	0x3fd17c3f	1.6366042
114	0x3f57d9e6	0.8431686
115	0x3f5981e9	0.8496385
116	0xbf378018	-0.7167983
117	0xbfd6f3b1	-1.6793119
118	0x3d9f7a69	0.0778702
119	0x3fa7c8cc	1.3108153
120	0x3fe80783	1.8127292
121	0x3ef45043	0.47717485
122	0xbf5597fb	-0.8343503
123	0x3fc38053	1.5273536
124	0xbf29d755	-0.66344196
125	0x3ebd47ae	0.3696875
126	0xc006a39f	-2.1037366
127	0x402ba973	2.6822174
128	0xbf878cbe	-1.0589826
129	0x40132728	2.299265
130	0x3f8eeb7e	1.1165617
131	0xbe633fa0	-0.2219224
132	0xbf5b421e	-0.8564776
133	0x3fe172db	1.7613176
134	0x3f9cc075	1.2246233
135	0xbf840efb	-1.0317072
136	0x3e21147c	0.1573047
137	0x3ecf832b	0.4052976
138	0xbfb761e9	-1.4326755
139	0xbf7e4da6	-0.9933723
140	0x3d650e6f	0.055921968
141	0x3fe9ea1b	1.8274568
142	0xc0550802	-3.3286138
143	0x4008bbdb	2.1364658
144	0xbedab5f1	-0.42716935
145	0x400ee072	2.232449
146	0xbeb35137	-0.350229
147	0xbf2e96c3	-0.68198794
148	0x3f8a69c1	1.0813524
149	0x3fbc050c	1.468904
150	0x3f8f41d9	1.119197
151	0xbee6b028	-0.45056272
152	0x3ebdad30	0.37046194
153	0x3d4df20d	0.050279666
154	0xbf85f44e	-1.0465181
155	0xbfa1523e	-1.2603223
156	0x3fc8f9f8	1.5701284
157	0x3f27f584	0.65609
158	0xbe1cda2b	-0.153176
159	0x3e6f99fa	0.23398581
160	0x3f0cd40e	0.5501107
161	0xbfbf8089	-1.4961101
162	0x3fe3eb4c	1.7806182
163	0x3e1c9543	0.15291314
164	0xbf1e06de	-0.6172923
165	0xbd54dd35	-0.051968772
166	0xbec8b518	-0.39200664
167	0x3f252dc1	0.6452294
168	0xbfb7fd06	-1.4374092
169	0xbfc475d5	-1.534846
170	0x3fb25f8b	1.3935407
171	0x3fb82e31	1.4389096
172	0x3da54639	0.080700345
173	0xbf2ff100	-0.6872711
174	0x3e2b2f73	0.16717319
175	0xbe21d143	-0.15802483
176	0xbf4fb1f7	-0.8113093
177	0x3d78e8aa	0.06076876
178	0xbf3a2532	-0.72713006
179	0xbf1cb28b	-0.61209935
180	0xbf951fb3	-1.1650299
181	0xbf60fdcf	-0.8788728
182	0xbf74c334	-0.95610356
183	0x401b0a5d	2.4225075
184	0xbee1891f	-0.44049928
185	0x3e905b98	0.2819488
186	0x3dd93df5	0.106075205
187	0xc02cebb9	-2.7018874
188	0x40002398	2.0021725
189	0x401c4714	2.4418383
190	0xbfc5da69	-1.5457278
191	0x3e8afea1	0.2714739

weight f4 [18, 64]
0	0xbf5de781	-0.8668137
1	0x3fea6b5f	1.8314017
2	0x4016cc73	2.3562286
3	0xbf837e6a	-1.0272954
4	0xbfda3b7f	-1.7049407
5	0xbe28ff98	-0.16503751
6	0xbea96a36	-0.33088845
7	0xbfeac518	-1.8341398
8	0xc00b2370	-2.174038
9	0xbf17c93e	-0.59291446
10	0xbf6e5255	-0.9309438
11	0x3f5c5945	0.86073714
12	0x3fe7ee72	1.8119643
13	0x3f874c1d	1.0570103
14	0xbef23378	-0.47304893
15	0x3ff8f4d8	1.944972
16	0x3fb9f116	1.4526699
17	0x3e218476	0.15773186
18	0xbf488dc5	-0.78341323
19	0xbfa0d867	-1.2566041
20	0xbea81d7a	-0.3283499
21	0x3ee7951c	0.4523095
22	0x3e37d896	0.17953715
23	0x3f03e517	0.5152144
24	0x3f04e2ba	0.5190846
25	0xbf71af5a	-0.9440819
26	0xbf148dbf	-0.5802879
27	0x3f40f42f	0.75372595
28	0xbe8a8660	-0.27055645
29	0xbf87ef3f	-1.0619887
30	0x3fdb6ed6	1.71432
31	0x3ff353de	1.9009969
32	0xbfe11895	-1.7585627
33	0x3ed505d4	0.4160601
34	0xc0124238	-2.2852917
35	0x3fb6b780	1.427475
36	0xbf24a672	-0.64316475
37	0xbf9098e8	-1.1296663
38	0x40081a80	2.1266174
39	0xbfd04d06	-1.6273506
40	0xbfc10f88	-1.5082865
41	0xbf132181	-0.57473
42	0x3ee527b1	0.44756845
43	0xbf7909e0	-0.97280693
44	0x3fa3bae8	1.2791414
45	0xbf03ea5a	-0.5152947
46	0xbf9665ae	-1.174978
47	0x3f3f307a	0.74683344
48	0x3ff52f8a	1.9155133
49	0xbf33a996	-0.7018064
50	0xbf7f9dca	-0.9985014
51	0xbf372ec7	-0.7155575
52	0xc0056ded	-2.0848343
53	0xbec63803	-0.3871461
54	0x3fa62845	1.2981039
55	0x3fb70233	1.4297546
56	0xbdf5e462	-0.12006451
57	0xbf8ca798	-1.0988646
58	0xbee1492e	-0.44001144
59	0x3f145683	0.57944506
60	0xbf559685	-0.834328
61	0x3f9e17d3	1.235102
62	0xc0121a7f	-2.2828672
63	0x3f347ddf	0.70504564
64	0xbf327585	-0.6971057
65	0xbe893972	-0.2680164
66	0x3f7fc194	0.9990475
67	0xbfc1d180	-1.5142059
68	0xbf71e1d4	-0.9448521
69	0xbeff0523	-0.49808607
70	0xbec51887	-0.38495275
71	0xbfce0aa2	-1.6096995
72	0xbfa391e3	-1.2778896
73	0x3e82af62	0.2552443
74	0xbfc001df	-1.5000571
75	0x3f81c865	1.013928
76	0x3fce18cb	1.6101316
77	0x3f963c19	1.173709
78	0xbf225baf	-0.6342115
79	0x4017b9e0	2.37072
80	0xbf02f3a8	-0.5115304
81	0x3f5ed041	0.8703652
82	0x3e39316c	0.18085259
83	0xbe541177	-0.20709787
84	0x3d443c6b	0.04790918
85	0x3ec8a465	0.39187923
86	0xbc84e4ee	-0.016222443
87	0x3fa2ff73	1.2734207
88	0xbfd64d45	-1.6742331
89	0xbf48f671	-0.7850104
90	0x3e88b048	0.26696992
91	0x3fe47a55	1.7849833
92	0xbf117028	-0.5681176
93	0xbf6a7e64	-0.91599107
94	0x401cb9cf	2.4488409
95	0x3fd42539	1.657386
96	0xbd9e8f23	-0.07742145
97	0xbfc78753	-1.5588173
98	0xbfe6aace	-1.8020875
99	0x3f909d84	1.129807
100	0xbf5631de	-0.8366984
101	0xbe64d768	-0.22347796
102	0xbe8486cd	-0.25884095
103	0xbf869595	-1.0514399
104	0xbfc45ef9	-1.5341483
105	0x3f6ed8b1	0.93299395
106	0x403c08a6	2.9380279
107	0x3f8a354e	1.0797517
108	0xbe290025	-0.16503961
109	0xbfbb84c9	-1.4649898
110	0xc028774f	-2.632282
111	0x3f98e139	1.1943733
112	0x3f89c26b	1.0762457
113	0x3e1a416e	0.15064022
114	0xbeea9020	-0.45813084
115	0xbfa7bd19	-1.3104583
116	0xbf68c987	-0.90932506
117	0xbf8bb506	-1.0914619
118	0xbe0fc6cb	-0.14040677
119	0xbeb0a9f0	-0.34504652
120	0x3ea790d8	0.32727695
121	0x3ec973f5	0.3934628
122	0x401391d1	2.305775
123	0xbfde6906	-1.7375801
124	0xbf02412b	-0.5088069
125	0x3e47ab74	0.19498998
126	0xbf27113d	-0.6526068
127	0xbf3a72d8	-0.7283149
128	0xbf8bd620	-1.0924721
129	0x402ba251	2.681782
130	0x3ff37843	1.9021076
131	0xbec6cfdb	-0.38830456
132	0x3e1ad47d	0.1512012
133	0xbfe3f8e0	-1.7810326
134	0x3fc23b77	1.5174397
135	0x3f6be291	0.9214259
136	0xbf99de2f	-1.202093
137	0x3f90d964	1.1316342
138	0xbf8bbbc1	-1.0916673
139	0x400e6d12	2.2254071
140	0x40118ebc	2.2743368
141	0xbde1844f	-0.11011564
142	0xbed1ae08	-0.40953088
143	0x3e0452f1	0.12922265
144	0xbf5f358e	-0.8719109
145	0x3ea48146	0.32129878
146	0xbd84126f	-0.064488284
147	0xc0080b10	-2.1256752
148	0xbf566937	-0.83754295
149	0x3e2ea288	0.17054188
150	0x3fbeb4e4	1.4898953
151	0xbf0a2579	-0.5396343
152	0x3f2139c9	0.629788
153	0xbeb7f22d	-0.35926953
154	0x3f93caef	1.1546305
155	0x3e8d7017	0.2762458
156	0xbe9e45a9	-0.3091252
157	0xbf355b15	-0.70842105
158	0x405a42bb	3.410323
159	0x3eb87bf1	0.3603206
160	0x3fb77699	1.4333068
161	0xbf5ca5bc	-0.8619039
162	0xc032e175	-2.7950108
163	0x3f7c059d	0.98446065
164	0x400674ab	2.1008708
165	0xc0205020	-2.5048904
166	0xbe58205b	-0.21106093
167	0xbff9f946	-1.9529197
168	0xbfcf45f6	-1.6193225
169	0xbf6a99df	-0.9164104
170	0x3f463e86	0.77439153
171	0xbeb59f69	-0.35473183
172	0x3f0afadc	0.5428903
173	0xbf8003cc	-1.0001159
174	0xbf2f1c59	-0.6840263
175	0x3f3d1c94	0.7387173
176	0x3f13b472	0.5769721
177	0xbe66d8e0	-0.22543669
178	0xbf7b9a46	-0.9828228
179	0xbfa2d403	-1.2720951
180	0xbf7ebd46	-0.9950756
181	0xbf1d40cb	-0.6142699
182	0x3f43d2ef	0.76493734
183	0x3f4e1da6	0.8051399
184	0xbf9cd886	-1.2253578
185	0xbf1bfc44	-0.609318
186	0x3d35d26a	0.04439012
187	0xbf9be68a	-1.217973
188	0xbe52debf	-0.20592783
189	0x3e812aec	0.2522806
190	0xbf026c7a	-0.5094677
191	0x3febf06e	1.8432748
192	0xbedb4b5b	-0.4283093
193	0x3fb656e0	1.4245262
194	0x3fb9eb66	1.4524963
195	0xbff19b39	-1.8875495
196	0xbe6c9b26	-0.2310606
197	0xc01bb3a3	-2.4328392
198	0x3f9f0b87	1.2425393
199	0xbf85149f	-1.0396918
200	0xbf50696d	-0.81410867
201	0x3f6bdbf5	0.921325
202	0xc01fceb1	-2.4969904
203	0x3f9d0f42	1.2270281
204	0x3f48433b	0.78227586
205	0x3f3a46f8	0.7276454
206	0x3eafe04a	0.34350806
207	0x4042ad48	3.0418262
208	0x3ff716b8	1.9303808
209	0xbe37d468	-0.1795212
210	0xbec522a5	-0.38502994
211	0xbf6db29c	-0.9285066
212	0x3c109ab6	0.008825948
213	0x3fb00bc8	1.3753595
214	0xbd38d15b	-0.045121532
215	0x3f39a36f	0.72515005
216	0x3e1d89cb	0.15384595
217	0x3ecbe999	0.39826658
218	0xbf3c49af	-0.7354993
219	0xbe61e696	-0.22060618
220	0xbf783650	-0.96957874
221	0xbea90777	-0.33013508
222	0x400830dc	2.1279821
223	0x3fc79b0d	1.5594193
224	0x3f68bde1	0.9091473
225	0x3d3fbee4	0.046812907
226	0xc0261081	-2.5947573
227	0xbd17bb41	-0.037043814
228	0x3fe71305	1.8052679
229	0xbe0cbf03	-0.1374474
230	0x3f98bd52	1.1932776
231	0xbfccad7d	-1.5990444
232	0xbf5cc17d	-0.8623274
233	0xc021e9a9	-2.5298865
234	0x3f70206b	0.93799466
235	0x3eb60e16	0.35557622
236	0xbef7711b	-0.4832848
237	0xbf9a1275	-1.2036883
238	0xbf19c9ae	-0.60073364
239	0x3efb2ef6	0.49059266
240	0xbd78645a	-0.060642578
241	0xbf074523	-0.5283987
242	0x3f82f40e	1.023073
243	0xbea52903	-0.32257852
244	0xc001ff59	-2.0312102
245	0xbf8730c7	-1.0561761
246	0x3f43eef8	0.7653651
247	0x3f317a28	0.6932702
248	0x3f87765d	1.0582997
249	0x401aed49	2.4207327
250	0xbf8da82c	-1.1066947
251	0xc0038078	-2.054716
252	0xbe93fa55	-0.28901926
253	0x3feed62d	1.8659111
254	0xbf9cdc19	-1.2254668
255	0x3fb8a6dd	1.4425923

bias f4 [18]
0	0x3fc20a5b	1.515941
1	0x3f1e77b2	0.6190139
2	0x3fa974ed	1.3238808
3	0x3f915ba3	1.135609
4	0x3f2ca17d	0.6743391
5	0x3f8e5752	1.1120398
6	0x3fab736d	1.33946
7	0x3f648024	0.8925803
8	0x40299bdd	2.6501381
9	0x3fbf762f	1.4957942
10	0x3f677913	0.9041912
11	0x3f2b5e7f	0.66941065
12	0x3f984b4a	1.1897976
13	0x3f3bd108	0.7336583
14	0x3fdb771b	1.7145723
15	0x3f11542f	0.5676908
16	0x3f44c3dc	0.7686136
17	0x3fa623ec	1.2979712
