char_emb/code/output/model_child_gru2.pt (torch_old, 87243 bytes, 7 tensors)

weight f4 [91, 15]
0	0x3f10fe5d	0.5663813
1	0x3efed7e4	0.49774086
2	0x3e8b3c28	0.27194333
3	0x3f732c92	0.94989884
4	0x4002a8d8	2.0415554
5	0xbeba6f4c	-0.36413038
6	0x3f024b70	0.5089636
7	0x3ef3f49e	0.47647566
8	0x3f53d798	0.82750845
9	0xbf0a875c	-0.5411279
10	0xbea46d62	-0.32114702
11	0x3df5dca2	0.12004973
12	0xbf4b5cc7	-0.7943844
13	0xbe2615f0	-0.16219306
14	0xbe706342	-0.23475364
15	0xbf49fd1f	-0.7890186
16	0x3f12ebfa	0.5739132
17	0x3e99ee0c	0.30064428
18	0x3dafbd83	0.08581068
19	0x3e160e9a	0.14654008
20	0xbffc5a43	-1.9715046
21	0xbfd05f06	-1.6278999
22	0x3e8902d9	0.26759985
23	0xbf2a9148	-0.6662793
24	0x3f0683e1	0.5254498
25	0x3d66d057	0.056351032
26	0xbba20113	-0.0049439757
27	0xbeb1796c	-0.3466295
28	0xbd2f890c	-0.042855307
29	0x3e37e79e	0.17959449
30	0xbe762aed	-0.24039812
31	0xbfdae4ec	-1.7101111
32	0xbe057354	-0.13032275
33	0xbeca8d2c	-0.3956083
34	0xbf3436e6	-0.7039627
35	0x3fcadc41	1.5848466
36	0xbf7c3aeb	-0.985274
37	0xbf2bffac	-0.67187
38	0x3f7aad17	0.97920364
39	0xbf289ce8	-0.6586442
40	0xbf5aeb65	-0.85515434
41	0xbeed86cb	-0.463919
42	0x3fb92375	1.4463946
43	0xbede834c	-0.43459547
44	0x3ed1a4dc	0.4094609
45	0x3f29bda8	0.6630502
46	0xbf3bae5d	-0.7331293
47	0x3f73d4de	0.95246685
48	0xbf939d96	-1.1532466
49	0xbf92ff5a	-1.1484177
50	0x3f2210cd	0.63306886
51	0x4023f469	2.5617926
52	0x3fd895b3	1.6920685
53	0x40399e9d	2.900306
54	0xbf28f9ac	-0.6600597
55	0x3f213817	0.6297621
56	0xbeb18321	-0.34670356
57	0xbfc949cc	-1.5725646
58	0xbffd46e8	-1.9787264
59	0xbf55de96	-0.83542764
60	0x400658bd	2.0991662
61	0xbedf03d6	-0.43557614
62	0xbf1ad881	-0.6048661
63	0x3ec51b0c	0.38497198
64	0x3f97c436	1.1856754
65	0xbfa8ec98	-1.3197203
66	0x3d535c84	0.0516019
67	0x3e2ecbae	0.17069885
68	0x3f0acb3d	0.54216367
69	0xbe61c0c9	-0.22046198
70	0x3fa84fb7	1.3149327
71	0xbf855953	-1.0417885
72	0x3d61cf30	0.05512923
73	0x3f7eda04	0.99551415
74	0xbe682226	-0.22669277
75	0x3f805a75	1.0027605
76	0x40163711	2.347111
77	0x3f78c89b	0.971811
78	0x3eb06086	0.34448642
79	0xbf40231a	-0.7505356
80	0x3e57b46d	0.2106492
81	0x3f3319f5	0.6996148
82	0x3fb2ac87	1.3958901
83	0x3e8f9870	0.28045988
84	0xbf0e2116	-0.55519235
85	0xc05af6f1	-3.421322
86	0xbfaa73ae	-1.3316553
87	0x3e9e4195	0.3090941
88	0x3fa577cc	1.2927184
89	0xbf9616b4	-1.1725678
90	0x3cbe065d	0.023196394
91	0xbf63362e	-0.88754547
92	0xbf7d1ab8	-0.98868895
93	0xbf8d652d	-1.1046501
94	0xc034bc28	-2.8239841
95	0xbf7b0ae8	-0.98063517
96	0xbdb5ecd6	-0.088830635
97	0x3f69b4a3	0.91291255
98	0xbf2b6952	-0.6695758
99	0x3f263f23	0.6494009
100	0xbf713ac9	-0.94230324
101	0xbe69a2a0	-0.22815943
102	0x3f546ab7	0.82975334
103	0xc01243c6	-2.2853866
104	0x404027a1	3.0024188
105	0x402f35d3	2.7376602
106	0x3fa6c711	1.30295
107	0xbd0d871a	-0.03455267
108	0x3f6f76e8	0.9354081
109	0xbcf2bea6	-0.029631924
110	0x3fc233e6	1.5172088
111	0xbe179f7e	-0.14806935
112	0x3e0ea1f8	0.13928974
113	0x3fc64636	1.5490177
114	0xbe65cf07	-0.22442256
115	0xbf865b56	-1.0496624
116	0xbf7cf247	-0.98807186
117	0x3fa5c0b7	1.2949437
118	0x3cd5a092	0.026077542
119	0xbf7727c7	-0.9654507
120	0x3ee1933f	0.44057652
121	0x3f067b25	0.52531654
122	0xbebe910c	-0.37220037
123	0x3f428160	0.7597866
124	0xbf0aea4c	-0.5426376
125	0x3f123dd5	0.571256
126	0xbf27f1b4	-0.65603185
127	0xbf22e381	-0.63628393
128	0x3efe0736	0.49614877
129	0x3f61d4a6	0.882151
130	0xbdff527f	-0.12466907
131	0x3fa728c0	1.3059311
132	0x3f299b1e	0.66252315
133	0xbeb5661c	-0.35429466
134	0x3f136ac3	0.5758478
135	0xbed3691c	-0.4129113
136	0x3f197d43	0.5995676
137	0xbf06db2e	-0.5267819
138	0xbea57b69	-0.32320717
139	0xbf29d1e9	-0.6633592
140	0x3e5ebf9b	0.21752779
141	0xbfcc743d	-1.5972973
142	0xbe1a8093	-0.1508811
143	0x3fe88d24	1.8168073
144	0x3e738876	0.23782524
145	0xbf1e62a1	-0.61869246
146	0xc0183205	-2.378053
147	0x3f9939c8	1.1970758
148	0x3f6804d8	0.9063239
149	0x3f6b2529	0.91853577
150	0x3fc0b9da	1.5056717
151	0xbf2b5f80	-0.66942596
152	0x3ff018e0	1.8757591
153	0x3f5cff05	0.8632663
154	0xbcc09c29	-0.023511963
155	0x40296018	2.64649
156	0x3c8298e5	0.015942046
157	0x40146b55	2.319051
158	0xbf86d4eb	-1.0533727
159	0xbe0022e7	-0.12513314
160	0x3ef5182d	0.47870007
161	0xbff46c84	-1.9095616
162	0xbf85de39	-1.0458442
163	0x3f393f01	0.7236176
164	0x3ee63450	0.44961786
165	0xbff13d48	-1.8846827
166	0xc08ab100	-4.3341064
167	0x3eddc504	0.43314373
168	0x3f841105	1.0317694
169	0x3ff91c31	1.9461728
170	0x3f87d3e7	1.0611542
171	0x3f17bfa8	0.5927682
172	0xbf138f55	-0.5764058
173	0x3ccfd6b4	0.025370933
174	0xbd65a6a2	-0.056067117
175	0x3f45ef58	0.77318335
176	0x3f780aa5	0.9689124
177	0x3f42919a	0.7600342
178	0xbf2cc60c	-0.67489696
179	0xbf2dd57c	-0.67903876
180	0x3f336514	0.7007611
181	0xbf7f2a1d	-0.99673635
182	0xbfc058f0	-1.5027142
183	0x3f739b21	0.9515858
184	0x3efe2bcc	0.4964279
185	0xbf6d54ed	-0.9270771
186	0xbfedf5d0	-1.8590641
187	0x3d21e8b3	0.03952856
188	0x40506886	3.2563796
189	0x3e44534c	0.191724
190	0x3f34862e	0.7051724
191	0x3f7c2fa6	0.98510206
192	0x3ee4e19d	0.4470338
193	0xbe3940cf	-0.18091129
194	0x3f8d030a	1.1016552
195	0xbfceba9c	-1.6150699
196	0x3c69d886	0.014272815
197	0x3f1c17d3	0.6097385
198	0x3e9b5402	0.3033753
199	0x3ec3bee2	0.3823157
200	0x3f4cabea	0.7994982
201	0x3eefb1d2	0.46815354
202	0x3f50a433	0.8150055
203	0xbf310103	-0.6914217
204	0x3f2856cf	0.6575746
205	0x3fe2f6c9	1.7731563
206	0x3ee92b0c	0.45540655
207	0xbf1ac98d	-0.6046379
208	0xbf7edc25	-0.99554664
209	0xbf04f0c7	-0.519299
210	0x3e881009	0.26574734
211	0xbfddc806	-1.7326667
212	0x405becab	3.43632
213	0xbe7819aa	-0.2422854
214	0xbf283ae3	-0.65714854
215	0x3f54a761	0.830679
216	0xbf8c3fc2	-1.0956957
217	0xbd82b35f	-0.063818686
218	0x3ff0caa4	1.8811841
219	0x3f21d85e	0.63220775
220	0x3ed66d4a	0.41880256
221	0x3e924967	0.28571627
222	0xbe632a16	-0.22184023
223	0xbf9c9018	-1.2231474
224	0xbe329352	-0.1743901
225	0xbfed0703	-1.8517765
226	0xbeb8b69f	-0.3607683
227	0xbf99a60d	-1.20038
228	0xbfeacd69	-1.8343936
229	0xbfed72a2	-1.8550608
230	0xbf2d2383	-0.6763231
231	0xbfcf12dd	-1.6177632
232	0x3d5de086	0.0541692
233	0xbe966d54	-0.29380286
234	0x3ed554ed	0.41666356
235	0x3eac7449	0.3368247
236	0xbdd06ced	-0.10177026
237	0x3f6227a5	0.8834174
238	0xbf3792ce	-0.7170838
239	0x3fec259a	1.8448975
240	0xbf069c52	-0.52582276
241	0xbf2f55a2	-0.6849004
242	0xbfff3321	-1.9937478
243	0x3e9f6b47	0.31136534
244	0xbf8838ad	-1.0642296
245	0x3d89549b	0.0670559
246	0xc0267c06	-2.6013198
247	0x3eaa68e6	0.33283156
248	0x3fa7b0f9	1.3100883
249	0x400d0064	2.2031488
250	0xbfa28e78	-1.2699728
251	0x3f28053d	0.65632993
252	0x3fbfc338	1.4981451
253	0x3f20b58a	0.62777007
254	0x3f8a0161	1.0781671
255	0x402d4700	2.7074585

weight_ih_l0 f4 [192, 15]
0	0xb6f73903	-7.3678107e-06
1	0x3ee3f731	0.4452453
2	0xbdbf3bae	-0.09337555
3	0xbeee8968	-0.46589208
4	0x3f6fd2da	0.9368111
5	0x3e8e91dd	0.2784566
6	0x3e9ca29c	0.3059281
7	0x3e43b16d	0.19110651
8	0xbd3a3523	-0.04546083
9	0x3dd2dc79	0.10295958
10	0x3f566266	0.83743894
11	0x3ed0384d	0.40667954
12	0xbf12a1e2	-0.57278264
13	0x3f1bf5c5	0.6092189
14	0xbee7a0a7	-0.45239756
15	0x3defebe0	0.117149115
16	0x3f333f5f	0.7001857
17	0x3f00fd5c	0.50386596
18	0xbe02b4c1	-0.12764265
19	0x3e832913	0.25617275
20	0x3f939067	1.1528443
21	0xbf8c36e1	-1.0954248
22	0x3f9b049e	1.2110784
23	0x3ed184c8	0.40921617
24	0x3ffa86be	1.957237
25	0x3ebf8574	0.37406504
26	0x3f9585a5	1.168141
27	0xbe37940c	-0.17927569
28	0xbfb7180a	-1.4304211
29	0x3f7644c8	0.961987
30	0xbe382b5e	-0.17985293
31	0xbf091c45	-0.5355876
32	0x3f108ab4	0.56461644
33	0x3e4b83ad	0.19874449
34	0x3f4b9ab0	0.7953291
35	0x3e5a1ccc	0.21300048
36	0xbf7b7e86	-0.98239934
37	0x3cc2fb46	0.023801457
38	0xbfca7992	-1.581835
39	0xbe879ed7	-0.26488373
40	0xbfec3147	-1.8452538
41	0x3efe613b	0.49683556
42	0x3f1bfa99	0.60929257
43	0xbfa4319a	-1.2827637
44	0xbf0ca995	-0.5494626
45	0xbe068754	-0.13137561
46	0xbf917766	-1.1364563
47	0xbedcad5c	-0.43101013
48	0x3f411d9a	0.75435793
49	0xbfc3c37c	-1.5294032
50	0xbf81be9e	-1.0136297
51	0x3d075673	0.03304143
52	0xbf96cb1d	-1.1780735
53	0xbd5acdb5	-0.053418834
54	0xbec4b4ba	-0.38419133
55	0x3e4e3e22	0.2014089
56	0xbedef875	-0.43548933
57	0x3f1e95c7	0.6194729
58	0x3f1da2e6	0.6157669
59	0x3f1ad5a5	0.60482246
60	0x3eb2b045	0.34900108
61	0x3ea4ce97	0.32188866
62	0xbf778a74	-0.9669564
63	0x3f5e454e	0.868245
64	0xbee75e53	-0.4518915
65	0xbe8bdafb	-0.27315506
66	0xc003e43c	-2.0608053
67	0x3fa302bd	1.2735211
68	0x3f81dd1a	1.01456
69	0x3de3a320	0.11115098
70	0xbe82e780	-0.25567245
71	0x3c92b9fa	0.017910946
72	0x3fbdc996	1.4827144
73	0x3efd55ce	0.49479526
74	0x3f41b2d6	0.75663507
75	0xbd89272c	-0.066969246
76	0xbcb6f6a3	-0.022334402
77	0x3f8af887	1.0857095
78	0x3f8feb2c	1.1243644
79	0x401d101b	2.454108
80	0xbe5362ea	-0.20643201
81	0x3ec34b78	0.38143516
82	0xbeee2b40	-0.46517372
83	0xbed5c3d2	-0.41750962
84	0x3f385073	0.71997756
85	0x3fa8955a	1.3170578
86	0xbe39ea3c	-0.1815576
87	0xbf9e7258	-1.2378645
88	0xbfac26a9	-1.3449298
89	0xbda12f4e	-0.07870351
90	0x3e74b1a4	0.2389589
91	0x3f86d474	1.0533586
92	0x3ff9f4ef	1.9527873
93	0xbf471d49	-0.7777906
94	0x3f3c3fcd	0.7353485
95	0xbf8f12d1	-1.1177617
96	0x3f28ad83	0.6588976
97	0xbea1b101	-0.31580356
98	0x3e86dc35	0.2633988
99	0x3fa2bf26	1.2714584
100	0x3f8b88aa	1.0901082
101	0xbef25f2b	-0.47338232
102	0xbfa38a0e	-1.2776506
103	0xbd70a5b2	-0.05875177
104	0x3e827f8e	0.25487942
105	0xbf3d9350	-0.74052906
106	0xbf283716	-0.65709054
107	0x3f641b8a	0.8910452
108	0xbeb1cafe	-0.34725183
109	0x3eb0ea3d	0.3455371
110	0x3f7c9974	0.9867165
111	0xbdc26c44	-0.09493306
112	0x3f6eef7e	0.93334186
113	0xbdb4806b	-0.08813556
114	0x3f0f9c79	0.56098133
115	0x3e931459	0.28726462
116	0x3d8ed9a8	0.069751084
117	0xbdc21fc5	-0.09478716
118	0xbec51d97	-0.38499138
119	0x3cea9149	0.02863373
120	0x3e525034	0.20538408
121	0x3fbdff06	1.4843452
122	0xbf9d24e4	-1.2276883
123	0x3f78ed8c	0.9723747
124	0xbfab8536	-1.3400028
125	0xbf801b91	-1.0008413
126	0xbf97c220	-1.1856117
127	0x3f98deaf	1.1942958
128	0xbe29cb0c	-0.16581362
129	0xbec04354	-0.37551367
130	0xbf256f9b	-0.6462342
131	0xbf53c523	-0.8272268
132	0x3f8243d6	1.0176952
133	0x3faac2bd	1.334068
134	0x3e852494	0.2600447
135	0xbe583976	-0.2111567
136	0xbf2047da	-0.62609637
137	0x3ed5197a	0.41621
138	0x3e97d53e	0.29654878
139	0x3ee22980	0.44172287
140	0x3f6c0aa1	0.9220372
141	0xbf16e7c7	-0.58947414
142	0xbf00e5ec	-0.5035083
143	0x3f04569e	0.5169467
144	0xbe300fa1	-0.17193462
145	0xbee5410e	-0.44776195
146	0x3f9b0eaa	1.211385
147	0x3f34e7f3	0.70666426
148	0xbe7879c9	-0.24265207
149	0xbfaa63d4	-1.3311715
150	0xbeb1f474	-0.34756815
151	0xbf436095	-0.7631925
152	0xbdf1b1d3	-0.118014954
153	0xbe7c1cc2	-0.24620345
154	0xbe211aa2	-0.15732816
155	0x3f666839	0.9000278
156	0xbf5bc7f1	-0.8585196
157	0xbf22312c	-0.6335628
158	0x3f68578a	0.90758574
159	0xbef13814	-0.47113097
160	0xbf1cf566	-0.6131195
161	0x3fcbecdd	1.593166
162	0x3f7bbb21	0.9833241
163	0xbfe5943d	-1.7935864
164	0x3d8a88cc	0.06764373
165	0xbfb579e1	-1.417782
166	0xbf10f3db	-0.56622094
167	0x3fe04f84	1.7524266
168	0xbdcb2498	-0.09919089
169	0x3fedca97	1.857745
170	0x3f721a6b	0.9457156
171	0x3fcfc02c	1.6230521
172	0x3f496a17	0.78677505
173	0x3ebb2e36	0.36558694
174	0xbf404e2b	-0.75119275
175	0xbd0ec952	-0.034859963
176	0xbe029609	-0.12752546
177	0xbf62d6d9	-0.8860908
178	0xbfd049cf	-1.6272525
179	0xbf80a658	-1.0050764
180	0x3f3c600d	0.7358406
181	0x3fc06997	1.5032223
182	0xbe7768f3	-0.24161129
183	0x3f55da7a	0.83536494
184	0x3e5ca5cb	0.2154762
185	0xbf9107f7	-1.1330556
186	0xbf42fc35	-0.7616609
187	0xbf0a1e38	-0.5395236
188	0xbe948198	-0.29005122
189	0xbf1d16e7	-0.6136307
190	0xbfa65021	-1.2993203
191	0x3ed177e2	0.40911776
192	0xbe1a3792	-0.15060261
193	0xbf399936	-0.72499406
194	0xbf464cec	-0.77461123
195	0x3f8281c4	1.0195851
196	0x3e4fe368	0.20301592
197	0xbfa06683	-1.2531284
198	0xbfa36606	-1.276551
199	0xbfbcc5a3	-1.4747814
200	0xbf797453	-0.9744312
201	0xbf92708c	-1.1440597
202	0x3e27d416	0.16389498
203	0x3f36925d	0.7131708
204	0xbf10eb61	-0.5660916
205	0xbfa28d00	-1.269928
206	0xbf5a73cf	-0.8533296
207	0x3e025b8d	0.12730236
208	0x3ee719fd	0.45137015
209	0x3fc703ea	1.554807
210	0xbcf8bc45	-0.030363211
211	0xbea05cab	-0.313207
212	0x3f5d9d24	0.865679
213	0xbe9d1680	-0.3068123
214	0x3e521282	0.20514873
215	0xbf190857	-0.5977835
216	0x3f08385d	0.53211004
217	0x3f5c8c7a	0.8615185
218	0xbe8fd40b	-0.28091463
219	0xbece204b	-0.40259013
220	0xbecd11f8	-0.40052772
221	0x3dffde55	0.12493578
222	0xbe52a118	-0.20569265
223	0xbfd6dffd	-1.6787106
224	0x3e7af186	0.24506196
225	0xbc17cdf0	-0.009265408
226	0xbf0e76b3	-0.5564987
227	0xbdf9c957	-0.12196606
228	0x3eec184c	0.46112287
229	0x3f86db12	1.0535605
230	0x3f0a70d1	0.54078394
231	0x3db2f371	0.08737839
232	0xbbb2e422	-0.0054593245
233	0xbed7fce9	-0.42185143
234	0xbf18a868	-0.5963197
235	0x3e77a739	0.24184884
236	0x3d870a5b	0.06593772
237	0x3f52f0a5	0.82398444
238	0x3f3aba7a	0.7294079
239	0xbf795b65	-0.9740508
240	0x3ef767b4	0.48321307
241	0x3f2d3da2	0.6767217
242	0x3eb1b0e0	0.34705257
243	0xbf47f59f	-0.78109163
244	0x3e6f624b	0.2337734
245	0xbe487d7d	-0.1957912
246	0x3f226495	0.63434726
247	0xbe8b3100	-0.27185822
248	0xbf49a35a	-0.7876488
249	0x3e212e32	0.15740278
250	0x3fcbf345	1.5933615
251	0x3edf3d45	0.43601432
252	0xbefbcbdc	-0.4917897
253	0x3db638ef	0.08897578
254	0xbef355a0	-0.47526264
255	0x3eb3d8e5	0.35126415

weight_hh_l0 f4 [192, 64]
0	0x3ca99ad7	0.020703716
1	0xbe3d89e1	-0.18509628
2	0x3f3d2f6f	0.739005
3	0x3ee99e7e	0.45628732
4	0xbf94f66a	-1.16377
5	0x3ec48299	0.38380888
6	0xbf166c64	-0.5875914
7	0x3f609ad7	0.87736267
8	0xbf7a4d5e	-0.977743
9	0xbd596f8b	-0.05308489
10	0xbcf806e8	-0.03027673
11	0x3e948de3	0.290145
12	0x3f7862a8	0.9702554
13	0x3e75ab84	0.2399121
14	0x3ead08bf	0.33795735
15	0x3f0b6012	0.54443467
16	0x3e2af343	0.1669436
17	0xbe8a9c04	-0.27072155
18	0xbf54cd74	-0.83125997
19	0x3f582566	0.84432065
20	0xbd9057ee	-0.07048021
21	0x3f5df621	0.8670369
22	0x3f3f26ff	0.7466888
23	0x3d67058e	0.05640178
24	0xbf247649	-0.6424299
25	0xbe720ce8	-0.23637736
26	0xbf9d71c0	-1.2300339
27	0x3f6da02f	0.92822546
28	0xbb3ded1c	-0.002898044
29	0xbf1e2a69	-0.6178346
30	0x3f0becfa	0.5465847
31	0xbe25acc0	-0.1617918
32	0x3f09868b	0.5372092
33	0x3eb4fbd1	0.3534837
34	0x3f9e0d20	1.2347755
35	0xbfbbd641	-1.467476
36	0x3fc17b10	1.5115681
37	0x3eb172e2	0.3465796
38	0xbe390188	-0.1806699
39	0xbe2a6254	-0.16639072
40	0xbde2e649	-0.1107908
41	0x3e8e98c4	0.27850926
42	0xbf7671d1	-0.9626742
43	0xbce1346f	-0.027490823
44	0xbf2e9d23	-0.6820852
45	0x3e8fb68b	0.28068957
46	0x3e05bfc2	0.13061431
47	0x3f0cd2ee	0.55009353
48	0xbf8c1945	-1.0945212
49	0xbf5b2c03	-0.8561403
50	0x3fbb161e	1.4616125
51	0x3edc654c	0.43046033
52	0xbff6a2ea	-1.9268467
53	0x3ea26aca	0.317221
54	0xbf2bd674	-0.67124104
55	0xbeacc779	-0.33745936
56	0x3f8de9c9	1.108697
57	0xbdc5b16f	-0.096529834
58	0xbf38abbf	-0.72137064
59	0x3f31b1b0	0.69411755
60	0x3eeb3d6f	0.45945308
61	0xbf2c9f70	-0.6743078
62	0x3f13d0c6	0.5774044
63	0xbf8463f9	-1.0343009
64	0x3d37ad47	0.044842985
65	0xbea46bbf	-0.32113454
66	0xbd4859cd	-0.048913766
67	0x3f20f71e	0.6287707
68	0x3ee1dc14	0.4411322
69	0x3f7aa8df	0.97913927
70	0x3ebfcaf9	0.37459543
71	0x3d2dc780	0.042426586
72	0xbf018b25	-0.5060294
73	0xbeeaf841	-0.45892528
74	0xbf35e6b7	-0.7105517
75	0x3f183f76	0.59471834
76	0xbec2cef7	-0.38048527
77	0x3d69bf92	0.05706746
78	0xbe129bc7	-0.14317237
79	0xbf2c6b8c	-0.67351604
80	0x3f590376	0.84770906
81	0xbedbcbd4	-0.42928946
82	0x3e8ab7e8	0.27093434
83	0x3f42d3e6	0.7610458
84	0x3e8d30d5	0.27576318
85	0x3ffe515a	1.9868577
86	0xbda0b5d8	-0.07847184
87	0x3e7467f4	0.2386778
88	0x3f3d81b7	0.74026054
89	0x3e2393c4	0.15974337
90	0x3ee31fa6	0.44360083
91	0xbe3bb816	-0.18331942
92	0x3ef6870a	0.48149902
93	0x3f125929	0.571673
94	0x3f3b46c2	0.7315484
95	0xbf1581dc	-0.58401275
96	0x3f5762d2	0.8413516
97	0x3f1b3f0f	0.60643095
98	0xbeeacef4	-0.45861018
99	0x3fbb97c0	1.4655685
100	0xbf0710ca	-0.52759993
101	0x3f65a4e3	0.8970472
102	0x3f0fd3cb	0.56182545
103	0x3d74e429	0.059787903
104	0x3d2d5390	0.04231602
105	0xbf22f93a	-0.6366154
106	0xbe19170b	-0.14950196
107	0xbe87e64d	-0.26542893
108	0x3f1ab3ce	0.6043061
109	0xbe9612b3	-0.2931114
110	0xbf627bd8	-0.8847022
111	0x3f777610	0.96664524
112	0x3de0e8fc	0.10981938
113	0xbe6ccea3	-0.231257
114	0x3df4a22e	0.11944996
115	0x3d89364a	0.06699808
116	0x3ee10d8a	0.43955642
117	0x3ed5ed69	0.41782692
118	0xbe1ae031	-0.15124585
119	0xbdfa4ea4	-0.12222031
120	0xbebea2a6	-0.37233466
121	0x3d7c0707	0.06153014
122	0x400aaef2	2.1669278
123	0x3fb2c46b	1.3966192
124	0xbf2914a6	-0.6604713
125	0x3fbdf327	1.4839829
126	0xbf884c74	-1.0648332
127	0xbf212d3a	-0.62959635
128	0x3efccd04	0.49375165
129	0x3dbe0f9b	0.0928032
130	0x3d383428	0.044971615
131	0xbf9b21cd	-1.211969
132	0x3fc01c55	1.5008646
133	0x3f00a6f9	0.5025478
134	0xbbad7202	-0.005293132
135	0xbf3e198b	-0.74257725
136	0xbec40d47	-0.3829138
137	0x3d337402	0.043811806
138	0xbe54cab1	-0.20780446
139	0x3f693c87	0.9110798
140	0xbf6241a7	-0.8838143
141	0xbe848920	-0.25885868
142	0xbc216ebc	-0.009853061
143	0x3f3dbfe3	0.7412092
144	0xbf88ceac	-1.0688071
145	0x3f021612	0.50814927
146	0x3f48abaa	0.7838694
147	0x3f10d679	0.5657726
148	0x3f8ed92d	1.1160027
149	0xbf866360	-1.0499077
150	0xbff76aaf	-1.9329432
151	0xbdf6dc27	-0.120537095
152	0xbe995485	-0.29947296
153	0x3fc2dc60	1.5223503
154	0x3f4bb7e4	0.7957747
155	0xbea193b9	-0.31558016
156	0x3f99b400	1.2008057
157	0xbe1e86cc	-0.15481108
158	0xbed166ca	-0.40898734
159	0x3f6772eb	0.90409726
160	0xbf85c259	-1.0449935
161	0x3f85ece2	1.0462916
162	0xbe895c84	-0.26828396
163	0xbe987916	-0.2977988
164	0xbe7da9f5	-0.24771865
165	0x3f0e5f4b	0.55614156
166	0xbf7e4e1e	-0.9933795
167	0x3f931892	1.1491873
168	0x3f25f3d4	0.6482518
169	0xbf90e974	-1.1321244
170	0xbe3d285a	-0.18472424
171	0x3fa63d73	1.2987503
172	0x3f4df88f	0.80457395
173	0xbf525c21	-0.8217183
174	0x3ef856a0	0.4850359
175	0xbf459547	-0.77180904
176	0x3e851deb	0.25999388
177	0xbf88ef9a	-1.069812
178	0xbea5efbc	-0.32409465
179	0x3fb75a1f	1.4324378
180	0x3f2229cb	0.6334502
181	0x3db6265f	0.088940375
182	0xbd33c3a1	-0.04388774
183	0x3f4cf2c7	0.8005795
184	0xbf28fee7	-0.6601395
185	0x3f972149	1.1807033
186	0x3f7fec23	0.9996969
187	0xbf8a04a3	-1.0782665
188	0x3eff4b14	0.49861968
189	0xbee70673	-0.45122108
190	0x3f859ef4	1.0439134
191	0x3f01a10b	0.5063636
192	0xbf0c554a	-0.5481764
193	0xbf46acb5	-0.7760728
194	0xbf077d7f	-0.52925867
195	0x3e95e86f	0.29278895
196	0x3f3b6e1c	0.7321489
197	0x3ff1db16	1.8894985
198	0x3f1756fa	0.5911709
199	0xbe1644a3	-0.1467462
200	0xbf1072c8	-0.5642514
201	0xbf0bc11e	-0.5459155
202	0xbe84d5f7	-0.25944492
203	0x3ea2da33	0.31807098
204	0xbf4b67f7	-0.7945551
205	0x3f7c73ad	0.9861401
206	0x3ee2f601	0.4432831
207	0xbecdbdec	-0.4018396
208	0x3e290d52	0.16508988
209	0xbf4ab3f2	-0.79180825
210	0x3f97e808	1.1867685
211	0xbeeb6b22	-0.45980173
212	0xbf2ded1f	-0.67939943
213	0x3f2bf411	0.6716929
214	0x3f91d9b7	1.1394566
215	0x3e7ba4b1	0.24574544
216	0xbf7eef4b	-0.9958388
217	0xbf6e173a	-0.9300419
218	0xbf1c9c33	-0.6117584
219	0xbf0031c5	-0.5007594
220	0x3f1a38fc	0.602432
221	0x3f8474be	1.0348127
222	0xbfbcd9b1	-1.4753934
223	0xbcac284d	-0.02101531
224	0x3ec378ed	0.38178197
225	0xbe441318	-0.19147909
226	0xbcdccc43	-0.026952868
227	0x3f555cd1	0.8334475
228	0xbdaa5ea1	-0.0831883
229	0x3f5380ae	0.82618225
230	0x3fce6435	1.6124331
231	0xbf32cf0f	-0.69847196
232	0xbf2860fd	-0.6577299
233	0xbee80151	-0.45313504
234	0xbf662f42	-0.8991586
235	0xbd77e308	-0.06051925
236	0x3eae7487	0.34073278
237	0x3f8b61d0	1.0889225
238	0xbf5b5ee2	-0.85691655
239	0x3e8efd81	0.27927783
240	0x3efc03b9	0.4922159
241	0x3d6d8413	0.057987284
242	0x3e1f91fe	0.15583035
243	0x3fa8929a	1.3169739
244	0xbd7497de	-0.059715144
245	0x3ea0a135	0.3137299
246	0xbd3ef241	-0.04661775
247	0x3c5e4a2e	0.0135674905
248	0xbf7d709e	-0.98999965
249	0x3e587aec	0.21140641
250	0x3e900fc9	0.28137043
251	0x3e3ae5a5	0.18251665
252	0xbf1bdeb8	-0.60886717
253	0x3d62a64f	0.055334385
254	0xbf80f223	-1.0073894
255	0x3e3e20b7	0.18567167

bias_ih_l0 f4 [192]
0	0x3efe1c95	0.4963118
1	0x3f264f6c	0.6496494
2	0xbf71acf8	-0.94404554
3	0x3f0bb36a	0.5457064
4	0x3f0aa632	0.54159844
5	0xbe2acd7a	-0.16679946
6	0xbf1721d8	-0.59036016
7	0xbfda26a2	-1.704304
8	0x3ee562ad	0.44801846
9	0x3f3b785e	0.7323054
10	0x3f185e47	0.59518856
11	0xbe9b0d85	-0.30283752
12	0xbf9e5910	-1.237093
13	0x3eaaacca	0.33334953
14	0x3f046011	0.51709086
15	0xbfc581ff	-1.5430297
16	0xbf42e249	-0.76126534
17	0x3d95de18	0.07317752
18	0x3fb1e9e2	1.38995
19	0x3facb344	1.3492208
20	0x3eae119e	0.33997816
21	0x3f806c25	1.0033003
22	0xbd7a5623	-0.061117303
23	0xbe811871	-0.2521396
24	0xbfb12b43	-1.3841327
25	0xbed1ae07	-0.40953085
26	0xbecaee86	-0.39635104
27	0x3d8a772f	0.06761014
28	0x3e9af41f	0.30264375
29	0x3ec27e97	0.37987205
30	0x3debd03e	0.115143284
31	0xbf14437a	-0.5791546
32	0x3f35fbd4	0.71087384
33	0x3f1468d9	0.57972485
34	0x3f1b1743	0.6058237
35	0xbe312584	-0.17299467
36	0x3edbc8ce	0.4292664
37	0x3f0079f9	0.50186116
38	0xbf04006a	-0.5156313
39	0xbfc79746	-1.559304
40	0x3ee7ea26	0.4529583
41	0xbf4847bb	-0.7823445
42	0x3ebaa59a	0.3645447
43	0xbff455d5	-1.9088694
44	0x3f0f85af	0.5606336
45	0xbe9946be	-0.29936785
46	0xbe3205b3	-0.17384987
47	0xbf0fd1db	-0.5617959
48	0x3e4e76a3	0.20162444
49	0xbf643ff5	-0.8916009
50	0xbf57b807	-0.8426518
51	0x3fd1484f	1.6350192
52	0x3f6729b5	0.90298015
53	0x3fe40d73	1.7816604
54	0x3f1eca89	0.62027794
55	0x3f3c1539	0.73469883
56	0xbf727339	-0.94707066
57	0xbf7b06aa	-0.98057044
58	0x3fc2687f	1.518814
59	0xbd9fae61	-0.07796932
60	0xbf6d54be	-0.9270743
61	0x3f0e1c65	0.55512077
62	0x3e8f6af5	0.2801129
63	0xbd5c2c8e	-0.05375343
64	0x3f3ab96f	0.729392
65	0xbfb98d25	-1.4496199
66	0x3e2ea848	0.17056382
67	0x3d152e7a	0.036421277
68	0x3df09e64	0.117489606
69	0xbefdbc77	-0.4955785
70	0xbd266479	-0.040623162
71	0xbed8703f	-0.42273137
72	0x3f9d7995	1.2302729
73	0xbf0465a7	-0.5171761
74	0xbe884ca3	-0.2662097
75	0x3d45d0f0	0.04829496
76	0x3f652b71	0.8951941
77	0x3f835497	1.026019
78	0x3f7a8fad	0.9787548
79	0x3fa4f0d5	1.2885996
80	0x3f8e1cc0	1.1102524
81	0xbe11408d	-0.1418478
82	0x3f81e401	1.0147706
83	0xbfb43a32	-1.408026
84	0x3d85c2fd	0.06531332
85	0x3ebfb018	0.37439036
86	0xbfada33d	-1.3565441
87	0x3e95a0a7	0.2922413
88	0x3f7dc005	0.99121124
89	0x3e329c37	0.17442404
90	0xbf8c7b8e	-1.0975206
91	0x3f718e3e	0.9435767
92	0x3daea533	0.08527603
93	0x3f96361c	1.1735263
94	0xbe36e710	-0.17861581
95	0x3f8971bb	1.0737833
96	0x400afa4a	2.1715264
97	0xbf14a9ad	-0.58071405
98	0xbe379b80	-0.17930412
99	0xbdaa1707	-0.08305173
100	0x3fcd843e	1.6055982
101	0xbf3cfecb	-0.73826283
102	0x4007068d	2.1097748
103	0x3e41ed98	0.18938291
104	0x4011a11c	2.2754583
105	0x3e2604e9	0.1621281
106	0xbdbe8f3d	-0.09304664
107	0xbfab1790	-1.3366566
108	0xbeba1fef	-0.36352488
109	0x3f94ab76	1.1614826
110	0x3b378806	0.002800466
111	0x3fbcd12f	1.4751338
112	0x3e3f4856	0.18679938
113	0x3ec2ebb6	0.38070458
114	0xbec799a4	-0.38984406
115	0xbf25e6fb	-0.64805573
116	0x3da4e828	0.08052093
117	0x3f31cd94	0.6945431
118	0xbe5c62c9	-0.21522059
119	0x3ea69f74	0.32543528
120	0xbeb73c3a	-0.35788137
121	0x3dedbf54	0.116087586
122	0x3dc45f9f	0.09588551
123	0x3f966e3d	1.1752392
124	0xbfa2f111	-1.2729818
125	0xbfac643a	-1.3468087
126	0x3f9379a0	1.1521492
127	0x3f9f9863	1.246838
128	0x3e8c42ba	0.27394658
129	0x3f170886	0.5899738
130	0x3e9c57fe	0.30535883
131	0x3eec9850	0.46209955
132	0xbff1c198	-1.8887205
133	0x3f4b3381	0.79375464
134	0xbfc4e81f	-1.5383338
135	0x3f67dd35	0.9057191
136	0xbedc5766	-0.4303543
137	0x3ea4716b	0.3211778
138	0xbf0d9c82	-0.55316937
139	0xbca1df0d	-0.01975968
140	0x3f1cdc73	0.6127388
141	0xbf149069	-0.5803285
142	0xbf5b538b	-0.8567435
143	0x3f49d36b	0.78838223
144	0x3f396452	0.724187
145	0x3f8da499	1.1065856
146	0xbe9d95c4	-0.30778325
147	0x3df480f0	0.119386554
148	0x3edd6ca6	0.43246955
149	0x3d3269a9	0.043557797
150	0x3f0b9f28	0.5453973
151	0x3d1a2fe2	0.03764332
152	0xbf424c0b	-0.7589728
153	0xbf430774	-0.7618325
154	0xbd733043	-0.059372198
155	0x3f9a3e87	1.2050332
156	0xbebfdf9e	-0.37475294
157	0xbe1c13aa	-0.15241876
158	0x3eb187e9	0.34674004
159	0x3f187596	0.5955442
160	0x3f9f0152	1.2422278
161	0x3f119c3b	0.56879014
162	0x3f23617a	0.6382061
163	0xbf46b8b8	-0.7762561
164	0x3f1da0cf	0.615735
165	0xbf376686	-0.71640813
166	0x3e899291	0.26869634
167	0x3f800f3e	1.0004652
168	0xbfaa256b	-1.3292669
169	0x3ea7cdf7	0.32774326
170	0x3ee15250	0.44008112
171	0x3f26559c	0.6497438
172	0x3dc03899	0.09385795
173	0xbe6436cc	-0.22286528
174	0xbf2c4443	-0.6729166
175	0xbe56b2f9	-0.2096671
176	0xbf6dd9f3	-0.9291069
177	0x3e929d11	0.28635457
178	0xbfaeb60c	-1.3649306
179	0xbfaaa3a7	-1.3331193
180	0x3e46e873	0.1942461
181	0x3faae1b3	1.3350128
182	0xbd226198	-0.039643854
183	0xbfe664fd	-1.7999569
184	0xbd6c4147	-0.05767944
185	0xbf8a4f7d	-1.0805508
186	0x3f48133b	0.78154343
187	0x3e9d57b6	0.3073098
188	0xbf74f0ba	-0.9567982
189	0x3d035016	0.032058798
190	0x3f270d10	0.65254307
191	0xbf96e8f0	-1.1789837

bias_hh_l0 f4 [192]
0	0x3ec3d3cb	0.38247523
1	0x3f2a626c	0.6655643
2	0xbf61cb94	-0.8820126
3	0x3ee66d28	0.45005155
4	0x3ee2c716	0.44292516
5	0xbd89f8d6	-0.06736915
6	0xbedca1c1	-0.43092158
7	0xbfbdd3ec	-1.4830298
8	0x3f17b9e2	0.5926801
9	0x3f3ac826	0.7296165
10	0x3f318c10	0.69354343
11	0xbe0bcc9f	-0.13652276
12	0xbf9d38a1	-1.2282907
13	0x3e1ffbf5	0.15623458
14	0x3f275cd2	0.6537601
15	0xbfb23519	-1.3922454
16	0xbf45d0d7	-0.7727179
17	0x3de5a83b	0.11213728
18	0x3fb17015	1.386233
19	0x3f9e4486	1.2364662
20	0x3ed7eaa7	0.42171213
21	0x3f5f24dc	0.8716562
22	0xbdb428f2	-0.08796872
23	0xbe8345af	-0.25639102
24	0xbfb7cf22	-1.4360087
25	0xbeb9c6fb	-0.36284623
26	0xbee25954	-0.44208777
27	0xbd513113	-0.05107219
28	0x3eb73aaf	0.3578696
29	0x3e874871	0.26422456
30	0x3e6bc41a	0.23024026
31	0xbf479330	-0.77958965
32	0x3f3c7628	0.7361779
33	0x3f23f53c	0.6404607
34	0x3f4bf151	0.79665095
35	0xbe68f636	-0.22750172
36	0x3f206674	0.6265633
37	0x3f111ea3	0.5668737
38	0xbf1be4b9	-0.6089588
39	0xbfcebafd	-1.6150814
40	0x3eb0d826	0.34539908
41	0xbf34f406	-0.7068485
42	0x3f160a7d	0.58609754
43	0xbff3e16b	-1.9053167
44	0x3f0e5619	0.55600125
45	0xbed8a206	-0.42311114
46	0xbdd418d5	-0.10356299
47	0xbf127d89	-0.572228
48	0x3d3eb14a	0.046555795
49	0xbf608ef7	-0.8771815
50	0xbf872f35	-1.0561281
51	0x3fccb8a9	1.5993854
52	0x3f3862cb	0.72025746
53	0x3fe3dc5c	1.7801623
54	0x3f021df9	0.50826985
55	0x3f44a79f	0.7681827
56	0xbf4e8671	-0.8067389
57	0xbf900465	-1.1251341
58	0x3fc123c5	1.5089041
59	0xbe218347	-0.15772735
60	0xbf4e4c72	-0.80585396
61	0x3f0ccc3f	0.54999155
62	0x3e9c06a5	0.3047382
63	0x3e233b8f	0.15940689
64	0x3f409869	0.7523256
65	0xbfaf80bd	-1.3711163
66	0x3e8442e0	0.25832272
67	0x3daff946	0.08592467
68	0x3e0036bc	0.1252088
69	0xbf0c0022	-0.546877
70	0xbdc45a12	-0.09587492
71	0xbefda78f	-0.495419
72	0x3f91badd	1.1385151
73	0xbec87f31	-0.3915954
74	0xbdf87e7f	-0.12133502
75	0x3e17f8ae	0.14840958
76	0x3f5a0f01	0.85179144
77	0x3f81ab17	1.0130337
78	0x3f837c86	1.0272377
79	0x3fbbf29d	1.4683415
80	0x3f9265dc	1.1437335
81	0xbd8f961a	-0.070110515
82	0x3f6358ad	0.88807184
83	0xbfb75268	-1.4322023
84	0x3e7c0238	0.24610221
85	0x3eee191a	0.46503526
86	0xbfb30784	-1.3986669
87	0x3ee8a553	0.45438632
88	0x3f8fbd7f	1.1229705
89	0x3e0cc7fb	0.13748161
90	0xbf97a7a0	-1.184803
91	0x3f8564d7	1.0421399
92	0x3d068423	0.03284086
93	0x3f8d101c	1.1020541
94	0xbe743862	-0.23849633
95	0x3f733827	0.95007557
96	0x4002de3c	2.044814
97	0xbf421431	-0.7581206
98	0xbe6ea18e	-0.23303816
99	0xbdac2e6f	-0.08407294
100	0x3fc46d4a	1.5345852
101	0xbf3b2837	-0.7310824
102	0x400e0c37	2.2194955
103	0x3e556824	0.20840508
104	0x4002dbfa	2.0446763
105	0x3de1226a	0.10992892
106	0xbe5bda06	-0.21469888
107	0xbfadcce6	-1.3578155
108	0xbe3337e4	-0.1750179
109	0x3f880888	1.0627604
110	0xbde7644a	-0.112984255
111	0x3fc0bda3	1.5057873
112	0x3e4bb09c	0.1989159
113	0x3e8a9d27	0.27073023
114	0xbf0877c9	-0.5330778
115	0xbf34446e	-0.70416915
116	0x3ddedc24	0.10881832
117	0x3f0f3432	0.5593902
118	0xbe7f9a09	-0.24961103
119	0x3ea941bd	0.33057967
120	0xbf01591a	-0.50526583
121	0x3e961deb	0.293197
122	0x3e03d2fc	0.12873453
123	0x3f8ebce4	1.1151395
124	0xbf9cef7b	-1.2260584
125	0xbfa6d146	-1.3032615
126	0x3f976984	1.1829076
127	0x3f9c2ffd	1.2202145
128	0x3e8782a5	0.2646686
129	0xbe7c64ed	-0.24647875
130	0x3de1a548	0.11017853
131	0x3fa40a39	1.281562
132	0xbf252c84	-0.6452105
133	0xbe3da05b	-0.18518202
134	0xbe903a7c	-0.2816962
135	0x3f787c54	0.9706471
136	0x3f57b173	0.8425514
137	0x3fa07f07	1.2538766
138	0xbf85cabf	-1.0452498
139	0x3c591486	0.013249522
140	0x3f6ecd19	0.93281704
141	0xbee2fee6	-0.44335097
142	0xbf328e45	-0.69748336
143	0xbedd7d83	-0.4325982
144	0x3f13e29a	0.5776764
145	0x3f05729b	0.52128
146	0xbf72241c	-0.9458635
147	0x3effb298	0.49940944
148	0xbee4b7a9	-0.44671372
149	0x3d5862ec	0.052828714
150	0x3f86dfd3	1.0537056
151	0xbe897cd7	-0.26853058
152	0xbf055cab	-0.52094525
153	0xbfcfa18e	-1.6221178
154	0xbd3b6556	-0.04575094
155	0x3f3443f9	0.7041622
156	0xbe852100	-0.2600174
157	0x3dedff17	0.1162092
158	0x3f290a3d	0.6603125
159	0x3e27ed3e	0.16399094
160	0x3ed63a2e	0.41841263
161	0xbed7ed61	-0.42173293
162	0x3fa720ac	1.3056846
163	0xbf827637	-1.0192326
164	0x3f532265	0.82474357
165	0x3e41cb17	0.18925129
166	0x3f0a1561	0.5393887
167	0x3d9856fa	0.074384645
168	0xbf96e7a0	-1.1789436
169	0x3f7439c8	0.9540067
170	0xbd83793e	-0.064196095
171	0x3eab3e28	0.3344586
172	0x3eb474f8	0.3524549
173	0xbee246e2	-0.44194704
174	0xbea2b4ba	-0.31778508
175	0xbe92fb21	-0.2870722
176	0xbf756508	-0.95857286
177	0x3fcc4979	1.5959922
178	0xbeb507dd	-0.35357562
179	0xbfc56139	-1.5420295
180	0xbeaa5a26	-0.33271903
181	0x3f86234d	1.0479523
182	0xbf0d8ef6	-0.55296266
183	0xbfa0f5bc	-1.2574992
184	0xbe317c63	-0.17332606
185	0xbf0d2be7	-0.55145115
186	0x3e8d1bf2	0.27560383
187	0xbdc79dfc	-0.0974693
188	0x3e3cded4	0.18444377
189	0x3eb483c2	0.35256773
190	0x3f22b274	0.6355355
191	0xbf3a8b08	-0.72868395

weight f4 [9, 64]
0	0xbda76d60	-0.081751585
1	0x3e195817	0.1497501
2	0xbdbcff87	-0.092284255
3	0x3ea474d6	0.3212039
4	0x3aeba9d0	0.0017979685
5	0xbf825c35	-1.0184389
6	0xbf45d06e	-0.77271163
7	0x3efa2426	0.48855704
8	0x3ecc6ca4	0.39926636
9	0xbf989404	-1.1920171
10	0xbf6228a1	-0.88343245
11	0xbfb3b002	-1.4038088
12	0x3f283bc1	0.6571618
13	0x3ea5fea7	0.32420847
14	0x3f850884	1.0393224
15	0xbf1b3090	-0.60620975
16	0xbebfa065	-0.3742706
17	0xbf4e57f7	-0.80602974
18	0xbf002641	-0.5005837
19	0xbf610ba1	-0.8790837
20	0xbe9750de	-0.29553884
21	0x3e40bb62	0.18821481
22	0x3f41482e	0.7550076
23	0x3dccef28	0.10006553
24	0xbd5241a2	-0.051332124
25	0x3ea5adb9	0.32359102
26	0xbf40dbfc	-0.7533567
27	0x3e8342e4	0.2563697
28	0xbe9f1211	-0.3106847
29	0xbe3e7841	-0.1860056
30	0xbdf69246	-0.12039618
31	0xbe16511c	-0.14679378
32	0xbf9efe9c	-1.2421451
33	0x3f8cb720	1.0993385
34	0x3f4a35d3	0.7898838
35	0xbf65c0fd	-0.897476
36	0xbede5a83	-0.4342843
37	0xbf89052b	-1.0704702
38	0x3f095ea7	0.53660053
39	0x3f7bb435	0.9832185
40	0x3db67e2a	0.08910783
41	0xbf9ba41f	-1.2159461
42	0xbed72010	-0.4201665
43	0xbf4e36cb	-0.8055236
44	0x3fa46492	1.2843192
45	0x3ec07730	0.37590933
46	0xbf8361ef	-1.0264262
47	0x3f039304	0.51396203
48	0x3d873a33	0.066028975
49	0x3f80f988	1.0076151
50	0x3f2cd299	0.67508847
51	0x3e9f7de8	0.31150746
52	0xbeaf29e2	-0.34211642
53	0x3fb2cf35	1.3969485
54	0x3df4e085	0.11956886
55	0xbfa6d865	-1.3034788
56	0x3da722da	0.08160944
57	0xbecbcd50	-0.39805079
58	0x3fcaeca7	1.585347
59	0xbf52531b	-0.8215806
60	0xbf8e9c54	-1.1141458
61	0x3e8a7420	0.2704172
62	0xbeac6d22	-0.33677012
63	0xbe862348	-0.26198792
64	0x3df9d805	0.121994056
65	0x3ec2ea3e	0.38069338
66	0xbefc00b2	-0.4921928
67	0xbdc8deca	-0.09808119
68	0x3edcb521	0.4310694
69	0x3ef57361	0.4793959
70	0xbf4f50e4	-0.80982804
71	0x3f9b1df1	1.2118512
72	0xbf94cf27	-1.1625718
73	0xbebc9762	-0.36834246
74	0xbe2ac79d	-0.16677709
75	0x3d93bb35	0.07213441
76	0x3f4de45e	0.80426586
77	0x3f340047	0.70312923
78	0xbf2e4975	-0.68080837
79	0x3f2ae48e	0.66754997
80	0x3f238095	0.63868076
81	0x3cf0cdd2	0.029395018
82	0xbed78b45	-0.42098442
83	0xbf886f07	-1.0658883
84	0x3fb1c83b	1.388923
85	0xbed4a4af	-0.41531894
86	0x3f5e8933	0.869281
87	0xbda98e0c	-0.082790464
88	0xbe31c4d2	-0.17360237
89	0xbf968336	-1.1758792
90	0xbfd052b3	-1.6275238
91	0x3f44e10a	0.7690588
92	0xbd4750d6	-0.048661076
93	0xbfce67cb	-1.6125425
94	0x3ec28e20	0.37999058
95	0x3fc870c0	1.5659409
96	0x3e1d5fea	0.1536862
97	0x3f06bd6f	0.526328
98	0xbed850ed	-0.4224924
99	0xbef65d5f	-0.48118111
100	0xbd3f53ee	-0.0467109
101	0x3e8704d0	0.2637086
102	0xbe9e5d39	-0.30930498
103	0x3f454867	0.770636
104	0x3fa9ef2a	1.3276112
105	0x3e8ac454	0.2710291
106	0xbf5b436a	-0.8564974
107	0xbd1111d7	-0.035417404
108	0xbe772023	-0.24133353
109	0xbf6dfbf7	-0.9296259
110	0x3e855be3	0.26046667
111	0xbfb43bc0	-1.4080734
112	0xbed3d2c8	-0.4137175
113	0x3f45ff39	0.77342564
114	0x3e6467c2	0.22305205
115	0x3f64dde3	0.8940107
116	0xbf5555bf	-0.83333963
117	0x3f5ae5a4	0.85506654
118	0x3e8ba196	0.27271718
119	0xbb68fc9a	-0.0035550953
120	0x3f238b47	0.63884395
121	0xbf546e61	-0.82980925
122	0x3ebc701b	0.3680428
123	0xbfd5ce5f	-1.6703604
124	0xbfc45477	-1.5338277
125	0xbd6d687e	-0.05796098
126	0x3f86aaab	1.0520834
127	0xbf51e42e	-0.819888
128	0xbffa4f66	-1.955548
129	0x3f7ed927	0.995501
130	0x3fd77a37	1.6834172
131	0x3f7d1b7d	0.9887007
132	0x3f1fd14e	0.6242875
133	0x4026bd44	2.6053019
134	0xc00375d1	-2.054066
135	0x3f9d020f	1.2266253
136	0x3eda3412	0.42617851
137	0xbfc4d6b5	-1.5378023
138	0x3f980c6a	1.1878788
139	0xbf288f74	-0.6584389
140	0x3f7e2757	0.9927878
141	0xbf89c39c	-1.076282
142	0xc0065a59	-2.0992644
143	0x3fd23770	1.6423168
144	0x3f882de4	1.0639005
145	0x3f6872ab	0.9079997
146	0x3fbfe505	1.4991766
147	0x3f22419e	0.63381374
148	0x3e5483cc	0.20753402
149	0xbe768044	-0.24072367
150	0xbdcd54f6	-0.10025971
151	0x3e13f19c	0.14447635
152	0xbfe04dd4	-1.7523751
153	0xbfeb0e7a	-1.8363793
154	0xbfcf6b70	-1.6204662
155	0x3fb8457e	1.4396207
156	0x3ebd6892	0.36993843
157	0xbe7be0c6	-0.24597463
158	0x3f9f728e	1.2456834
159	0x3ef71e06	0.48265094
160	0x3fcb87f0	1.590086
161	0xbf21b6c9	-0.63169533
162	0x3f845977	1.0339803
163	0xbfd8b673	-1.6930679
164	0x3f9548e7	1.1662873
165	0xbfc8fe96	-1.5702693
166	0xbf7ff2e2	-0.99979985
167	0x3fa9a791	1.3254262
168	0x3fcbdb48	1.5926294
169	0x3e600ac8	0.21879113
170	0xbfb5dc59	-1.420787
171	0xbf29b4cc	-0.662915
172	0xbe167e83	-0.14696698
173	0xbf1f67ee	-0.6226796
174	0x3f81d036	1.0141666
175	0x3fdcb93e	1.7244031
176	0xbfac53c0	-1.3463058
177	0x3f046a4a	0.51724684
178	0xbe952e78	-0.29137015
179	0xbfe25245	-1.7681357
180	0x3f13ce5a	0.5773674
181	0x3f8f3d35	1.1190554
182	0xbf9293a1	-1.1451303
183	0xbfb63f52	-1.4238074
184	0x3f48f27c	0.78495
185	0xbf4740e5	-0.77833396
186	0x3f7b3e58	0.98142004
187	0x3e99bf32	0.30028683
188	0xbfa3607c	-1.276382
189	0xbfc9d85f	-1.5769156
190	0x3f969be4	1.1766324
191	0xbff48709	-1.910371
192	0xbeb8c893	-0.36090526
193	0xbff5422e	-1.9160821
194	0x3ed08fce	0.40734714
195	0x3f7415cd	0.95345765
196	0xbf29fd03	-0.6640169
197	0xbe3911f5	-0.18073256
198	0xbed7b4b8	-0.42130065
199	0xbf3ec5da	-0.7452065
200	0x3edb1ea5	0.42796817
201	0xbfae866a	-1.363477
202	0xbf95d201	-1.1704713
203	0xbf3a8a2e	-0.72867095
204	0xbdb18197	-0.086672954
205	0xbfde8105	-1.7383124
206	0x3ea60c11	0.3243108
207	0x3e70ed9b	0.2352814
208	0x3fcf91d0	1.6216373
209	0x3f3f52c4	0.74735665
210	0xbf6b15ae	-0.91829956
211	0xbf87bfb5	-1.0605379
212	0xbf53d23e	-0.8274268
213	0xbd7c6387	-0.061618354
214	0x3e9d01a1	0.30665305
215	0x3f9f6f6e	1.2455881
216	0xbf37814e	-0.7168168
217	0xbef5f2a7	-0.48036692
218	0x3e9b76a3	0.3036395
219	0x3e7e06e6	0.24807319
220	0xbf4900c0	-0.7851677
221	0x3f1b8401	0.60748297
222	0xbfa9695d	-1.3235279
223	0xbbc3202b	-0.0059547625
224	0x3f684635	0.9073213
225	0x3fb0f453	1.3824562
226	0x3f2e0465	0.67975456
227	0xbf4d6ed1	-0.8024722
228	0x3f455d0e	0.77095115
229	0xbfa2d6a7	-1.2721757
230	0x3f5655c9	0.8372465
231	0x3f5ea6c3	0.8697321
232	0xbfccacd3	-1.5990242
233	0xbfc61c96	-1.5477474
234	0xbecdd6e0	-0.40203
235	0x3ee60bc4	0.4493085
236	0x3f6f7276	0.9353403
237	0x3e3a2763	0.18179087
238	0x3e861d08	0.26194024
239	0x3f1757fa	0.59118617
240	0xbf4b6f85	-0.7946704
241	0x3ea94af4	0.33064997
242	0xbe62b457	-0.22139107
243	0xbeebba65	-0.46040645
244	0xbf130690	-0.5743189
245	0x3e473bf6	0.19456467
246	0x3fc3d737	1.5300053
247	0xbf85c45e	-1.0450552
248	0x3d876a26	0.06612043
249	0xbe942139	-0.28931597
250	0x3f3536c2	0.7078668
251	0x3f7d8d2a	0.99043524
252	0xbfcba231	-1.5908872
253	0x3fb07e01	1.3788453
254	0x3e5054c3	0.20344834
255	0xbf220e79	-0.63303334

bias f4 [9]
0	0x3eec8e5e	0.46202368
1	0x3f338dd2	0.70138276
2	0x3f46394d	0.77431184
3	0x3f3c33a3	0.7351629
4	0x3f3f53e6	0.74737394
5	0x3f710512	0.9414836
6	0x3fa4920f	1.2857074
7	0x3f256918	0.64613485
8	0x3effd254	0.49965155
