char_emb/code/output/model_child_gru_128.pt (torch_old, 272374 bytes, 7 tensors)

weight f4 [38, 30]
000000 aa 77 b0 3f 5d a6 57 3f 00 7b 32 3f 54 c8 7c 3e
       1.3786519 0.84238225 0.69718933 0.24685794
000010 96 c2 c6 bd fb 81 e9 bc 0b 3f 22 c0 2b 2e 72 be
       -0.09705083 -0.028504362 -2.5350978 -0.23650424
000020 6b 95 60 be c5 5e 32 be f8 75 b6 3e 14 14 01 40
       -0.21931998 -0.17418964 0.35636878 2.0168505
000030 0a 89 2c bf aa 47 f1 bf 79 48 06 bf 5c 7b c4 3f
       -0.67396605 -1.8849995 -0.52454334 1.5350146
000040 bb 72 24 be a0 78 11 c0 61 bb a7 bf fe 44 62 3e
       -0.16059391 -2.2729874 -1.3104059 0.22096631
000050 93 f7 2f 3d 4b 06 6e be 1d 8a 7f be ea 7b 5b 3e
       0.042960715 -0.23244588 -0.2495503 0.21433988
000060 de 8e 04 be 51 79 0f c0 68 54 53 bc f5 d5 cf 3f
       -0.12945125 -2.2417796 -0.012898542 1.623717
000070 82 21 ee bf 81 b4 d4 3e 5c 67 89 3e 82 df 44 bf
       -1.8603976 0.41543964 0.2683667 -0.76903546
000080 18 d6 70 3f 9c e4 39 3e 18 53 71 3e e3 19 1a bf
       0.9407668 0.18153614 0.23566854 -0.6019575
000090 5e 89 28 40 35 b1 99 3f f7 3f 1e 3c 0c 09 7e 3d
       2.6333842 1.2007204 0.009658805 0.062020347
0000a0 cc 91 ca 3e 58 6d 61 bf 0f bf 0e c0 16 a3 dc bf
       0.3956436 -0.8805747 -2.2304113 -1.723727
0000b0 e2 8f a0 bd 57 fb 19 3e 08 2f 33 40 d3 bf d5 be
       -0.078399435 0.15037285 2.7997456 -0.41747913
0000c0 b7 ff a8 bf 42 5f 03 3f 44 86 03 bf d3 2a 75 bf
       -1.3203038 0.51317227 -0.5137675 -0.9576847
0000d0 76 0d 53 bf 78 82 20 3f 6f a8 cf 3f c1 63 01 3f
       -0.82442415 0.6269908 1.6223277 0.5054284
0000e0 6a 43 99 3e 56 8d 39 bf 55 7c fa 3f df 61 f7 be
       0.29934245 -0.72481287 1.9569193 -0.48316857
0000f0 61 24 8e be 85 e0 df 3f 65 24 74 3f 44 8e 6e bf
       -0.2776213 1.7490393 0.95368034 -0.9318583
000100 10 a8 77 3e f9 12 cc 3e 66 86 89 be e4 3d bb 3e
       0.24185205 0.39858225 -0.2686035 0.36570656
000110 47 28 84 bf ef 31 8f 3f ac 8c 9c bc 45 ac 02 40
       -1.0324792 1.1187114 -0.019110046 2.0417645
000120 d3 fd cc be f7 cb af 3f 3b 55 05 3d c7 1f 76 bf
       -0.40037403 1.373412 0.032551985 -0.9614224
000130 81 67 66 be 33 c9 9b 3f 6b 30 86 be 4c c1 3a bf
       -0.22500421 1.2170776 -0.26208815 -0.729512
000140 80 99 eb bd fa 40 3d bf 4a 40 6e bf c5 ab bd be
       -0.11503887 -0.7392727 -0.9306685 -0.37045112
000150 86 7a 8d 3f 10 07 9c bb 01 66 e5 bd e9 0f f1 be
       1.1053016 -0.004761584 -0.11201096 -0.4708245
000160 bf f1 35 3f c6 7e eb bf 27 dd 0a bf 03 59 6d 3f
       0.71072 -1.8398063 -0.542437 0.92713946
000170 71 5f 12 c0 02 7c 67 bf b1 dc 8d 3f 10 ec ee 3e
       -2.2870753 -0.90423596 1.1082975 0.46664476
000180 bf 09 aa 3f 34 d3 27 bf a1 d0 9c be dd 02 17 40
       1.3284224 -0.65556645 -0.3062792 2.3595498
000190 48 7e a6 3d 8c 9f 64 3f 1b b4 98 3f 92 b3 5b 3d
       0.08129555 0.8930595 1.1929964 0.05363805
0001a0 4b d2 a2 bf 3a b1 7a 3f 53 df 5b 3f 8e 25 8b 3f
       -1.2720426 0.97926676 0.8588764 1.0870836
0001b0 c5 f4 a9 be 24 22 19 40 12 ad 29 3f 30 79 b4 bf
       -0.33194557 2.3927088 0.6627971 -1.4099483
0001c0 59 a2 99 bf 83 07 c1 bf d2 c1 ae 3f 34 21 c5 3d
       -1.200267 -1.5080417 1.3652899 0.096254736
0001d0 e0 4c 2e bf b7 65 af 3f 39 27 5f bf 43 a7 5b 3d
       -0.6808605 1.3702916 -0.87169224 0.05362631
0001e0 0f 38 e2 3e 28 52 08 c0 40 0d a3 3d a6 aa 1f be
       0.44183394 -2.1300144 0.079615116 -0.15592441
0001f0 22 b8 56 40 78 4f 06 3f 1c 8b eb be fb c9 06 c0
       3.3549886 0.5246501 -0.4600457 -2.106078
000200 8c 17 ca 3f 0c 13 b3 3f 32 90 53 bf 01 5e 7f bf
       1.5788436 1.3990188 -0.826419 -0.99752814
000210 ad 31 1b c0 f6 d7 f8 bf 56 77 0a 3f 09 af 5c bf
       -2.424907 -1.9440906 0.5408834 -0.8620458
000220 f3 ac 53 bf a6 ea 27 3f 45 c0 92 3e cf 2f ed 3e
       -0.82685775 0.6559242 0.28662315 0.46325538
000230 f6 27 92 bf 71 64 cd 3f 98 26 8f 3c 1e 03 bc 3e
       -1.1418445 1.6046277 0.017474458 0.36721128
000240 c7 cf 57 3f ab da 3e 3f 8a d8 97 3d 52 f7 8c bf
       0.8430142 0.7455241 0.074143484 -1.1012976
000250 1a 15 17 3f a1 2a a4 bf 32 9c 33 bf 66 6a 21 bd
       0.59016573 -1.2825509 -0.7016021 -0.03940811
000260 cd b4 3c 3f f4 32 54 bf 68 35 db 3e 3c 43 1a 3e
       0.7371338 -0.8289025 0.42814183 0.1506471
000270 b7 75 54 3f ec 36 c7 bf 37 31 58 be 73 fc 4b bf
       0.8299212 -1.5563636 -0.21112524 -0.7968208
000280 26 89 33 3e c4 c9 90 3c 03 64 96 bf 50 79 c7 3f
       0.17532787 0.017674334 -1.1749271 1.5583897
000290 54 6e 45 3f 56 2e ee be 80 16 8b 3e fc eb 90 bf
       0.7712147 -0.46519727 0.27165604 -1.1322017
0002a0 21 62 9b be 6d c0 0a c0 b0 3d 02 40 c3 41 b3 3e
       -0.30348304 -2.1679947 2.035015 0.3501111
0002b0 83 25 b3 3f e1 b0 d2 3f ac 22 e9 bf 9b bc 10 3e
       1.3995823 1.6460229 -1.8213706 0.14134447
0002c0 5a 1b 03 3f 93 d1 2f 3f 43 be 8b 3f 72 23 d2 be
       0.5121361 0.6867916 1.0917438 -0.41042668
0002d0 cd 41 48 3f 9d 63 0a 3f 62 bf ad 3e 91 cb e8 bd
       0.78225404 0.5405825 0.33935076 -0.11366952
0002e0 06 73 73 3f bf 1d 25 3e bc db 04 40 6d d2 5e bf
       0.95097387 0.16124628 2.0759115 -0.87039834
0002f0 05 98 41 bf 57 45 0c bf 5a 8b 50 3f b2 1b 04 c0
       -0.7562259 -0.54793304 0.81462634 -2.0641904
000300 49 43 58 bf 53 31 3c 3f cd a3 8a 3f fa 28 d5 3f
       -0.8447767 0.7351276 1.0831238 1.665313
000310 19 1d ff 3d d7 76 99 be bc e6 17 bf 52 d8 71 3e
       0.12456722 -0.2997348 -0.5933645 0.23617676
000320 e8 2e 5b 3f 99 cd a5 bf 6b 5e 32 3f 4c fb 49 3f
       0.8561845 -1.2953368 0.6967532 0.78899074
000330 3e 68 2b 3f 8e 51 8d 3f d2 ec 4f be ab b7 15 3f
       0.66955936 1.1040514 -0.20305184 0.5848338
000340 76 21 a0 3e 82 33 c3 bf cc 5b cb bf bd 42 de be
       0.3127553 -1.5250094 -1.5887389 -0.43410292
000350 45 92 ca 3d 94 96 a8 bf 62 ce ec 3f 77 38 20 bf
       0.0989118 -1.3170953 1.8500483 -0.6258616
000360 4d b6 b8 be d2 d1 dd bf b2 c1 4e bf b7 b0 51 3f
       -0.36076584 -1.7329657 -0.80764306 0.8191027
000370 00 3f 00 bf 2f 3d 1a be 33 f6 82 3f 3d 7b 85 bf
       -0.5009613 -0.15062402 1.0231384 -1.0428234
000380 14 5b 5f 3e 5d d5 dc 3f 8f 9c f2 be 64 d5 e0 3e
       0.21812087 1.7252613 -0.4738507 0.43912804
000390 4f a0 ab be 72 b0 c0 be 25 24 0d 3f e9 3f b2 3e
       -0.33520743 -0.37634617 0.5513328 0.34814385
0003a0 e3 73 02 bf ae 15 fa 3e a0 85 23 40 d6 28 fb bd
       -0.5095808 0.48844665 2.5550308 -0.12263648
0003b0 45 8d 29 3d 55 cc 28 bf 77 2d 29 bf e1 a2 bb be
       0.04139449 -0.65936786 -0.66085 -0.36647704
0003c0 d6 cb d0 3e 2d 4c 8f be 4f a8 b8 bc b8 78 1c 3f
       0.40780514 -0.27987805 -0.022541193 0.611217
0003d0 1d 0e 90 be 1a 62 ec 3e 52 1f d6 3e 66 57 6c 3e
       -0.28135768 0.46168596 0.4182077 0.23080215
0003e0 c5 c8 f3 3e a6 22 29 bf ed 09 67 3f a8 88 5d 3f
       0.47614112 -0.66068494 0.9024952 0.86536646
0003f0 65 e9 00 3f b1 b8 cb 3d 72 da 29 bf 03 3b a0 3f
       0.5035613 0.099473365 -0.66348946 1.2518009

weight_ih_l0 f4 [384, 30]
000000 fe 91 d6 bd 79 c3 23 3e 74 5f e8 3c 8a 5d 4c bc
       -0.104770645 0.15992536 0.028365828 -0.012473473
000010 4a 5e e1 bb e5 39 15 bd 63 b8 5d bd 47 06 d7 3d
       -0.006877695 -0.036432166 -0.054130923 0.10499244
000020 0f ae 0c be 2a ba 15 bd 1a 27 d8 3d 86 96 b1 3d
       -0.13738273 -0.036554493 0.10554333 0.08671288
000030 c8 41 4f 3d 7e 8e 84 bd 3f d3 04 3d a2 0d 03 3d
       0.050599843 -0.06472491 0.032428022 0.031995423
000040 d4 87 41 3d c1 1a 90 bc 83 78 07 be ae 0f 85 bc
       0.047248676 -0.017590882 -0.13229565 -0.016242828
000050 84 0a d9 3d 7d 87 53 bd 03 56 44 bd 4d d0 61 bd
       0.10597709 -0.051642884 -0.04793359 -0.05513029
000060 bb b2 73 bd c9 b3 d2 3c 84 7f b1 bd 9a f8 d5 3d
       -0.059496623 0.025720494 -0.086669 0.104478076
000070 6d 94 16 be 54 49 b8 3c 05 5e d8 3c 50 67 3d 3c
       -0.14705057 0.022495903 0.02641202 0.011560276
000080 12 bd af 3c 3e df 08 3d ca 85 7b 3d eb 5d 28 bb
       0.02145246 0.033416025 0.061406888 -0.0025690745
000090 1c 72 8a 3d e6 23 80 be f7 77 1f 3e c9 e4 3e 3e
       0.06760046 -0.25027388 0.15573107 0.18641962
0000a0 d1 19 37 3d 1a dd 8d 3c 24 05 9d 3d 3e 63 d8 bd
       0.044702355 0.017317344 0.07666996 -0.10565804
0000b0 e0 c8 a8 3d d8 d6 44 bc 4b 74 87 bd ac 73 e6 bc
       0.08241439 -0.012014113 -0.06613978 -0.028131329
0000c0 5e 2c f9 bd 2b ac 53 bd fc dc 61 bd d7 82 32 bd
       -0.121666655 -0.051677864 -0.055142388 -0.04358181
0000d0 c2 5e ba 3c a0 59 e9 bd f9 4e cf bc 62 12 81 be
       0.022750262 -0.11394048 -0.025306212 -0.25209337
0000e0 53 f2 8a bc 6c f9 0b 3e 6a 9f 71 39 01 7f db bd
       -0.016961252 0.13669366 0.00023042937 -0.107175834
0000f0 d5 b7 a3 bd da 6f 6f bd d4 37 9c 3d f2 63 24 3d
       -0.079940476 -0.05845628 0.07627836 0.040134378
000100 24 d1 33 3d 75 ae 23 be d6 d0 c0 bd 4c 9d e5 bd
       0.043900624 -0.15984519 -0.09414832 -0.112116426
000110 73 0e f8 3b 93 58 34 3d ef 48 8a bd dc 4a 0f be
       0.007570082 0.044029783 -0.06752192 -0.139934
000120 f6 0d 3d be aa be 19 be 61 24 dd bc 19 61 6a 3d
       -0.18462357 -0.15014139 -0.026994886 0.057221506
000130 62 c9 14 3e b7 45 ad 3c f4 56 28 3e 09 27 1b 3c
       0.14529946 0.021151407 0.1643942 0.009469756
000140 5e 82 10 be 4c e8 8f bd 71 6b 02 3e a7 2b a8 bd
       -0.14112231 -0.07026729 0.12736298 -0.08211451
000150 20 77 2c bd 3d 62 ce bc b2 a6 e1 3b a6 9e 18 3e
       -0.042105794 -0.025193328 0.0068863267 0.1490427
000160 b0 f6 91 3d 36 ab c5 3d 06 16 1a bc db 04 fc bc
       0.0712713 0.096517965 -0.009404665 -0.030764034
000170 d0 b3 f4 bc 8d be 51 3d 76 d1 1a 3d a3 cf a3 3d
       -0.029870898 0.051207114 0.037797414 0.07998588
000180 eb 50 a2 3d df 52 4b bd 7f 2b 3b bd 25 88 28 3e
       0.0792559 -0.04963958 -0.045695778 0.16458185
000190 0f 8e 16 3d 89 7d 22 be 4b 90 2a 3e 00 f5 b3 bd
       0.03675657 -0.158682 0.16656606 -0.087869644
0001a0 92 db ad 3d 49 a7 b6 3c 85 62 7a bd ac 44 e7 39
       0.08489145 0.022296565 -0.06112911 0.00044110918
0001b0 60 76 24 bc 39 62 93 bb 4f 8d ff bd 45 a9 86 3d
       -0.010037988 -0.004497793 -0.12478124 0.06575254
0001c0 c2 61 b0 bd 1e 07 c9 bd c4 43 3d bb 9c 03 bd bd
       -0.08612396 -0.098158106 -0.0028879503 -0.09229204
0001d0 0c d5 25 be 99 d8 b6 bc 67 c5 21 3d a1 2d ff bd
       -0.16194552 -0.022320079 0.0394949 -0.12459875
0001e0 13 14 96 bd be 66 15 bd e8 0e 1d 3e 66 8d ef 3c
       -0.073280476 -0.036474936 0.15337718 0.029242229
0001f0 db c8 02 bd e0 5e 72 3d 73 51 86 3b 31 bf d3 3c
       -0.031929832 0.05917251 0.004099065 0.025848003
000200 ea ee 3f bd 50 76 67 bd d1 c6 d1 3d 0c 6b 22 bd
       -0.046858706 -0.056509316 0.10242999 -0.03965287
000210 68 db 45 be c7 9e b1 3d 4d b7 88 3d 52 fc 92 3d
       -0.19321978 0.086728625 0.06675587 0.071770325
000220 b3 35 11 3e 82 bb 13 3d 3c 43 77 3d 1d 86 1a 3d
       0.14180641 0.036067493 0.060366854 0.037725557
000230 89 4e 15 bd d0 97 b2 3d 75 e9 6a bc 7e 40 6b 3d
       -0.03645185 0.08720362 -0.014337887 0.05743455
000240 2d 85 f5 3d ca 92 12 3e 16 95 98 3c 0b eb 3e 3c
       0.11988292 0.14313808 0.018625777 0.011652718
000250 48 b2 6d bc 73 51 04 3c d7 db b0 3d f4 04 e3 3d
       -0.014507838 0.00807606 0.08635681 0.11084929
000260 69 a8 ea 3c ca dc 6f 3d a9 4c a6 3d ce 67 c6 bd
       0.028644757 0.05856017 0.081200905 -0.09687768
000270 a3 1f f3 bd 72 31 9d bb 56 b5 e5 bd ef e5 8d 3d
       -0.118712686 -0.004797154 -0.11216228 0.06928622
000280 4a d7 5b bd be 89 8c bd 4c e9 02 be ef a3 30 be
       -0.053672113 -0.0686221 -0.12784308 -0.17250036
000290 7c 68 4a bd 55 f0 fc 3d 20 89 55 3d a0 13 83 bd
       -0.04941605 0.12350527 0.052132726 -0.064002275
0002a0 6b ce 21 3d e9 a9 8f bd ea 62 b0 bc c6 a9 04 bd
       0.039503496 -0.0701483 -0.02153154 -0.03238847
0002b0 7e 3d 0a bd 84 a4 85 bd 4b d9 01 3e 98 3c b3 3c
       -0.03375005 -0.065255195 0.12680547 0.02187948
0002c0 91 83 05 3d 69 b6 d7 3d 80 12 4e be c4 2e 1e bd
       0.032596175 0.10532839 -0.20124245 -0.038618818
0002d0 3d 0e 85 bb 60 bf ad 3d a3 3d 03 3e 78 82 27 3d
       -0.004060535 0.084837675 0.12816481 0.04089591
0002e0 f8 e8 cb 3d dd ef 37 bd bd 03 2f bc 26 4a f5 bc
       0.09956545 -0.044906486 -0.010682044 -0.029942583
0002f0 32 27 5b bd c0 3a 08 3d 60 a2 54 3e 9a 47 34 bd
       -0.053504176 0.033259153 0.20765066 -0.044013597
000300 29 4b 20 be 7f 11 8c bd 94 e8 a2 bd 31 fe ae 3d
       -0.15653671 -0.068392746 -0.07954517 0.08544577
000310 c0 55 18 3e 13 44 c2 bc 45 90 24 3e 80 4a 1d 3e
       0.14876461 -0.023714101 0.1607066 0.1536045
000320 bf bb e0 3c 07 0d a2 bc 5d 55 0d bc 3e eb 64 3e
       0.027433274 -0.019781603 -0.008626309 0.22355363
000330 3a e1 15 be bd 41 9f 3c 32 48 ba 3c 67 4a 4d 3c
       -0.14636698 0.019440526 0.022739504 0.012529946
000340 7c af 51 bc 61 cf 5d 39 59 6f a4 bd 93 87 fd bc
       -0.012798186 0.00021153457 -0.080290504 -0.030948436
000350 29 ec 91 3b ac b1 d2 3d 18 a3 f0 3d cf fd 33 3c
       0.0044532013 0.102877945 0.11749858 0.010985806
000360 f6 2a e2 3c 0b 39 92 bd 3c 12 9d 3d 03 56 24 3e
       0.027608376 -0.07139786 0.076694936 0.16048436
000370 c3 80 f8 3d 04 3f c9 3d 33 73 02 bc 40 66 70 bc
       0.12133934 0.098264724 -0.007962036 -0.014672816
000380 0f 4b a0 bc ed c5 86 bd 49 9c 66 bd 7f 27 71 3d
       -0.01956704 -0.0658072 -0.05630139 0.058875557
000390 eb 7d ca bd 29 33 d8 bc c8 31 46 3d 3c 15 b4 bc
       -0.09887298 -0.026391583 0.04838732 -0.021982782
0003a0 58 0e c7 bc 9b 33 8a 3d 5a a1 90 bd 38 d1 a7 bd
       -0.024298832 0.06748124 -0.07062025 -0.08194202
0003b0 dd 38 03 be 8e ff 9e 3c 2d 06 96 bc ac 12 df bd
       -0.1281466 0.019408967 -0.018313492 -0.10892233
0003c0 a3 ae 84 bd c5 13 56 bd c6 27 50 3d bc 7c 47 3e
       -0.06478622 -0.052264947 0.05081918 0.19481176
0003d0 cd 7e b2 bd dc 56 67 bd 6f 55 2c bc 49 4f 51 3d
       -0.087155916 -0.05647932 -0.010518416 0.051101003
0003e0 3a 19 ef 3c 6d 0c 7a bc a7 09 aa 3d 7b 2c 53 3d
       0.029186834 -0.015261752 0.08302622 0.05155609
0003f0 ef 0c c5 bd 57 15 1e bd 93 17 74 bd da f9 cb 3d
       -0.096216075 -0.03859457 -0.059592795 0.09959765

weight_hh_l0 f4 [384, 128]
000000 9b 31 49 bd 66 c8 a3 bd ad 3a eb bd 44 55 8f bc
       -0.049119573 -0.07997207 -0.11485801 -0.017496713
000010 6c 47 f0 3c e2 f8 d9 bd e5 d4 a4 bd 67 fc bf bd
       0.029330932 -0.10643174 -0.08048419 -0.09374314
000020 a5 ae 00 bd eb 76 ac 3c 6f bc 2d 3d 73 1c b5 3d
       -0.031416554 0.021052798 0.042416032 0.08843317
000030 09 b1 bf 3c 93 c2 85 3c 55 7a 53 3c 5b 1b ce 3c
       0.023399847 0.016328132 0.012907584 0.025159528
000040 f3 67 8e 3d 8d 81 c1 3c 77 03 b1 3d 0f 27 8e bd
       0.069534205 0.023621345 0.08643239 -0.069410436
000050 de 55 00 bd 0f f8 57 bc 37 d0 87 3b 79 71 07 bd
       -0.03133189 -0.0131817 0.004144694 -0.0330672
000060 ce 00 54 3d 97 dd 0f bd ac bc 0d bd 29 1c aa bc
       0.05175858 -0.035123434 -0.03460376 -0.020765381
000070 02 87 d1 3d f5 15 ab 3d 8e 8b a9 bc 6e a8 dd 3d
       0.10230829 0.08353797 -0.020696428 0.10823141
000080 f1 19 86 3a 74 b1 1f be 40 c3 8d 3d 8a 5d 0e be
       0.001023112 -0.15595037 0.069220066 -0.1390287
000090 5c 92 65 3d db 7f ee 3c 4e 2a 49 3d 6d f7 c1 3d
       0.056047782 0.0291137 0.04911261 0.09471021
0000a0 c4 81 ba 3d bb bd 00 3e 16 4e 8c 3c 3e 83 1e 3d
       0.09106782 0.12572376 0.017127078 0.03869938
0000b0 2b 17 62 3d 2f 28 00 3d 77 04 4b be 76 5f 0f be
       0.055197876 0.031288322 -0.19825922 -0.14001259
0000c0 f7 56 0f 3d 9a 1d 9f bb b0 3a 17 bd 87 3e b2 bd
       0.034995046 -0.0048558237 -0.036921203 -0.087033324
0000d0 91 df 23 bd 09 b8 af bd e2 69 28 3b 63 dc db 3c
       -0.04000813 -0.08580024 0.0025697877 0.026838487
0000e0 69 f5 7a bd d2 30 eb bd 74 d7 93 bc 5a 5b 41 bd
       -0.061269198 -0.11483921 -0.018047072 -0.04720626
0000f0 b8 a1 83 3d ef 46 91 3c 30 78 9b bd 9c 9d 00 be
       0.0642733 0.01773402 -0.07591283 -0.12560123
000100 03 af 14 3d b7 48 df bc e5 61 35 bd 50 ad 7e bd
       0.036299717 -0.027256353 -0.044282813 -0.062177002
000110 62 6d 67 3d 9f 59 6a 3d b9 61 a4 3d 3a 77 9c bd
       0.0565008 0.057214376 0.080264516 -0.07639928
000120 4f 4c 45 bd 08 54 df bd 81 8a 81 3d d4 77 6f 3c
       -0.048168477 -0.109046996 0.06325246 0.014615972
000130 63 c6 22 3d 17 06 03 bc 7b cc d2 bc 85 02 09 bd
       0.039739978 -0.007997057 -0.02573227 -0.03344967
000140 86 8d 85 bd 0f 19 df 3d 1c 69 1e 3d d3 4f 1c bd
       -0.06521134 0.108934514 0.03867446 -0.038162064
000150 cb 76 ca bc e7 63 15 bd 6a 5c 2a 3c 36 40 f4 3c
       -0.024714848 -0.036472227 0.01039801 0.029815774
000160 c9 04 be 3d dc db a9 bd cb f3 1e bd 0c 7b 12 bd
       0.092782564 -0.08293888 -0.038806718 -0.035761878
000170 64 de d6 3d 91 2e 2f 3d a7 30 f0 bc 61 31 b1 3d
       0.104916364 0.04276902 -0.029320074 0.086519964
000180 d3 34 76 3d 39 08 9f 3d 8a 11 9a bb 3a e1 25 bd
       0.06010897 0.0776524 -0.004701798 -0.040497996
000190 10 9d 82 3d 4c 2c 69 3d 09 d2 4f 3d 9c 44 63 bd
       0.063776135 0.05692701 0.050737415 -0.055485353
0001a0 97 d3 91 3c c5 28 cc 3c d0 c4 c0 bc 5f b1 5a bc
       0.01780109 0.024921784 -0.023531348 -0.013347953
0001b0 a5 58 18 be 58 84 91 3d 6b 0c 1a bd 37 85 6b 3c
       -0.14877565 0.07105321 -0.0376095 0.014375023
0001c0 66 e0 0d 3d 0e de 70 3c de 84 18 bd 6d 1e fa ba
       0.03463783 0.014701379 -0.037236087 -0.0019082554
0001d0 71 3b 72 bd 1d 59 1a bd 0e d2 8f bd 49 9b 48 bd
       -0.05913872 -0.03768264 -0.070224866 -0.048976216
0001e0 81 e0 58 3c c2 bb 6d 3d 2b 2f 99 bd e7 f0 a0 bc
       0.01323712 0.058040388 -0.074797 -0.019646121
0001f0 9f 0f 5b 3d 57 ad 39 bd ba 12 94 3d f7 d3 2f bd
       0.053481694 -0.045331325 0.07230134 -0.042926755
000200 92 98 2c 3d e0 58 d0 bd 8b 9e 30 be 02 11 b7 bd
       0.04213769 -0.101732016 -0.1724798 -0.08938791
000210 9e 66 0f bd 6d 48 82 bd f9 e5 d5 bc 08 74 33 3d
       -0.035009973 -0.0636147 -0.026110636 0.043811828
000220 8f bc 85 bc a3 b0 51 bc ae 12 d0 bc fa 29 28 3d
       -0.016325263 -0.012798461 -0.025399532 0.041055657
000230 fe 74 5d 3d 5a 3c dd bd ba 14 23 be 43 c2 b1 bd
       0.05406665 -0.10802527 -0.15925875 -0.086796306
000240 e8 06 00 3e aa 61 33 bd f9 79 ae bd 5b 4f 21 be
       0.12502635 -0.04379431 -0.08519358 -0.15752928
000250 ba 00 7e 3d 44 9e b6 bc 4f 56 75 bd b5 7c 69 3e
       0.06201241 -0.022292264 -0.059896763 0.22801478
000260 8a 0b 6a 3c 07 12 bf 3d f5 22 e4 bd 30 d7 a4 bd
       0.014284978 0.0932961 -0.1113948 -0.08048856
000270 fb 9a 07 bd 76 d0 40 3d b3 93 9c bd e9 1e 00 3e
       -0.033106785 0.047073804 -0.07645359 0.12511791
000280 24 91 d9 3d c4 00 10 3e 33 9e e6 bd ca c8 91 3d
       0.106233865 0.14062792 -0.11260643 0.071183756
000290 45 c1 11 3d 28 8b 05 3e 80 6c a3 3d 5d a6 56 bd
       0.035584707 0.13041365 0.07979679 -0.05240475
0002a0 72 80 89 bd 64 91 50 bd d7 6d 9d b8 2b 0a 6f bd
       -0.06713952 -0.050919905 -7.506803e-05 -0.058359306
0002b0 92 02 35 3d a9 24 21 3d 92 80 b9 3d 61 00 94 bd
       0.044191904 0.039341602 0.09057726 -0.07226635
0002c0 e6 77 38 3d d2 ab 1e bd 99 76 80 bd 21 05 9b 3d
       0.04503622 -0.03873808 -0.06272621 0.07569338
0002d0 33 c5 07 bc a0 73 dc bd 11 da aa 3c 01 4d dc bd
       -0.008286762 -0.10764241 0.020855935 -0.10756875
0002e0 d9 53 8a bd 12 94 63 3c 13 a1 95 39 88 e4 de bb
       -0.06754274 0.013890283 0.00028539504 -0.0068021454
0002f0 3c 7b ba bd 39 13 c3 bc 43 93 27 bd aa 19 c7 3c
       -0.09105536 -0.023812877 -0.040911924 0.02430423
000300 f8 2e 6b 3d 93 57 e0 3d ea a8 12 bd 10 a8 98 bd
       0.05741784 0.109542035 -0.03580562 -0.074539304
000310 5c 1d 0f 3d 03 5f c7 bc 66 af 06 bc be 88 88 bc
       0.03494011 -0.024337297 -0.008220529 -0.016666766
000320 d7 2e 15 3b 61 55 16 be 89 c6 ae 3c 5d c9 8d 3d
       0.0022763514 -0.14681007 0.021334903 0.069231726
000330 1c f6 88 3d e0 f4 b4 3d b4 44 1c 3d 8f 98 1c bd
       0.06687567 0.08835769 0.038151458 -0.03823143
000340 02 14 13 3d 81 8b d1 3d 55 43 74 bd 1f ba 3f bc
       0.035907753 0.102316864 -0.059634525 -0.01170209
000350 58 d3 e1 3d 6f 1e 11 bd 39 b3 96 bc ce 83 85 3a
       0.11026639 -0.035429414 -0.018396007 0.0010186376
000360 ab 53 b8 3d 86 b3 07 bd 80 36 d2 bd 69 f4 8a bc
       0.090003334 -0.03313019 -0.10264301 -0.016962247
000370 dc e6 0d 3b 16 ff 81 bd e2 84 a9 bd 11 c5 ed 3c
       0.0021652495 -0.06347482 -0.082772985 0.029024633
000380 58 cd 72 3d 6b 6c 61 3d 01 46 e3 bd 3d 31 25 3e
       0.059277862 0.055035036 -0.110973366 0.16132064
000390 cf 4b b2 3c 1f 93 78 bd c5 27 36 ba 1a 03 cc bc
       0.021764664 -0.06068718 -0.0006948675 -0.024903823
0003a0 c0 5c 37 3d 14 b2 f1 bd 3c 12 f2 3c 32 8f e2 bd
       0.044766188 -0.11801544 0.02954971 -0.110624686
0003b0 fb 23 ce bc ff c0 20 3d 47 f3 98 bd a7 01 8a bd
       -0.025163641 0.039246555 -0.074682765 -0.067385964
0003c0 5e e4 99 3b d3 f9 5e 3d d8 81 90 bc 2b 55 56 3b
       0.004696413 0.05443747 -0.01764004 0.0032704573
0003d0 70 b2 03 be fc b5 47 3d a1 86 e7 bd db 3b 48 bd
       -0.12861037 0.04875754 -0.11304975 -0.048885208
0003e0 34 6a df 3c 9e 2a 3a bc cf 9b 10 3d f2 f6 a3 3d
       0.027272321 -0.0113627 0.03530484 0.080060855
0003f0 9f c1 0e bd 32 fe 16 3e c0 9e b4 bd 35 ec d5 bd
       -0.03485262 0.14745405 -0.08819342 -0.104454435

bias_ih_l0 f4 [384]
000000 d5 07 fd 3c b6 4c 5f bc cf ac 71 3d a2 6b 71 3d
       0.030887524 -0.013629129 0.059002694 0.058940537
000010 bd 4c c8 3d 84 f8 a2 3c 66 17 dc 3b 41 24 ea bc
       0.09780262 0.019893892 0.0067166565 -0.02858174
000020 86 9d 01 bd 61 91 b2 3d 55 fd b6 bc ca a9 4a 3c
       -0.031644367 0.08719135 -0.022337595 0.012369582
000030 1c 66 0e bc 51 8d b2 3d 1b 46 31 3d 8e e9 c4 3d
       -0.008691337 0.0871836 0.04327975 0.096148595
000040 30 31 33 3d 09 13 eb 3d 4a a8 c4 3d 71 49 8e bd
       0.04374808 0.1147824 0.09602411 -0.069476016
000050 7b 29 14 3d 5f 74 01 3e bf 24 1b 3e 2a d4 18 3d
       0.03617237 0.12642048 0.15150736 0.03731171
000060 46 05 14 3e 24 6d 1f 3e 08 96 12 3e 3b 6e 54 3c
       0.14455137 0.15568978 0.14315045 0.012965734
000070 07 27 48 bd 53 e7 3e bd 26 dc e0 3d 50 11 c0 3d
       -0.048865344 -0.046607327 0.1097949 0.09378302
000080 d4 3e f5 3d 49 f3 a5 3a fc 47 af 3d 6b 27 14 bd
       0.11974874 0.0012661006 0.08558652 -0.036170404
000090 fa 1e 3a 3c 9d 5c ca 3d e9 45 ac 3d a3 db 45 bd
       0.011359924 0.09880946 0.08411772 -0.048305165
0000a0 23 59 8c 3d 58 36 4e bd f9 d2 71 3d cd 5c e2 bc
       0.06852939 -0.050344795 0.05903909 -0.027632141
0000b0 10 ea 66 bd 2e ff 3e 3e c9 21 b8 bd 1e 69 b3 3d
       -0.056375563 0.18652031 -0.08990819 0.08760284
0000c0 a0 49 be 3d ed 8f 1a 3d bd 3b f1 3d 13 4a 0a 3d
       0.092913866 0.037734915 0.11778972 0.03376205
0000d0 8d fc 81 bc d0 85 eb 3d fc cb 01 3e 36 ee 91 3c
       -0.015867496 0.11500132 0.1267547 0.017813783
0000e0 71 b6 09 bd fa ca 90 3c 57 c4 07 3e b7 21 7b 3d
       -0.033621255 0.017674912 0.13258491 0.06131145
0000f0 2d 54 db 3c df de dc 3d 42 48 98 3d e9 a0 17 bc
       0.026773537 0.10784697 0.07435657 -0.009254673
000100 be 34 1e 3d 81 2b 38 3d 63 bd 09 bd d8 32 17 bd
       0.038624518 0.044963364 -0.03362788 -0.036913723
000110 b8 35 97 3d d4 2c 0e 3c 51 b0 74 3d 0b 50 87 3d
       0.07383293 0.00867768 0.05973846 0.06607064
000120 3b 2b bc bc 5a 2a 27 bd fb dc 0a 3e f5 e1 de 3d
       -0.022969833 -0.040811874 0.1356086 0.10882942
000130 39 81 a8 3c f8 8c f0 3d da bd 96 3d d3 c5 95 3c
       0.02056943 0.11745638 0.0736043 0.018282807
000140 dc 1b 0c 3e fa 5e 14 3d 0e 1d 8e 3d ee 53 99 bc
       0.13682503 0.03622339 0.069391355 -0.018716779
000150 b3 b0 d1 3d 3e f0 24 3c 1b 55 77 3c b2 57 ba 3c
       0.10238781 0.010067044 0.015095974 0.022746895
000160 02 8b 47 3d c9 45 fe 3b 65 00 42 3d c6 ce 31 bc
       0.048716553 0.007759784 0.047363658 -0.010852521
000170 ed 42 44 bb 63 24 80 3d d2 7a fd 3d ee 25 1a 3b
       -0.0029947117 0.0625694 0.12376942 0.0023521143
000180 9a 83 29 3d 42 8d 99 3d f9 2e 1a 3d 00 34 39 3c
       0.04138527 0.07497646 0.037642453 0.011303902
000190 39 9b 65 3b 9b 0c b7 3d 11 f7 1c bd 8b ed 50 3d
       0.0035035147 0.08937951 -0.03832156 0.05100779
0001a0 77 4d 0e 3e 19 c5 08 3e 37 01 bc 3d 43 eb 80 3d
       0.13896738 0.13356437 0.09179919 0.062948726
0001b0 c2 d9 17 bd ff 7a 82 bc a1 3e 7d 3c 0b de 71 3c
       -0.037072904 -0.01592779 0.015456826 0.014762412
0001c0 7c 1b 43 bd 1f 5e f1 3b 7a ea d9 3d 24 af e0 3d
       -0.047633633 0.0073659564 0.10640426 0.109709054
0001d0 1f b2 05 3e af 9b 83 bd 59 f4 c1 3d 7c 21 c8 3c
       0.13056229 -0.06426179 0.09470434 0.02443003
0001e0 18 4f f6 bb cf 05 00 bd 78 46 a5 3d fe 60 2a 3d
       -0.007516753 -0.03125554 0.080700815 0.041596405
0001f0 52 5c a5 3d e2 02 6c 3d 94 1f 91 3d 29 57 7b 3d
       0.08074249 0.057619937 0.07086101 0.06136242
000200 bc f0 a4 3d c9 ba 3c bd 64 40 dd 3c bf ff 48 bd
       0.08053729 -0.04607657 0.027008243 -0.049072023
000210 53 8a d4 3d aa 41 af bd 95 ae ec bd 4c 4f 03 bd
       0.10377946 -0.08557446 -0.115567364 -0.032058045
000220 d7 a3 06 be 58 74 44 bd 53 f8 62 be 00 80 94 3c
       -0.13148437 -0.047962517 -0.2216504 0.018127441
000230 cc 0f 1d 3d 7f 22 72 3d bc b0 e8 bd 15 06 ad bd
       0.038345143 0.05911493 -0.113618344 -0.08448426
000240 2c 99 a5 3c d1 10 60 bd 0a 3d f7 3b 54 60 19 bd
       0.02021464 -0.054703537 0.007545118 -0.03744538
000250 77 e7 71 3d 82 52 f5 bd 82 29 1a be 77 56 d1 bd
       0.059058633 -0.11978628 -0.15054896 -0.1022157
000260 3d 9e 56 bd 36 d8 8e bb 9c 27 36 bd 20 4f 16 be
       -0.052397 -0.0043592704 -0.04447137 -0.14678621
000270 aa 97 5f bc 0f c0 9e bd 09 19 8c bd 7e 3b 94 3b
       -0.013646999 -0.07751476 -0.068407126 0.0045236936
000280 df 02 1d bd ff f0 18 3c 95 b1 ce bc 08 ff 52 3d
       -0.038332816 0.009334802 -0.025231162 0.051512748
000290 6b 95 ac bd a7 28 91 bc ad e0 cd bd 31 b2 be bc
       -0.08426937 -0.01771958 -0.10052619 -0.023278328
0002a0 ac 8f eb bd e4 4e f5 bc ec bf bd bd 51 cb 44 3c
       -0.115020126 -0.029944845 -0.09265122 0.012011365
0002b0 ab 0c 8b 3d 18 16 c7 bd 00 f4 29 3d bf 19 52 bd
       0.067895256 -0.09721011 0.041492462 -0.051294085
0002c0 50 d3 66 3c 9c 7e 00 bc e6 17 34 bd 16 85 0d bd
       0.014088467 -0.007842686 -0.043968104 -0.03455075
0002d0 0c ba da bd 31 b0 ac 3d 8a a7 28 bd 7c ee ae bd
       -0.10680017 0.08432043 -0.041175403 -0.08541581
0002e0 60 55 86 bd 6e a2 0c 3c c2 86 49 bd db 5a 17 bd
       -0.06559253 0.008583648 -0.04920078 -0.03695188
0002f0 0d 57 3f bd 6d f4 73 bd 97 b8 36 bb cc 0b 0a 3e
       -0.046713877 -0.059559274 -0.002788102 0.13481063
000300 bf 02 e0 3c 28 0f 0c be f8 86 83 3d 48 39 9b 3c
       0.02734506 -0.13677657 0.064222276 0.018948212
000310 fc c8 7c bc 21 12 14 3d ba 6f 4a 3c 7b 10 a1 bd
       -0.015428778 0.0361501 0.012355739 -0.078644715
000320 35 a4 9b bd 49 18 81 3c 0b 29 06 bd f7 1b 88 bd
       -0.075996794 0.01575865 -0.032753985 -0.06645959
000330 d2 60 8b 3d fd aa 2b bc 70 a3 a7 bd c6 6d 06 3d
       0.068055764 -0.0104777785 -0.0818547 0.03281953
000340 53 c9 d7 bd c4 19 2f 3b b9 a4 94 bd 3d fb 0c bd
       -0.105364464 0.0026718238 -0.07257981 -0.034419287
000350 35 cd 14 bd 5c dd 5a bd 1f 80 10 3e 83 e8 9b 3d
       -0.036328513 -0.05343376 0.14111374 0.076127075
000360 4c 1a cf bd 4d cb 8d bd ec 79 8d bc e6 60 3c bc
       -0.101124376 -0.06923542 -0.017270051 -0.011497712
000370 61 9c 74 bd f4 c7 87 bc e0 b1 da bd b2 db 51 bd
       -0.059719447 -0.016574837 -0.10678458 -0.05123491
000380 cb f0 2d bd bb 05 5f 3c 31 af 65 bb b8 a2 3a 3c
       -0.042465966 0.013612206 -0.003504705 0.011391334
000390 04 0a 42 bd 60 d3 5e bd 74 0d 45 bd 22 ec ca bc
       -0.047372833 -0.0544008 -0.048108533 -0.0247708
0003a0 b1 6b 6b 3d 77 dc d6 3d 53 19 ed 3c ff 92 92 bd
       0.05747575 0.10491269 0.02894274 -0.071569435
0003b0 3b 5b c8 3c 22 8e f3 3c 62 21 85 bd c8 23 1e 3d
       0.024457565 0.02973086 -0.06500508 0.038608342
0003c0 83 b5 30 3d 51 2f 17 3d 7d 04 98 bd 92 1d 05 3d
       0.043141853 0.03691036 -0.07422731 0.032498904
0003d0 57 6c 41 bd e6 88 0d bd d8 79 79 bb 42 74 a5 bc
       -0.04722246 -0.034554385 -0.003806701 -0.020197038
0003e0 75 20 d3 bd da 02 46 bd 94 dc 76 ba 7c b6 ab bd
       -0.10308925 -0.048342563 -0.0009417024 -0.083844155
0003f0 a2 29 86 bd 80 31 cc bc 60 1d 79 bd 9d 76 36 3d
       -0.065509096 -0.024925947 -0.06081903 0.044546712

bias_hh_l0 f4 [384]
000000 a0 0e 8e 3d bf 12 69 bd 6f c2 2d bd 04 64 3e bc
       0.06936383 -0.056902643 -0.042421754 -0.011620525
000010 6b c8 5e 3d 84 3a 2e 3d 29 ca 25 bd 28 3b 8d 3c
       0.054390352 0.042536274 -0.040475998 0.017240122
000020 60 97 0a 3e 2c b3 e5 3b 61 d4 05 3b f1 d4 ce 3c
       0.13534307 0.0070098843 0.0020420777 0.025248023
000030 a5 f3 88 3d fb c6 34 3d 3b d6 df 3d bd 52 8f 39
       0.066870965 0.044135075 0.10929533 0.0002733673
000040 44 31 6b bc e5 54 c5 3d cc 1e 32 bc ca 26 44 bc
       -0.014355008 0.09635333 -0.0108716 -0.011972139
000050 54 e8 52 3d bd 57 c0 3d f7 30 a7 3d 0e 2f be 3d
       0.051491097 0.09391735 0.08163636 0.09286319
000060 f8 2e 98 bc 69 a6 44 3d d4 97 69 3d 18 a2 3d 3d
       -0.018577084 0.048010264 0.05702956 0.046297163
000070 19 17 5d bd 8e f8 01 3c c8 b3 71 bd 4e 87 46 3d
       -0.053977106 0.007932795 -0.059009343 0.04846888
000080 54 2a 9e 3d 9a 88 29 bd ba e8 ad 3d 43 bb 74 ba
       0.07722917 -0.04139004 0.08491655 -0.00093357655
000090 93 51 20 bc 77 c9 40 3d 0c 19 aa bc d7 c3 aa 3b
       -0.009785074 0.04706713 -0.020763896 0.005211334
0000a0 c8 3f 52 3d 58 c5 b9 3d 9c 94 10 3d 8f 89 5c 3d
       0.051330358 0.090708435 0.035297975 0.053842124
0000b0 45 c9 fb 3b 41 29 89 3d 73 4b 93 bd ed 21 e1 3d
       0.0076839053 0.06697322 -0.07192125 0.10992799
0000c0 40 4c db 3c 9a de 24 bd 32 41 0d 3e d2 7d df 3d
       0.026769757 -0.040251352 0.13794401 0.1091267
0000d0 a3 d8 ae 3d b3 a9 08 3d a9 9d fc 3d c3 79 cb 3c
       0.08537414 0.033364963 0.12334759 0.024838334
0000e0 3e 01 11 bd ff 20 17 bc d5 11 6a 3d 70 a2 6b 3d
       -0.035401575 -0.0092241755 0.057145912 0.05752796
0000f0 5d f6 db 3a df 02 1e bb 7c c7 64 3d 0d a3 d5 3a
       0.0016781796 -0.0024110598 0.055854306 0.0016299203
000100 79 46 15 3b 62 f9 bf bc 3c 61 2b bd d2 c8 ec 3d
       0.00227776 -0.023434345 -0.041840777 0.11561741
000110 7e 07 06 3e 36 62 ae bc 7a dd f4 bc 80 23 9e 3c
       0.13088796 -0.021287065 -0.029890765 0.019304037
000120 41 c3 69 bd b3 c9 42 3d f4 fb 1b 3d a2 c5 e3 3d
       -0.057070974 0.047555637 0.038082078 0.1112168
000130 af f9 04 3e 8a a1 4f 3d f3 19 16 3e 31 c7 ef 3b
       0.12985872 0.050691165 0.14658336 0.0073174466
000140 f8 20 d4 3d 5a 61 3a bc cf 0b ee 3d 1f 91 e2 3d
       0.10357851 -0.0113757495 0.11623346 0.11062836
000150 ad b2 e5 3d b2 e1 a2 3d 1e d1 a2 bc b0 b5 a8 3d
       0.1121572 0.07953204 -0.019875105 0.08237779
000160 c9 0d fa 3d 28 23 53 3d 8c e6 af 3d 66 0c a5 3d
       0.122096606 0.0515472 0.08588895 0.080590054
000170 d3 a0 6f 3d 74 c3 59 bc 41 03 2c 3d 79 94 c5 3d
       0.058502983 -0.013291229 0.04199529 0.096474595
000180 48 9d 1b 3d 1c 3a 2b 3c 26 67 fa bc 96 61 c6 3d
       0.037991792 0.010450866 -0.030566763 0.09686582
000190 a7 1a db 3d f0 e6 f5 3d 7e 87 d1 3d 77 7e 24 3d
       0.10698443 0.120069385 0.10230921 0.04015967
0001a0 22 67 ff 3d 9a cc bb 3d c7 0e 76 3d ea 57 b0 3d
       0.12470843 0.09169884 0.060072687 0.08610518
0001b0 9b f9 51 3d 1d 49 07 bd 12 43 a7 3d be c0 9f 3c
       0.051263433 -0.03302871 0.081670895 0.019501086
0001c0 ce 83 be 3d dc 48 67 3d 5e 3a 46 bd 8b 29 c3 3c
       0.093024835 0.05646597 -0.048395507 0.02382352
0001d0 83 63 5f 3d 80 82 43 3b 89 47 36 3d ba e3 7b 3d
       0.05453826 0.0029832423 0.044501815 0.061496474
0001e0 b6 95 a7 3d 94 98 a2 3d ec 80 09 3c 42 0a a8 3c
       0.08182852 0.07939258 0.008392554 0.020512704
0001f0 b2 e1 aa 3d 77 3d 1b 3d b9 f5 cc 3b 3d ca 4c bd
       0.08343829 0.037900414 0.0062548784 -0.049997557
000200 1d d3 97 bd b2 85 9d bd 8b d8 1f bd 91 97 80 bd
       -0.074133135 -0.07691516 -0.03902487 -0.06278909
000210 73 f2 5e bc f0 6b 17 3c 7b 8f 46 3c 96 eb a1 bd
       -0.013607609 0.009242043 0.012119169 -0.079062626
000220 bd 89 07 be 65 8e fb 38 ea 8a 61 bd 5f e1 c6 ba
       -0.13236137 0.00011995136 -0.05506412 -0.0015173367
000230 8e fc 95 bd be 33 47 3c 92 7c fb bd e1 75 ab bc
       -0.073235616 0.012158332 -0.12279619 -0.020930232
000240 f7 9b 0a 3c 81 95 b3 bc bd 13 70 3d 94 86 9a bd
       0.0084600365 -0.021921875 0.058612574 -0.075452
000250 6e 2f e7 3c 5e 6e 3d bd 2b 33 b9 bd 5b f4 36 bd
       0.028220858 -0.046247832 -0.09042963 -0.04466663
000260 ca c6 8c 3c 5e 88 8c bb b6 03 82 bd ee 34 84 bd
       0.017184634 -0.004288717 -0.06348364 -0.06455408
000270 a6 33 07 bd 82 78 76 bd 47 b4 37 bd 7f fa 3d bd
       -0.03300824 -0.06017352 -0.04484966 -0.04638147
000280 2e fe c4 bd 41 01 1c bd 66 5e 81 3c 58 ca 1b 3c
       -0.096187934 -0.038087133 0.015792083 0.009508692
000290 7a 57 84 3d e8 72 90 bc 42 67 38 bd 6a 39 b4 3b
       0.06461997 -0.017632917 -0.04502035 0.0055000084
0002a0 2f fb 08 be 7c fd 65 3d d2 42 26 bd 90 ab 82 3d
       -0.13377069 0.056149945 -0.04059107 0.06380379
0002b0 7b df 2b 3d 40 d2 a2 bd 6f 99 86 3c 0e cd fa bd
       0.041961174 -0.07950258 0.016430585 -0.12246142
0002c0 88 13 a5 3d 55 c3 89 bc 85 98 2e bb 7f 69 93 bd
       0.08060366 -0.016816774 -0.0026641202 -0.07197856
0002d0 20 2d aa bd f9 f6 2f 3d ed 9f 26 bd 42 ce c4 3c
       -0.08309388 0.04296014 -0.04067986 0.024024133
0002e0 8d 35 de bd 45 17 15 bd b3 10 42 3a 5e 84 58 3d
       -0.10850058 -0.036399145 0.0007403001 0.05286061
0002f0 6c e8 40 3d d1 13 40 3d 78 d6 41 3d 09 80 e6 3b
       0.047096655 0.0468939 0.047323674 0.007034306
000300 54 33 38 bd a7 ab 79 3c 0a a1 45 bd 7c 38 aa bd
       -0.044970825 0.015238679 -0.048249282 -0.08311555
000310 45 13 6f 3d 50 c5 04 3d 0b f3 1a ba 40 46 03 be
       0.058367986 0.032414734 -0.000591085 -0.12819767
000320 3a 2b b0 bd 3d f1 85 bc 29 f8 d4 bd ab af 7a bd
       -0.08601995 -0.016350383 -0.10398895 -0.061202686
000330 87 e7 5c 3c bb e5 aa bc ad bf 07 bd 71 f0 dd bd
       0.013482935 -0.020861497 -0.03314178 -0.10836876
000340 ea 06 0b bd f4 e3 02 3d da 67 6d 3d b6 8c 0a bd
       -0.03394214 0.031955674 0.05796037 -0.0338256
000350 63 cb 3e 3c 71 4a ac bc 61 d1 b7 3d 3a 37 e1 bc
       0.011645171 -0.02103159 0.08975483 -0.027492154
000360 86 9c 24 be 73 3d 0e be 15 37 25 3b 74 6d 46 3c
       -0.16075334 -0.13890629 0.0025209833 0.012111057
000370 23 39 52 bd de 55 ad bb c8 e7 02 bd de 77 fb 3c
       -0.05132402 -0.005289777 -0.031959325 0.030696806
000380 20 8a f3 bd 18 de b6 bd 8d ab 4c 3d b2 c8 5c b9
       -0.1189158 -0.0892908 0.04996829 -0.000210556
000390 9b 53 24 3c bd 85 32 bd ca 12 46 3d 00 37 cd bd
       0.010029699 -0.043584574 0.048357762 -0.10020256
0003a0 72 8c 01 3d c4 92 9a 3d f2 67 83 bd 24 0c 31 bd
       0.03162808 0.075475246 -0.0641631 -0.04322447
0003b0 bf 61 51 bd 4d 27 92 3c ca a7 f0 bd ee 68 ad bd
       -0.05111861 0.017841006 -0.11750753 -0.084672794
0003c0 1f 61 2d 3d b1 3b ef 3c e4 37 32 3d d7 b3 af bd
       0.04232895 0.029203268 0.043510333 -0.085792236
0003d0 0f c4 c3 bc 2a 4c 6d bd 6c e9 de 3c a7 54 bb bd
       -0.023897199 -0.057933964 0.027210914 -0.091470055
0003e0 30 79 49 bc 1b 37 f0 bd c8 8c ac bd 8e e0 47 bd
       -0.01229696 -0.117292605 -0.084252894 -0.048798136
0003f0 c6 21 42 bd 41 fc bd bd 7a 6e 29 bd de 4d 70 bc
       -0.04739549 -0.09276629 -0.041365124 -0.0146670025

weight f4 [9, 128]
000000 6e 85 48 bb dc bd bd 3d ae 61 91 3d ee 27 ef 3c
       -0.0030597108 0.092647284 0.07098709 0.029193845
000010 58 c5 f8 bc b3 83 84 3d 4b 6b 84 bc da f2 89 bd
       -0.030367538 0.06470432 -0.016164443 -0.067357734
000020 4a b9 c9 bd dd a2 6a bd 01 14 d3 3c eb 1d 9f 3d
       -0.09849794 -0.057284225 0.025766375 0.07769378
000030 f4 e8 27 3e cf 28 cf bd ab 49 55 3d b5 9c af bc
       0.16397458 -0.101152055 0.05207221 -0.021437028
000040 6a 2e bf 3c b4 fc d7 bc 20 0e 22 3d 0f 45 e3 3d
       0.023337562 -0.026365615 0.039564252 0.11097156
000050 ce 7c 11 bd b0 ae 5e bd e9 99 ec bd 39 d0 26 bd
       -0.035519414 -0.054365814 -0.115527935 -0.04072592
000060 f0 aa 01 3e dc a0 4e be 87 6a 40 3d f6 a1 0e 3e
       0.12662864 -0.2017855 0.046976592 0.1392897
000070 c0 9d ae bb c6 51 52 3d 12 e6 dd 3d 5a 14 f1 bd
       -0.005328864 0.051347516 0.10834898 -0.1177146
000080 6a e0 fe bd 64 c1 a9 3d 55 e4 bc bb 8e d4 66 bc
       -0.12445147 0.082888395 -0.005764524 -0.014088763
000090 05 2e 60 bd 77 95 45 3c 1c 7a af 3d 42 4f 09 bd
       -0.054731388 0.012059561 0.085682124 -0.03352285
0000a0 f0 dc be 3d a3 55 64 bd eb da 7b bd a6 00 ad bd
       0.09319484 -0.055745732 -0.061488073 -0.08447389
0000b0 44 11 0e bc cb 63 4e 3e 26 1f 29 3d bc 3c 32 3d
       -0.008671109 0.20155255 0.04128947 0.043514952
0000c0 7e b6 83 3d 29 09 7f 3d 72 ed 6f 3c cf 38 83 bc
       0.06431292 0.062264595 0.014644014 -0.0160183
0000d0 77 1d ab 3b d4 53 14 3d 1e 7a 6d 3d 80 16 91 bd
       0.0052220183 0.036212757 0.05797779 -0.0708437
0000e0 b9 c1 8b bd 5e 69 88 3d 57 3a 0d bd 41 43 cc 3d
       -0.06824059 0.06660722 -0.034479465 0.09973765
0000f0 04 72 65 3d 11 50 aa 3a 38 11 c5 3d 4c a3 21 bc
       0.056016937 0.0012993832 0.09622425 -0.009865593
000100 20 d2 36 3d b2 bf ee bd f2 40 b1 3b 47 79 fd bd
       0.044633985 -0.11657657 0.0054093534 -0.123766474
000110 83 08 64 bc 20 20 aa bd 55 a6 52 be c1 bd 02 3e
       -0.013918045 -0.083069086 -0.20571263 0.12767698
000120 38 35 f8 bd 68 f3 82 3d e4 b8 05 be 93 79 a3 3d
       -0.12119526 0.06394082 -0.13058811 0.07982173
000130 c5 e1 5a 3d a1 bc 8e 3d be 9c e0 3b 0e b4 93 3d
       0.053437967 0.06969572 0.0068546226 0.07212077
000140 d1 2a 8f 3d de 2a df bb fe 72 85 3c a0 02 52 bd
       0.069905885 -0.00681053 0.016290184 -0.051272035
000150 00 f1 dd bd 3b 34 b2 3d e2 95 38 3d 2f 8f 85 3d
       -0.10836983 0.087013684 0.045064814 0.06521451
000160 4d 1c 46 bc a0 51 f1 3b f5 1a 94 bd 91 27 08 3a
       -0.012091708 0.007364467 -0.07231704 0.0005193884
000170 9b 0a 13 3d d1 90 b4 bd ff 59 d5 bd c0 3f d4 bc
       0.035898786 -0.08816684 -0.10417556 -0.025909305
000180 b0 af d9 3d 76 c8 4e 3d c2 9e 00 bc 3f 50 e6 3c
       0.10629213 0.050484143 -0.007850351 0.028114436
000190 7f 84 11 bd 9b a8 11 3e d6 2f 39 bd 31 dc cc 3d
       -0.03552675 0.14224474 -0.045211636 0.10002936
0001a0 55 ff 9b 3d 33 5d d9 3d a8 98 22 be 79 16 1b bd
       0.0761706 0.106134795 -0.15878546 -0.03786323
0001b0 b0 dc 4e 3d 6d 39 3e 3d 3b 51 45 3d ac e0 d4 3d
       0.050503433 0.046441484 0.04817317 0.10394415
0001c0 17 4d 8c 3d 7d c1 16 be 0f 24 3a bd 5f 9d 09 be
       0.06850641 -0.14722247 -0.045444544 -0.13438939
0001d0 33 2d 73 3d c4 91 82 3c 1f be a4 bd 03 af 82 3d
       0.059369277 0.015938647 -0.08044075 0.06381037
0001e0 0c 41 52 3e 27 56 62 3d 40 f3 fe 3d a2 6d d9 bd
       0.20532626 0.055257943 0.1244874 -0.10616614
0001f0 2e 18 21 3d ad 43 16 3d 7a 29 0d bd 7e 3a ad bd
       0.0393297 0.036685634 -0.034463383 -0.08458422
000200 c3 71 a8 3d fb 2a b1 3d f7 0f 06 3e d0 55 80 3c
       0.08224823 0.08650776 0.13092028 0.015665919
000210 9b 9f 3d bd 3b 05 85 3d 93 bf e2 3d c1 d3 81 3b
       -0.04629479 0.06495138 0.11071696 0.0039620106
000220 9b 4d 40 3d 21 4f 89 3d 3d ce be bd 75 da 0c 3d
       0.04694901 0.06704546 -0.093166806 0.034388024
000230 4c 9b 0a be 8b 14 d0 bb ac 4e 1b 3e c9 32 ff bc
       -0.13535804 -0.006350105 0.1516673 -0.031152146
000240 60 51 2a 3d d6 7e 97 39 c6 47 a2 3d 1e 1e 92 bd
       0.04158151 0.00028895464 0.07923846 -0.07134651
000250 d0 36 6d 3c ce de c3 3c e9 0a 14 3d 4b 3d ca 3d
       0.0144784 0.023909952 0.036143217 0.09874972
000260 3f 90 ae bd 45 39 34 bc 22 2d d8 bb 48 7f ba 3d
       -0.085236065 -0.010999982 -0.006597177 0.09106308
000270 ac 37 f5 3d 60 3f bb 3c 2d 99 dc bc d9 93 19 be
       0.11973509 0.022857368 -0.026928509 -0.14997806
000280 20 f8 5d 3d da f2 aa bd 57 20 a5 bb 01 6e 20 3d
       0.05419171 -0.083471015 -0.0050392556 0.039167408
000290 ad e2 a0 bd 05 a7 c0 3d 2a e3 16 3e fc d7 c3 3c
       -0.07855735 0.094068564 0.14735094 0.0239067
0002a0 ea 53 8b bd e5 95 a7 bd 1f 9c 2c bd df e2 04 bd
       -0.06803115 -0.08182887 -0.042141076 -0.032442924
0002b0 95 75 6c bd 8a 9d 43 3e d8 78 1d bd 0d 1b 6c bd
       -0.057729322 0.19103065 -0.038445324 -0.057642985
0002c0 78 9c 5c bd bf 57 3c bd 20 c3 b4 3d 5c f4 ff bd
       -0.053860158 -0.04598212 0.0882628 -0.1249778
0002d0 e7 3d 1b 3d f6 c4 1a bd bb 77 5b bd 69 a9 97 bd
       0.03790083 -0.037785493 -0.05358098 -0.07405359
0002e0 fb 9f 22 bd 5c cb 5e bd f5 b1 d7 3d b1 b3 f9 bd
       -0.03970335 -0.054393157 0.105319895 -0.121924765
0002f0 5c 0c b5 bb c8 47 24 3d 96 10 1f bd 25 5a e5 3c
       -0.005525155 0.04010752 -0.038834177 0.027997086
000300 35 ac f9 bd 58 da a9 3d 98 bc 7c 3d e6 02 06 be
       -0.12191049 0.08293599 0.061703295 -0.13087043
000310 a7 27 25 bd 71 c2 bc bd 6b 51 8d bc c5 d3 52 bd
       -0.04032102 -0.09216774 -0.017250737 -0.05147149
000320 6a 8a ec 3c b9 8a 81 bc 5f 99 c5 bd 8e 1b 33 3c
       0.028874595 -0.015813218 -0.09648394 0.0109318625
000330 58 15 31 bc f4 0a a8 3c 04 9a ee 3d 70 4c d8 bd
       -0.010808311 0.020513035 0.1165047 -0.10561454
000340 e8 ed d6 bd e1 ce 83 bc 86 de 98 3d cf c8 24 bd
       -0.10494596 -0.016089858 0.07464318 -0.04023057
000350 04 87 48 3d bc 1e 98 3d 40 f4 8e 3c 9f 9e c0 bd
       0.048956886 0.07427737 0.017450452 -0.094052546
000360 2d 14 98 bd 59 4c 23 bc 9c fe d0 3d ed c1 9a 3d
       -0.07425723 -0.009966933 0.10204813 0.0755652
000370 6b af 25 bd 43 f4 de 3c 9d 71 20 bd 76 a2 92 bd
       -0.040450495 0.027216082 -0.03917085 -0.07159893
000380 f2 c2 1b 3e a2 9d e1 bd b9 fc ab 3d d3 d0 22 3e
       0.15211084 -0.11016394 0.083978124 0.15899973
000390 2b a1 c2 3d 56 3e b0 bd 6f ed 59 3d 7d ac 90 3c
       0.095033966 -0.0860564 0.05320495 0.017660374
0003a0 8f 1c 07 bd 66 0b aa bd 34 86 f6 bb 0c 5e dc 3d
       -0.03298622 -0.08302955 -0.0075233225 0.107601255
0003b0 13 c0 36 3d 96 e5 c9 3d 1c 93 6c 3d 06 ab ba bc
       0.04461677 0.09858243 0.057757482 -0.022786628
0003c0 21 6c 86 3b 5c 97 13 bd 0a c1 e3 bc e3 fd b7 3d
       0.0041022454 -0.03603302 -0.02780201 0.08983972
0003d0 0b 7d 44 bd 6b 23 65 bd cf b1 36 3c f4 ad 4d 3c
       -0.047970813 -0.05594198 0.011150791 0.012553681
0003e0 f1 46 47 bd c6 b4 49 3d 8e 0c 01 be a9 41 92 3c
       -0.04865164 0.049244665 -0.12602445 0.017853575
0003f0 5b 0b c6 3d 26 1b 8a 3d 87 5c 53 3d ae f4 db bc
       0.09670135 0.067434594 0.051601913 -0.02685007

bias f4 [9]
000000 08 73 88 bd 9e 75 81 3d 54 4b e7 bc 89 9a bc 3d
       -0.066625655 0.06321262 -0.028234161 0.09209163
000010 c3 37 92 bd f9 b3 62 bd d4 c1 06 be 0d 2a 3b bd
       -0.07139542 -0.055347417 -0.13159877 -0.0456944
000020 3e 85 2d be
       -0.16945359
