char_emb/code/output/model_child_gru_test_64.pt (torch_old, 85863 bytes, 7 tensors)

weight f4 [66, 15]
0	0xbfc13a0b	-1.5095838
1	0xbfdb5609	-1.7135631
2	0xbf83f1ed	-1.0308205
3	0x3f096e14	0.5368359
4	0x3f9baeb7	1.2162694
5	0x3fe58f30	1.7934322
6	0x3e4796f8	0.19491184
7	0xbf602432	-0.8755523
8	0x3e99c8a8	0.300359
9	0x3f678977	0.9044413
10	0xc00895ab	-2.134135
11	0x3f8b2bd2	1.0872748
12	0x3f87ac34	1.0599427
13	0x3fc73f5f	1.5566214
14	0x3f9ff120	1.249546
15	0xc018e886	-2.389192
16	0xbe96a243	-0.2942067
17	0xbec860b1	-0.3913627
18	0xbf8e94f9	-1.1139213
19	0xbebaa55d	-0.36454287
20	0xbf1caaae	-0.61197937
21	0x3f9f51d1	1.2446843
22	0x3fb4a92c	1.4114127
23	0xbfcdce39	-1.6078559
24	0x3f45e729	0.7730585
25	0x3f1262b6	0.5718187
26	0x3fc683b3	1.5508941
27	0xbfad7e47	-1.3554162
28	0x3e366d14	0.17815048
29	0x3fd82a9e	1.6888006
30	0xbfa21a17	-1.2664212
31	0x3f621d15	0.88325626
32	0xbf6a3e21	-0.9150105
33	0x3ee13864	0.43988335
34	0xbfd0a9ec	-1.6301856
35	0x3e17fdeb	0.14842956
36	0x3f22dc57	0.6361746
37	0xbcf56cfe	-0.029959198
38	0x40749a76	3.8219275
39	0xc005fd16	-2.0935721
40	0xbf0f617c	-0.56008124
41	0x3f99b061	1.2006952
42	0x404eba17	3.230108
43	0xbd15ed3b	-0.036603194
44	0xbf754cca	-0.95820296
45	0x3ec8bad6	0.39205045
46	0x3f3c1379	0.7346721
47	0x3f25c1ad	0.6474865
48	0xbfd55c17	-1.6668729
49	0x3f9607da	1.1721146
50	0x40097b9d	2.1481698
51	0xbfa5ea62	-1.2962153
52	0x3de08765	0.109633245
53	0xbf5950df	-0.84889024
54	0x3f33e86b	0.70276517
55	0x3ef87056	0.48523206
56	0xbfd42e45	-1.657662
57	0x3fb1d08e	1.3891771
58	0xbe8db125	-0.27674213
59	0x3f5327bb	0.824825
60	0xbfe15cbc	-1.7606425
61	0xbf30c98c	-0.69057536
62	0x3ea79b3a	0.32735616
63	0xbec18d5e	-0.37803167
64	0xbf68f634	-0.91000676
65	0x3df566e7	0.11982518
66	0xbf639365	-0.8889678
67	0xbe3ba3ed	-0.18324251
68	0xbfc2cf98	-1.5219603
69	0x3eb9d3ad	0.36294308
70	0xbe5ac3fd	-0.21363826
71	0x3c3fb09e	0.011699824
72	0x3f8f6f14	1.1205773
73	0x3f0839a2	0.5321294
74	0xbe2252f5	-0.15851958
75	0x3f6ad25e	0.91727245
76	0x40043a21	2.066048
77	0x3f4efb8b	0.80852574
78	0x3fcb7b33	1.5896972
79	0xbfdcb171	-1.7241651
80	0x3ee61ea1	0.44945243
81	0x3ff448c4	1.9084706
82	0xbf21e8ad	-0.6324566
83	0xbeb59fbe	-0.35473436
84	0x3ed3fca0	0.41403675
85	0x3f3e812a	0.7441584
86	0xbfb8c864	-1.4436154
87	0xbe61e26d	-0.22059031
88	0xbf7466ce	-0.9546937
89	0x3fb01228	1.3755541
90	0x3fea0e5f	1.8285636
91	0xbf55fcb8	-0.83588743
92	0x3f97d1e9	1.1860934
93	0x3fd86db5	1.690848
94	0x3f060434	0.52350163
95	0x3f5d35d2	0.8641025
96	0xbed2c026	-0.41162223
97	0x3ebd1190	0.36927462
98	0x3f73eea0	0.9528599
99	0xbf6d8cfa	-0.9279324
100	0x3f2a6a1c	0.6656816
101	0x3ff02009	1.8759776
102	0xbdacbbd1	-0.08434261
103	0xbcd4719e	-0.025933083
104	0x3e8125c1	0.25224116
105	0xbede9a83	-0.43477258
106	0xbf57a1aa	-0.84231055
107	0x3f6b6151	0.9194537
108	0x3fb94303	1.4473575
109	0x3f4dbc53	0.80365485
110	0x3f646e17	0.89230484
111	0xbfaa0a3f	-1.3284377
112	0x3fb54a34	1.416327
113	0xc00864b9	-2.1311476
114	0x40476f23	3.1161582
115	0xbe43d610	-0.19124627
116	0xbf1dac2a	-0.61590827
117	0x3eefb408	0.4681704
118	0xbfd01ea4	-1.6259351
119	0x3f8ea5cc	1.1144347
120	0xc04bde50	-3.1854439
121	0xbe5aeb30	-0.2137878
122	0xbee29b49	-0.44259098
123	0xbf713aa4	-0.94230103
124	0x3ee35107	0.44397756
125	0x4018dbf4	2.3884249
126	0x3fcd54d9	1.6041518
127	0x3ef5d68e	0.48015255
128	0xbf61b970	-0.8817358
129	0xbec5d928	-0.3864224
130	0x3fff4c03	1.9945072
131	0x3e02d80c	0.12777728
132	0xbf2dbb6b	-0.678641
133	0x3e08b025	0.13348444
134	0x3f6ce8b8	0.925426
135	0x3dbe96cc	0.09306106
136	0x3e680a31	0.22660138
137	0x3e880a30	0.26570272
138	0x3ff323bf	1.8995284
139	0xbebf5741	-0.37371257
140	0xc0443b90	-3.0661354
141	0xbf9e3cb3	-1.2362274
142	0x3e5a413c	0.21313947
143	0x400225cc	2.033557
144	0xbf9ac5e5	-1.2091643
145	0xbe26c7e3	-0.16287188
146	0xbf5f8930	-0.87318707
147	0x3f9bab67	1.2161683
148	0x3f0c4049	0.5478559
149	0xbf45b7fa	-0.7723385
150	0xbfbf4f4e	-1.4946077
151	0x3f9abe31	1.2089292
152	0x3f7d40a6	0.9892677
153	0x3f399ad9	0.72501904
154	0x3f288633	0.6582977
155	0x3f30d60e	0.6907662
156	0xbfad9ce7	-1.3563508
157	0xbf0329d3	-0.51235694
158	0xbf34e604	-0.70663476
159	0xbf593d62	-0.8485929
160	0x3e7f9dbb	0.24962513
161	0x3e127c51	0.14305235
162	0x3de501dc	0.11181995
163	0xbe66267f	-0.22475623
164	0xbe26fc11	-0.16307093
165	0xbe0320c4	-0.12805468
166	0x3fdc0d74	1.7191606
167	0xbef117a2	-0.47088343
168	0x3f631e34	0.8871796
169	0xbf75b90e	-0.95985496
170	0xbff4cf35	-1.9125735
171	0xbe60ec55	-0.21965154
172	0x3f8e6dab	1.1127218
173	0x3f4b1269	0.79324967
174	0x3da87f9d	0.08227465
175	0x3ecfee60	0.40611553
176	0x3ebc72b6	0.36806267
177	0x3f8e4a93	1.1116508
178	0x3fea7e2b	1.8319753
179	0xbfbb6850	-1.4641209
180	0xbfe613d3	-1.79748
181	0x3fce89e0	1.6135826
182	0x3f69b440	0.91290665
183	0x3faacd24	1.3343854
184	0xbed62e43	-0.4183217
185	0x3fdf2397	1.7432736
186	0x3e9dd1ac	0.3082403
187	0x3fc128ec	1.5090613
188	0xc05411a3	-3.3135765
189	0xbde9c2b2	-0.11414088
190	0xbf292f6a	-0.66087973
191	0xbfdf2ace	-1.7434938
192	0xbe76253a	-0.24037638
193	0x3f30279b	0.68810433
194	0x3fceda74	1.6160417
195	0x3edfca1a	0.4370888
196	0xbf0e482c	-0.55578876
197	0x3fd853a7	1.6900529
198	0x3f916cff	1.1361388
199	0xbf2ca4ec	-0.6743915
200	0x3fc54f09	1.5414745
201	0x3cc98e13	0.02460388
202	0xbfdf34c8	-1.7437983
203	0xbfbc8dfb	-1.4730829
204	0x3fc6afe5	1.5522429
205	0x3fa2c3fd	1.2716061
206	0xbf831358	-1.0240278
207	0x3fd5afbd	1.6694256
208	0xc0293610	-2.6439247
209	0xbe5d5aae	-0.21616623
210	0x3f524598	0.8213744
211	0x3f60194c	0.875386
212	0x3e5219aa	0.20517603
213	0x3e89a171	0.26880983
214	0x3f3eb05a	0.7448784
215	0x3e52390f	0.20529579
216	0xbf2aa1fc	-0.6665342
217	0x3f8078fe	1.0036924
218	0xbf106816	-0.5640882
219	0x40239b11	2.5563395
220	0x3fd69d0b	1.6766676
221	0x3f1cc09a	0.61231387
222	0xbfa681a0	-1.3008308
223	0xbefde0d3	-0.4958559
224	0x3e3ba7d2	0.18325737
225	0x3ffcee34	1.9760194
226	0xbf0265db	-0.5093667
227	0xbf82758b	-1.0192121
228	0xbfb74075	-1.4316546
229	0xbf9f211b	-1.2431978
230	0x3f8327fe	1.024658
231	0xbe971be2	-0.2951346
232	0x3fcb045a	1.5860703
233	0x3f6d923d	0.92801267
234	0xbfb9d4fd	-1.4518124
235	0x3f345648	0.70444155
236	0x3ffcb93f	1.9744033
237	0xbfab2b1c	-1.3372531
238	0x3fa7ee9f	1.3119696
239	0xbfdf3484	-1.7437901
240	0xbf73000f	-0.94921964
241	0xc01337a3	-2.3002708
242	0x3e8529a9	0.26008347
243	0x3ee622d5	0.4494845
244	0x3f0531b8	0.5202899
245	0xc00853c7	-2.1301134
246	0x3f8b1b13	1.0867637
247	0xbea70a8d	-0.32625237
248	0x400e990e	2.2280917
249	0xbfd52865	-1.6652952
250	0xbf80cc83	-1.0062412
251	0xbddb3729	-0.1070388
252	0xbeda2439	-0.4260576
253	0xbf05e2ab	-0.5229899
254	0xbf4c9568	-0.79915476
255	0xbf4b0532	-0.793048

weight_ih_l0 f4 [192, 15]
0	0xbc9a714e	-0.018852856
1	0x3fa63363	1.2984432
2	0xbd80b3d8	-0.062843025
3	0x3dcce5bc	0.10004756
4	0xbf9d8a0e	-1.2307756
5	0x3f35bc9d	0.70990926
6	0x3fd01784	1.6257176
7	0xbf46c534	-0.7764466
8	0x3f9b0f46	1.2114036
9	0xbfe7905d	-1.8090931
10	0x3ea64b1c	0.3247918
11	0xbe8e68bd	-0.27814284
12	0xbec8f193	-0.39246807
13	0x3d3240f0	0.04351896
14	0x3f267368	0.65019846
15	0xbf7a1975	-0.97695094
16	0x3f75c572	0.960044
17	0x3f0c22e8	0.5474076
18	0xbdbbe4d2	-0.091745034
19	0xbf128f74	-0.5725014
20	0xbe33b65e	-0.17550036
21	0x3f43deb7	0.7651171
22	0xbf220305	-0.6328586
23	0x3efe7503	0.49698648
24	0xbfa0dd21	-1.2567483
25	0xbf8616f9	-1.0475761
26	0xbd81b218	-0.06332797
27	0xbf24c8fc	-0.6436918
28	0xbf556ad5	-0.8336614
29	0x3f393bcf	0.72356886
30	0x3f912260	1.1338615
31	0xbf8c17fd	-1.0944821
32	0xbf0d57e4	-0.55212235
33	0x3d8d773a	0.06907506
34	0xbf63bc2e	-0.88959014
35	0x3f4e10a8	0.80494165
36	0x3f6624b1	0.89899737
37	0x3ee7239a	0.4514435
38	0xbf91106f	-1.133314
39	0xbe5a107c	-0.21295351
40	0x3e0507ea	0.129913
41	0x3e3a49a4	0.18192154
42	0x3f94da38	1.1629095
43	0xbf3423f7	-0.7036738
44	0x3e990183	0.29883966
45	0x3e6b468c	0.2297613
46	0x3ec9464b	0.39311442
47	0x3ebeede3	0.37290868
48	0xbea482b2	-0.32130963
49	0x3f0f399b	0.55947274
50	0xbe502a15	-0.20328553
51	0x3d59ae9f	0.053145047
52	0xbf6b40a1	-0.9189549
53	0x3f81448e	1.0099046
54	0xbf53352f	-0.82503027
55	0xbe22a4e0	-0.15883207
56	0x3a213210	0.00061491225
57	0xbf045351	-0.5168963
58	0x3ef135b4	0.47111285
59	0xbf8e4f78	-1.1118002
60	0x3e4565ba	0.19277087
61	0xbf80a134	-1.0049195
62	0x3b86937d	0.0041069374
63	0xbfa41052	-1.281748
64	0xbf32a1ea	-0.6977831
65	0x3b160786	0.0022892668
66	0xbf4daf01	-0.8034516
67	0x3f9ec29a	1.2403138
68	0xbfb8c651	-1.4435521
69	0x3e531a93	0.20615606
70	0x3dea56f4	0.11442366
71	0xbe368e06	-0.17827615
72	0x3e27d43e	0.16389558
73	0xbf409d26	-0.7523979
74	0x3e4210b1	0.1895168
75	0xbf290950	-0.66029835
76	0x3ef19ef4	0.47191584
77	0x3f370861	0.7149716
78	0x3e5e172e	0.2168853
79	0x3f375a2d	0.7162197
80	0x3e966551	0.29374173
81	0x3dde2dc7	0.10848575
82	0xbe994d8a	-0.2994197
83	0xbeb4654f	-0.35233542
84	0x3db594fc	0.08866307
85	0xbe896245	-0.26832786
86	0x3db05f6e	0.08611952
87	0xbea35989	-0.31904247
88	0xbe7bc9b7	-0.24588667
89	0x3f8a11ce	1.0786684
90	0x3d7f715b	0.062363964
91	0xbf80d6f3	-1.0065597
92	0x3e34f245	0.17670543
93	0xbf6f3d4b	-0.934529
94	0x3f551c81	0.8324662
95	0x3e8f4bdb	0.2798756
96	0xbf2a5144	-0.6653025
97	0x3e37098c	0.17874736
98	0xbeeb3d54	-0.45945227
99	0x3e07786d	0.13229533
100	0xbf9a1756	-1.2038372
101	0xbedb892b	-0.42878088
102	0xbec2e2ff	-0.3806381
103	0x3f3a0e51	0.72678095
104	0x3f074ba5	0.528498
105	0x3c6b447e	0.0143595915
106	0xbeb002f5	-0.34377256
107	0xbf863d04	-1.048737
108	0x3f3f359b	0.7469117
109	0x3edc3d40	0.4301548
110	0xbf03c1ca	-0.51467574
111	0x3f0b7b73	0.54485244
112	0xbf482995	-0.7818845
113	0x3f3ed740	0.74547195
114	0x3f69795c	0.91200805
115	0x3f45d119	0.7727218
116	0xbf05b402	-0.52227795
117	0x3e8f5a3b	0.27998528
118	0x3e995aa1	0.29951957
119	0xbeaf03ce	-0.3418259
120	0xbfdf98d9	-1.746852
121	0xbeaaf70d	-0.3339161
122	0x3f575222	0.841097
123	0x3f9e3e9b	1.2362856
124	0xbd76b83f	-0.060234305
125	0x3fd45185	1.6587378
126	0x3d18482d	0.037178207
127	0xbf0cbae7	-0.5497269
128	0xbee4e7d6	-0.44708127
129	0x3f12fd05	0.5741733
130	0x3ee070cf	0.43836066
131	0x3e8220b2	0.2541557
132	0xbfaae6ed	-1.3351723
133	0xbf93ecf0	-1.1556683
134	0x3f40ee94	0.7536404
135	0xbf85d422	-1.0455363
136	0x3f0ee7a5	0.5582221
137	0xbf4d6902	-0.80238354
138	0xbe74dfbd	-0.23913474
139	0xbecf70dc	-0.40515792
140	0x3f207e6b	0.626929
141	0x3f98f8b9	1.1950904
142	0xbf7a5421	-0.9778462
143	0x3fd6073c	1.6720958
144	0xbf5f98ac	-0.87342334
145	0x3ebb167e	0.36540598
146	0x3f1dd2e2	0.61649907
147	0xbf8734cb	-1.0562986
148	0x3eb29a21	0.34883216
149	0x3efad98b	0.48994097
150	0xbe0f99e0	-0.14023542
151	0xbf93196a	-1.1492131
152	0xbf32183b	-0.6956822
153	0xbc78950d	-0.015172255
154	0x3f3bc40b	0.7334601
155	0x3f2f6e02	0.68527234
156	0xbed429b6	-0.41438073
157	0x3ed44603	0.41459665
158	0xbeb7dd71	-0.35911134
159	0x3b991acc	0.004672384
160	0x3e0d0242	0.13770393
161	0xbfa91c43	-1.321175
162	0x3e6c0b10	0.23051095
163	0xbf2dfd98	-0.6796508
164	0xbf346e41	-0.70480734
165	0xbfc61f7e	-1.5478361
166	0x3f99bc40	1.2010574
167	0x3e651023	0.22369437
168	0x3fd83342	1.6890643
169	0xbd1c0a7e	-0.038095944
170	0xbe650830	-0.22366405
171	0x3fa6dd62	1.3036311
172	0xbf8fe8dd	-1.1242939
173	0x3fa08b13	1.2542442
174	0xbfa367d5	-1.2766062
175	0xbe6aeb81	-0.229414
176	0x3fbfa321	1.4971658
177	0xbfcb5753	-1.5886024
178	0x3e8783b7	0.26467678
179	0x3f0c22e7	0.54740757
180	0xbf31a940	-0.6939888
181	0x3dd0cf65	0.10195807
182	0xbd7a4150	-0.061097443
183	0x3f3f2ce3	0.74677867
184	0x3ea156b6	0.31511468
185	0x3e22a211	0.15882136
186	0xbf33b0cc	-0.70191646
187	0xbf47e803	-0.78088397
188	0x3f56d7c5	0.8392299
189	0x3f042f2a	0.51634467
190	0xbf018e91	-0.50608164
191	0xbc4167ad	-0.011804503
192	0xbf66c2f5	-0.9014123
193	0xbf5b956e	-0.85774887
194	0xbdf02d63	-0.11727407
195	0xbdc89e65	-0.09795836
196	0xbec2ed44	-0.38071644
197	0x3e765f2c	0.24059743
198	0x3aed359d	0.0018097643
199	0xbf6bdcae	-0.92133605
200	0xbe66a368	-0.22523272
201	0x3f8233ca	1.0172055
202	0xbdd574de	-0.10422681
203	0xbdb49cc9	-0.08818967
204	0xbf8122f3	-1.0088791
205	0xbf0ae6a6	-0.5425819
206	0xbf1cfdb4	-0.6132462
207	0xbee13f2b	-0.43993506
208	0xbee53c02	-0.44772345
209	0x3fa03c26	1.2518356
210	0xbf8b200c	-1.0869155
211	0x3f161c0c	0.58636546
212	0x3f6d3cd0	0.9267092
213	0xbf62d36c	-0.88603854
214	0x3f810409	1.0079356
215	0xbc05fdea	-0.008178214
216	0xbf672767	-0.902945
217	0x3e434520	0.19069338
218	0x3eb192e8	0.34682393
219	0xbf73bd42	-0.9521066
220	0x3f7212d7	0.9456
221	0x3f8ffa5f	1.1248282
222	0xbf102683	-0.56308764
223	0xbf177782	-0.5916673
224	0x3f2d0c8f	0.6759729
225	0xbf782b15	-0.9694074
226	0xbe8282b4	-0.25490344
227	0x3f5bd46e	0.85871017
228	0xbd15559f	-0.036458608
229	0xbfaa2540	-1.3292618
230	0x3e9d4125	0.30713764
231	0x3f0a86ef	0.5411214
232	0xbf90d786	-1.1315773
233	0xbf796540	-0.9742012
234	0xbf5b020a	-0.85549986
235	0xbf84de99	-1.0380431
236	0x3ddf3ab5	0.10899869
237	0xbf9f3027	-1.243657
238	0xbed04632	-0.40678555
239	0x3f358e84	0.70920587
240	0xbf46f077	-0.7771067
241	0xbfbb4aad	-1.4632164
242	0x3f3d972e	0.74058807
243	0xbf4b5e77	-0.79441017
244	0x3f489532	0.78352654
245	0x3f4792b1	0.7795821
246	0xbf4c26a3	-0.79746455
247	0xbee32ab1	-0.44368508
248	0xbf92a6ce	-1.1457155
249	0x3f487622	0.78305256
250	0xbdb93165	-0.090426244
251	0x3ea1cf30	0.31603384
252	0xbef0f701	-0.4706345
253	0xbf7b1f9c	-0.9809511
254	0x3f3e7e75	0.7441171
255	0xbf42c338	-0.7607913

weight_hh_l0 f4 [192, 64]
0	0xbb901c62	-0.0043979147
1	0x3eb7aa4b	0.3587211
2	0x3f801b0e	1.0008256
3	0x3dc676ff	0.096906655
4	0xbf622631	-0.88339525
5	0xbd3e8c95	-0.04652079
6	0x3ca71d93	0.020399844
7	0x3e3f30e2	0.18670991
8	0x3fc5e981	1.5461885
9	0xbe854b30	-0.26033926
10	0xbf8083a0	-1.0040169
11	0xbff66802	-1.9250491
12	0x3f456f8f	0.7712335
13	0xbf84cbf6	-1.0374744
14	0xbd548b5e	-0.051890723
15	0xbe7e077b	-0.24807541
16	0x3e01981a	0.12655678
17	0x3eb46c85	0.35239044
18	0x3f0521c5	0.52004653
19	0xbbf1329c	-0.0073607694
20	0xbf0dd34c	-0.5540054
21	0x3eec9e4e	0.46214527
22	0x3f07cde1	0.5304852
23	0x3dd23a10	0.10264981
24	0x3f269786	0.65074956
25	0xbeaca34b	-0.33718333
26	0x3e726d77	0.2367457
27	0xbfaadeff	-1.3349303
28	0x3ea9f0a6	0.33191413
29	0xbec640a5	-0.38721195
30	0x3e8775cd	0.26457062
31	0xbf3327bc	-0.69982505
32	0xbea89d6f	-0.32932612
33	0xbeaab23a	-0.333391
34	0x4009bca4	2.1521387
35	0x3f4d1063	0.8010313
36	0xbf0f8cb9	-0.560741
37	0x3ee32300	0.4436264
38	0x3f8473d1	1.0347844
39	0x3e9aa2b4	0.30202258
40	0x3db7d559	0.0897624
41	0x3f00bceb	0.50288266
42	0xbf2516fe	-0.6448821
43	0x3f88dd8c	1.0692611
44	0xbdc3fe23	-0.09569957
45	0x3e69c690	0.22829652
46	0xbf395919	-0.7240158
47	0x3f9f9f98	1.2470579
48	0x3e9d3b5b	0.30709347
49	0xbefe8522	-0.49710947
50	0xbf9833dc	-1.1890826
51	0xbec387cf	-0.3818955
52	0x3f21cf5f	0.6320705
53	0x3f9d7ef7	1.2304372
54	0x3f50ef9e	0.81615627
55	0xbf933787	-1.1501321
56	0xbec9c0d3	-0.39404926
57	0xbf9095c2	-1.1295702
58	0xbec360ef	-0.38159892
59	0xbf0fe8c2	-0.56214535
60	0x3e32a654	0.17446262
61	0x3dae5172	0.08511628
62	0x3f6692c6	0.9006771
63	0x3f1e261d	0.61776906
64	0xbdb9770c	-0.090559095
65	0xbe024cf9	-0.12724675
66	0x3eb4a8a8	0.35284925
67	0x3e2a4ad1	0.16630103
68	0x3ef55b64	0.47921288
69	0x3dccac96	0.09993856
70	0x3eb01bd0	0.3439622
71	0x3f69f5eb	0.91390866
72	0xbd835155	-0.06411997
73	0xbf5fbc3c	-0.873966
74	0x3fe3c07e	1.7793119
75	0xbdba760f	-0.09104549
76	0x3edd8d1c	0.4327172
77	0xbe0d74eb	-0.13814132
78	0x3ed1d148	0.4097998
79	0x3fb46c58	1.4095564
80	0x3ddb91ff	0.10721206
81	0xbfbec1ad	-1.4902855
82	0x3f1c4701	0.61045843
83	0xbdf06931	-0.11738814
84	0x3f25acfb	0.6471707
85	0x3fa125d0	1.2589664
86	0xbeaba469	-0.33523872
87	0xbfaae31c	-1.3350558
88	0xbfc782fa	-1.5586846
89	0xbed3fda5	-0.41404453
90	0x3fc2e848	1.5227137
91	0x3f9059df	1.1277426
92	0xbf3096e3	-0.68980235
93	0xbf72d290	-0.9485254
94	0xbf0d2690	-0.55136967
95	0x3f3f8511	0.7481242
96	0x3fbf56d8	1.4948378
97	0x3f81e99a	1.0149415
98	0x3dde68af	0.108598106
99	0x3ed6cb7c	0.4195212
100	0x3fbb2edc	1.4623675
101	0x3e89a7b5	0.26885763
102	0x3cd1d99a	0.025616456
103	0x3e57c67b	0.21071808
104	0x3f6843dd	0.9072855
105	0xbf2abb66	-0.666922
106	0xbd14a290	-0.036287844
107	0xbebd507d	-0.3697547
108	0xbf9ca014	-1.2236352
109	0xbe260a7c	-0.16214937
110	0x3f4ae556	0.7925619
111	0x3c04f9e1	0.008116216
112	0xbf9727ef	-1.1809062
113	0x3e1a1a72	0.1504915
114	0x3f19c478	0.6006541
115	0x3f3f80d8	0.74805975
116	0x3fb0599b	1.3777345
117	0xbf22aa1f	-0.63540834
118	0xbd3cae74	-0.04606481
119	0xbf711404	-0.94171166
120	0x3eec37ab	0.4613622
121	0x3c160517	0.009156487
122	0xbe294965	-0.16531904
123	0x3f0f2569	0.5591646
124	0x3de0d015	0.109771885
125	0xbf78bae0	-0.9716015
126	0xbfda6fe6	-1.7065399
127	0x3f733434	0.9500153
128	0x3d4cb100	0.049973488
129	0xbf2ba118	-0.67042685
130	0x3f03805a	0.51367724
131	0x3ee3c1d8	0.4448383
132	0xbf1b0515	-0.6055463
133	0x3f881738	1.0632086
134	0xbd910407	-0.07080846
135	0xbf0b44b5	-0.54401714
136	0x3e8e51c1	0.27796748
137	0x3ebd2441	0.36941722
138	0xbe6316cd	-0.22176667
139	0xbf38d70d	-0.7220314
140	0x3f777c44	0.9667399
141	0x3e30a78b	0.17251413
142	0xbec170d8	-0.37781405
143	0x3d833761	0.06407047
144	0x3e922419	0.28543165
145	0x3f040cc2	0.51581967
146	0x3ecab35a	0.3958996
147	0xbe7521d1	-0.23938681
148	0x3fbc658d	1.4718491
149	0x3fa601d7	1.2969311
150	0xbe84dfd4	-0.25952017
151	0xbe240a26	-0.16019496
152	0x3ed54f82	0.41662222
153	0x3dc34c1f	0.09536003
154	0x3f30a9b5	0.6900895
155	0xbe9c09f6	-0.3047635
156	0x3f57ce3a	0.8429905
157	0x3e9d2475	0.30691877
158	0xbec5607b	-0.3855017
159	0x3f6e3d01	0.93061835
160	0x3faa465f	1.3302726
161	0x3e933f8e	0.28759426
162	0xbeeb9438	-0.4601152
163	0x3eb42648	0.35185456
164	0x3ef391ef	0.47572276
165	0xbeb30a08	-0.3496859
166	0xbdba5a62	-0.090992704
167	0x3e55dc05	0.20884712
168	0xbf5f2c74	-0.87177205
169	0xbfa587e0	-1.2932091
170	0xbf7cd6ac	-0.98765063
171	0x3e97c63b	0.29643425
172	0xbb56e736	-0.003279162
173	0x3d5a7e83	0.053343307
174	0xbe9dfd90	-0.30857515
175	0xbe846d6f	-0.2586474
176	0xbe96fc76	-0.29489487
177	0xbf39dedb	-0.72605675
178	0x3fa428e2	1.2824976
179	0x3e67e797	0.22646938
180	0x3e1430a0	0.14471674
181	0xbf1f1eec	-0.6215656
182	0x3e4f6ffe	0.20257565
183	0xbef4a7db	-0.47784314
184	0xbef4fa03	-0.47846994
185	0xbfa4cbbb	-1.2874674
186	0xbf851764	-1.0397763
187	0x3f92f537	1.1481084
188	0x3e68662e	0.22695228
189	0x3e40c8fb	0.18826668
190	0xbe4ac986	-0.19803438
191	0xbf556ede	-0.83372295
192	0x3ebdf6b0	0.3710227
193	0x3f1223ad	0.57085687
194	0xbfa71b24	-1.3055158
195	0xbf68477d	-0.9073408
196	0x3f0b076e	0.5430821
197	0xbea75423	-0.3268138
198	0xbe06b067	-0.1315323
199	0x3faf66a1	1.3703195
200	0x3f5a0c6e	0.85175216
201	0xbf51352f	-0.81721777
202	0x3f022da9	0.5085092
203	0xbc506adc	-0.01272079
204	0x3fcbb990	1.5916004
205	0xbed18d80	-0.40928268
206	0xbfefc74e	-1.8732698
207	0xbf408543	-0.7520334
208	0x3d069c91	0.032864157
209	0x3dd31c4f	0.10308134
210	0x3ec8a4d0	0.39188242
211	0xbfb1aeb6	-1.3881443
212	0xbd2fcafa	-0.042918183
213	0x3f0c460e	0.54794395
214	0xbf0ee08e	-0.55811393
215	0x3e4a6628	0.19765532
216	0xbf68a67f	-0.9087905
217	0xbeb27497	-0.34854576
218	0x3e63cf5b	0.22247069
219	0x3e123f8a	0.1428205
220	0x3e902469	0.2815278
221	0xbf5d1379	-0.8635784
222	0x3f30b147	0.69020504
223	0x3fb7c2e1	1.4356347
224	0x3f2322ca	0.6372496
225	0x3f32e195	0.6987546
226	0x3d942c23	0.07234981
227	0x3eaedb50	0.34151697
228	0x3ecdb2a5	0.40175357
229	0x3f7d6398	0.98980093
230	0x3f7b8e0b	0.98263615
231	0xbe1f9700	-0.15584946
232	0x3f914e94	1.1352105
233	0x3ef9bd93	0.48777446
234	0xbd366bc0	-0.044536352
235	0xbf10e839	-0.56604344
236	0xbf1d1650	-0.6136217
237	0xbecf45ba	-0.40482885
238	0xbea83e56	-0.3286006
239	0x3f5e0faa	0.8674265
240	0x3e4aa43c	0.19789213
241	0x3f79f887	0.9764485
242	0xbed7b9c4	-0.42133915
243	0xbe8d5f18	-0.27611613
244	0x3f757732	0.95885
245	0x3eae9580	0.34098434
246	0xbe850d69	-0.25986794
247	0xbf9d6943	-1.2297748
248	0xbee801a4	-0.45313752
249	0xbeddbe06	-0.4330904
250	0xbef6d15b	-0.482066
251	0xbebf7d0e	-0.37400097
252	0x3fd09101	1.6294252
253	0x3d240b6a	0.040049948
254	0xbf55c5db	-0.8350503
255	0x3e5bfa23	0.21482138

bias_ih_l0 f4 [192]
0	0xbfc8c5c4	-1.5685353
1	0x3e600e89	0.21880545
2	0x3e144dd6	0.14482817
3	0xbf97e21b	-1.1865877
4	0xbed8c9d0	-0.4234147
5	0xbf397040	-0.72436905
6	0xbf949f0f	-1.1611041
7	0x3efcc9cf	0.49372718
8	0x3e9c4359	0.30520132
9	0xbf421309	-0.75810295
10	0x3f4eb420	0.807436
11	0xbf890c9a	-1.0706971
12	0xbf1c0082	-0.60938275
13	0xbe7691c8	-0.24079049
14	0x3f86c2b7	1.0528172
15	0xbf4a446f	-0.7901067
16	0x3ec2dacf	0.38057563
17	0xbe5b2ff3	-0.2140501
18	0x3f35a761	0.70958525
19	0x3eaac4a4	0.3335315
20	0x3f8c774b	1.0973905
21	0x3e3e3d81	0.1857815
22	0xbfc727da	-1.5559037
23	0xbf623e41	-0.8837624
24	0xbf50e85a	-0.8160454
25	0xbf874e03	-1.0570682
26	0x3f03f67e	0.5154799
27	0x3fb63ed3	1.4237922
28	0x3ef8d700	0.48601532
29	0x3db487b6	0.08814947
30	0x3f1aab9b	0.604181
31	0x3f1f3b08	0.6219945
32	0xbf9aa83c	-1.2082591
33	0x3efa838d	0.4892849
34	0xbeefabb0	-0.46810675
35	0x3d06adf9	0.032880757
36	0xbf39f3a1	-0.72637373
37	0xbf0d15f6	-0.55111635
38	0x3f17a3f7	0.59234565
39	0xbeef8917	-0.4678428
40	0x3f19736f	0.5994176
41	0xbec980f5	-0.393562
42	0xbee8b9f1	-0.45454362
43	0xbf3c08ab	-0.73450726
44	0xbfab5bb9	-1.3387367
45	0x3f2b7f36	0.66990983
46	0xbe98d8dc	-0.2985295
47	0xbe7d96fa	-0.24764624
48	0x3e3fc087	0.18725787
49	0x3c9070c0	0.017631888
50	0xbd9907db	-0.074722014
51	0xbf241b0d	-0.64103776
52	0x3f195afc	0.59904456
53	0x3e704850	0.23465085
54	0xbe55b762	-0.20870736
55	0x3f78a707	0.97129864
56	0x3e5675d4	0.20943385
57	0xbe299ff9	-0.16564931
58	0xbf56f8e5	-0.8397353
59	0x3f7e11ae	0.9924573
60	0x3f3d4f42	0.7394906
61	0xbec8d2c0	-0.3922329
62	0x3e3c5458	0.1839155
63	0xbca530e1	-0.020164909
64	0x3f9c4d15	1.2211024
65	0x3dfdee3a	0.12398954
66	0x3f31dd60	0.69478416
67	0xbe66224a	-0.22474018
68	0x3f8b92d5	1.0904185
69	0x3fac28d2	1.3449957
70	0xbfc28b0e	-1.5198686
71	0x3fb96349	1.4483424
72	0xbf6e9976	-0.9320291
73	0xbf383c88	-0.71967363
74	0xbe686927	-0.22696362
75	0xbfbb1b5f	-1.4617728
76	0x3f459095	0.7717374
77	0xbe673da9	-0.22582115
78	0x3ed00e66	0.40635985
79	0x3fde453e	1.7364881
80	0xbf03bb53	-0.5145771
81	0x3f3f6291	0.74759775
82	0x3e5cd209	0.21564497
83	0xbe676516	-0.22597155
84	0x3f5e893b	0.8692815
85	0x3fd4217c	1.6572719
86	0x3ef4fc8d	0.4784893
87	0x3dfd3d82	0.12365247
88	0xbf72fd09	-0.9491735
89	0xbcfb821c	-0.03070169
90	0xbf122cb9	-0.5709949
91	0x3d878490	0.06617081
92	0x3e8d1314	0.27553618
93	0xbf06cf79	-0.5266033
94	0x3f83329f	1.0249823
95	0xbed2a0cc	-0.41138303
96	0x3efc8b56	0.49325055
97	0x3f720d9e	0.9455203
98	0xbecec031	-0.40381005
99	0xbf542934	-0.8287537
100	0x3ef997e6	0.48748702
101	0x3f5e5f00	0.8686371
102	0x3f68417b	0.90724915
103	0xbf341157	-0.7033896
104	0x3f1998bd	0.59998685
105	0xbf689673	-0.9085457
106	0xbf07cdc4	-0.5304835
107	0xbf71a810	-0.9439707
108	0x3db3e08e	0.08783065
109	0x3e9d205a	0.30688745
110	0xbfd81c19	-1.6883575
111	0xbec26eb8	-0.37975097
112	0xbf37e212	-0.7182933
113	0xbfe9cf61	-1.8266412
114	0x3e8886b7	0.2666528
115	0x3d7b5f32	0.061370082
116	0x4014e06d	2.3261979
117	0xbee30ba5	-0.44344822
118	0xbeb3a0ee	-0.35083717
119	0xbf99b9dc	-1.2009845
120	0x3f83a3b8	1.0284338
121	0x3f2ee612	0.6831981
122	0xbf73fd6e	-0.9530858
123	0x3f32c34e	0.6982926
124	0xbf04862c	-0.5176723
125	0x3f4e7d6f	0.80660146
126	0x3f0504ed	0.5196064
127	0xbf3d87f0	-0.7403555
128	0x3dcae3ed	0.09906755
129	0x3f4ef9a5	0.8084968
130	0x3ef8e115	0.48609224
131	0xbe789597	-0.24275814
132	0x3edcfa85	0.4315988
133	0xbec3b6da	-0.38225442
134	0xbe841599	-0.25797728
135	0x3f652475	0.89508754
136	0xbf54fd04	-0.8319857
137	0x3ef26640	0.47343636
138	0x3f747bf7	0.95501655
139	0x3e4c2c76	0.19938836
140	0xbe3b1925	-0.1827131
141	0x3f63d595	0.88997775
142	0x3e7fb235	0.24970324
143	0x3faefb59	1.3670455
144	0xbecf1c2f	-0.4045119
145	0xbe29e070	-0.16589522
146	0x3f389f36	0.72117937
147	0x3f2c5c18	0.67328024
148	0xbef010ba	-0.4688776
149	0x3e86f14d	0.26355973
150	0x3f2edb09	0.6830297
151	0x3ecba45d	0.39773837
152	0xbdc20707	-0.094739966
153	0x3f5f3943	0.8719675
154	0x3ea94f31	0.3306823
155	0x3dc7d480	0.09757328
156	0x3f01468f	0.5049829
157	0xbf23b7b0	-0.6395216
158	0xbe6c74b3	-0.23091392
159	0xbe050566	-0.1299034
160	0x3e703526	0.23457775
161	0x3f10e3da	0.56597674
162	0xbf924fe9	-1.1430637
163	0x3f5b928e	0.857705
164	0x3f003fd4	0.50097394
165	0x3e8683ce	0.26272434
166	0xbf5b952a	-0.8577448
167	0xbf21b074	-0.6315987
168	0x3f48fac9	0.7850767
169	0xbef5569d	-0.47917643
170	0xbf104f05	-0.56370574
171	0xbf5ffe4b	-0.87497395
172	0x3e96a7b2	0.29424816
173	0xbec009c5	-0.37507454
174	0x3fa03183	1.251511
175	0x3f3aab11	0.72917277
176	0xbf6b0acd	-0.91813356
177	0x3ef955bd	0.48698226
178	0x3f785a57	0.9701285
179	0xbc9db1b8	-0.019249782
180	0x3f00e5ff	0.50350946
181	0xbfb9d94d	-1.451944
182	0xbe29fdc9	-0.16600718
183	0xbd851508	-0.06498152
184	0x3ca1513d	0.019692058
185	0x3e3891dd	0.18024392
186	0x3f7ed7de	0.9954814
187	0xbe17dde3	-0.14830737
188	0xbfd56fe2	-1.6674769
189	0x3e08f946	0.1337634
190	0xbf633836	-0.88757646
191	0x3e31a1e5	0.17346914

bias_hh_l0 f4 [192]
0	0xbfc24eea	-1.5180333
1	0x3e14ffde	0.1455073
2	0xbb0e97c1	-0.0021757933
3	0xbf8ce148	-1.100625
4	0xbea96a43	-0.33088884
5	0xbf3e2a57	-0.74283355
6	0xbf9e147d	-1.2350003
7	0x3ef6c41d	0.48196498
8	0x3eaac3c6	0.33352488
9	0xbf5e9824	-0.869509
10	0x3f40ee86	0.7536396
11	0xbf83e5a8	-1.030446
12	0xbf33c407	-0.7022099
13	0xbeaa71ce	-0.3328995
14	0x3f8e4c8b	1.1117109
15	0xbf470236	-0.7773775
16	0x3eabd14c	0.33558118
17	0xbdd7c0b8	-0.10534805
18	0x3f314dd3	0.69259375
19	0x3e87d259	0.2652767
20	0x3f85b73e	1.0446546
21	0x3e6064d7	0.21913467
22	0xbfc59533	-1.5436157
23	0xbf439252	-0.7639514
24	0xbf70aae4	-0.9401076
25	0xbf857c97	-1.0428647
26	0x3f045464	0.5169127
27	0x3f9a49dd	1.2053791
28	0x3edb05e1	0.42777923
29	0x3d5c292a	0.053750195
30	0x3f12a161	0.57277495
31	0x3f3e12e8	0.742476
32	0xbf92eb26	-1.1478012
33	0x3ee0b479	0.4388769
34	0xbec78675	-0.3896977
35	0xbe0f888f	-0.14016937
36	0xbf4f892f	-0.810687
37	0xbf2bc448	-0.67096376
38	0x3f24dfeb	0.6440417
39	0xbf24c8da	-0.64368975
40	0x3f219273	0.6311409
41	0xbef833a9	-0.48476914
42	0xbee47330	-0.4461913
43	0xbf3167a3	-0.6929876
44	0xbfbd7e9d	-1.4804264
45	0x3f250559	0.64461285
46	0xbeaec01d	-0.34130946
47	0xbe6c5b18	-0.23081625
48	0x3e6f8447	0.23390304
49	0xbbb3dfd1	-0.0054893275
50	0x3da7809c	0.08178827
51	0xbf4e70b2	-0.8064071
52	0x3f1b6ddb	0.607145
53	0x3ee72209	0.45143154
54	0xbe2c50a6	-0.1682764
55	0x3f669ef4	0.90086293
56	0x3e391fe4	0.18078572
57	0xbd9d740b	-0.07688149
58	0xbf3baac5	-0.7330745
59	0x3f825915	1.0183436
60	0x3f3c296f	0.7350072
61	0xbea103be	-0.31448168
62	0x3e841009	0.25793484
63	0xbe398097	-0.1811546
64	0x3faba8a7	1.3410844
65	0x3e3a6711	0.18203379
66	0x3f33eb30	0.7028074
67	0xbe0ed96a	-0.13950124
68	0x3f8408de	1.0315206
69	0x3fa8ea3b	1.3196481
70	0xbfbf0a30	-1.4924984
71	0x3fc3d04c	1.5297942
72	0xbf58b9a5	-0.8465827
73	0xbf0813d2	-0.53155243
74	0xbec5b321	-0.38613227
75	0xbfb4d707	-1.4128121
76	0x3f5df535	0.8670228
77	0xbe831cd1	-0.25607923
78	0x3f0b7b01	0.54484564
79	0x3fd35376	1.6509845
80	0xbf214f49	-0.63011605
81	0x3f298c12	0.66229355
82	0x3e96aeb2	0.29430157
83	0xbe57f7dd	-0.21090646
84	0x3f86e0c4	1.0537343
85	0x3fd2d8e4	1.647244
86	0x3eb5699e	0.35432142
87	0x3e0f1732	0.13973692
88	0xbf59119f	-0.8479251
89	0x3d93051b	0.07178708
90	0xbf152fa4	-0.5827582
91	0x3e1dd27a	0.15412322
92	0x3e3b6ced	0.1830327
93	0xbf32df0e	-0.69871604
94	0x3f863c7d	1.048721
95	0xbebfd7aa	-0.37469226
96	0x3ee59b5c	0.44845092
97	0x3f72cd66	0.94844663
98	0xbed3175c	-0.4122876
99	0xbf5790b5	-0.8420518
100	0x3ed2eafb	0.411949
101	0x3f562f0d	0.83665544
102	0x3f5e641a	0.8687149
103	0xbf3b1594	-0.730798
104	0x3f000905	0.5001376
105	0xbf3b7c0a	-0.73236144
106	0xbf0fd770	-0.56188107
107	0xbf5c38f7	-0.8602442
108	0x3d1c867c	0.03821419
109	0x3ed89975	0.42304578
110	0xbfcd5a32	-1.604315
111	0xbf0fd3ad	-0.56182367
112	0xbf15bcbd	-0.58491117
113	0xbfe905ce	-1.8204896
114	0x3e499d7b	0.1968898
115	0xbb466262	-0.0030271043
116	0x40170f27	2.3602998
117	0xbec5f4ec	-0.38663423
118	0xbe2da56b	-0.16957633
119	0xbf9965e0	-1.1984215
120	0x3f86240d	1.0479752
121	0x3f3b2903	0.73109454
122	0xbf851faa	-1.0400288
123	0x3efbce27	0.4918072
124	0xbf0e1d45	-0.5551341
125	0x3f4d4707	0.80186504
126	0x3f03893c	0.5138128
127	0xbf3d9f04	-0.74070764
128	0x3e708ff6	0.23492417
129	0x3e5bf66a	0.21480718
130	0x3f176a2d	0.59146386
131	0x3d551883	0.05202533
132	0xbec1f844	-0.37884724
133	0x3e4d4dce	0.20049211
134	0xbf9a69e2	-1.2063563
135	0x3f99fbf3	1.2030014
136	0xbfc1a4d5	-1.5128428
137	0xbe20a4e4	-0.15687901
138	0xbc8da20d	-0.017289186
139	0xbbf10c1d	-0.0073561803
140	0xbe457eba	-0.19286624
141	0x3ea87df4	0.32908595
142	0xbe9eb70a	-0.30999023
143	0x3eef266b	0.46708998
144	0xbf0fc3f0	-0.5615835
145	0xbdac8870	-0.08424461
146	0x3c2a6986	0.010401135
147	0x3ece8ef7	0.4034345
148	0x3f638d04	0.8888705
149	0xbf3174f5	-0.6931909
150	0xbe10444b	-0.14088552
151	0x3f413ed1	0.75486475
152	0xbe210961	-0.15726234
153	0x3e9d79b3	0.30756912
154	0x3f59a408	0.85015917
155	0xbe8a9770	-0.27068663
156	0x3f0bad33	0.54561156
157	0xbfaf6d66	-1.3705261
158	0xbccc7e7a	-0.024962652
159	0xbf9ff14d	-1.2495514
160	0xbebf1545	-0.37320915
161	0x3f09f006	0.5388187
162	0xbfa21997	-1.2664059
163	0x3e923705	0.28557602
164	0x3efc0a0f	0.49226424
165	0x3f3e2482	0.74274457
166	0xbfd0c9e6	-1.6311615
167	0xbf1eb918	-0.6200118
168	0x3f07de4d	0.5307358
169	0x3f811ec6	1.0087516
170	0x3f242bd1	0.6412936
171	0xbf42566a	-0.7591311
172	0x3ef45d4b	0.47727427
173	0x3f8da392	1.1065543
174	0x3f852595	1.0402094
175	0xbf94c537	-1.1622685
176	0xbf6e163b	-0.9300267
177	0xbe9c77a4	-0.3056003
178	0x3ef66866	0.48126525
179	0x3eec1969	0.46113136
180	0x3e4c0596	0.19924006
181	0xbeee0810	-0.46490526
182	0x3dbd4d38	0.09243244
183	0x3eca0790	0.39458895
184	0x3ebb3f36	0.36571664
185	0x3eead7ec	0.4586786
186	0x3efb07a6	0.49029273
187	0x3f3d9f6d	0.7407139
188	0xbfbfdb0a	-1.498872
189	0xbf34d22f	-0.70633215
190	0xbe0e3e73	-0.1389101
191	0x3ee5a985	0.44855896

weight f4 [9, 64]
0	0x3f6d0054	0.92578626
1	0xbf7fded2	-0.9994937
2	0x3e924b50	0.28573084
3	0x403dfa5b	2.9684055
4	0x3f3c1578	0.7347026
5	0x3c0a27c7	0.008432335
6	0x3f83bec3	1.0292591
7	0xbe662b7f	-0.2247753
8	0x3e9f6cf2	0.31137806
9	0x3f5786ac	0.8418987
10	0x3f1ad4af	0.6048078
11	0xbf0dac53	-0.5534107
12	0xbf85290f	-1.0403155
13	0x3e578ada	0.21049061
14	0x3f964576	1.1739948
15	0x3e5e973c	0.21737379
16	0x3f88e211	1.069399
17	0x3f824ba3	1.0179332
18	0x3f1dcb83	0.6163866
19	0xc009bac6	-2.1520247
20	0x3f3e9d1b	0.74458474
21	0x3e338ab2	0.17533377
22	0xbf451ee5	-0.77000266
23	0xbf998742	-1.1994402
24	0x3f5adf55	0.8549703
25	0x3f4752ad	0.7786053
26	0x3f933011	1.1499044
27	0x3fb09192	1.3794425
28	0x3eefa637	0.468065
29	0xbf222433	-0.63336486
30	0x3f0397dc	0.51403594
31	0x3e368977	0.17825876
32	0xbf5b4cc5	-0.85664016
33	0x3fc63602	1.5485232
34	0xbfb50783	-1.4142917
35	0x3a4f90ce	0.0007918001
36	0xbe86f9be	-0.26362413
37	0x3eb67884	0.3563882
38	0xbf80ae0a	-1.0053113
39	0x3e859610	0.2609105
40	0x3ead88fe	0.3389358
41	0xbeaf8fc6	-0.34289378
42	0xbfd30f97	-1.6489133
43	0x3ee3960f	0.44450423
44	0xbf00f239	-0.503696
45	0xbed913a4	-0.42397797
46	0xbfab24e7	-1.3370637
47	0x3e489b0b	0.19590394
48	0xbfbae5eb	-1.4601415
49	0xbf107481	-0.5642777
50	0x400cdb53	2.2008865
51	0x3fafa100	1.3721008
52	0x3f05fe7f	0.52341455
53	0x3e1b53f6	0.15168747
54	0x3f998409	1.1993419
55	0x3f36683a	0.7125279
56	0xbf09e1d1	-0.53860193
57	0x3fdec35f	1.7403373
58	0x3f9ab476	1.2086322
59	0x3f5af4db	0.8552987
60	0xbf3d779c	-0.74010634
61	0x3f95e4b2	1.1710417
62	0xbff7843c	-1.933723
63	0xbfe32793	-1.7746452
64	0x3f375ab0	0.71622753
65	0xbf28b7e8	-0.6590562
66	0x3df371d6	0.11886947
67	0x3f5f1a31	0.8714934
68	0x3f08857d	0.53328687
69	0x3e6cf570	0.23140502
70	0xbecc86b1	-0.3994651
71	0x3e6039e6	0.21897087
72	0x3f8f92bc	1.1216655
73	0x401f2092	2.486363
74	0x3eb419ce	0.35175937
75	0x3e79b3ec	0.24385041
76	0xbfcbe596	-1.5929439
77	0x3f3e2979	0.7428203
78	0xbeef6e54	-0.4676386
79	0x3f7e5345	0.9934581
80	0x3f3da9a9	0.74087006
81	0x3f06d0fe	0.52662647
82	0x3fbd4bf1	1.47888
83	0xbe0069fc	-0.1254043
84	0x3f8a5e22	1.0809977
85	0x3f91f3c7	1.140252
86	0xbe32eb54	-0.17472583
87	0xbea37dae	-0.31931823
88	0xbe98d85b	-0.29852566
89	0x3f81b970	1.0134716
90	0x3f3532ec	0.70780826
91	0x3f98582a	1.1901906
92	0x3f47e60b	0.7808539
93	0xbfb7ecb9	-1.4369117
94	0x3f08d5b9	0.53451115
95	0xbfdfe47d	-1.7491604
96	0xbf98cd58	-1.1937666
97	0x3ec0b4a6	0.37637824
98	0x4003afb6	2.0575995
99	0x401c6471	2.4436305
100	0xbf2130a2	-0.6296483
101	0x3f0fde67	0.56198734
102	0xbebb30e8	-0.3656075
103	0xbf7afd8e	-0.98043144
104	0x3fa89627	1.3170823
105	0xbe242ccc	-0.16032714
106	0xbfdcd9ca	-1.7253964
107	0xbec1c4d4	-0.3784548
108	0xc019d08a	-2.4033532
109	0x3f0605e7	0.52352756
110	0xbd88a2cb	-0.06671675
111	0xbfe1c99f	-1.7639655
112	0xbebdaa3c	-0.3704394
113	0xbee58757	-0.4482982
114	0x3f507db1	0.8144179
115	0x3fdc72a2	1.7222483
116	0xbf252a92	-0.6451808
117	0x3d0aedcf	0.0339182
118	0x3f99a88f	1.2004565
119	0x3fcc232f	1.5948237
120	0xbfe468cf	-1.7844485
121	0xbe99c0b1	-0.30029824
122	0x3ff41139	1.9067756
123	0x3fb1c224	1.3887372
124	0xbf9671ae	-1.1753442
125	0x3f725d58	0.9467368
126	0xbf97453e	-1.1818006
127	0xbfd0cfba	-1.6313393
128	0x3ed14abd	0.40877333
129	0xbf5f4ab3	-0.87223357
130	0x40060387	2.0939653
131	0xc00a14d3	-2.157521
132	0x3f811145	1.0083395
133	0xc01664a8	-2.3498936
134	0x3f5511db	0.8323037
135	0xbf784505	-0.96980315
136	0x3fb91944	1.4460835
137	0x3f606f36	0.87669694
138	0x400fc597	2.246435
139	0x3ec31251	0.38099912
140	0xbf2c4ef0	-0.6730795
141	0x4009a8de	2.1509318
142	0xbedad6e2	-0.42742068
143	0x400e981c	2.228034
144	0x3f2c583d	0.6732214
145	0x4007c43c	2.1213522
146	0xbe3584b0	-0.17726398
147	0xbf98f4fb	-1.1949762
148	0x3fca8cfa	1.5824273
149	0xbf1dda7c	-0.61661506
150	0x4005a7c4	2.0883646
151	0xbfc369b2	-1.5266631
152	0x3ea7ccbb	0.32773384
153	0x400cf700	2.2025757
154	0x3fe6c78d	1.8029648
155	0x3ead1dde	0.3381185
156	0x3fa10e0a	1.2582409
157	0xbfe27428	-1.7691698
158	0x3f886bac	1.0657859
159	0xbf1770fc	-0.59156775
160	0x3f407501	0.75178534
161	0x3f340a20	0.7032795
162	0x3f4f6139	0.81007725
163	0x3fefc5a2	1.8732188
164	0x3fda4716	1.7052944
165	0x3fd26033	1.6435608
166	0xbf8129fd	-1.0090939
167	0xbfc51e15	-1.5399805
168	0x3e813f13	0.25243434
169	0xbedd8c74	-0.4327122
170	0xbf65d234	-0.8977387
171	0x3f80c88a	1.00612
172	0xbfd4c05e	-1.6621206
173	0x4021c6ba	2.5277543
174	0xbef74dac	-0.48301446
175	0x3e0b34a2	0.13594297
176	0xbf8339c9	-1.025201
177	0xbf296d3e	-0.66182315
178	0x3f8b687e	1.0891263
179	0x3fc70567	1.5548524
180	0x3f1543db	0.58306664
181	0xbf356188	-0.70851946
182	0x3f63a83d	0.88928586
183	0xc01ac934	-2.4185305
184	0xbef9ff27	-0.48827478
185	0xc0631398	-3.548071
186	0x3f65e2db	0.8979928
187	0x3fa33108	1.2749338
188	0xc002aabc	-2.0416708
189	0xbd102338	-0.035189837
190	0xc019244d	-2.3928406
191	0x3ec2e92b	0.38068518
192	0x3f6bd76a	0.9212557
193	0xbfd097ef	-1.6296366
194	0xbf94595c	-1.158977
195	0xbf8b16fa	-1.0866387
196	0xc00ffceb	-2.249812
197	0x3f5d8e47	0.86545223
198	0xbe1159ad	-0.14194365
199	0x3f73c0e3	0.95216197
200	0xbea122c0	-0.31471825
201	0xbe45c2e1	-0.19312622
202	0x3fe4e07d	1.7881008
203	0x3fbb1cbe	1.4618146
204	0x3e814cb5	0.25253835
205	0x3fbe2605	1.4855353
206	0xbfda351b	-1.7047457
207	0x3f804a33	1.0022644
208	0x3e1525e1	0.14565231
209	0x3fcf449b	1.6192812
210	0xbe111584	-0.14168364
211	0xbf2bbc02	-0.6708375
212	0xbed774e2	-0.42081362
213	0x3f0350aa	0.5129496
214	0x3fb2a3be	1.395622
215	0x3f07b95a	0.530172
216	0x3fa8a45e	1.3175161
217	0x3f93653e	1.1515272
218	0x3f29e2db	0.6636178
219	0x3db413be	0.08792828
220	0x3f374772	0.7159339
221	0xbf91cc0f	-1.1390399
222	0x3f0aa017	0.5415053
223	0x3fdecf6d	1.7407051
224	0xbf8a5bfb	-1.080932
225	0x3e9d202f	0.30688617
226	0x3f165626	0.587252
227	0xbe4ecd85	-0.20195587
228	0x3f8c3ed4	1.0956674
229	0x3ca21d7a	0.019789446
230	0xbfbc7a0d	-1.4724747
231	0xbf6cfdbd	-0.92574674
232	0x3f2b2c67	0.6686463
233	0xbe49dbde	-0.19712779
234	0xbf4dad85	-0.80342895
235	0x3e1c7c13	0.15281706
236	0xbc2d7736	-0.010587504
237	0x3fc31daa	1.5243428
238	0xbf930958	-1.1487226
239	0x3fff0c0b	1.992555
240	0xbfc44259	-1.5332748
241	0x3eb33a3d	0.3500537
242	0x3f02f3f8	0.51153517
243	0x3eab727d	0.33485785
244	0xbeea47d5	-0.45757928
245	0xbf70f2c5	-0.94120437
246	0xbf7b226f	-0.98099416
247	0xbf94419c	-1.1582522
248	0xbf0f9175	-0.56081325
249	0x3f17cea4	0.59299684
250	0xbf0af18d	-0.5427483
251	0x3f0bb92c	0.54579425
252	0x3ef67350	0.4813485
253	0x3f54acaf	0.83075994
254	0xbe18ff34	-0.14941102
255	0x3f66876b	0.9005038

bias f4 [9]
0	0x3ef3020f	0.47462508
1	0x3f7cdc8b	0.9877402
2	0x3fbb09c1	1.4612352
3	0x3f99836c	1.1993232
4	0x3fcb3f9f	1.5878791
5	0x3f80f83c	1.0075755
6	0x3fe29efc	1.7704768
7	0x3f6945c2	0.91122067
8	0x3eed64e4	0.46366036
