char_emb/code/output/model_neonate_lstm_128_2.pt (torch_old, 354965 bytes, 7 tensors)

weight f4 [38, 30]
00000000: 769e 1dbf 92b4 47bf 4d86 5bbf 7f42 62bf
00000010: 101c 3a3f 980c 01bf ce63 85bf 77c1 35be
00000020: 9e01 4b3f cff3 d73f 2fea 793d b036 97be
00000030: 5a94 a5bc 851f 25bf 023e 4d3b c99e 9b3f
00000040: 165e f73e d424 bfbe 7649 433f c5d7 293f
00000050: f20c 6bbd 1958 b93f 87bf 68bd a595 643f
00000060: f20a 76bf 8445 a8bd 87c3 3c3f 7d1c 8c3f
00000070: 9845 a7bf 1d99 023e 3b45 0200 32ff 0200
00000080: a1c3 0080 da73 0700 afc8 0700 4e72 0500
00000090: cfd2 0700 0511 0280 b3bb 0380 c161 0280
000000a0: 5502 0600 8035 0380 39cd 0500 9f1b 0780
000000b0: 026e 0700 06ea 0400 7117 0500 cf58 0200
000000c0: a8cd 0200 da6f 0280 f0bf 0200 d6b9 0100
000000d0: 5594 0380 d4a0 0500 4036 0280 1c3c 0280
000000e0: 4fbd 0400 01b6 0580 e329 0380 37e6 0680
000000f0: 44b5 d43e 77af 22bf 856a 2c3f f12a 9cbf
00000100: 9074 b7bf 824d a83f e706 ce3f beb1 d7bb
00000110: da9e 583e 123d 86be 3fe7 1ebf 1f0b ac3f
00000120: 09d5 31bf 1553 4abf ce7f 4d3f 5a75 1c3f
00000130: 2276 ccbf 465f 1e3f 412a 4c3f 1e23 323f
00000140: 1d53 8b3b 81a9 3bbe a85b 293e d0c4 bd3f
00000150: 16b1 19be ec5b 83be 43f5 7bbf 68bd 43bf
00000160: 2508 633d 1c26 35bf 98c0 14bf 1fe3 203f
00000170: c264 98bb 4f4c 0b3e 96cb c9be 83fe c73f
00000180: b3da 3f3f dfbf 973e 859b 5d3f bbea 0140
00000190: e1c9 8f3f 2adc 323f 1f93 9dbe 8dd3 64bf
000001a0: 39c3 24bf 9eca 56be 0655 14c0 0756 20be
000001b0: 2414 60be 4a4d 95bf dca9 26c0 ff34 813f
000001c0: 3653 b6bf e4e6 04c0 2105 b0bf c119 913f
000001d0: 9f6f 83bf 5d82 dfbf 2b3d 343f f90c b23f
000001e0: 836f 0fbf 6f92 57bf 49ba 55bf 56bb 98be
000001f0: d1c6 113f 8a0d f93f e863 893f c203 6c3f
00000200: 3265 1ac0 ca62 9fbf f949 b53e 23ec b6be
00000210: 4546 eebe 7f14 f03e 3d8b 4f3e e550 a0be
00000220: 1345 aa3f 945f e23f 4333 e03e d328 7b3d
00000230: 4cfc 42bf 53d8 993d dae1 8fbf e158 763c
00000240: cab1 133f f9d5 e0bf efa0 213f b4e7 3bbf
00000250: 8d74 6ebf 1183 493f 24ab 743f 6c3d b13f
00000260: 90c4 d93e 904e b93f 62fb 2440 37c9 613f
00000270: e784 413f 7224 88bf 1f44 4fbe 07a9 c6bf
00000280: 0a8d 843f 5e56 b2bf cc53 d2bf cad2 91bd
00000290: 402d 633f 7aad ad3e 6d59 0d3f 9a98 3c3d
000002a0: bc84 163e 4dad a53e 80cd d13f d318 0c3f
000002b0: 7ebd 383e 5521 073e 16c7 cd3e f68a 123f
000002c0: c6d4 dd3f e17a 84bf 4e14 a3bd 28a3 353e
000002d0: 7952 f7bb 7465 16bd 37cd 543f 6d0d 9ebf
000002e0: 361b 03c0 233e 7b3c 6962 b63e d247 df3e
000002f0: 6b7a 11bf dc61 00bf 63a1 7a3f 1274 b53f
00000300: 258c 1bbf 9ff5 2dbf e81c d8be 7a93 2c3f
00000310: 6e1d d23e 986a 5e3f bd55 d93d 70a7 053f
00000320: 6567 3abe 34af 503f 919d 853f 6179 88bf
00000330: de94 30be 915b b1bf faf7 abbf 5103 4ebf
00000340: d63c bcbf 09be 8a3f 19f2 b1be 6ca2 9e3f
00000350: ede5 eabe f85d f8bd 4726 863e 6b84 86bf
00000360: 5481 8dbe 25d5 2b3e 2915 a53f 6f7d e1be
00000370: 7da3 87bf 7e0e 213f 5611 c0be b226 8ebf
00000380: e400 943e d2e7 8a3e ac10 77bf 9480 a0be
00000390: 6642 92bd a835 78bf a87a c2be 003a 2640
000003a0: bcf0 633f 8dcd dc3e 7139 db3f 3a83 903e
000003b0: be35 a7be 0803 c83e 3d8e aa3e fb99 b63f
000003c0: 0d45 dabe 2d41 273e 3321 a5bd dccf 94be
000003d0: bfe1 a73f da2d 5abe 230f 853f 1321 263f
000003e0: a261 84bf 437e 013e b0b5 9abf 4310 d1be
000003f0: 089a f83d 2bb3 f0bd 56ad 823f c752 52bf
-0.6156992 -0.78009903 -0.857518 -0.88382715 0.7269907 -0.5040984 -1.0421083 -0.17749582
0.7929934 1.687128 0.06101435 -0.2953391 -0.020212341 -0.6450122 0.0031317477 1.2157832
0.4831397 -0.37332785 0.7628397 0.66344863 -0.057385392 1.448001 -0.05682328 0.8929084
-0.9611045 -0.08216384 0.7373585 1.0946194 -1.3068113 0.1275372 2.08506e-40 2.75218e-40
-7.0178e-41 6.84408e-40 7.1484e-40 5.00182e-40 7.18472e-40 -1.89776e-40 -3.4284e-40 -2.18738e-40
5.5185e-40 -2.94699e-40 5.32797e-40 -6.52757e-40 6.82312e-40 4.51294e-40 4.67587e-40 2.1553e-40
2.57447e-40 -2.23796e-40 2.52525e-40 1.58501e-40 -3.28718e-40 5.16872e-40 -2.03132e-40 -2.05234e-40
4.35253e-40 -5.24468e-40 -2.90533e-40 -6.33599e-40 0.41544545 -0.6354899 0.67350036 -1.2200605
-1.4332447 1.3148654 1.6095856 -0.006582468 0.21154347 -0.26218468 -0.62071604 1.3440894
-0.6946569 -0.79033023 0.8027314 0.61116564 -1.5973551 0.61864126 0.79751974 0.69584835
0.0042518512 -0.1832638 0.1653887 1.4825687 -0.15008959 -0.25656068 -0.98421115 -0.76460886
0.05542769 -0.70761275 -0.58106375 0.6284656 -0.004650683 0.13603328 -0.39413136 1.5624546
0.74943084 0.29638574 0.8656543 2.0299518 1.1233484 0.69867194 -0.30776307 -0.893853
-0.64360386 -0.2097573 -2.3176894 -0.15657817 -0.21882683 -1.1664212 -2.6041174 1.0094298
-1.4244144 -2.0765924 -1.3751565 1.1335984 -1.0268439 -1.7461659 0.70405835 1.3910209
-0.5602953 -0.84207815 -0.83487374 -0.29830426 0.56943995 1.9457257 1.0733614 0.92193234
-2.4124265 -1.2452023 0.35408 -0.35727033 -0.46537986 0.46890637 0.20267959 -0.31311718
1.330233 1.7685418 0.4378911 0.06131823 -0.76166224 0.07511964 -1.12408 0.015035839
0.5769316 -1.7565299 0.6313619 -0.73400426 -0.9314659 0.78715616 0.9557364 1.384687
0.42532778 1.44771 2.5778432 0.88197654 0.7559342 -1.0636122 -0.2024083 -1.5520333
1.0355542 -1.3932607 -1.6431823 -0.07120283 0.8874092 0.33921415 0.5521458 0.04604397
0.14699072 0.3235878 1.6390839 0.5472538 0.18041036 0.13196309 0.40190953 0.5724329
1.7330558 -1.035 -0.07962857 0.1773802 -0.0075476733 -0.036717847 0.83125633 -1.2347847
-2.0485358 0.015334639 0.35621956 0.43609482 -0.5682742 -0.5014932 0.97902507 1.4176047
-0.6076072 -0.67952913 -0.42209554 0.6741253 0.41038078 0.868814 0.106120564 0.52208614
-0.18203504 0.8151734 1.043871 -1.0662042 -0.17244288 -1.3856069 -1.3435051 -0.8047381
-1.4706066 1.0839244 -0.34755018 1.2393317 -0.45878544 -0.12127298 0.26201078 -1.0509161
-0.27637732 0.16780527 1.2897083 -0.4404101 -1.0596768 0.6291274 -0.37513226 -1.1105559
0.2890693 0.2712999 -0.96509814 -0.31348097 -0.07141571 -0.9695687 -0.37984204 2.59729
0.89039207 0.43125573 1.7126905 0.28225118 -0.3265819 0.39064813 0.33311644 1.4265741
-0.42630807 0.16333456 -0.08062973 -0.29064834 1.3115767 -0.21306553 1.0395244 0.6489422
-1.0342295 0.12645821 -1.2086697 -0.4083272 0.12138754 -0.117529236 1.0209148 -0.8215756

weight_ih_l0 f4 [512, 30]
00000000: 4a3d 743d 625c 84bd 30a9 c23d aebf 11bc
00000010: 79c5 30be 5e6e 9a3d 83b0 1b3e b738 cebd
00000020: 5554 c33d 778d 76bd 398e 513d 9c06 243d
00000030: 38c2 a53d bfd6 57bc d6b8 f0bc a9a5 f2bd
00000040: e401 583c 718d fe3d 5e42 f83c 9bd2 453d
00000050: 16fb ecbb 6b43 8e3b 73d5 863d 9176 afbc
00000060: f5fd cdbd bd1b e33d 1561 99bd b657 9e3c
00000070: f7f6 c6bc c2be e63b d76c 953c 263c 25bd
00000080: d4b2 143e 0471 e0bd 9ccf 88bd 5483 a23d
00000090: fbcd cfbd 0c99 83bd f5b7 3fbc 0a5a 1dbd
000000a0: b3c5 9f3d 0213 bcbb 7d6f 00be a8b5 7dbd
000000b0: e071 4dbc c491 cc3d 70e7 1f3d c49f 3a3d
000000c0: 1a5c e43b f917 13bd fe4c febc 0d6a 563d
000000d0: 9f72 b03b c271 cb3b 2864 39bd 59b4 2c3d
000000e0: 339a 05bc d49a 4b3d d8db a3b9 d6d8 c83d
000000f0: bc32 3d3d 8666 1b3d 6b28 413d d7d2 a5bd
00000100: faec abbd cbd6 cd3d 301f 613d 4681 d8bd
00000110: ab76 2dbb 544e c73d 3f30 353d a239 03be
00000120: e014 6c3d 962a 773a eaef c33d 41d8 0c3e
00000130: 735a 5fbd 6960 ff3c 8eba 51be f683 933b
00000140: 4105 393c 91a1 8abc cbe5 dbbc 1191 99bd
00000150: 5163 79bd e312 fd3d db15 20bc 980b 763c
00000160: b8cc 9fbd 7cb4 be3d 750c d13b 7468 9cbd
00000170: 2e1b 413d fa12 8e3c ecb0 39bd 72f5 54bc
00000180: 6f8b aa3d 1fc6 12bd 90b8 bfb9 81c0 bfbd
00000190: cf17 10bc b086 aabb 3e07 c53d 7cc3 ed3d
000001a0: 6a77 8c3d 745c 9b3d 7612 b13d ecd8 e93d
000001b0: 0880 333d be09 573d ac2f bb3c a01b a13d
000001c0: 386f a93c b49d 70bd c50e a7bd 9be2 853d
000001d0: c725 ee3d 3a78 95bd 0188 c43d cec8 d83d
000001e0: 23d0 d83d 928e 9fbc c912 de3c 0a15 97bd
000001f0: 04d8 913d 4eff bd3c 211d 783d c7eb b13d
00000200: 2766 113d 6ffa 52bd c379 7b3d 8ba3 da3d
00000210: ff3e f83d 71c6 e43c 7e07 b63d 2ca6 6cbd
00000220: 66cf 1b3c 855a 02be 13f2 a8bd 3e92 12be
00000230: 8b33 3bbc 8c72 233e 5ae9 d63d 574d 9abc
00000240: edb8 9bbd 79f6 483d 7861 0dbe b668 1d3e
00000250: f49b eabd c372 03bc 9c96 353d 9b6e f1bc
00000260: b611 58bc a241 02bc f0eb 92bc 1728 ecbb
00000270: 710c 0a3d 0116 32bd 644b 633d 151f 383b
00000280: 2286 fabd 069b c7bd e7d3 cc3c 8a2a 7e3d
00000290: 161b ab3d 5495 223e a83d d83c 858a 303e
000002a0: 8946 393d 7c8e e6bc 7b52 e9bd 140b db3b
000002b0: ada5 fd3c 8095 bcbd 3375 02be 3589 673d
000002c0: cf19 2cbc 584e 40bd 75bc a83c 1028 43be
000002d0: 7afb 9f3b 8dbc c53d e4d0 cc38 2cd2 313d
000002e0: d79e 1f3d b35f 4d3b 33c0 b83c 5c00 b6bd
000002f0: 6f2c 12be 2e71 5d3d 1b40 2c3d 590a bcbc
00000300: 9acc f23d 2ddd 54bd d851 a83d 1b49 c83d
00000310: cc77 893d cdf7 323c 8caa b1bd 63b9 90bc
00000320: 88fb 9bbd 933e 8b3d 9ee4 df3d ff21 ca3d
00000330: 0a58 84bd 08bd 3e3d a46d cf3b f7ad 713a
00000340: 8457 e9bd aa4e 99bd e5c4 dbbd 14eb 003e
00000350: 02bd 7d3d 9a0e b33c 1198 c7bd 0d10 06bb
00000360: d03f d53d 6b96 7abd b926 79bd 4fc5 25bd
00000370: 20ac 703d fc67 b7bd bbeb fe3d fc45 6abc
00000380: 3213 573d 312a f73d feeb 083d 87e8 c5bd
00000390: 6d7d 97bd b031 87bd f05e d73d c26e 1abd
000003a0: e80e c23d 8aa9 1ebc ee6e 4abc 12dc af3d
000003b0: 2b24 6c3d fbe3 01bd 25b8 1b3d 69fb 2fbd
000003c0: 7276 28bc 1859 9b3c e731 003d 7a80 4abd
000003d0: e055 4b3d 20ec c33c 73dd 943d ad8d 8ebd
000003e0: 6f29 e3bc c5fe 073c ecf8 68bd e870 05bd
000003f0: e668 31bd 7633 ea3d 282a 9d3d 9893 c23d
0.059628762 -0.06462933 0.09504926 -0.008895798 -0.1726283 0.07540582 0.15204053 -0.10069411
0.095375694 -0.060193505 0.051161025 0.040045366 0.08093685 -0.013173758 -0.029385012 -0.118480034
0.0131840445 0.124293216 0.030305084 0.048296552 -0.00723208 0.004341533 0.06583681 -0.021418842
-0.10058204 0.11089275 -0.0748922 0.019328933 -0.024287684 0.007041783 0.018240375 -0.040340565
0.14521343 -0.10959056 -0.06680223 0.07935205 -0.101467095 -0.06425676 -0.011701574 -0.038415946
0.0780138 -0.0057395706 -0.1254253 -0.06194082 -0.012539357 0.0998874 0.039039075 0.04556252
0.006968987 -0.035911534 -0.031042572 0.05234723 0.0053847576 0.0062086293 -0.045261532 0.04216418
-0.00815444 0.049708202 -0.0003125358 0.09806983 0.046190962 0.03793957 0.047157686 -0.08096855
-0.08394809 0.10050734 0.054961383 -0.10571532 -0.0026468437 0.09731737 0.044235464 -0.12814954
0.057637095 0.0009428648 0.09567244 0.1375437 -0.05452962 0.031173902 -0.20481321 0.004501815
0.011292757 -0.016922744 -0.026842972 -0.07498372 -0.06088573 0.12357118 -0.009770836 0.015017413
-0.07802719 0.093117684 0.006379659 -0.0763711 0.04714506 0.017343033 -0.04533474 -0.012997972
0.08327376 -0.035833474 -0.0003656787 -0.09362889 -0.008794739 -0.0052040443 0.09620522 0.11609551
0.06858714 0.075859934 0.08646099 0.11418328 0.043823272 0.052499525 0.02284988 0.07866597
0.020682916 -0.058744147 -0.08157114 0.06537362 0.11628299 -0.07298322 0.09596253 0.105851755
0.10586574 -0.019477163 0.027108567 -0.0737706 0.0712128 0.023193028 0.060574654 0.08687549
0.03549781 -0.051508363 0.061395418 0.106757246 0.121213906 0.027926655 0.08888148 -0.05777566
0.009509897 -0.12729843 -0.08249297 -0.143136 -0.011425863 0.15961665 0.10493727 -0.018835707
-0.07603631 0.04906318 -0.13806713 0.15371975 -0.11455527 -0.008022967 0.044333085 -0.029471686
-0.013187816 -0.007950218 -0.01793477 -0.0072069275 0.03370327 -0.043478016 0.05549182 0.0028094698
-0.12232615 -0.09746365 0.025003387 0.062052287 0.083547756 0.15877277 0.026396587 0.17240341
0.045233283 -0.028144114 -0.11392685 0.00668467 0.03096279 -0.09208202 -0.1274002 0.056527335
-0.0105042 -0.046949714 0.020597676 -0.19058251 0.0048822733 0.09655104 9.766387e-05 0.043413326
0.03896984 0.0031337559 0.022552585 -0.08886787 -0.14274763 0.054063015 0.042053323 -0.022954153
0.11855431 -0.051968742 0.082187355 0.09779569 0.067123026 0.010923338 -0.08675107 -0.017666524
-0.07616335 0.067990445 0.10932277 0.098697655 -0.064621046 0.046566993 0.006330209 0.0009219343
-0.113936454 -0.07485707 -0.10730914 0.12589675 0.06194783 0.021857549 -0.09745801 -0.0020456344
0.10412562 -0.061178606 -0.060827944 -0.04047137 0.0587579 -0.0895538 0.12447306 -0.014298912
0.05250854 0.12068594 0.033428185 -0.09663492 -0.0739697 -0.06601274 0.10516155 -0.037703283
0.094754994 -0.009683976 -0.012355549 0.08586897 0.05765168 -0.03171156 0.03801741 -0.042964373
-0.010282146 0.018963382 0.03129759 -0.04943893 0.049642444 0.023916304 0.072688006 -0.06960616
-0.027729718 0.008300488 -0.056878015 -0.03257838 -0.04331293 0.11435597 0.07674056 0.095008075

weight_hh_l0 f4 [512, 128]
00000000: e1b3 95bb e48b cf3d e6db c93c 7ef5 46bd
00000010: a685 1d3e 0367 b4bc 27b2 c3bc 42ee d6bc
00000020: cffa 083e 4feb 1fbd 0144 14bb 520b 1dbd
00000030: 0e54 30be 1264 e2bd d0da b6bd ee59 d2bc
00000040: e668 c4bd f674 0c3e ce72 bc3d bbe9 043d
00000050: 5e6e 443d a8f8 783d 9552 9bbd 1c8c 143d
00000060: 6c47 b5bd bcd6 04bd 3a57 023e e1c4 b93c
00000070: 4a32 023e eda0 603d 0659 a63d 0a0b 1ebd
00000080: c707 b03d 87d5 cb3c 7253 143e 6e70 153e
00000090: 0832 c03c 5a44 22bd a524 d1bd cd88 97bd
000000a0: 406e d13d 4064 113e 6c95 ecbd 990c a2bc
000000b0: d7e3 01be 0a12 1bbe fac7 a73c 2b94 fb3d
000000c0: aa7d 923d fb49 b83c cecc 34bc bb2e 06be
000000d0: eb39 163d f243 ad3d d24c 513d 9adc 42bb
000000e0: 0582 043e 680b c83c 0888 4cbc 22b6 9c38
000000f0: a7ef 213d b92e 173e 5f3f 743d c524 eabb
00000100: 2dae 46bc 7636 df3d 621a 9e3d fa45 853c
00000110: 0b3e c4bc 739e 8abd 9c24 94bd 21c3 913b
00000120: 7f01 0c3e e5d5 a8bc 1a92 003e 24e6 7fbc
00000130: 3be1 04bd 9c3d 2fbd 61ea 1d3d 0af1 fa3c
00000140: d24a 053e 017d 853d 07d7 613e 1c9b 19bc
00000150: 410d 8fbd 557e ca3d f346 af3d fc82 d33c
00000160: 3821 2ebd 9f91 68bc f876 0cbc ce05 7fbd
00000170: dbe5 353d 967d d33b 4802 d4bc 843f 9dbb
00000180: a3dd b43c 8f05 583d 80c2 093e 50a5 82bd
00000190: 8f79 f93d 514f 62bd 0d46 093e a31d 893d
000001a0: 1405 9b3d 79ba 853b 931e 933b 5812 fc3d
000001b0: 3e3c 843d 76db d73d cd2f 743c 40a5 333c
000001c0: e2ce b4bc f7f3 9abd 1655 12be 01f4 443d
000001d0: 25e9 8e3d 8a9e 7b3d 3fe5 683c 5a0e cf3a
000001e0: d2b0 ddbd 398f 783d f56c c4bb 1b66 09bd
000001f0: 9ea8 df3d 4b48 423c edc3 fd3d fdf0 9bbd
00000200: beb8 563e 9220 d53c 8d2c 2abd 2aab a4bd
00000210: 9f8f 1bbe a48a f7bc df5b 903c 6d27 1fbd
00000220: 70d9 01bd b1e6 e9bd 2b74 313e 3a37 48bd
00000230: c11f a6bd c2a5 453d cf0c 633c 87ff ffbd
00000240: 764d 9fbd 15e0 b53c d978 0f3d bf4f 9cbc
00000250: 6011 f6bd 2a91 7bbc f7b0 843c 5221 543d
00000260: 0063 bcbd febf da3d 7769 8f3d 5364 723d
00000270: ccf5 2a3d 350e 713d 9060 1c3e e83b 3b3e
00000280: 9074 853d 935e dc3d ebe1 faba 6e55 093e
00000290: 7d1c 40bc a163 843d 4aae 28be 0627 ee3c
000002a0: e8f3 b73d e641 d43b d1eb 45bc dd15 38be
000002b0: 5d26 20bd 0a6e a33c 27d2 e13d dde4 413c
000002c0: 2c86 fd3d 368e 443d 4423 89bc 4a7b f1bd
000002d0: e246 753d a239 083e 2b8d 103a 6b8f 19bd
000002e0: 02f4 953d fb53 733d 72ab 013c f886 9f3d
000002f0: 7371 e13c 8739 fa3d ae5b d63d 77b9 ee3c
00000300: 8164 bd3d cbd4 da3d 83de 34be 90f3 eebc
00000310: d90a 8bbd fa6e c9bd 23c7 0abd f824 153e
00000320: 103e 573c 4bb9 05be ee28 c53a 5aea 023d
00000330: 0d33 43bd 953b 543e 877b babd 2bee b53d
00000340: 5ceb 79bd 3ea3 d03d 03f5 68bd 92ee dfbc
00000350: 7814 2b3d c778 593d bf01 abbc 5696 f03c
00000360: be38 013d eead 973c a6b9 d5bd edbf c9bb
00000370: b760 373d 0a31 433d 9ccc ad3d 788c 213d
00000380: d7a1 44be 49a6 32be 4487 1f3e 5c72 af3d
00000390: e652 c33c 440e 04be 7243 863c 249b 45bd
000003a0: 854b c5bd 0eab 213c a9e0 92bd 5253 dc3d
000003b0: 7a5c 84bd 7a0c 4d3d b7c0 233d 1a29 d53d
000003c0: a848 aebd 1eca 253e e8a2 863c 58a1 e3bd
000003d0: f5c2 7b3d 57a9 1d3d 773f 593d 24ec cbbd
000003e0: 4469 a73d b93d 99bd 9fbb 09be 208f 043d
000003f0: 7636 24bd 12fc 8f3c 7d4e 043d 1387 683d
-0.0045685624 0.10134104 0.024640989 -0.048573963 0.15383014 -0.022021776 -0.02388866 -0.026236657
0.13376926 -0.039042767 -0.0022623541 -0.038340874 -0.17219564 -0.11054243 -0.08928454 -0.025677647
-0.0959032 0.13716492 0.09201585 0.032449465 0.047956817 0.060784012 -0.07584111 0.03626643
-0.08851513 -0.03243135 0.12728587 0.022676887 0.12714496 0.05484097 0.081224486 -0.038584746
0.085952334 0.024882091 0.14484957 0.1459367 0.023461357 -0.039615966 -0.102120675 -0.073991396
0.10226107 0.14198399 -0.115519375 -0.019781398 -0.1268457 -0.151436 0.020481098 0.1228412
0.07152875 0.022496214 -0.011035157 -0.13103764 0.03667633 0.08460225 0.051098652 -0.002973354
0.12940224 0.024419501 -0.012483604 7.4725845e-05 0.03953519 0.14763917 0.059630748 -0.0071454966
-0.012126488 0.108990595 0.07719876 0.016268719 -0.023955366 -0.06768503 -0.07233545 0.00444831
0.13672446 -0.020609805 0.12555733 -0.015618835 -0.03244136 -0.042783365 0.0385536 0.030632515
0.13016823 0.06517983 0.22054683 -0.00937536 -0.0698495 0.09887377 0.08558454 0.025819294
-0.04251215 -0.014194875 -0.008573286 -0.062261395 0.04440866 0.00645418 -0.025879994 -0.0047988314
0.02207834 0.052739676 0.13453102 -0.06379187 0.121813886 -0.055251423 0.13405629 0.06695106
0.07569328 0.004081067 0.0044897287 0.12308186 0.06456803 0.10539906 0.014903975 0.010964692
-0.022071306 -0.07566064 -0.1429027 0.048084263 0.069780625 0.06143049 0.014214813 0.0015797124
-0.108247414 0.060683463 -0.005994434 -0.03354464 0.10920833 0.011858056 0.123908855 -0.07614324
0.20968911 0.026016507 -0.041546393 -0.080404595 -0.15191506 -0.030217476 0.017621933 -0.03885596
-0.031701505 -0.11420954 0.17329471 -0.048880793 -0.08111525 0.048253782 0.013858034 -0.1249991
-0.077784464 0.022201577 0.03502736 -0.019080995 -0.12015033 -0.015354434 0.016197665 0.05178959
-0.0919857 0.10681151 0.07002538 0.059177708 0.041738316 0.05885144 0.1527121 0.18284571
0.06516373 0.10760226 -0.0019140815 0.13411495 -0.011725542 0.06464315 -0.16472736 0.029071342
0.08982068 0.0064775823 -0.012080149 -0.1797709 -0.039099086 0.019949932 0.110264115 0.01183435
0.12379107 0.047987185 -0.016740449 -0.11791094 0.059882052 0.13303235 0.00055142 -0.03749029
0.073219314 0.059406262 0.007914411 0.07789415 0.027519917 0.12218004 0.10466705 0.02914117
0.09247685 0.10685118 -0.17663006 -0.029168874 -0.067891784 -0.0983562 -0.033881318 0.14564884
0.013137355 -0.13058965 0.0015042105 0.031961776 -0.047656108 0.20725854 -0.09105592 0.088833176
-0.06101547 0.10187386 -0.056874286 -0.027335439 0.041767567 0.053093698 -0.020874856 0.02936856
0.031548254 0.018515553 -0.104358 -0.0061569125 0.04476997 0.04765419 0.08486292 0.039440602
-0.19202362 -0.17446245 0.15578943 0.08566734 0.02384324 -0.12896067 0.016389582 -0.048243657
-0.09633545 0.009867443 -0.07171757 0.107580796 -0.06462951 0.050060727 0.03997871 0.1040823
-0.08509952 0.16190383 0.016435102 -0.11114758 0.061465222 0.038491573 0.05303904 -0.099571496
0.08174375 -0.07482476 -0.13450478 0.032363057 -0.040091 0.017576251 0.032301415 0.05676944

bias_ih_l0 f4 [512]
00000000: 0306 403d 397c 9d3d 699f 1e3e dbf8 26bd
00000010: c2fc 263c c33e 1c3e 4970 803d bc3a 123c
00000020: 4e5b 523e 50ed 333d 3864 90bb d0c5 0f3e
00000030: 9aed e33d 12bc 273d 0114 e9bb 1c58 43bc
00000040: 9ad3 993d e1a2 06bd 8d2d 23bd e5c3 40bd
00000050: ce13 153e 49b1 17bd 7230 963d c9b4 593d
00000060: 3fe5 0e3d 0e4f 813d ea0e e83d 4a6a 393e
00000070: b62b 3b3d 49bc 8c3d 00a8 aa3c c825 873c
00000080: e550 123e 5ea4 b4bc 43c1 bbbc 2358 013d
00000090: 1053 103e 29b8 333e 3ee6 fd3d 7c0f 813d
000000a0: 0e0d 863d 56a6 ac3d 3d8a f0bc e744 c03d
000000b0: 7242 fbbb 46c0 f33d 3b9a 27bd c619 16bc
000000c0: 8e43 4a3d 5e3e e73d a350 c93d 79f6 f03d
000000d0: 837c cf3d 978b 0d3d 7732 203e 7857 fd3c
000000e0: bae2 673d eb16 d1bc 8016 4d3d da5c 173e
000000f0: 7f5c 163e e6c4 453d 2ff2 41bd 7612 da3d
00000100: 1abf 7fbd 9825 d13d af78 43ba f5f2 f53d
00000110: e127 983d 99b3 493d c385 e93d 7de0 2b3e
00000120: 9def b73d cecb 543d b9f1 943d af37 f53d
00000130: e83f db3d abbe 223e 19ae f13d 61ab c33d
00000140: af77 063d 3578 353d f73c a2bb 3fdc cf3d
00000150: 2f48 843d ef19 5b3d c926 6c3d 80c5 bd3c
00000160: 2468 003e bbc0 f13b fa4f e13d aef7 1c3e
00000170: 3eea 543d 6c6f edbc 8aff a53d 05ad 0f3e
00000180: 9879 363e 2b2a 933d 9282 84bc 947f 253e
00000190: 4728 b13d 7279 493d 9867 933c ae2d 153d
000001a0: d751 3a3e e66f 1b3d 395b a53c 80f4 96bd
000001b0: 11f6 d0bc 30df 7d3d d83c f13c 9122 253d
000001c0: 60bf d53c b64c ea3d c3da a93d adfb 123d
000001d0: a465 f73d c139 163e 8c46 2abc e696 783d
000001e0: 033c 303e b62a fd3d fd74 163c 1f92 f53d
000001f0: 031c b53d 642c 393c 2bde c43d 7acf 38bc
00000200: a416 e13d 31c3 9d3d 9043 e33d 57d5 c6bc
00000210: 12ae adbc 2d66 443d 6cb5 c63a 5655 a63d
00000220: 5758 5c3d c74a 0d3c 407c ca3d 7578 2abd
00000230: 520b 05bb 938e db3d d8bf 9fbc 676c 5cbd
00000240: 9f67 b93d 1a71 6dbd 0099 cf3d 9a27 a03d
00000250: a5bd a5bd 6fc4 5a3b 7664 9fbc 5692 463d
00000260: 04ed 773d 6332 2a3a 3463 4dbd 73e5 303d
00000270: 710e aa3d 74bc bf3d ecc4 ae3d 26a4 a6bd
00000280: 0878 5ebd aac0 e63d fb34 ad3d f4dd 733d
00000290: fef9 6bbd d222 02bc 8a12 74ba f812 2b3d
000002a0: 87f4 773c 7722 9abb ce4a 7fbc 4d79 f63d
000002b0: 197e 943d f4e1 9d3d 0e57 fcbc 0a02 693d
000002c0: ca29 3b3a 6973 c33d d618 d53d 2792 d13d
000002d0: d959 44bc a7c0 afbb 7c8e 163d 970b 5c3b
000002e0: e0e1 c53d bb15 413d deaf 0fbd ec77 fb3c
000002f0: 018e aa3b 2a2f d43d b46d 973b 2e0e 293d
00000300: 2352 b33d 2260 83bc ab6e 523d 7185 a03d
00000310: bdff febc 31c6 8e3b 90f9 a73b 46c9 cc3d
00000320: fb51 94bc 9740 f13d 10d4 ba3d 2f71 dd3c
00000330: 2299 2f3d 2de2 81bd f75f c7bc 6bad 8b3d
00000340: caa4 2d3d 50e0 963c 6396 5bbd 005e 6e3c
00000350: 5e97 6f3d 6f21 133d d501 933c 6884 32bd
00000360: a056 84bc df9b 233d 3030 773c 5adc a43d
00000370: 637d 6dbd 8799 433d 59a0 f83a f098 5f3d
00000380: 411c 37bd 3b2e 343d 35ef 81bc f0cb d43d
00000390: caf4 873d 5311 d73d 1563 eebc 0cff b63d
000003a0: 50c0 54bd 5c85 9e3d 955e 423d 6f86 fb3c
000003b0: 9436 bc3d 5081 00bd 87a9 e33c f6c5 92bc
000003c0: 1c35 103c 482b 3d3d 4d32 1fbc 76fe 383d
000003d0: d469 403d 7ea7 38bc c723 633d dc7f 17bd
000003e0: f566 e03c 19b1 3cbd 5128 23bd ba20 6dbd
000003f0: 2e9e 3a3d e3f4 0ebc 88af 04bd 0e3a d7bc
0.046880733 0.07689709 0.15490498 -0.04076467 0.010192098 0.15258317 0.06271417 0.008925136
0.20542642 0.04392749 -0.0044064783 0.14040303 0.11129303 0.040950842 -0.0071129804 -0.011922862
0.07511063 -0.032870177 -0.039838362 -0.04706182 0.14558336 -0.037034307 0.07333459 0.053150926
0.034886595 0.063139066 0.1133097 0.18106952 0.045695983 0.0687185 0.020832062 0.016497508
0.14288671 -0.022051033 -0.022919303 0.031578194 0.14094186 0.1755072 0.12397431 0.063017815
0.06545459 0.084301636 -0.029362792 0.09388142 -0.007667833 0.119019076 -0.04091857 -0.009161418
0.04938083 0.112911925 0.09829833 0.11765761 0.101311706 0.03455695 0.15644251 0.030925497
0.056612708 -0.025523623 0.050070286 0.14781514 0.14683722 0.04828348 -0.047350105 0.106480524
-0.062438108 0.102122486 -0.0007456643 0.12009231 0.07429481 0.049243543 0.11402466 0.16784854
0.089812495 0.051952176 0.072726674 0.119735114 0.107055485 0.15893047 0.118007846 0.09554172
0.032828983 0.04430409 -0.004951115 0.101494305 0.064590804 0.05349153 0.057654176 0.023165464
0.12539726 0.0073777116 0.110015824 0.15328857 0.051981203 -0.028983794 0.08105381 0.14030845
0.17819822 0.07185777 -0.016175542 0.16161948 0.086502604 0.049188085 0.017993733 0.036420517
0.18195282 0.03794851 0.0201851 -0.073708534 -0.025507959 0.061980426 0.029447958 0.04031617
0.026092231 0.11440413 0.082936786 0.035884548 0.12079933 0.14670469 -0.010392796 0.060690783
0.17210393 0.12361662 0.009183166 0.11990761 0.088432334 0.011302087 0.09612688 -0.011279935
0.109906465 0.077032454 0.11096871 -0.02427165 -0.021201167 0.047949005 0.0015160269 0.08121745
0.053795185 0.008623785 0.0988698 -0.041618783 -0.0020300937 0.10720553 -0.019500658 -0.053814318
0.09052967 -0.05796919 0.10136604 0.078200534 -0.080928124 0.0033381244 -0.019457083 0.0484794
0.06052877 0.00064924936 -0.050143436 0.04318757 0.08303536 0.093621165 0.085336536 -0.081367776
-0.05431369 0.112672165 0.08457371 0.059537843 -0.057611458 -0.007942872 -0.0009310624 0.041766137
0.015133983 -0.0047038156 -0.0155818 0.12034855 0.07250614 0.07709113 -0.03080323 0.05688671
0.0007139711 0.09543497 0.10405128 0.102329545 -0.011984312 -0.005363542 0.036756977 0.0033576244
0.09662223 0.047139864 -0.03507983 0.030696832 0.0052049165 0.10360558 0.004621232 0.04127329
0.08755901 -0.01603705 0.051375072 0.07837952 -0.031127805 0.0043571224 0.0051261857 0.09999327
-0.018105498 0.11779898 0.09122479 0.02703151 0.04287065 -0.06341968 -0.024337752 0.06820186
0.042393483 0.018417507 -0.053610217 0.0145487785 0.058493964 0.035920557 0.01794521 -0.043583304
-0.016154587 0.039943572 0.015087172 0.08049841 -0.057980906 0.047753837 0.0018968686 0.054589212
-0.04470468 0.0439894 -0.015861133 0.103904605 0.06638487 0.10501351 -0.02909998 0.08935365
-0.051941216 0.0774028 0.04745348 0.030703751 0.091900975 -0.031373322 0.027790798 -0.01791666
0.008801725 0.046183854 -0.0097165825 0.045164548 0.046975926 -0.011270402 0.05545404 -0.03698717
0.027392844 -0.04606733 -0.03983337 -0.05789254 0.04556101 -0.008725378 -0.032393962 -0.0262728

bias_hh_l0 f4 [512]
00000000: 4b29 b93d 0848 f23c 0e4b e43d 4d08 3c3d
00000010: 9728 b73c c111 ff3b 1eb4 793c 9883 813d
00000020: f910 0a3e 1cca 8e3c c214 69bd 3f60 8e3d
00000030: efb2 ef3d 2002 013e 6300 873d 7c83 163e
00000040: e194 0abc 8ed3 b03d 4339 ad3d c842 0ebd
00000050: 684a 693c 7a48 e43d 9074 e2bc ddfe aa3d
00000060: c896 b53d 28c6 d23d 7058 733d 6254 0b3e
00000070: 65dc 963d c4bc d63c 9ab1 86bc b862 61ba
00000080: 5d2f 85bc 00c9 523c f95d 4f3d 6c0a c73d
00000090: 4d6c 8a3d a896 293d 8a12 3f3d a33c cd3d
000000a0: 04c8 2a3d 16a4 d33d f1a7 94bc 802f f33c
000000b0: 0f7d 7b3d 4de0 0f3e 37dc 6a3d 0b0c 8bbc
000000c0: c3d8 00bd 679c 473e 519a a93d 194e c93c
000000d0: 4540 583d 22d8 79bc 6a0d ef3d 2992 913d
000000e0: cbfa ad3d d192 1dbd 2e91 853d e6fa cd3d
000000f0: 3e7b c43d 8111 873d ecda 2bbd 43c9 3f3d
00000100: 8bb9 b03d b3ca 0c3c 7940 903d 02db 78bc
00000110: 5bb8 0e3e 2daa c63c 3762 473d 27f7 2b3e
00000120: 406b 03bd 21b9 d93d 8279 af3d 1ddf 1e3c
00000130: 2f27 dd3d 5b1f 913d b0ec ab3c b244 fe3d
00000140: a798 ce3d bb99 943d e246 c2bc 668a 083d
00000150: 3243 183d f803 c73d 13b7 533c 1e5f 813d
00000160: 7cb7 f23d e09c 893d 5d7c ed3d 8431 233e
00000170: ce63 53bc d725 e43d baaf 3c3d 15b7 573d
00000180: 5391 2e3d 3251 1cbb 3665 f63d 0177 d23c
00000190: e7fa 253e 98b0 033e f40f 1ebd 9733 093e
000001a0: a2b5 333d 63ef 513d d850 95bb e62e d03c
000001b0: 3035 a7bc ecab 1f3d 6374 073e 2c5e a0bb
000001c0: 2036 dd3d 86b2 b43d 02bb d33d bc2b b43d
000001d0: fa10 263d 409e 013d 9fbc edbc c615 5dbd
000001e0: 21e5 933d 016a 8c3e 6e01 a73c b2be 843d
000001f0: ecbf e6ba e1b1 9ebc be4a 923d 9ab7 52bd
00000200: 1fd5 76bd b18e e8ba e0a4 ab3d 87ea 0a3c
00000210: 2ac9 323d cf11 07bc 1868 af3c 9208 a43c
00000220: e059 b43d 374d 24bd 61b3 90bd 430c 61bc
00000230: 2cbb 2b3c 382a d13a 203e 523d f6a9 0ebd
00000240: 05c0 713b f957 e93c 07c0 ad3d 375f ba3d
00000250: eca5 f13c 65f2 183d 479c 943d aa1b 6b3d
00000260: 3afe 533d 348d 86bd a114 ab3d c2fc 38bb
00000270: 1489 5abd 452a c03b 7f5e 29bc 2dd4 b43d
00000280: 5c3e 823c 954d 103c 6600 4a3d 50da ee3c
00000290: 1485 bebc 9b7f 69bd 1921 1a3d 6775 81bc
000002a0: 9f00 223d b9a6 d73d 0731 f93d 652c 4b3c
000002b0: 9d07 ea3d 357c 3dbd 85e1 083d 1163 d23d
000002c0: 0a32 c8ba 65a7 eb3c 4f13 733d 61ec 433c
000002d0: fe8b b33d c293 8abd f3ea d1bc 49e2 743c
000002e0: b51c ae3c 7c76 49bd 4cfe b53d bafe d73c
000002f0: 3306 f1bc 695b de3d 04fa 3dbb 96d0 103d
00000300: 49ec 3c3d 944e 0c3d a319 84bc 1b84 643d
00000310: 2d47 8f3d 9afc 52bc 74fb ce3d c3cd cc3d
00000320: 760b 213d cf82 dfbc 8740 2d3d 1ec8 4d3d
00000330: b731 353d aaf1 0b3d 73d0 603d 594d 73bc
00000340: de5c b43d 48e6 f43d 38d9 f63b 278f 953d
00000350: ce3b c83c 753b 4c3d ba3a 59bd 723a f43c
00000360: d4a2 3b3c c23f cbbc c955 933d 7749 233d
00000370: 8b3f 82bd 1999 0a3e d7b4 ba3d 861a bc3d
00000380: ea14 423d 4fc6 b53d 6f5a de3d 0107 513d
00000390: b73c 34bd 62e6 d03c bd95 7f3d 7ec9 ac3d
000003a0: f0ce 4dbd c368 9a3d 32b3 4e3d caac 003d
000003b0: c435 d03d 34c8 0cbd e134 9d3c e468 303d
000003c0: 62b0 8bbc ed12 d0bb 5c2e bd3b ce1e ac3d
000003d0: 6ab5 1d3d 8f11 77bd d26c 1dbd 43b1 f73b
000003e0: 7527 70bd c734 f1bc 61f4 923d c03b 913c
000003f0: 4475 373c b4e2 893c db61 d43a 50ee d33d
0.09041079 0.029575363 0.11147128 0.045906354 0.022358222 0.007784099 0.015240697 0.06323928
0.13483037 0.017430358 -0.05690456 0.06951951 0.11704051 0.12598467 0.06591871 0.14698595
-0.008458347 0.08634101 0.084581874 -0.034731656 0.014238931 0.11146636 -0.027643472 0.083493926
0.0886665 0.102917016 0.059410512 0.13606408 0.07366256 0.026213057 -0.016442109 -0.0008597779
-0.016257936 0.012865305 0.05062673 0.09718785 0.06758938 0.041403443 0.04664854 0.10021331
0.041694656 0.10334031 -0.018146487 0.029685736 0.061398562 0.14050408 0.05733892 -0.016973516
-0.03145672 0.19493257 0.08281387 0.024573373 0.052795667 -0.015249284 0.116724804 0.07107956
0.084951006 -0.038470093 0.065218315 0.10057621 0.09593819 0.065951355 -0.041956827 0.046822798
0.086291395 0.008593249 0.07043547 -0.015188934 0.13937514 0.024251068 0.04867765 0.167935
-0.032084703 0.10631014 0.08568098 0.009696749 0.10798489 0.07086059 0.020986885 0.12415446
0.1008771 0.07255884 -0.02371544 0.033335112 0.037173457 0.09717554 0.012922066 0.0631697
0.11851403 0.06719375 0.11595986 0.15936857 -0.012902213 0.1114003 0.046066023 0.052664835
0.04261906 -0.0023852107 0.12031023 0.025691511 0.16208993 0.12860334 -0.038589433 0.13398586
0.04387439 0.051253688 -0.0045567565 0.025412988 -0.020411104 0.038982317 0.13227992 -0.0048940387
0.10801339 0.08823113 0.10338403 0.08797404 0.040543534 0.03164506 -0.029020606 -0.053975843
0.07221437 0.27424625 0.020386424 0.06481685 -0.0017604805 -0.019371929 0.07143162 -0.051444627
-0.060261842 -0.0017742721 0.08381057 0.008478767 0.043648876 -0.008243992 0.02141194 0.020023618
0.08806205 -0.0401127 -0.07065464 -0.013735834 0.010481637 0.0015958017 0.05132878 -0.034830056
0.0036888134 0.028484331 0.08483892 0.09100192 0.029498063 0.03734054 0.0725637 0.05739943
0.05175612 -0.06569901 0.08353544 -0.0028226827 -0.053353384 0.005864414 -0.010337471 0.08829532
0.015898876 0.0088075595 0.049316786 0.029156834 -0.023256816 -0.05700646 0.03762922 -0.015803052
0.039551374 0.10529847 0.12167554 0.012400721 0.11427233 -0.04626103 0.033418197 0.10272802
-0.0015273702 0.028766343 0.059344586 0.011958213 0.08766936 -0.06766464 -0.025624728 0.014946529
0.021253923 -0.04918526 0.08886394 0.02636658 -0.029421901 0.10857279 -0.0028988132 0.035355173
0.046123777 0.034254625 -0.016125506 0.055790048 0.069959976 -0.012877608 0.101065546 0.100001834
0.03931757 -0.027284054 0.042297866 0.050239675 0.044236865 0.034166016 0.054886293 -0.014849984
0.088067755 0.11957985 0.0075332187 0.07302695 0.02444258 0.04986139 -0.05303452 0.029813025
0.0114523955 -0.024810676 0.071940966 0.039864983 -0.06359776 0.13534965 0.09116524 0.091847464
0.047383226 0.08875715 0.108570926 0.05103207 -0.044003215 0.02550048 0.06239866 0.08436869
-0.05024618 0.07539513 0.050463863 0.031414784 0.10166505 -0.034370616 0.019190254 0.04306878
-0.01705188 -0.0063499124 0.0057733487 0.08404313 0.038503088 -0.06031948 -0.038433857 0.007558973
-0.05863138 -0.029444112 0.07175518 0.017728686 0.011197392 0.016831733 0.001620348 0.10348189

weight f4 [9, 128]
00000000: 2c19 01bd 55fa ca3d dd20 9c3d 40e8 8cbd
00000010: 4191 ef3d 942f a93d e7e5 b33d 119d 903c
00000020: 23eb 08bc 4679 0fbc 17fb bcbd 34c5 553d
00000030: a5f4 2abe 97f5 d8bd 787d b2bd b171 0f3e
00000040: f042 bbbc 0aa8 bf3c 220b 76bd 9794 f2bc
00000050: 74b2 873d 795a 813c 593a debd f152 f0bd
00000060: 5912 023e 2110 933d 184d 163e 4ce1 ae3d
00000070: 561e c83d e975 e03c 7ce8 f5bd 3ee5 4abe
00000080: 634b 843c 9aab a33d 76f1 a4b9 c3cb ddbd
00000090: d63b 2e3c a08e 08bd cfce f4bc 88a5 dabd
000000a0: c82f 1e3d b731 81bd e9e6 103e d3ef 023d
000000b0: 4f14 253d 3f3d 42bd b206 abbc 319d d3bd
000000c0: 2ace 8bbd ba98 0ebd 126a 19be e439 893d
000000d0: 22d1 9d3c ad61 64bc d3b2 0ebd 54aa b2bd
000000e0: 89df 70bc 93e7 12be 6cd1 1ebc be80 0d3e
000000f0: f7ad 02be a444 a1bd 6f88 b13d 855b 3ebd
00000100: 6c9f 1dbc c580 d23c 13fc 823d 0f3f 46bd
00000110: 4db5 c33b fca3 1d3e 1405 c53d a400 9bbd
00000120: 68d5 843d dbbb 8e3d 2354 59bd 3d50 e23d
00000130: 79ab 2abc 200e 38bd 9504 2f3e 1dcf 83bd
00000140: 2549 273e e10d 0ebd 56ab 10bd bc8c 8b3d
00000150: 392c d2bd 0d01 52bd dee8 cabd 6a57 ebbc
00000160: 8fdd 683d b53f 533d 3e23 df3d 02fe c83d
00000170: 9eaa bbbd affa 17be 1a7b ecbd 193a d63d
00000180: fcd6 013e 4291 fa3d 1717 2c3c 47d2 c0bd
00000190: 4061 d1bd 45f9 55bd e18b b8bd 0875 0cbe
000001a0: f755 1e3e f9bc 4abd 40dd 9ebd c3a4 5dbb
000001b0: 919e 0c3e 98a2 1f3d 70af 023e ff32 953d
000001c0: 8038 b1ba 7c04 a5bd b93c a13d f1f2 b73d
000001d0: b69c e0bd e37e 29bd ce85 ac3d 2e79 8ebd
000001e0: 834b 003c 6ab5 5d3e fa97 7d3d 5fe5 243e
000001f0: c494 dc3d a02a 92bd 76ea 1fbe 56da 36bd
00000200: 79ca b2bd 02b8 0abc e126 ad3d ccb1 153e
00000210: caec 13be 0d97 813d bc1d 993d ec42 2d3e
00000220: c8da 0abc f724 4f3c 65db 023e fd13 d63d
00000230: 3e44 d03d 72d0 ed3d f7c7 4cbd 0dc8 ac3c
00000240: 14f3 293d 5d29 5b3d 7bb3 063c 3fcf db3c
00000250: ccbf b4bd def0 b03d 2581 2cbc 79f1 eabd
00000260: c2c7 c83d c7e1 923d c8a4 e93c f34b a53b
00000270: 095a 04be e404 d33b 290b d13d 4998 c5bc
00000280: d308 0fbb 4fb2 6abd 55a7 9d3d d87d 033c
00000290: 4a91 fcbd 1037 113e 66a3 eabd e864 32bc
000002a0: 6f9a a8bc 73f9 c1bd 1b60 f1bd f9de 31bd
000002b0: a290 dfba 3259 803d 27e4 8c3c 55dd 10bc
000002c0: ea1a fdbd fe8e 8c3c e141 a73d 50c5 87bd
000002d0: 23d4 65bb 536b ed3d 07ad 51be 09b2 53be
000002e0: 512f 33bd a2c9 e6bd 7529 d93b b10e 2a3d
000002f0: add6 643e 2063 103d aab5 b7bc 0a70 033e
00000300: be32 b0bc da1c edbd fb2b fcbd 9788 f13d
00000310: cc6f b53d 47b3 bfbd 890b 013d d7a6 483d
00000320: 77bd e6bc 02fb 87bc bb42 3f3d f2bd c3bd
00000330: 1ce1 9abc 5df6 86bd 7387 c33c d9a8 29bd
00000340: 2a53 a0bb 9c1d f33d fc36 e9bd ab7b 4e3d
00000350: d333 a8bd 2900 10bd 0527 3dbd 1573 c2bb
00000360: 14b2 9ebd feff 0cbe 9dbf 0abd 0f71 4bbe
00000370: 1e16 043d e138 c03d 9ee3 f93c a8c5 ebba
00000380: d480 9cbd 8929 773d 6fa8 aabc 7920 e3bd
00000390: db72 f03d de57 a93d 2ceb e93d 71c2 5dbc
000003a0: 2cea 39be 3a7f ffbc 1efe f6bd 1162 da3c
000003b0: 9ebc 80bd 65b8 0abe 4e86 ef3d e6b6 0a3e
000003c0: b3d3 97bd 4de3 e83d a8bf 703d 93cb 063d
000003d0: 264a b33d b12e 1c3d cdf7 aa3d 7ae6 a3bd
000003e0: e348 723d 016a dfbc 15ed 06bd 5048 90be
000003f0: 16c0 773b 4267 d73c d787 2a3d 7f86 b93d
-0.031518146 0.09911028 0.07623456 -0.06880236 0.11697627 0.08261028 0.08784085 0.01765302
-0.008356842 -0.008756941 -0.09227579 0.05219002 -0.16694887 -0.105937175 -0.087153375 0.14008214
-0.022859067 0.023395557 -0.06006921 -0.029611869 0.06625834 0.015790211 -0.10850973 -0.1173457
0.12702312 0.07180811 0.14677846 0.08539066 0.09771411 0.027399974 -0.120072335 -0.19814011
0.016149228 0.07991715 -0.0003146042 -0.1082988 0.010634383 -0.033339143 -0.02988377 -0.10676104
0.038619787 -0.063083105 0.14150585 0.031966995 0.04030257 -0.04742169 -0.020877216 -0.10332716
-0.06826432 -0.03481362 -0.14981869 0.06700495 0.019264761 -0.013939303 -0.03483851 -0.08723894
-0.014701732 -0.14346151 -0.009693485 0.13818642 -0.12761675 -0.0787442 0.08668601 -0.046474
-0.009620529 0.025696168 0.063957356 -0.04839998 0.0059725405 0.15394586 0.09620109 -0.075684816
0.064860165 0.06969424 -0.053058755 0.110504605 -0.010416859 -0.044935346 0.17091592 -0.06435988
0.16336496 -0.034681205 -0.03531965 0.06813952 -0.10262341 -0.051270533 -0.09907697 -0.028728206
0.05685192 0.051574428 0.10895394 0.09814073 -0.09163402 -0.14841722 -0.11546917 0.104603
0.12679666 0.12234737 0.010503552 -0.09415107 -0.10223627 -0.052239675 -0.09011055 -0.13716519
0.1546248 -0.049496625 -0.07757044 -0.003382013 0.13732363 0.03897342 0.12762237 0.07285117
-0.0013520867 -0.08057496 0.0787291 0.08981884 -0.1096739 -0.041380774 0.08423959 -0.06956707
0.007830503 0.21651235 0.061912514 0.16103123 0.10770562 -0.07137036 -0.15616783 -0.044641815
-0.08730025 -0.008466722 0.08454681 0.14618605 -0.14445797 0.06327639 0.074763745 0.1692006
-0.008475013 0.01264309 0.12779005 0.10453031 0.10169266 0.116120234 -0.04999539 0.021091485
0.041491583 0.053506244 0.008221502 0.026832221 -0.08825645 0.08639692 -0.010528837 -0.114718385
0.09803726 0.0717197 0.028520957 0.0050444542 -0.1292497 0.006439792 0.10207207 -0.024120467
-0.0021825328 -0.057298955 0.07697932 0.008025609 -0.12332399 0.14181161 -0.11456947 -0.010888316
-0.020581452 -0.09471407 -0.11785909 -0.043425534 -0.0017056654 0.06267013 0.017198635 -0.008841832
-0.12358649 0.017158028 0.08166862 -0.06629431 -0.003506907 0.11592736 -0.20476161 -0.20673384
-0.043746296 -0.11268927 0.0066272565 0.041517917 0.22347517 0.035250783 -0.022425491 0.12835708
-0.02150857 -0.115777686 -0.12313076 0.117936306 0.08859214 -0.09360366 0.03150514 0.048987236
-0.028166516 -0.016599182 0.0466945 -0.095577136 -0.018906169 -0.06589959 0.023868298 -0.04142079
-0.0048927264 0.11870882 -0.113874406 0.050410908 -0.0821301 -0.035156403 -0.04617979 -0.005934129
-0.077488095 -0.13769528 -0.033874143 -0.19867347 0.032247655 0.09385849 0.030504044 -0.0017987983
-0.076417595 0.060342345 -0.020832269 -0.11090178 0.11740657 0.082687125 0.114218086 -0.013535128
-0.18155736 -0.031188596 -0.12060188 0.02665809 -0.06285976 -0.13546903 0.116955385 0.13546333
-0.07413425 0.11371479 0.058776528 0.032908987 0.08754377 0.038130466 0.083480455 -0.08002944
0.05915154 -0.027272226 -0.032940943 -0.2818017 0.00378037 0.026294354 0.041633453 0.09058856

bias f4 [9]
00000000: a72f 923d 591f 91bc f9e6 adbd 15df 073d
00000010: 1579 22bd e7e4 ecbd 04e2 dcbc 4b66 6cbd
00000020: a24a 28be
0.07137995 -0.017715143 -0.0849132 0.033171732 -0.039666254 -0.11567097 -0.026963241 -0.05771474
-0.1643472
