char_emb/code/output/model_adult_gru_128.pt (torch_old, 277255 bytes, 7 tensors)

weight f4 [40, 30]
1.2320122 -1.3126925 1.795623 0.5658038 0.28000578 -0.037989058 -1.3790545 0.3759414
-1.1472098 -1.789095 -1.0299629 -0.98374474 0.7495945 0.09828154 0.07422515 0.25062823
0.37848723 -0.9821245 -1.0575738 0.03293889 -1.8590146 -2.6969323 -0.37695155 0.1715696
0.30527663 -0.80029905 -0.61885655 1.5289377 -1.0462251 0.39812067 -0.9056287 0.19919264
0.10587534 0.069687046 1.1871051 -1.1373898 -0.78534925 -0.6654515 -0.44500232 -1.643531
0.70564026 0.1605782 -0.6782952 -0.48155454 0.012671787 -0.380491 0.4884745 -0.5842027
-0.07233127 0.110592544 0.7126607 0.23053095 -0.90847695 -1.3170604 0.6261996 -0.41386804
-0.83113176 1.340124 -1.0182927 0.20910342 1.6540254 -1.9351237 -1.610741 0.39849448
-1.2682848 1.1060485 0.0052359984 0.117462754 -0.43551522 -0.46263707 0.43869174 1.3777926
0.69897795 0.010449027 -0.41379142 -0.56453556 1.1608092 0.94142926 -0.4050007 -0.3782814
1.234623 -1.406134 -0.8029669 1.135792 -1.4914141 0.22823137 0.74208426 0.85927993
-0.3002785 -0.14676028 -0.2509968 -0.02964763 -2.3117971 -2.387986 -0.054351512 0.42773318
-0.4503861 -0.8814006 0.41198772 -0.37017974 -0.2658281 -1.4181936 1.0127938 -0.67680174
-0.26285183 -1.2273022 -0.57786655 1.081546 -0.24352053 2.4586473 -2.8636386 0.033589993
1.4518977 -2.1244633 0.35996965 0.3208508 2.328921 -0.6964544 0.41214666 -0.61049694
0.1537683 0.18063697 -0.6621446 0.3547404 -0.37426612 -2.001436 -0.13871938 -0.2408394
1.1078191 -1.4264514 -0.21663284 -1.984473 0.14143719 1.0174807 1.351606 -0.14058194
-0.27370715 -0.24755435 0.43398815 2.1368883 1.4162068 1.704252 -0.0006018503 -0.35036242
0.7734436 0.0897767 -0.5386035 -1.0573792 0.27068973 0.88009953 -0.70922315 0.67187375
-0.2244038 -0.8549787 0.42579925 -0.52226555 -0.55649006 0.21401006 1.2148468 -0.09061258
-1.6236639 -0.22276776 0.48722208 -0.7882186 -1.3366094 -0.48618972 0.3439011 0.02958094
-1.3334285 1.0586458 1.3486968 0.4726615 0.69498616 0.36422357 0.41450223 -1.3297027
-0.06215509 0.26530036 1.0634326 -1.5581537 -0.27822986 -0.70608824 1.2902255 -1.6801653
1.4466602 -1.4094175 0.97041243 0.69705707 -0.4443738 -0.24621241 0.30232617 -0.89279807
0.5246161 1.6402043 -0.3320727 -0.059947718 1.6438715 2.2995224 -0.68127227 -0.26037177
-0.031549294 -0.37403154 -1.7152902 1.3700072 -0.11446183 -1.1004949 -1.0121108 1.1241742
-0.68920624 -0.027871152 1.2815537 -0.43028843 -0.8673952 1.0319356 0.7716209 0.8953872
0.7473719 0.6700433 0.15700367 -0.15758742 1.5278416 1.1312894 -0.06507822 -0.9562555
-0.34039468 -1.3367358 1.7678707 -0.41452298 -1.3206158 0.4731097 0.42871287 0.34483084
2.6961606 -1.0092702 0.29849166 -0.13317856 -0.4463416 0.020720288 1.052845 -0.5624898
0.18885434 -0.7036168 0.4640951 -0.8981871 0.07355369 1.7934372 -0.13462733 0.80390275
-0.15236482 -0.013838186 -1.6443678 -1.0666342 -0.043757465 0.85015804 -0.8814396 0.011041335
00000000: 93b2 9d3f 4f06 a8bf f9d6 e53f 85d8 103f
00000010: eb5c 8f3e 6a9a 1bbd dc84 b0bf 647b c03e
00000020: c5d7 92bf 1101 e5bf d3d5 83bf b2d6 7bbf
00000030: 6de5 3f3f d547 c93d 5b03 983d 5852 803e
00000040: 14c9 c13e 836c 7bbf 945e 87bf eeea 063d
00000050: 31f4 edbf 8a9a 2cc0 cbff c0be f1af 2f3e
00000060: 384d 9c3e 66e0 4cbf 626d 1ebf 3bb4 c33f
00000070: b4ea 85bf 79d6 cb3e 48d7 67bf 28f9 4b3e
00000080: 2cd5 d83d 15b8 8e3d 0ff3 973f fd95 91bf
00000090: a60c 49bf 085b 2abf 58d7 e3be 395f d2bf
000000a0: d7a4 343f 9d6e 243e c1a4 2dbf 518e f6be
000000b0: 549d 4f3c b7cf c2be 5419 fa3e 4f8e 15bf
000000c0: 6b22 94bd 587e e23d ee70 363f 4e10 6c3e
000000d0: f291 68bf 6f95 a8bf 9e4e 203f 83e6 d3be
000000e0: 0dc5 54bf 2f89 ab3f 6a57 82bf 351f 563e
000000f0: 1bb7 d33f 22b2 f7bf c32c cebf 7807 cc3e
00000100: 2857 a2bf ff92 8d3f bd92 ab3b 5090 f03d
00000110: dafb debe c4de ecbe 349c e03e 825b b03f
00000120: 38f0 323f 6532 2b3c 78dc d3be 6785 10bf
00000130: 6595 943f 8201 713f 405c cfbe 1aae c1be
00000140: 2008 9e3f 33fc b3bf 3d8f 4dbf a261 913f
00000150: a8e6 bebf 7cb5 693e 3cf9 3d3f c5f9 5b3f
00000160: 1bbe 99be 5448 16be a782 80be 96df f2bc
00000170: 7cf4 13c0 c3d4 18c0 b19f 5ebd d8ff da3e
00000180: 0299 e6be 78a3 61bf 0ef0 d23e 3388 bdbe
00000190: 9f1a 88be 5e87 b5bf 3aa3 813f e142 2dbf
000001a0: 8494 86be 3d18 9dbf 10ef 13bf 1970 8a3f
000001b0: 725d 79be 7a5a 1d40 db45 37c0 a995 093d
000001c0: c9d7 b93f 35f7 07c0 f14d b83e 8e46 a43e
000001d0: 0b0d 1540 d64a 32bf e304 d33e 8749 1cbf
000001e0: 7075 1d3e e6f8 383e 4f82 29bf 89a0 b53e
000001f0: cf9f bfbe 8717 00c0 740c 0ebe 9b9e 76be
00000200: 04cd 8d3f f695 b6bf 00d5 5dbe 3603 febf
00000210: e9d4 103e cf3c 823f 6d01 ad3f b6f4 0fbe
00000220: 5823 8cbe e37e 7dbe b233 de3e c7c2 0840
00000230: 4446 b53f ee24 da3f 7dc5 1dba b462 b3be
00000240: 6600 463f d9dc b73d ebe1 09bf 3458 87bf
00000250: d897 8a3e 344e 613f a68f 35bf ebff 2b3f
00000260: 1cca 65be e2df 5abf 5c02 da3e 32b3 05bf
00000270: 2276 0ebf 7425 5b3e 1a80 9b3f 1793 b9bd
00000280: 38d4 cfbf 3b1d 64be 2c75 f93e b2c8 49bf
00000290: 0416 abbf dced f8be ce13 b03e ba53 f23c
000002a0: c9ad aabf b581 873f 19a2 ac3f b000 f23e
000002b0: 9dea 313f 837b ba3e a339 d43e b333 aabf
000002c0: 5696 7ebd 73d5 873e 8f1e 883f 9571 c7bf
000002d0: 2574 8ebe 33c2 34bf 1c26 a53f a80f d7bf
000002e0: 292c b93f cb67 b4bf f36c 783f 5572 323f
000002f0: f684 e3be 1b1f 7cbe 7fca 9a3e 6a8e 64bf
00000300: 3e4d 063f 37f2 d13f 6f05 aabe bd8b 75bd
00000310: 626a d23f 602b 1340 dc67 2ebf 734f 85be
00000320: d539 01bd 1081 bfbe a18e dbbf 655c af3f
00000330: f76a eabd 04dd 8cbf d98c 81bf f1e4 8f3f
00000340: d26f 30bf 0b52 e4bc f409 a43f c44e dcbe
00000350: 9d0d 5ebf 7716 843f f388 453f 1838 653f
00000360: c453 3f3f f587 2b3f 92c5 203e 995e 21be
00000370: 5090 c33f 17ce 903f bb47 85bd 29cd 74bf
00000380: 3648 aebe 291a abbf 9649 e23f 5b3c d4be
00000390: f009 a9bf 6f3b f23e 4180 db3e ab8d b03e
000003a0: e58d 2c40 c42f 81bf e6d3 983e f65f 08be
000003b0: e386 e4be 98bd a93c a0c3 863f 55ff 0fbf
000003c0: 0863 413e 3b20 34bf df9d ed3e 97ef 65bf
000003d0: 51a3 963d 5a8f e53f bfdb 09be 92cc 4d3f
000003e0: 8605 1cbe 8fb9 62bc a57a d2bf 7887 88bf
000003f0: 073b 33bd f5a3 593f 07a6 61bf b7e6 343c

weight_ih_l0 f4 [384, 30]
0.014093166 0.30759546 -0.26099256 -0.10066725 0.18492743 0.20278157 -0.38460645 -0.079052255
-0.0856414 0.05247876 0.062354 0.15045963 0.19726218 -0.25533646 0.06964107 0.14880581
0.19749366 -0.18713835 0.027474474 0.111251935 0.09646297 0.1769887 -0.10859147 0.108988345
-0.04299839 -0.057108726 -0.0028960865 0.026397586 -0.06556966 -0.08919476 -0.19768748 0.06128589
0.21295024 -0.097823694 -0.050169546 -0.2972564 0.11471043 0.0343092 0.19378924 0.0075953593
-0.1333647 0.027626622 -0.17374913 -0.06206695 -0.14572647 0.09213157 -0.11134367 0.04744489
-0.13368045 -0.01041409 -0.011545889 -0.042075194 0.22123909 0.028758798 0.15298435 0.004309632
0.026889324 -0.101118326 -0.12684569 0.028227339 0.025107598 0.13682719 0.0729709 -0.06875242
-0.12772568 0.067548804 0.020741463 0.07181093 0.14440963 0.017746795 0.07648214 0.19951078
-0.12724122 0.090220384 -0.06019166 0.06863102 0.021440784 0.04529678 0.08618761 0.1647716
0.076364905 0.13300054 0.025250237 0.080622524 -0.08529297 -0.1182064 -0.10038329 0.047247704
0.002321437 -0.08284153 -0.04620066 -0.14320877 0.099308625 -0.28054196 -0.11057956 -0.07088101
0.03209181 0.21826434 0.314662 -0.020696789 -0.14489597 -0.040447626 0.16804844 0.29673526
-0.06491472 0.16614561 -0.06591798 0.17845306 0.19685204 0.067326106 -0.060166623 0.18585342
0.0845179 -0.18558852 -0.20481221 0.2343907 0.10374823 0.06919339 0.20154807 -0.011478695
-0.11925293 -0.05330994 0.018169135 -0.037592843 0.23331492 -0.06383259 0.012831159 0.18811987
0.13189138 0.14704238 0.26375216 -0.1120718 -0.045065958 0.22801019 0.15521248 0.06480927
-0.09653104 0.23817937 -0.08021491 -0.057120647 -0.008038795 0.25625494 -0.07197794 -0.061685573
0.34246993 -0.23431835 0.07260774 0.008503631 -0.0032476375 -0.06133654 -0.04661387 0.1686558
-0.18165563 -0.124139 -0.008605038 0.18647894 0.23646721 0.14581816 0.2578968 0.13332802
0.22244631 -0.024648847 -0.13247253 -0.13008264 -0.26191157 0.05577979 -0.080086045 0.039413337
0.120354556 0.013819282 0.18767864 -0.16917259 -0.111762926 0.09092249 -0.20462675 -0.24355383
-0.05571329 -0.116782196 -0.06149616 -0.26343086 -0.032072622 -0.09827426 0.0957252 0.06413385
-0.017980756 0.12066963 0.16372523 0.06311934 0.20640305 0.11510848 -0.054677814 0.22166793
-0.18310082 -0.11009714 -0.17845653 0.068411075 -0.058076728 -0.020964682 0.0408223 -0.0139245195
0.15494365 -0.14106822 0.23721965 0.22772427 -0.027625943 -0.030227263 0.13295256 0.18678081
-0.1620294 -0.030545957 -0.13725051 0.027116146 -0.15365297 -0.083467565 0.046650566 0.07393672
0.03909666 -0.010433311 0.16931489 -0.022438226 -0.019485425 0.062368453 -0.09685707 0.019032001
0.009384642 -0.08235253 -0.024560634 0.057734247 0.1473964 0.07546716 0.05550829 -0.060218737
0.06617796 -0.11751067 0.089448124 -0.13598694 0.100596085 -0.16283278 -0.115616985 -0.07389493
0.17557877 0.175253 0.039515402 -0.18124315 0.088987805 0.023788216 0.2508232 0.13768041
0.26360968 0.15183744 0.25086665 0.04442789 -0.3910784 -0.16304798 0.0064131143 0.12580547
00000000: 06e7 663c 277d 9d3e d1a0 85be a22a cebd
00000010: 9e5d 3d3e f9a5 4f3e 23eb c4be 26e6 a1bd
00000020: c264 afbd f8f3 563d e866 7f3d 1712 1a3e
00000030: 19ff 493e 76bb 82be fa9f 8e3d 8d60 183e
00000040: c73b 4a3e 32a1 3fbe 2612 e13c 0ed8 e33d
00000050: 618e c53d 873c 353e 3465 debd 4835 df3d
00000060: 141f 30bd d7ea 69bd 45cc 3dbb c03f d83c
00000070: 6349 86bd beab b6bd 966e 4abe ea06 7b3d
00000080: a10f 5a3e ca57 c8bd 957e 4dbd fe31 98be
00000090: 4ded ea3d ce87 0c3d b070 463e 7ee2 f83b
000000a0: c290 08be 3a51 e23c 4beb 31be ea39 7ebd
000000b0: 5239 15be 7aaf bc3d 2608 e4bd 9355 423d
000000c0: 87e3 08be dc9f 2abc f82a 3dbc 0a57 2cbd
000000d0: 808c 623e 9297 eb3c eea7 1c3e d037 8d3b
000000e0: 0047 dc3c 2017 cfbd d6e3 01be 053d e73c
000000f0: 73ae cd3c 6d1c 0c3e c471 953d 12ce 8cbd
00000100: 85ca 02be 0757 8a3d 00ea a93c 9c11 933d
00000110: 1ee0 133e ba61 913c aba2 9c3d 8e4c 4c3e
00000120: 864b 02be 77c5 b83d 888b 76bd 6c8e 8c3d
00000130: 95a4 af3c 1e89 393d 2183 b03d e3b9 283e
00000140: 3465 9c3d 4b31 083e 96d9 ce3c 6c1d a53d
00000150: 15ae aebd 3216 f2bd c195 cdbd cf86 413d
00000160: 4023 183b d2a8 a9bd e73c 3dbd 52a5 12be
00000170: 5262 cb3d 32a3 8fbe 8977 e2bd 102a 91bd
00000180: b472 033d b080 5f3e 611b a13e 508c a9bc
00000190: 9c5f 14be 69ac 25bd e414 2c3e afed 973e
000001a0: 02f2 84bd 1322 2a3e 0200 87bd 66bc 363e
000001b0: 9593 493e 45e2 893d 4771 76bd 5c50 3e3e
000001c0: b917 ad3d eb0a 3ebe 4bba 51be 1e04 703e
000001d0: f479 d43d 44b5 8d3d 9e62 4e3e 2311 3cbc
000001e0: e13a f4bd 865b 5abd 70d7 943c f4fa 19bd
000001f0: 1bea 6e3e a9ba 82bd c839 523c 7fa2 403e
00000200: 890e 073e 4792 163e 860a 873e e685 e5bd
00000210: 1597 38bd 817b 693e 05f0 1e3e b9ba 843d
00000220: 11b2 c5bd 4be5 733e b747 a4bd 57f7 69bd
00000230: 26b5 03bc d933 833e 2c69 93bd 03aa 7cbd
00000240: 3858 af3e 26f1 6fbe 5eb3 943d d052 0b3c
00000250: 51d6 54bb 063c 7bbd 2fee 3ebd 1bb4 2c3e
00000260: ef03 3abe 973c febd 25fc 0cbc 56f4 3e3e
00000270: 7624 723e 5b51 153e 0d0b 843e 2487 083e
00000280: f7c8 633e 61ec c9bc e1a6 07be 6234 05be
00000290: 4619 86be 5979 643d 2704 a4bd e16f 213d
000002a0: 737c f63d 456a 623c d42e 403e 943b 2dbe
000002b0: f6e3 e4bd 9235 ba3d ad89 51be 2d66 79be
000002c0: 9e33 64bd 812b efbd 66e3 7bbd 69e0 86be
000002d0: 955e 03bd 0444 c9bd 930b c43d 9c58 833d
000002e0: 614c 93bc a421 f73d 96a7 273e b644 813d
000002f0: 525b 533e ffbd eb3d d8f5 5fbd ebfc 623e
00000300: c87e 3bbe 9c7a e1bd 4fbd 36be 1b1b 8c3d
00000310: dde1 6dbd 20be abbc 4935 273d ab23 64bc
00000320: 8ca9 1e3e 3074 10be b5e9 723e 8d30 693e
00000330: cd4f e2bc 2a9f f7bc b724 083e 7843 3f3e
00000340: 09eb 25be 843b fabc 668b 0cbe ae22 de3c
00000350: 3457 1dbe 0bf1 aabd aa14 3f3d 236c 973d
00000360: d223 203d 7af0 2abc e260 2d3e 5fd0 b7bc
00000370: e69f 9fbc 1076 7f3d 005d c6bd 00e9 9b3c
00000380: 0bc2 193c 71a8 a8bd 6233 c9bc bf7a 6c3d
00000390: 15ef 163e 878e 9a3d a95c 633d eca7 76bd
000003a0: 4f88 873d 6fa9 f0bd 9430 b73d 2940 0bbe
000003b0: 5205 ce3d a3bd 26be 99c8 ecbd 3a56 97bd
000003c0: ecca 333e 8675 333e e7da 213d ce97 39be
000003d0: 3d3f b63d 81df c23c e66b 803e 18fc 0c3e
000003e0: d9f7 863e 467b 1b3e 9871 803e 05fa 353d
000003f0: 6e3b c8be 0df6 26be 1a25 d23b 26d3 003e

weight_hh_l0 f4 [384, 128]
-0.008115822 -0.0817929 0.05587311 -0.030434338 -0.123612545 -0.083077855 0.023792483 -0.008315611
0.16930512 -0.11865625 0.04513905 0.056505043 0.077094056 -0.08244158 -0.11992501 -0.11042551
-0.046933163 -0.07229977 -0.15428562 0.34758472 -0.07492705 -0.08943872 0.07931466 -0.027429322
0.17900269 0.06721327 -0.046337467 0.005755238 -0.042638775 0.08252473 0.04647453 -0.058672648
-0.032579377 0.10240461 0.13537328 0.027674071 -0.04278847 -0.04132863 0.19071528 -0.14103483
0.017943958 0.10991204 -0.10660752 0.07192482 0.09300855 0.023493761 -0.18637775 -0.20868857
0.030685667 -0.25207415 0.055569224 -0.14736629 -0.044909652 -0.011239529 -0.00028911312 -0.14376493
-0.014582605 0.0041001565 -0.06258906 0.20301318 -0.10250098 -0.081819646 -0.098368205 -0.23057742
0.07266658 -0.038968995 0.13142742 -0.14710005 -0.111587346 0.0043834997 0.04400873 0.19528432
0.044942625 -0.06166208 -0.16147172 0.16893853 0.058844216 -0.060327858 -0.10200188 0.09221988
-0.03810098 -0.046018988 -0.07463199 0.039177757 -0.07399807 0.08595492 0.09170566 -0.004300602
0.12953526 -0.14353165 0.03446636 -0.2007972 -0.12835743 -0.05779323 0.052554984 -0.0019673002
-0.04110883 0.026473518 -0.049598493 -0.028321682 -0.15632707 -0.061458275 -0.06622013 0.007991218
0.02278914 -0.02689792 0.1113376 -0.16813289 -0.052885693 0.013274146 0.11436677 0.04637392
0.16968022 0.048666704 -0.048607193 0.085226126 0.16633373 -0.01600491 -0.09718039 -0.20439473
0.08599496 -0.10469811 -0.10058668 0.08229418 -0.12807916 -0.09676142 -0.26985553 -0.0022635628
0.060305346 0.08538231 0.01750727 0.024446215 0.11416197 0.02623778 0.14956251 -0.077154316
0.008536917 -0.1982013 0.09753395 -0.17240217 0.15652487 -0.22303577 -0.17098911 0.17575842
-0.060866386 -0.0148639735 0.2223602 -0.223713 0.19763362 0.045981806 -0.13237399 -0.13599072
0.112059206 0.06080781 0.06295696 -0.103668906 0.08181467 0.10158257 -0.2072175 -0.11381433
0.10124318 -0.01610207 0.072545074 -0.28184837 -0.07985849 0.11030668 -0.15629981 0.2199259
-0.039236534 -0.03958784 0.08814157 -0.034111336 -0.046110455 -0.0898576 -0.10660941 0.0492249
0.105025664 -0.0054962626 -0.06160642 -0.053038396 -0.064674854 -0.15377812 0.15574083 0.08597589
0.05950299 0.116248906 -0.13752364 0.016291166 -0.036413718 -0.058296442 -0.11350714 -0.014294774
0.14056732 0.19049396 0.26321715 0.17348573 0.37115377 0.027772903 -0.12947355 -0.34008214
0.10111837 0.11235012 -0.0103641655 0.10766133 0.26782656 -0.0146103 0.034418114 0.107188076
0.04322306 -0.016541969 0.0569859 -0.04595135 0.004990043 0.042720426 0.048692066 -0.17214222
-0.024412543 0.16880433 0.0048793172 -0.07127612 -0.084572725 0.109321944 -0.050762545 -0.073358536
-0.10762709 0.05591136 0.08307595 -0.14495167 0.063094765 -0.22327538 -0.016088337 0.10810808
-0.17322573 0.115614586 0.11967032 0.0459222 -0.040068135 0.043115024 0.05800624 -0.039680418
0.12961023 -0.15308742 0.0011685546 0.070071384 -0.08523329 -0.06388734 -0.010166272 0.083852954
-0.041094914 -0.16092813 0.12357597 0.093295835 0.3117178 0.02452307 0.21001415 -0.032477047
00000000: 3af8 04bc 0983 a7bd 34db 643d 6f51 f9bc
00000010: 9328 fdbd b924 aabd 74e8 c23c 333e 08bc
00000020: 525e 2d3e 0c02 f3bd b9e3 383d d571 673d
00000030: 7de3 9d3d 22d7 a8bd 3e9b f5bd c526 e2bd
00000040: fd3c 40bd e711 94bd 0dfd 1dbe a0f6 b13e
00000050: 5a73 99bd a62b b7bd b96f a23d 75b3 e0bc
00000060: 7b4c 373e 1ca7 893d 5bcc 3dbd 6f96 bc3b
00000070: ffa5 2ebd ba02 a93d 145c 3e3d bb52 70bd
00000080: f471 05bd 82b9 d13d 4b9f 0a3e bcb4 e23c
00000090: f642 2fbd 3648 29bd de4a 433e 6f6b 10be
000000a0: 35ff 923c 9019 e13d 0b55 dabd 524d 933d
000000b0: 447b be3d fd75 c03c cfd9 3ebe 75b2 55be
000000c0: 8260 fb3c dd0f 81be 8e9c 633d 30e7 16be
000000d0: 2ff3 37bd 0026 38bc 1b94 97b9 1d37 13be
000000e0: e1eb 6ebc 9b5a 863b b12e 80bd b0e2 4f3e
000000f0: 09ec d1bd 0f91 a7bd 4575 c9bd 7d1c 6cbe
00000100: 37d2 943d f49d 1fbd e994 063e 65a1 16be
00000110: e887 e4bd 76a3 8f3b 8042 343d 9df8 473e
00000120: c215 383d 6191 7cbd d858 25be 39fe 2c3e
00000130: a206 713d 581a 77bd 5de6 d0bd c7dd bc3d
00000140: c60f 1cbd 687e 3cbd a8d8 98bd db78 203d
00000150: 4d8c 97bd 2209 b03d 2dd0 bb3d 10ec 8cbb
00000160: e4a4 043e f6f9 12be 992c 0d3d c89d 4dbe
00000170: 2170 03be 98b8 6cbd e543 573d d2ed 00bb
00000180: bc61 28bd fede d83c ca27 4bbd df02 e8bc
00000190: 3414 20be acbb 7bbd 6b9e 87bd 99ed 023c
000001a0: 4ab0 ba3c 0759 dcbc f804 e43d 072b 2cbe
000001b0: ab9e 58bd ce7b 593c 2039 ea3d 94f2 3d3d
000001c0: a7c0 2d3e bd56 473d 5618 47bd 098b ae3d
000001d0: 6453 2a3e bb1c 83bc 8306 c7bd da4c 51be
000001e0: 201e b03d f66b d6bd 6400 cebd da89 a83d
000001f0: 2f27 03be da2a c6bd 812a 8abe 4858 14bb
00000200: bd02 773d ecdc ae3d 686b 8f3c 6e43 c83c
00000210: c0cd e93d 9df0 d63c ea26 193e 1503 9ebd
00000220: 6dde 0b3c 48f5 4abe e1bf c73d 328a 30be
00000230: 0e48 203e 7d63 64be c517 2fbe 04fa 333e
00000240: 084f 79bd 0688 73bc 64b2 633e 0515 65be
00000250: 7860 4a3e 6b57 3c3d 0c8d 07be 2741 0bbe
00000260: 4c7f e53d 9c11 793d 94ef 803d 5d50 d4bd
00000270: 738e a73d 860a d03d d330 54be 7d17 e9bd
00000280: 9658 cf3d 7de8 83bc 8392 943d 6e4e 90be
00000290: d98c a3bd 78e8 e13d 0f0d 20be 4134 613e
000002a0: 7db6 20bd dc26 22bd 9183 b43d 54b8 0bbd
000002b0: 51de 3cbd 4307 b8bd 0956 dabd 0ca0 493d
000002c0: b217 d73d fe19 b4bb 0357 7cbd ca3e 59bd
000002d0: 4074 84bd 0378 1dbe 867a 1f3e 2114 b03d
000002e0: 68b9 733d e813 ee3d ffd2 0cbe 0d75 853c
000002f0: 8d26 15bd 40c8 6ebd 6e76 e8bd a134 6abc
00000300: e1f0 0f3e d910 433e 66c4 863e 3ea6 313e
00000310: de07 be3e 0084 e33c b794 04be 3f1f aebe
00000320: 2617 cf3d d217 e63d 76ce 29bc 8b7d dc3d
00000330: 9020 893e 0a60 6fbc 02fa 0c3d 6c85 db3d
00000340: aa0a 313d 0683 87bc 0c6a 693d 7c37 3cbd
00000350: 8483 a33b 9dfb 2e3d 5571 473d 0d46 30be
00000360: d0fc c7bc 0bdb 2c3e aee2 9f3b 37f9 91bd
00000370: 7734 adbd 2fe4 df3d 63ec 4fbd 003d 96bd
00000380: 976b dcbd 4f03 653d b923 aa3d 366e 14be
00000390: d437 813d 4da2 64be b0cb 83bc c567 dd3d
000003a0: 1662 31be 57c7 ec3d b615 f53d eb18 3c3d
000003b0: 7c1e 24bd 6199 303d f397 6d3d ef87 22bd
000003c0: 8bb8 043e f3c2 1cbe 302a 993a 9681 8f3d
000003d0: cb8e aebd 5ed7 82bd 6f90 26bc 19bb ab3d
000003e0: 2453 28bd 58ca 24be 6615 fd3d e311 bf3d
000003f0: 7a99 9f3e 9be4 c83c f30d 573e a706 05bd

bias_ih_l0 f4 [384]
-0.025873149 0.072786294 0.13713656 0.15067337 0.09606471 0.10150485 0.12992205 0.065505035
0.068080805 0.10384938 0.022223951 0.088967614 0.0050779157 -0.08156006 0.09304461 0.0897916
0.035542306 0.13421132 0.13942553 0.020740269 0.08100864 0.07389166 0.27054164 0.15749305
0.16174258 0.09881865 0.09625343 0.10459263 0.10962329 0.13604683 0.037883133 0.10769588
0.15318334 0.008870549 0.10296719 0.1204001 0.017688977 0.046351224 0.030437995 0.0034646527
0.034085874 0.13352795 0.07692136 0.1335313 -0.025189647 0.057517234 0.07616848 0.15777808
0.042257126 0.1419515 -0.0033312088 0.107282296 -0.04960621 0.19961694 0.20687686 0.14320335
0.0984616 0.05334741 0.15505795 0.022470502 0.07106261 0.075619906 0.10193788 0.11788295
0.16426045 0.12347617 0.151768 0.0441171 0.08922794 0.073058255 0.122896366 0.13207053
-0.032564975 0.13632697 0.06812897 0.111653 -0.027215464 0.09584971 0.014219328 -0.013266459
0.14983192 0.18670957 0.055386502 0.063554965 0.17887339 0.11231233 -0.03043038 0.042774033
0.098069794 0.12692584 0.05751085 0.033372525 0.029193845 -0.03879042 0.12590863 0.12851281
0.16056202 -0.026131665 -0.07652647 0.16493624 0.1053594 -0.037454966 0.0019243425 0.08914581
0.060404487 0.1495586 0.002474401 0.16992453 -0.036444306 0.09663217 0.15289102 0.04221727
0.05100993 0.10969696 0.020350872 0.1391749 -0.045670185 0.0727049 0.10474135 0.026171267
0.038058158 -0.0048519503 0.11144167 0.116190486 -0.04432953 0.1361404 0.021570517 0.08768855
0.18423489 -0.08953368 -0.09914094 0.07674518 -0.18898769 -0.0039875344 -0.008167263 -0.058865752
-0.1369566 0.30750942 0.008664853 -0.030817954 -0.13622248 -0.062685795 -0.21458352 -0.07500306
-0.10774732 -0.13800758 -0.19618325 -0.05917131 0.6115379 -0.101258434 -0.10559933 0.15888384
-0.22699375 -0.2768688 0.0078001353 -0.19479206 -0.15657452 -0.013568421 0.067710996 0.017986592
-0.16114073 -0.21758299 -0.050030205 0.43326026 -0.081484444 -0.18338029 0.056125917 0.30371577
-0.08371068 0.0035231253 -0.12856786 -0.063172035 -0.07847535 0.39925763 -0.21303478 -0.029185588
-0.014586059 0.14260846 0.07854268 -0.09014284 0.087966 0.10432507 -0.07881099 -0.13181023
-0.19507237 -0.054775596 -0.20004685 -0.05607498 0.013972329 0.38636836 -0.05191224 -0.18232311
-0.24625987 -0.002716493 -0.00036554746 -0.031241635 -0.08414937 -0.1473936 -0.1899397 -0.103687495
-0.040657785 0.06687249 -0.042668708 -0.08442429 0.26436362 -0.048720736 -0.021478571 -0.011538516
-0.18215103 -0.057689052 0.08143049 -0.010635389 -0.22527501 -0.102290474 -0.08234302 0.021318665
-0.04506877 -0.03806673 0.02137755 -0.1630463 0.3360264 0.06503456 0.23322776 -0.0006632568
-0.00054936606 0.035792667 0.48618782 0.018364334 0.11643563 -0.17554507 -0.10034414 -0.05704897
-0.068522625 -0.07709946 0.05227554 -0.20079468 -0.057499435 0.023888735 -0.04315202 -0.111775815
0.05074909 -0.22211005 0.026241755 -0.090160675 0.027985489 -0.06663087 0.077793986 0.02755014
-0.10571447 -0.028311566 0.5473345 -0.15719478 0.11204548 -0.08001766 0.24041715 0.004677159
00000000: edf3 d3bc fb10 953d 876d 0c3e 1f4a 1a3e
00000010: 93bd c43d c6e1 cf3d 490a 053e 8127 863d
00000020: f36d 8b3d fcae d43d 010f b63c a734 b63d
00000030: a564 a63b f608 a7bd 2c8e be3d a9e4 b73d
00000040: cf94 113d b16e 093e 91c5 0e3e 7fe7 a93c
00000050: dce7 a53d 8354 973d 6f84 8a3e dc45 213e
00000060: d99f 253e 6f61 ca3d 8520 c53d a934 d63d
00000070: 2d82 e03d dc4f 0b3e 582b 1b3d a88f dc3d
00000080: 18dc 1c3e c755 113c 76e0 d23d 5494 f63d
00000090: 79e8 903c c8da 3d3d 1a59 f93c 3a0f 633b
000000a0: a19d 0b3d 8dbb 083e f288 9d3d 6ebc 083e
000000b0: 855a cebc 3197 6b3d 38fe 9b3d 9490 213e
000000c0: cf15 2d3d bc5b 113e 6950 5abb d2b6 db3d
000000d0: e22f 4bbd 6268 4c3e 87d7 533e e6a3 123e
000000e0: 3ca6 c93d d082 5a3d 83c7 1e3e 0f14 b83c
000000f0: 4689 913d 9cde 9a3d cfc4 d03d 9e6c f13d
00000100: e433 283e 13e1 fc3d 1269 1b3e 22b4 343d
00000110: 23bd b63d 919f 953d 17b1 fb3d 7f3d 073e
00000120: da62 05bd 4c99 0b3e 3487 8b3d 54aa e43d
00000130: f7f2 debc da4c c43d 2ff8 683c 905b 59bc
00000140: 8a6d 193e cb30 3f3e f5dc 623d 1b29 823d
00000150: 962a 373e 0204 e63d 2249 f9bc d333 2f3d
00000160: d1d8 c83d d9f8 013e 7f90 6b3d a1b1 083d
00000170: ee27 ef3c b4e2 1ebd 31ee 003e dd98 033e
00000180: 5f6a 243e 1312 d6bc e9b9 9cbd 0ce5 283e
00000190: abc6 d73d 616a 19bd 383a fc3a 1492 b63d
000001a0: b26a 773d e425 193e 8f29 223b b200 2e3e
000001b0: a046 15bd 16e7 c53d 778f 1c3e 04ec 2c3d
000001c0: caef 503d cda8 e03d dfb6 a63c dd83 0e3e
000001d0: a910 3bbd 4ee6 943d a282 d63d 2065 d63c
000001e0: dfe2 1b3d 1cfd 9ebb 883b e43d 47f5 ed3d
000001f0: e292 35bd 6468 0b3e a7b4 b03c 0e96 b33d
00000200: 12a8 3c3e 6f5d b7bd 680a cbbd 942c 9d3d
00000210: fd85 41be dda9 82bb fccf 05bc 371d 71bd
00000220: 5a3e 0cbe e071 9d3e 07f7 0d3c ef75 fcbc
00000230: e87d 0bbe 6961 80bd c8bb 5bbe 349b 99bd
00000240: a0aa dcbd dc51 0dbe 43e4 48be 9e5d 72bd
00000250: bf8d 1c3f 9560 cfbd 7644 d8bd 72b2 223e
00000260: 0d71 68be bfc1 8dbe 4798 ff3b 9277 47be
00000270: 1255 20be 154e 5ebc 10ac 8a3d 9e58 933c
00000280: 1302 25be 13ce 5ebe 79ec 4cbd 4ad4 dd3e
00000290: 51e1 a6bd 0bc8 3bbe 4ae4 653d a280 9b3e
000002a0: 8170 abbd 3ce4 663b 4ba7 03be 5760 81bd
000002b0: afb7 a0bd 7f6b cc3e ca25 5abe 9d16 efbc
000002c0: 5efa 6ebc f407 123e fcda a03d cf9c b8bd
000002d0: 8527 b43d 62a8 d53d a867 a1bd 43f9 06be
000002e0: 0dc1 47be 605c 60bd 15d9 4cbe e1ae 65bd
000002f0: 32ec 643c 13d2 c53e eea1 54bd e9b2 3abe
00000300: 8c2b 7cbe 3107 32bb f3a6 bfb9 75ee ffbc
00000310: 8156 acbd 59ee 16be 8d7f 42be 1c5a d4bd
00000320: c788 26bd 72f4 883d 62c5 2ebd a4e6 acbd
00000330: ab5a 873e 658f 47bd d4f3 afbc 0b0c 3dbc
00000340: cd85 3abe 5b4b 6cbd 07c5 a63d 0e40 2ebc
00000350: 7eae 66be ab7d d1bd 75a3 a8bd 7ba4 ae3c
00000360: 089a 38bd dceb 1bbd f91f af3c 9cf5 26be
00000370: a70b ac3e d730 853d 42d3 6e3e 69de 2dba
00000380: 5503 10ba 559b 123d 9ced f83e cd70 963c
00000390: ce75 ee3d 16c2 33be 3a81 cdbd 2eac 69bd
000003a0: 9755 8cbd 52e6 9dbd e01e 563d 1f9d 4dbe
000003b0: 8784 6bbd 4fb2 c33c 2cc0 30bd b8ea e4bd
000003c0: 47de 4f3d d170 63be f3f8 d63c 29a6 b8bd
000003d0: d341 e53c c475 88bd 7452 9f3d d5b0 e13c
000003e0: d480 d8bd a8ed e7bc 1d1e 0c3f abf7 20be
000003f0: 1a78 e53d 4de0 a3bd ea2f 763e da42 993b

bias_hh_l0 f4 [384]
-0.012212254 0.111469835 0.034132652 0.14001568 0.08801455 0.10345033 0.025719728 0.103132404
0.121919654 0.04121668 0.08061211 0.030869981 -0.011392616 0.05104067 0.25238618 0.22992387
0.20064947 0.031179024 0.1609639 -0.042533617 0.009023958 0.006289505 0.19727637 0.099113874
0.06926458 0.044618446 0.16730645 -0.04104605 -0.018143749 0.14540921 0.09604224 0.017613024
0.033039004 0.16575833 0.03041603 0.028472923 0.05913569 0.14255323 0.094015785 0.05849891
0.07375547 0.18377893 0.1092596 0.10632238 0.015489639 0.0981796 0.16612315 0.1066349
0.05476778 0.034389496 0.029496456 0.06999176 0.024835428 0.1740766 0.12109874 0.0022728038
0.07508473 0.11228413 0.049979106 0.0029365192 0.047105707 0.09884849 0.039080765 0.06444601
0.04275147 0.011702119 0.19684763 0.15094393 0.16678841 0.049654637 0.10681074 0.017184995
0.051669937 -0.01536758 0.040603064 0.12111319 0.043273304 0.0627309 0.011468326 -0.032892052
0.08296857 0.18036945 0.00081489206 0.048381288 0.15784478 0.032557704 0.08388472 0.2020001
0.037133984 0.11268519 0.13814065 0.06249742 0.16272499 0.02572894 -0.00042491962 0.047744025
0.11602891 -0.0011492821 -0.047969494 0.14299433 0.16387357 0.1278992 0.10550593 0.122402914
0.116482325 0.15278609 0.11846402 0.08392984 0.011422719 0.067321405 0.05677862 0.09300229
0.18158531 0.10730898 0.008380268 0.032678373 0.10323667 0.086087205 0.07476155 0.10567161
0.11965031 0.12106517 0.053129595 -0.0064048837 -0.032991566 0.0480341 -0.035268225 0.05788265
0.11271828 -0.009371908 -0.109580524 -0.007428985 -0.08962109 -0.07927079 -0.032785803 -0.011141589
-0.033780526 0.35180426 -0.07822598 -0.020197853 -0.1149275 -0.10934823 -0.10160154 -0.12347894
-0.09344014 -0.04167122 -0.22119933 -0.11521118 0.5292897 -0.13416356 -0.101444356 0.025314197
-0.1416251 -0.26440895 -0.117139496 -0.19885781 -0.22126682 0.01427345 0.19635421 0.023727326
-0.12265932 -0.13976814 0.0050779125 0.4362981 -0.09322878 -0.09769532 0.010671437 0.28150553
-0.060364272 -0.06907294 -0.08388098 0.041997872 -0.15398476 0.3563665 -0.08087144 -0.18805644
0.034824476 -0.014197879 0.09125928 -0.11437533 -0.040646527 0.08431364 -0.0011865107 -0.25906295
-0.22314881 -0.0042443117 -0.17634626 -0.057967655 0.12829232 0.24502939 -0.09505727 -0.11135177
-0.12911724 -0.054510117 0.12929504 0.049318068 -0.074104525 -0.04375623 -0.15286006 -0.1580469
-0.07572606 -0.06824398 0.028814957 -0.08847161 0.20577852 -0.07836296 -0.09871852 -0.0153773045
-0.052269947 -0.09629922 0.06536264 0.002525928 -0.25830597 -0.09723491 -0.02884962 -0.090688124
-0.022174245 -0.08767476 -0.036705602 -0.106570795 0.27481514 -0.015180041 0.15162922 -0.03766102
-0.004725666 -0.02859122 0.47980526 0.06783127 0.097245626 -0.12645113 -0.2352338 -0.14762715
-0.08023496 -0.03798015 0.01734719 -0.20449634 -0.06265353 -0.011016755 -0.19258109 -0.068456866
-0.08156366 -0.18689975 -0.068408415 0.0622064 0.1100674 0.0018772465 0.11868787 -0.07094683
-0.1961493 0.09439583 0.55031466 -0.08163234 0.20260538 -0.095846556 0.2771799 -0.0990887
00000000: e815 48bc 4c4a e43d aece 0b3d 4560 0f3e
00000010: f940 b43d c4dd d33d 2eb2 d23c 1537 d33d
00000020: 03b1 f93d d2d2 283d f617 a53d 0be3 fc3c
00000030: 18a8 3abc 0610 513d c338 813e 2a71 6b3e
00000040: 0e77 4d3e 276b ff3c b8d3 243e bb37 2ebd
00000050: 39d9 133c 3118 ce3b d102 4a3e 37fc ca3d
00000060: 97da 8d3d d5c1 363d 6252 2b3e e71f 28bd
00000070: 33a2 94bc 27e6 143e cbb1 c43d 3049 903c
00000080: e853 073d 8dbc 293e 0a2b f93c 0c40 e93c
00000090: 4438 723d 79f9 113e 598b c03d 8e9c 6f3d
000000a0: 1c0d 973d 8b30 3c3e 7fc3 df3d 8cbf d93d
000000b0: 41c8 7d3c 6312 c93d 301c 2a3e 6663 da3d
000000c0: 2e54 603d 00dc 0c3d 8da2 f13c d757 8f3d
000000d0: ab73 cb3c 2341 323e 9e02 f83d 52f3 143b
000000e0: 06c6 993d 39f5 e53d e4b6 4c3d 9e72 403b
000000f0: eaf1 403d 1471 ca3d 2713 203d 45fc 833d
00000100: 2a1c 2f3d 3fba 3f3c 6d92 493e 0c91 1a3e
00000110: 95ca 2a3e a962 4b3d 97bf da3d 8cc7 8c3c
00000120: dba3 533d 4dc8 7bbc 664f 263d 310a f83d
00000130: 593f 313d 0f79 803d a5e5 3b3c d1b9 06bd
00000140: 6deb a93d c5b2 383e 7b9e 553a 752b 463d
00000150: 10a2 213e 3a5b 053d c1cb ab3d 1dd9 4e3e
00000160: ce19 183d 7ec7 e63d be74 0d3e 4bfd 7f3d
00000170: 61a1 263e 7fc5 d23c bfc7 deb9 3d8f 433d
00000180: 91a0 ed3d 82a3 96ba a97b 44bd 1b6d 123e
00000190: 79ce 273e 02f8 023e 7e13 d83d 61ae fa3d
000001a0: 498e ee3d f573 1c3e 449d f23d 68e3 ab3d
000001b0: 5b26 3b3c cedf 893d b390 683d fc77 be3d
000001c0: 80f1 393e cfc4 db3d 644d 093c c2d9 053d
000001d0: bf6d d33d 7d4e b03d 951c 993d 5b6a d83d
000001e0: 390b f53d 04f1 f73d 6b9e 593d 0fe0 d1bb
000001f0: 2a22 07bd 68bf 443d 6a75 10bd 5c16 6d3d
00000200: d7d8 e63d a28c 19bc c16b e0bd d86e f3bb
00000210: 438b b7bd b958 a2bd 684a 06bd 368b 36bc
00000220: 735d 0abd b01f b43e f134 a0bd f875 a5bc
00000230: 1c5f ebbd f7f1 dfbd 7814 d0bd 87e2 fcbd
00000240: 8b5d bfbd 71af 2abd 1482 62be d7f3 ebbd
00000250: 887f 073f 2c62 09be 0fc2 cfbd b85f cf3c
00000260: 2c06 11be 9c60 87be d5e6 efbd 62a1 4bbe
00000270: c593 62be 30db 693c 1411 493e cf5f c23c
00000280: cf34 fbbd 611f 0fbe 9e64 a63b 7762 df3e
00000290: bbee bebd 7c14 c8bd 40d7 2e3c 7e21 903e
000002a0: 8740 77bd 1d76 8dbd cbc9 abbd f605 2c3d
000002b0: 2eae 1dbe ab75 b63e ed9f a5bd de91 40be
000002c0: 1ca4 0e3d 389e 68bc 25e6 ba3d 9d3d eabd
000002d0: f97c 26bd a1ac ac3d b184 9bba e6a3 84be
000002e0: 1f81 64be de13 8bbb 1d94 34be 7e6f 6dbd
000002f0: 105f 033e fce8 7a3e 63ad c2bd 660c e4bd
00000300: 4f37 04be 0046 5fbd eb65 043e be01 4a3d
00000310: 1dc4 97bd bc39 33bd 5987 1cbe 0cd7 21be
00000320: 4416 9bbd 80c3 8bbd 580d ec3c 9a30 b5bd
00000330: 9bb7 523e c27c a0bd ef2c cabd 17f1 7bbc
00000340: 0319 56bd 8738 c5bd d9dc 853d 0a8a 253b
00000350: ae40 84be 1923 c7bd 0a56 ecbc b2ba b9bd
00000360: c3a6 b5bc d38e b3bd 9d58 16bd ca41 dabd
00000370: 92b4 8c3e b5b5 78bc b144 1b3e 7142 1abd
00000380: c2d9 9abb 2238 eabc 09a9 f53e 1feb 8a3d
00000390: b728 c73d 687c 01be 21e1 70be 922b 17be
000003a0: 3a52 a4bd 1391 1bbd b21b 8e3c 7d67 51be
000003b0: 7e50 80bd 9f7f 34bc fa33 45be 1d33 8cbd
000003c0: d90a a7bd a662 3fbe b619 8cbd 23cc 7e3d
000003d0: 046b e13d f10d f63a a012 f33d 924c 91bd
000003e0: 5ddb 48be 9a52 c13d 6ce1 0c3f db2e a7bd
000003f0: c977 4f3e 334b c4bd 86ea 8d3e 04ef cabd

weight f4 [18, 128]
-0.71838254 -0.1430677 0.2807974 -0.10780854 0.10763778 0.31501013 0.098146774 0.22943051
-0.19433296 -0.08244869 0.06645824 0.24035157 0.0868765 0.01569128 -0.24592684 -0.4728908
-0.29493433 -0.37902185 -0.14190385 0.20065011 -0.46201557 0.11021838 0.20702997 0.4334872
-0.11153867 -0.02021851 -0.12778865 -0.025531156 -0.25365782 0.05378883 0.31466523 0.48314294
0.05437446 0.09376317 0.22013448 0.18084294 -0.2797762 -0.06736417 0.3597739 -0.0376046
0.28701514 0.07880087 -0.10266418 -0.18474212 0.034991503 0.042513795 -0.10334508 -0.18244506
-0.09414915 -0.21448947 0.014691432 0.14798485 -0.07265366 0.3144181 -0.3467473 -0.17187311
-0.013865923 -0.23188147 0.053098798 0.42511955 -0.0961545 -0.39185435 0.08309598 -0.05154105
-0.44141185 -0.18155828 -0.36048478 -0.38765037 -0.12775093 -0.034036092 -0.17838368 -0.21521969
0.15455596 -0.4315718 0.1185647 0.36710522 -0.4787914 -0.12424856 -0.10838471 -0.38889936
0.26459017 -0.011773985 0.13267823 -0.08598926 0.108755544 0.33669955 -0.50817287 -0.074047394
-0.04448278 -0.073243044 0.015887512 0.24475227 0.11944909 -0.094602 0.10195858 -0.18109168
0.22900587 0.27532357 0.15202108 -0.26556107 -0.14147064 0.32119703 0.32626957 0.14616504
0.29187316 0.32280436 -0.12739009 0.11509133 0.23940748 -0.103763185 0.29970717 0.11300701
-0.1316978 0.14946288 0.11632614 0.2304417 0.14365298 0.021796776 -0.31934574 0.007670393
0.13791591 -0.019229276 -0.4742878 -0.25133198 -0.4293828 -0.08451045 -0.076033145 0.15806633
0.040032394 -0.026748052 0.057477362 -0.015095528 0.036994822 -0.14596438 -0.3630287 -0.040941678
0.14278154 0.0039569587 0.018527616 0.1628978 0.056342486 -0.104202464 -0.08345712 0.07510423
0.020492783 0.18727353 0.18141687 -0.08026565 -0.3205766 -0.15419053 -0.07654045 -0.056685835
-0.14370058 0.16109274 0.0593888 -0.100067765 -0.15175529 -0.06436627 -0.064292066 -0.07431365
0.084630884 0.049723785 0.15255553 -0.3023217 0.043596696 0.11607315 -0.04220829 -0.07569313
-0.0742309 0.05644253 -0.18183917 -0.05349097 -0.15312454 -0.08204911 -0.026104124 -0.14613172
0.08624277 0.12752679 0.009004465 -0.22454844 -0.07795159 -0.07872012 -0.0021962905 0.0999901
-0.25021598 0.09039791 0.089235775 -0.04602549 0.045493297 0.22734246 0.026988473 0.13121794
0.00325304 0.19776806 -0.007576568 -0.10699086 0.006712853 -0.1290797 -0.07714056 0.19515015
0.04769818 0.1121921 0.004559374 0.016136294 -0.059047624 0.03921363 0.1939099 -0.10945127
0.09803229 0.072042055 0.021506058 0.03007769 -0.23808117 -0.050661918 0.08642973 0.09224436
-0.0041064657 -0.19847932 -0.058155533 0.15816003 0.15421033 -0.031157652 0.052230716 0.21877836
0.090664834 -0.28708166 0.27801973 0.098062515 0.0274892 -0.095686585 -0.041621044 -0.011525337
-0.03891623 0.07464593 -0.07885258 0.068093725 -0.03861376 -0.13393572 -0.10035218 -0.16521631
-0.070572376 -0.21274132 -0.1974686 -0.11811781 0.20376895 -0.15877613 0.028685234 0.0049789855
-0.10499592 -0.1062862 -0.18950461 0.05698467 0.09441702 0.19959977 -0.15453543 0.05481627
00000000: ebe7 37bf 5780 12be adc4 8f3e b9ca dcbd
00000010: 3271 dc3d 0249 a13e 2d01 c93d d5ef 6a3e
00000020: 38ff 46be dcda a8bd 421b 883d b91e 763e
00000030: 4eec b13d 008b 803c 3fd4 7bbe be1e f2be
00000040: a201 97be 270f c2be 3e4f 11be 3977 4d3e
00000050: 4e8d ecbe 2dba e13d aaff 533e 09f2 dd3e
00000060: 636e e4bd 4aa1 a5bc 07db 02be b726 d1bc
00000070: 70df 81be ad51 5c3d cd1b a13e 835e f73e
00000080: c1b7 5e3d e806 c03d ef6a 613e e42e 393e
00000090: d33e 8fbe 3af6 89bd 4934 b83e 4807 1abd
000000a0: a6f3 923e 5a62 a13d 9941 d2bd 0a2d 3dbe
000000b0: 4053 0f3d f222 2e3d 96a6 d3bd e1d2 3abe
000000c0: 45d1 c0bd 21a3 5bbe 55b4 703c 5789 173e
000000d0: 71cb 94bd 69fb a03e dd88 b1be 81ff 2fbe
000000e0: e52d 63bc 5672 6dbe 207e 593d 45a9 d93e
000000f0: a7ec c4bd 22a1 c8be 3a2e aa3d b51c 53bd
00000100: bc00 e2be 6aea 39be 7691 b8be 1c7a c6be
00000110: 24d1 02be 6e69 0bbd 36aa 36be 8d62 5cbe
00000120: eb43 1e3e fbf6 dcbe 0dd2 f23d 37f5 bb3e
00000130: 2524 f5be 0776 febd cef8 ddbd d11d c7be
00000140: 5d78 873e ace7 40bc cddc 073e 231b b0bd
00000150: 3abb de3d e263 ac3e 9e17 02bf 29a6 97bd
00000160: 9333 36bd 7300 96bd 8726 823c 57a0 7a3e
00000170: b9a1 f43d b2be c1bd a9cf d03d 1970 39be
00000180: 8480 6a3e 36f7 8c3e 6aab 1b3e 9ff7 87be
00000190: aedd 10be f073 a43e ce0c a73e 4aac 153e
000001a0: 6670 953e 9d46 a53e 8c72 02be 01b5 eb3d
000001b0: 3c27 753e cb81 d4bd 3873 993e 3870 e73d
000001c0: cadb 06be cc0c 193e 663c ee3d e9f8 6b3e
000001d0: c419 133e 278f b23c 4981 a3be ec57 fb3b
000001e0: d439 0d3e b786 9dbc dad5 f2be 96ae 80be
000001f0: 10d8 dbbe d113 adbd 44b7 9bbd 24dc 213e
00000200: 02f9 233d bb1e dbbc 626d 6b3d 3c53 77bc
00000210: e287 173d b077 15be e6de b9be 76b2 27bd
00000220: 5335 123e 60a9 813b 3ac7 973c aece 263e
00000230: 61c7 663d 1a68 d5bd 91eb aabd 3fd0 993d
00000240: 7be0 a73c a2c4 3f3e 58c5 393e 5162 a4bd
00000250: 9e22 a4be 1fe4 1dbe 3dc1 9cbd 682f 68bd
00000260: 3f26 13be 7ff5 243e ac41 733d 54f0 ccbd
00000270: bd65 1bbe 77d2 83bd 8fab 83bd c131 98bd
00000280: f552 ad3d 2bab 4b3d 8437 1c3e e9c9 9abe
00000290: 7392 323d c2b7 ed3d 9ae2 2cbd 0005 9bbd
000002a0: 5f06 98bd 4830 673d 0c34 3abe 5919 5bbd
000002b0: aecc 1cbe 5d09 a8bd 51d8 d5bc 8ea3 15be
000002c0: 0da0 b03d 6296 023e 7787 133c 07f0 65be
000002d0: 15a5 9fbd 0438 a1bd a4ef 0fbb 9cc7 cc3d
000002e0: 4f1c 80be 8a22 b93d 3fc1 b63d 3985 3cbd
000002f0: 2e57 3a3d 76cc 683e ee16 dd3c ff5d 063e
00000300: f430 553b b683 4a3e dc44 f8bb 061e dbbd
00000310: 7ef7 db3b 782d 04be dffb 9dbd 71d5 473e
00000320: 2b5f 433d f9c4 e53d cd66 953b 4330 843c
00000330: ecdb 71bd 799e 203d 5190 463e fd27 e0bd
00000340: 27c5 c83d c98a 933d 792d b03c 7d65 f63c
00000350: 8dcb 73be df82 4fbd 1202 b13d 9cea bc3d
00000360: 888f 86bb 2a3e 4bbe 7f34 6ebd b4f4 213e
00000370: 50e9 1d3e 553e ffbc e0ef 553d 6f07 603e
00000380: 7cae b93d 5efc 92be 9a58 8e3e 00d5 c83d
00000390: 0831 e13c 54f7 c3bd d47a 2abd c4d4 3cbc
000003a0: a066 1fbd f7df 983d 767d a1bd b974 8b3d
000003b0: 7629 1ebd 7226 09be 7285 cdbd 772e 29be
000003c0: 4088 90bd dcd8 59be 3535 4abe c0e7 f1bd
000003d0: cfa8 503e 3696 22be 4cfd ea3c c226 a33b
000003e0: 1a08 d7bd 94ac d9bd 7f0d 42be c268 693d
000003f0: b65d c13d e263 4c3e 893e 1ebe 0687 603d

bias f4 [18]
-0.061905876 -0.035891466 -0.14134878 -0.015789492 -0.0496784 0.026412472 -0.045073014 -0.043176733
-0.069984004 -0.16845265 -0.11988524 -0.16955455 -0.110738195 0.13974491 0.017830532 -0.06076984
0.072634175 -0.16210082
00000000: 0491 7dbd ee02 13bd bcbd 10be f758 81bc
00000010: 947b 4bbd f85e d83c 7b9e 38bd 16da 30bd
00000020: c653 8fbd da7e 2cbe 6586 f5bd b59f 2dbe
00000030: b5ca e2bd 4a19 0f3e 5611 923c cce9 78bd
00000040: 3ac1 943d c2fd 25be
