char_emb/code/output/model_adult_gru2.pt (torch_old, 40384 bytes, 7 tensors)

weight f4 [97, 10]
000000 cb a5 d6 3f bd 1e fe 3e 82 7f dc 3f ef 40 a2 be
       1.6769346 0.49632826 1.7226412 -0.31690165
000010 1e 5b 4d 3f 79 87 75 3e 17 76 88 be 2d 92 fa bf
       0.8021716 0.2397746 -0.26652595 -1.9575859
000020 03 3a 5c 3d 98 9c bb 3f c3 05 e3 3f 19 3e e4 bc
       0.05376626 1.4657164 1.7736133 -0.027861642
000030 88 8e 9e bf 3c 62 c0 3e 93 3e b1 be 37 5a 83 bf
       -1.2387247 0.37574947 -0.34618053 -1.0261906
000040 f0 c0 ff bf 0d ba e0 bd 32 81 f0 3f 46 ab 05 3f
       -1.9980755 -0.10972986 1.8789427 0.5221447
000050 e2 82 bb 3e 42 c5 46 bf db 4d 39 3e be e2 19 bb
       0.36623293 -0.7764474 0.18096106 -0.0023481096
000060 8f 4f 9c 3f de ad ca 3e ef 05 a0 be 3f a9 8c bd
       1.2211779 0.39585775 -0.31254527 -0.06868219
000070 16 f3 86 3e b8 7a 74 bc aa e3 9d 3f dd 73 9a 3e
       0.26357335 -0.014921837 1.2335103 0.30166522
000080 69 0e 44 3f 40 94 8f bf 37 a0 3e bf d2 cc a7 be
       0.7658449 -1.1217117 -0.7446322 -0.32773453
000090 3c 8b 92 3f 24 69 87 3f 4d 38 ec be f1 d1 00 3f
       1.1448741 1.0578961 -0.46136704 0.50320345
0000a0 ca 40 ff 3f f6 e3 aa 3e fd 0d d4 be f7 a2 66 be
       1.9941647 0.33377045 -0.41416922 -0.22523104
0000b0 1c 38 81 3f ec 1e 88 bf c0 20 c7 3f e2 fe 7a bf
       1.0095248 -1.0634437 1.555687 -0.9804517
0000c0 e4 b0 8e bf 25 d3 f2 3d ec 91 86 bf ee a2 81 be
       -1.1147733 0.11856679 -1.0513282 -0.25319618
0000d0 d3 b5 de 3f da cc fc bd c2 5f 52 3f 25 b6 8f bf
       1.7399238 -0.1234376 0.82177365 -1.1227461
0000e0 76 c5 5c 3e 0b e9 61 3f 02 d7 88 3e 77 c0 05 40
       0.215597 0.8824622 0.26726538 2.0898721
0000f0 32 8b b2 3e 4a fb 96 3f 8c 21 ac 3c f4 60 40 be
       0.34871823 1.1795437 0.02101209 -0.18786985
000100 50 4d 8a 3d a3 88 9a 3f 7c 83 01 40 5e 31 2d be
       0.067530274 1.2072948 2.0236502 -0.16913363
000110 3a 08 07 bf 26 78 e4 bd 50 b7 30 bf 65 98 1a 3f
       -0.5274693 -0.11155729 -0.6902971 0.60388786
000120 82 51 26 be 52 c9 d4 bc 27 b5 98 bf 5e e6 3f 3e
       -0.1624203 -0.025974903 -1.1930283 0.18740222
000130 2b 8b b9 bf e3 3c 39 3e 70 24 fe bc ae ef 97 be
       -1.4495596 0.18089633 -0.031023234 -0.2967505
000140 b0 23 a2 3e 92 58 b3 be 68 fe 03 3f 57 82 a1 3f
       0.31667852 -0.3502851 0.5156007 1.2617902
000150 08 ff 83 3d d8 10 f9 be 1f 48 50 bf 90 32 33 3f
       0.06445128 -0.48645663 -0.8136005 0.6999903
000160 26 cd e9 be 3c 13 bf 3f 36 31 b7 3f d7 df d8 3f
       -0.45664328 1.4927745 1.4311893 1.694331
000170 43 c0 f7 3e 97 80 9a bf 00 7e 52 bd 15 c6 c2 bf
       0.48388872 -1.2070493 -0.051389694 -1.52167
000180 42 cb 62 3f 5a ea 63 bf 7e 2c 40 bf 98 8e b2 3f
       0.88591397 -0.8902947 -0.7506789 1.3949766
000190 5a 7d 75 3f a1 4f 23 3e e1 70 a2 bf b9 1b 2d 3f
       0.95894396 0.15948345 -1.2690698 0.67620426
0001a0 c0 e3 57 3f 22 bf 8c 3f bf 42 b2 bf 5a 9f 94 bf
       0.84331894 1.0995829 -1.3926619 -1.161113
0001b0 37 40 a5 3e b0 17 99 3e d2 c7 80 3d e2 93 3b 3f
       0.32275555 0.29900885 0.06288113 0.73272526
0001c0 7f 81 04 bf ca 00 d8 bf ff 9b ef bf c3 6f 5c 3f
       -0.51760095 -1.6875241 -1.8719481 0.86108035
0001d0 38 cd 26 bf a5 42 de 3d 91 0f e2 bf 12 60 72 bd
       -0.6515689 0.10852555 -1.7661 -0.05917365
0001e0 29 d7 4a bf a8 ee 4c 3f 4c 94 2f 3e 9b 80 a4 be
       -0.7923456 0.8005166 0.17146415 -0.32129368
0001f0 1b a3 d6 3f bc 51 9c 3f 8c 8c d0 be 87 ed 88 be
       1.6768526 1.2212443 -0.4073223 -0.2674372
000200 86 c5 c9 3f ca 13 6f bf 52 bd 00 bd 98 80 ba 3e
       1.5763404 -0.9338957 -0.03143055 0.36426234
000210 ea 2e 66 3e c9 80 df be 67 e4 af be f0 06 7b be
       0.22478834 -0.43652943 -0.34353945 -0.24514365
000220 45 88 19 bf 17 0c bc bd 5c 00 e6 bf b0 b1 22 bf
       -0.59973556 -0.091819935 -1.796886 -0.6355238
000230 3c 2c 4f 3f a4 00 d5 3e f6 27 a8 bf 8f e5 0f 3f
       0.8092687 0.4160205 -1.3137195 0.56209654
000240 ab 72 de 3e 6f 5f 65 3f 66 b7 e5 3f 17 f4 6b 3f
       0.4344686 0.89598745 1.7946594 0.92169327
000250 0e 10 55 3f 03 f8 11 3f 5b a7 55 3d a3 94 19 be
       0.8322762 0.5701906 0.052161556 -0.14998107
000260 e0 20 05 3f 5c 3f 16 be 19 84 92 be 32 a7 85 3e
       0.5200329 -0.14672607 -0.28616408 0.26104122
000270 19 b7 98 3f 33 8b 0d bf ca 1a 6f 3f d4 04 ad 3e
       1.1930877 -0.55290526 0.9340025 0.33792746
000280 29 36 f5 3e 7b 0d 92 3d c8 5d b5 3e db 06 23 3f
       0.47892883 0.071314774 0.35423112 0.63682336
000290 57 6c 8c 3f c0 3b c5 bd 4c cf df 3e e5 12 2a 3f
       1.0970563 -0.09630537 0.43712842 0.6643508
0002a0 b9 bc 72 3e 52 60 32 bf 18 51 72 be b6 fa 95 bd
       0.23704804 -0.69678223 -0.23663747 -0.0732321
0002b0 26 5d bc 3e 78 62 c5 3e 74 5c df be 35 94 e1 be
       0.36789817 0.38551688 -0.43625224 -0.44058385
0002c0 8f 24 d2 be 1b bc 7b be e6 1c 26 bf 02 5d 63 3c
       -0.41043517 -0.24583475 -0.64887846 0.013877155
0002d0 6d bf 8d bd 93 d8 bd 3e 8f 43 4e bf 96 eb 8a 3f
       -0.06921277 0.37079296 -0.80571836 1.0853145
0002e0 25 03 15 bf 14 30 fa 3e f4 e7 e2 be 87 e0 73 3e
       -0.58207923 0.48864806 -0.4431759 0.23816119
0002f0 48 fe 3b 3f 24 55 b7 bc 54 79 67 3f 37 95 0a 3f
       0.7343488 -0.022379465 0.9041951 0.54133934
000300 6a 22 ae bf 57 61 f5 3e 39 8f db be 1b 46 9f 3f
       -1.3604252 0.47925827 -0.42882708 1.244327
000310 d3 37 03 bf 34 35 ab bc 49 57 02 3f fd 30 51 be
       -0.51257056 -0.020899393 0.50914437 -0.20428844
000320 93 73 c7 3e 3a d4 ec be a8 d8 7c 3e 9d 7d 86 3e
       0.38955364 -0.46255666 0.24692023 0.2626771
000330 5f 4f 34 3f 89 34 9d 3e 8c 0f 8e 3d a0 8c 0f c0
       0.7043361 0.30704144 0.06936559 -2.242958
000340 1e ef c3 3e 85 43 a5 3f e1 02 a8 3f ec c1 40 be
       0.3826837 1.291123 1.3125879 -0.18823975
000350 91 b6 65 3e 9c 12 23 bc f6 eb e1 3e 65 5e 25 3f
       0.22432925 -0.009953167 0.44125336 0.6459716
000360 6a 47 ff bc fd 74 f9 3e 64 08 32 be 1a 9b ab 3f
       -0.031161983 0.48722067 -0.17386013 1.3406708
000370 be 75 9a 3f fa be dd bd 69 3f 1c bf c4 89 90 bf
       1.2067182 -0.108274415 -0.61034256 -1.1292043
000380 ba 54 45 3f 75 41 4b 3f 54 27 37 3e 75 e4 95 3f
       0.7708241 0.79396755 0.17886096 1.1710345
000390 27 97 59 3f 6d 04 ef 3e 93 12 f2 3e a4 dc 66 bf
       0.84996265 0.46683064 0.47279796 -0.9018042
0003a0 72 26 dd 3e aa b9 d5 3c cb 10 58 3f e8 55 55 bf
       0.43193394 0.026089508 0.84400624 -0.8333421
0003b0 6f 50 06 bf e8 85 74 bf c3 c1 08 bf 90 32 76 3f
       -0.5246648 -0.95516825 -0.53420657 0.961709
0003c0 d1 42 95 bf 89 38 2b c0 46 75 dd 3f 54 36 06 bf
       -1.1661016 -2.6753256 1.7301414 -0.5242665
0003d0 cc 0c 8a 3f 73 ea 09 40 87 23 9b 3f 41 ba 02 bf
       1.0785155 2.1549346 1.2120217 -0.5106545
0003e0 94 d6 00 bf c1 fc 1f c0 04 44 5d be 07 bf 1a c0
       -0.5032742 -2.4998019 -0.21607977 -2.4179094
0003f0 eb 09 11 bf 3d 0b 1a bf 10 bd d8 3f 1b 1e 41 3f
       -0.5665576 -0.601734 1.6932697 0.7543656

weight_ih_l0 f4 [96, 10]
000000 ca 64 af 3f f6 e6 b4 bf 39 71 25 3f 28 88 e9 be
       1.3702633 -1.4132984 0.6462589 -0.4561169
000010 90 60 79 3f 8f 92 18 3f 16 0d bb be 09 5a dd 3e
       0.9741297 0.5959863 -0.3653342 0.43232754
000020 3f b3 0e be 73 35 66 bf d4 e5 d4 3e f7 be 46 bf
       -0.13935564 -0.8992531 0.41581595 -0.7763514
000030 a3 ff db 3e fd 6f 01 3f ef 12 44 bf 31 e8 a1 be
       0.42968473 0.50561506 -0.7659139 -0.3162246
000040 ff 90 c4 bc 6c 15 97 3b b8 f6 36 bf 66 4f 34 bf
       -0.02399492 0.004610708 -0.7147021 -0.7043365
000050 a4 69 d9 3e 61 78 3a 3e b4 36 45 3f 63 f8 98 be
       0.4246341 0.18209983 0.77036595 -0.29877004
000060 b8 07 bd be 2f 04 08 3f d5 3f 5f 3e c4 8d 89 3e
       -0.3691995 0.53131384 0.21801694 0.2686597
000070 c6 cf 87 bf 5b 08 50 3f 7c 59 83 3e 56 3c c1 3d
       -1.0610282 0.8126275 0.2565421 0.09435336
000080 1d d3 79 3d 54 48 fc bd d1 dd 5e 3e ab 35 20 3e
       0.06099235 -0.12318483 0.21764304 0.15645473
000090 fe f9 a0 be 83 83 00 bf 4a ae ff be 31 d1 51 3f
       -0.3144073 -0.5020067 -0.4993766 0.81959826
0000a0 47 93 e2 3e a0 5a 83 3e 24 ce ee bd e4 e3 38 bf
       0.4425299 0.2565508 -0.11660412 -0.72222733
0000b0 fd 54 51 bd 04 a6 8b 3e 96 13 3c 3d fc 94 b6 bc
       -0.05110644 0.27275097 0.045917116 -0.022287838
0000c0 7d 33 41 3e 3b 5f 33 bf ab ae 23 bf 8a ba 2b be
       0.18867297 -0.70067185 -0.639384 -0.16770378
0000d0 ff 44 21 3e a8 87 60 bf 03 33 3b 3e 7d 7a 2e bf
       0.15748976 -0.87706995 0.18281178 -0.6815565
0000e0 e2 79 84 be eb c1 99 bd a3 f9 d1 3e d4 99 9d bc
       -0.2587424 -0.0750769 0.4101077 -0.01923839
0000f0 08 b8 43 3f 79 17 43 bf 76 b4 55 3e 7a f5 01 3e
       0.76452684 -0.7620769 0.20869622 0.12691298
000100 75 9e 8f 3f d4 ec 2c be a4 d3 20 be 47 0b 6b 3f
       1.1220232 -0.16887218 -0.15705734 0.9181408
000110 d1 83 cd 3e 9d ab d7 3e 4b 36 f8 bd 77 ec 34 3e
       0.4013963 0.42123118 -0.121197306 0.17668329
000120 77 5f 96 be e3 a6 1c be c9 91 f0 bc e5 a7 00 bf
       -0.2936971 -0.15298037 -0.02936639 -0.50256187
000130 36 da 4e bf 56 64 45 bf dc f5 e5 3e b5 67 46 3e
       -0.80801713 -0.77106225 0.44914138 0.19375499
000140 77 2b 1a 3f 2c 96 32 be 78 9f 65 be 8f df 36 bf
       0.6022257 -0.17440099 -0.22424114 -0.71434873
000150 c2 8b 06 3e 28 dc 1c bf 7a 8f 6f 3d f0 d3 06 bf
       0.13139251 -0.6127343 0.05848644 -0.5266714
000160 73 a1 2a bf c5 d8 29 3f f4 ff 9c be e9 33 8d 3e
       -0.666526 0.6634639 -0.30664027 0.27578667
000170 04 96 f6 bc d3 3f 0f 3e dc bd 50 3f 0a 2a ed bd
       -0.03010083 0.13989191 0.815397 -0.11580284
000180 d8 0d de bb 0f 52 b2 3e c2 77 96 bc 37 42 91 be
       -0.0067765526 0.3482823 -0.018367652 -0.2837083
000190 73 47 80 3e b1 45 a9 3e 76 ae c1 3d 87 5e 24 3e
       0.2505451 0.33060983 0.09457104 0.16051684
0001a0 b3 ad 90 3e e3 e8 8d bd 01 5b 36 bc 55 49 b7 be
       0.28257522 -0.06929185 -0.011130095 -0.35798135
0001b0 10 a6 64 3c 9b 68 72 3e 7f a8 15 bf 76 cb 9c be
       0.013955608 0.23672716 -0.5846023 -0.30623978
0001c0 67 54 34 3f 7a f3 82 3e 16 60 1b bf a9 9b 22 bf
       0.7044129 0.25576383 -0.6069349 -0.6351877
0001d0 c1 bb 5d bf 31 d1 c8 be 02 af a4 bd db 85 4f be
       -0.86614615 -0.392221 -0.080411926 -0.20265906
0001e0 c0 9c fc 3e e7 8a 18 bf 9f 25 8d 3f 5c d5 5c bf
       0.4933834 -0.5958695 1.1027106 -0.8626306
0001f0 60 3b fc 3e 68 c8 12 be c5 4d 39 3d b4 8c 08 bf
       0.4926405 -0.14334261 0.045240182 -0.53339696
000200 00 9f a6 be 10 3f 8d 3f 77 a7 04 be 1f 41 26 3d
       -0.32543182 1.103487 -0.12954508 0.040589448
000210 e3 f4 8b 3e 38 26 51 3f c5 df bd bd 94 9f c1 bd
       0.2733527 0.8169894 -0.09271196 -0.09454265
000220 0e cc aa 3e 2f de 60 3e f3 20 1e bf 59 af 32 bf
       0.33358806 0.21959756 -0.61769027 -0.6979881
000230 a4 44 b1 bd 81 79 0a 3e b1 43 4a be d1 17 1a 3e
       -0.0865567 0.13522913 -0.19752385 0.15048148
000240 75 a7 f3 bd 29 42 86 bf ab 4c 5e bf b9 27 73 bf
       -0.11897174 -1.048894 -0.86835736 -0.94982487
000250 97 2c 85 3e 36 49 b8 3d 32 af 84 3f b8 ba 3b bf
       0.26010582 0.08998339 1.0365965 -0.73331785
000260 56 fa 97 bf 80 5e f1 be f2 62 20 3e ef f6 7f bf
       -1.1873271 -0.4714241 0.15662745 -0.99986166
000270 5c 16 ae be 20 43 71 bf 24 aa eb bd b3 65 c2 3e
       -0.34001434 -0.9424305 -0.11507061 0.37968215
000280 b8 7a 13 bd cb 55 3a 3e 28 8f a7 be de 8b 43 3e
       -0.036005706 0.1819679 -0.32726407 0.19096324
000290 da a3 1b bf d2 14 38 3e 12 9e 12 bf aa cf b3 3d
       -0.6079689 0.17976692 -0.57272446 0.08779843
0002a0 f2 31 b9 bd 17 69 11 3d f2 98 8d bd 19 3e d4 be
       -0.090427294 0.035500612 -0.06913938 -0.41453627
0002b0 26 80 0d bd 44 f3 57 3f b2 ea cf 3e fd 31 30 bf
       -0.03454604 0.8435557 0.40608746 -0.68826276
0002c0 1e 09 72 be 18 d4 1c bd 03 89 61 3e c3 8f a6 bd
       -0.2363629 -0.038288206 0.22024922 -0.08132889
0002d0 c7 54 d1 3e ab 71 b8 3e 2c 3f eb 3e d2 f7 0f bd
       0.40884992 0.36024222 0.45946634 -0.03514845
0002e0 19 4e 9c be 0f 3d eb be a4 a3 20 be 8d 79 72 bd
       -0.30528334 -0.45945022 -0.15687424 -0.05919795
0002f0 23 bc 2d bf c0 fa b7 bd 2d 90 ae 3e 9e b7 c0 3e
       -0.678652 -0.08983374 0.34094372 0.3764009
000300 4a 8d 4e bf 32 5f 36 be b1 72 08 3e 40 3b d0 bd
       -0.8068434 -0.17809752 0.13325001 -0.10167551
000310 cd d7 82 be b9 4c 90 be b5 18 b4 be 49 d2 5b bd
       -0.25555268 -0.28183535 -0.351751 -0.05366734
000320 13 a4 e3 3e 25 0f 1b bf ca e4 7b 3e 8f e4 14 bf
       0.44461116 -0.60569984 0.24598995 -0.5816125
000330 15 92 f4 be a6 42 60 bf 23 70 a2 bf b5 2f 01 c0
       -0.47767702 -0.876017 -1.2690471 -2.0185368
000340 90 c6 ff be 2f 15 b9 be ec dc 3c 3e 6d 5a b6 3f
       -0.4995618 -0.36148974 0.1844365 1.4246346
000350 25 4e 0b 3f 36 ea e7 3d 18 ae 65 3e 15 f7 69 3d
       0.54416114 0.11323969 0.22429693 0.0571204
000360 b3 1b 08 3f 44 b1 9a 3e ca 5d 93 be fe 46 90 be
       0.53167266 0.30213368 -0.28782493 -0.28179163
000370 36 dd 81 3e a1 bc 5c 3d 59 64 ac bd 31 2c 28 3d
       0.25364083 0.053890828 -0.08417577 0.04105777
000380 38 c0 09 be f8 90 40 be cf 81 91 3c f0 e3 8e 3e
       -0.13452232 -0.18805301 0.017762093 0.27908278
000390 14 94 ff 3d bf 35 20 bf 2e 44 f1 3e aa 72 7e bf
       0.124794155 -0.6258201 0.4712233 -0.99393713
0003a0 3e 3b 9d be 28 14 ea be cd da d3 3e fe 7f f3 be
       -0.3070926 -0.45718503 0.4137787 -0.47558588
0003b0 f5 33 5c bf 48 8b 4f bf 60 2e f0 bb 2c ee 9d bd
       -0.8601678 -0.810719 -0.007329747 -0.07711443
0003c0 2f 35 83 3e 59 7f 2a 3e f3 6c cb be b9 ad 85 be
       0.25626513 0.16650142 -0.3973156 -0.26109102
0003d0 a0 de 14 3f 10 ba 0e bf 36 d8 ec be 0b a1 0c be
       0.581522 -0.5575266 -0.46258706 -0.13733308
0003e0 81 91 11 3f 7c 9b 60 3f 06 ee e1 3e 37 b5 ac bd
       0.56862646 0.8773725 0.4412691 -0.084330015
0003f0 72 b3 20 bf 0c 37 5c bf 92 96 eb 3e 80 99 06 3c
       -0.6277381 -0.86021495 0.46013314 0.008215308

weight_hh_l0 f4 [96, 32]
000000 a8 6b 68 bd bf d8 38 bf 36 be 54 be 75 b5 e1 3e
       -0.056743294 -0.7220573 -0.20775685 0.44083753
000010 f1 b4 57 3f 05 99 26 3c 8a 94 bc be b9 01 a7 bc
       0.8426047 0.010168319 -0.36832076 -0.020386564
000020 fb a9 e1 be 2d 09 c7 bd 05 95 62 3f ac 15 b0 3f
       -0.44074997 -0.09718547 0.88508636 1.3756614
000030 0f c3 8c bf d6 7c 33 3d b0 36 e7 3e b3 d0 03 bf
       -1.0997027 0.043820225 0.4515891 -0.51490325
000040 b1 62 16 3e fe f4 60 bf 4b 5c 41 3e 41 16 59 bf
       0.14686085 -0.8787383 0.18882863 -0.8479958
000050 94 bd 19 3f 88 6c b5 3e 21 b8 43 3f f2 53 e0 3e
       0.600549 0.35434365 0.76452833 0.43814045
000060 00 8f 25 be 99 25 66 3f 1b fa c1 be 71 05 7d be
       -0.16167831 0.8990112 -0.37886128 -0.24709107
000070 f5 fa 85 be c8 63 46 3e 50 f8 f8 be 92 88 09 bf
       -0.26168028 0.19374001 -0.48626947 -0.53724015
000080 a2 10 a1 be bb d4 42 3f cb 11 47 3f 9d 5f ce be
       -0.31458002 0.7610585 0.77761525 -0.40307322
000090 fe c2 00 3e 68 d0 34 3f 55 30 a1 3e d4 dd 84 3e
       0.12574384 0.706305 0.31482187 0.2595049
0000a0 7d 95 b1 bd 94 1d ec 3e 0f ba 7e be ba 93 1f 3d
       -0.08671091 0.46116316 -0.24875663 0.038959242
0000b0 be 3e 97 be d7 15 60 bf 42 de e2 3e fb 8b 55 3f
       -0.29540056 -0.87533325 0.44310194 0.8341672
0000c0 76 62 74 3d 7c d9 84 bf b5 81 57 bf 1c d3 18 bf
       0.059664212 -1.0378871 -0.8418229 -0.5969713
0000d0 7c e8 9b be 3f 4d ce bd c5 7a d5 be 75 b8 9f 3f
       -0.3045081 -0.10073327 -0.41695228 1.2478167
0000e0 9f 55 4e 3f a6 a6 85 3e 15 fa 82 be 93 04 04 3f
       0.805994 0.26103705 -0.25581422 0.5156948
0000f0 11 ad a8 be 10 30 a3 3d 85 d5 2c bf 67 13 1a 3e
       -0.3294454 0.079681516 -0.67513305 0.15046464
000100 35 24 b3 bf 19 58 8a bf 61 d4 0d bf 37 a7 a0 bf
       -1.3995425 -1.0808135 -0.5540219 -1.255103
000110 e4 df 43 3d f9 11 ae bd 04 6c 68 3e 26 8a 09 bf
       0.04782094 -0.08499522 0.22697455 -0.5372642
000120 50 b7 b1 bf 9e e3 67 be bb c9 68 bf de ee 73 bf
       -1.3884068 -0.22645423 -0.90932816 -0.9528636
000130 76 95 50 3f b5 17 14 3f 2b a2 45 3f e0 7a af bd
       0.8147806 0.57848674 0.77200574 -0.085683584
000140 79 7b 8e 3e ec 68 6c 3f f3 67 5c bf 03 78 55 3f
       0.27828577 0.923476 -0.86096114 0.8338625
000150 ff 60 93 bf 0a fb aa 3d 75 53 35 bf a8 2d 2a bf
       -1.1513976 0.08348663 -0.7083047 -0.66475916
000160 0e 78 2c 3f 02 e2 b7 3e 69 2a 33 bf 35 6f 92 be
       0.6737069 0.35914618 -0.6998659 -0.2860047
000170 37 f4 51 3f 3b 4c d2 3e 45 cb 88 bf 38 4f 02 3f
       0.8201327 0.41073784 -1.0687033 0.5090213
000180 6a eb f8 bd ba 5e 79 bf a5 be 3c 3f 4d 26 95 be
       -0.12154277 -0.97410166 0.737284 -0.29130784
000190 7b ac 96 bf c0 f9 89 be f1 67 95 3f bb b4 b2 be
       -1.1771387 -0.26948357 1.1672345 -0.3490351
0001a0 1a 52 9a bc ad d3 1f be 01 d0 e1 bd e8 be 25 3e
       -0.018837977 -0.15608092 -0.11026002 0.16186106
0001b0 ef 1c 6d bf 6d 09 26 be 66 54 92 3f a2 36 6b be
       -0.92622274 -0.16214533 1.1432006 -0.2297006
0001c0 cb 1d d8 bd a1 a5 b1 3e 51 41 e8 be 6f 27 e5 3f
       -0.105525576 0.34696677 -0.45362332 1.7902659
0001d0 2b b6 50 3f e1 88 50 be 7c 47 9e 3e 7c e1 1a be
       0.81527966 -0.20364715 0.30913913 -0.15125078
0001e0 bb cc 97 bc fd d7 1e 3f 9a 72 ec bd b0 2d 01 3f
       -0.01853024 0.6204832 -0.11545296 0.5046034
0001f0 0e 9f df be aa 10 6b be 14 54 9d 3e 08 cc 25 3e
       -0.43676037 -0.22955576 0.3072821 0.16191113
000200 4c de 2e 3f 0e 2d 71 bf 0c a3 04 3e 35 a9 a4 be
       0.6830795 -0.94209373 0.12952822 -0.32160345
000210 73 a7 db 3d c1 54 19 3f 3c 18 81 3f ec ac 9d be
       0.10725298 0.5989495 1.0085521 -0.3079599
000220 8d 36 89 3e 0b 67 a0 3e 1d 36 97 be 01 ad 59 bf
       0.2679943 0.31328616 -0.29533473 -0.8502961
000230 b8 51 2e bf 0e 95 03 bf a3 d1 91 3f ba cc 14 be
       -0.6809344 -0.51399314 1.1392101 -0.14531222
000240 ec b7 b3 be 91 e1 ea 3f 30 12 ab 3e 64 85 53 be
       -0.3510126 1.8350087 0.33412313 -0.20656353
000250 52 2f 97 bc 54 7b 24 bf 93 d5 86 bf 2d 45 07 3f
       -0.018455181 -0.64250684 -1.0533928 0.5283993
000260 1f 4a f3 bd 15 3b e1 be 03 18 35 bf 1e df 8d 3d
       -0.11879372 -0.4399039 -0.70739764 0.06927322
000270 08 a3 14 bf 70 55 b2 3f 72 b6 a5 3d ae 7f 73 bf
       -0.58061266 1.3932323 0.08091439 -0.951167
000280 4c 4c 9c be cf 62 2f bf 78 24 d7 bd 16 7f aa bf
       -0.3052696 -0.68510145 -0.10505003 -1.3320034
000290 1e 24 13 3f 86 6b 6d be db de 68 3f ed b8 da be
       0.57476985 -0.23185548 0.9096505 -0.42719212
0002a0 4c 2f dd 3e c6 87 fa bd bf fd fd 3e 61 4a 64 3e
       0.43200147 -0.12232928 0.49607655 0.22293998
0002b0 a9 e4 28 3f c9 b9 ad bd b6 92 c0 3e d7 39 1b bf
       0.6597391 -0.08482701 0.37611932 -0.6063513
0002c0 38 50 6d 3d 01 1d f2 bd f7 aa e5 3e e0 73 a7 3f
       0.05793783 -0.11821938 0.44856998 1.3082237
0002d0 57 40 ac 3f 2d 52 25 3f 20 9e 92 be 18 99 5d 3f
       1.3457135 0.64578515 -0.28636265 0.8656173
0002e0 9c ba a4 3f 0e 70 90 bf 21 76 b9 be 4b dd 0d 3f
       1.2869449 -1.1284196 -0.36222938 0.5541579
0002f0 67 7d 3b bf 49 62 b1 be 03 ef aa be 6f e9 44 bf
       -0.73238224 -0.34645298 -0.33385476 -0.7691869
000300 59 ff b7 3d 98 ad 50 bf 3d 13 9c be 57 44 2b bf
       0.089842506 -0.81514883 -0.30483428 -0.66901153
000310 55 14 82 bf 41 93 03 3f 64 f0 03 bf a3 9c 2f be
       -1.0162455 0.51396567 -0.5153868 -0.17149596
000320 d5 3d 3c 3f 1e d7 0c bf b1 0f 67 bf e2 6e 03 be
       0.7353185 -0.5501574 -0.9025832 -0.12835267
000330 0b b0 1f 3f d6 b8 1f bf 27 9b 9f bd d0 51 2b be
       0.62377995 -0.6239141 -0.07793265 -0.16730428
000340 f9 f0 dc 3e b6 ef e7 be 3a 2b c8 be 92 c2 cf 3d
       0.43152598 -0.45300072 -0.3909548 0.10144533
000350 c4 c8 1e 3f 2a c1 65 3e ef fa d4 bd 8a f8 86 3d
       0.62025094 0.22436967 -0.10399424 0.06590374
000360 95 80 8d bf 49 6f ce 3e aa 5f b2 3e c4 22 8d be
       -1.1054865 0.4031928 0.3483861 -0.27565587
000370 e9 a7 34 bf 5f 50 30 bf 07 07 8c bf 89 4b 9d bd
       -0.7056871 -0.68872637 -1.0939645 -0.07680423
000380 62 3d 8c 3e cb 13 9c 3e 69 04 fe bd e9 7f 02 bf
       0.2739058 0.3048385 -0.12403185 -0.50976425
000390 0d 64 4a 3f 26 30 82 bf 09 12 bc bd f8 95 80 3d
       0.79058915 -1.0170944 -0.091831274 0.06278604
0003a0 15 9e 96 be 75 be 92 3e 0d e2 63 3e 09 7b e3 3e
       -0.29417482 0.28660932 0.222542 0.44429806
0003b0 74 93 27 3f 6e ec a7 be 95 6b d2 3e f0 fb f4 bc
       0.6545937 -0.3279757 0.41097704 -0.02990529
0003c0 5d 29 8f be 26 df 26 bf 15 26 74 bf 95 7a 6f bf
       -0.27961245 -0.6518425 -0.9537061 -0.9354642
0003d0 11 68 4b 3f f3 17 a7 be 81 ac 91 bf 71 eb 6e 3c
       0.7945567 -0.3263546 -1.1380769 0.014582501
0003e0 87 36 0c be ad 3b e4 be e3 5d 31 bf 4f 88 b0 3e
       -0.13692676 -0.4457678 -0.69283885 0.34478995
0003f0 2f 1c aa 3f 89 1f 8c 3c dd 98 0f bf f8 c3 1b 3e
       1.3289851 0.01710488 -0.56092626 0.15211475

bias_ih_l0 f4 [96]
000000 33 d7 92 be e7 81 ba 3b 92 05 86 3b ac b9 87 bd
       -0.2867981 0.005691755 0.0040900195 -0.06627211
000010 2a a0 4a bf 15 62 5a bf a9 b9 bb be 0c 50 e8 3e
       -0.7915064 -0.8530591 -0.36665085 0.4537357
000020 58 d1 f7 bd eb f5 8b 3f b3 3f 62 3e 68 84 d9 3e
       -0.12100476 1.0934423 0.22094612 0.4248383
000030 43 9f 71 3e 63 3f 28 3f 5a 80 79 3e 44 e7 df be
       0.2359591 0.6572172 0.24365368 -0.4373113
000040 5a 1f 06 be e6 f9 d7 3e eb 58 af be ef b8 db be
       -0.13097897 0.42182845 -0.34247527 -0.4291453
000050 38 83 8a bf 33 ab 1e be fa e8 3a bf 11 d4 14 bf
       -1.0821295 -0.15494995 -0.73011744 -0.5813609
000060 d2 a4 cc be e9 fb a1 be 4a 9c ff be ae e6 42 3e
       -0.39969498 -0.31637505 -0.49923927 0.1903331
000070 b2 59 80 bf a5 8e 34 bf 3f ea dc 3e 16 8d 20 3f
       -1.0027373 -0.7053016 0.43147466 0.6271528
000080 65 6e 98 3f 8f 2c 52 3f 33 fe 07 3f a5 c0 ee 3e
       1.190869 0.8209924 0.5312225 0.4663135
000090 4a 47 7c 3f 9d c3 64 3f 3f 48 a1 3f 13 1d 4f 3f
       0.9854628 0.8936098 1.2600173 0.8090374
0000a0 e2 f9 f5 3e 3f 8e 0e 3f dc d6 88 3f fd bd 9e bd
       0.48042208 0.556858 1.069057 -0.07751081
0000b0 b3 23 c5 3e b1 6d 03 3e 75 ff 5d 3f 5c 6f b0 3d
       0.385038 0.12834813 0.8671792 0.0861499
0000c0 c3 84 4f 3f 46 c4 16 3f db eb 2b 3f 87 d3 76 3f
       0.81061953 0.5889324 0.6715676 0.96416515
0000d0 2a 10 4e 3d 5c 43 e6 3e ea de 9d 3e 49 37 61 3f
       0.050308384 0.44973266 0.30834132 0.87974983
0000e0 6d 4d 89 3f 96 11 0d 3f bd 5e 3b 3f d6 05 22 3f
       1.0726753 0.5510496 0.73191434 0.63290155
0000f0 9d 1d 65 3f 73 20 73 3f 79 5a 0b 3f 6c a0 9d 3f
       0.8949831 0.9497139 0.54434925 1.2314582
000100 08 6e 95 3e d7 ef 0a 3e 77 3e b6 be 0f 46 27 bc
       0.2918551 0.13568054 -0.35594532 -0.010209574
000110 fa 56 4a be 42 44 2e 3e 70 5a 0e 3f fc c2 0e be
       -0.19759741 0.17018226 0.55606747 -0.13941568
000120 c3 3f 9e 3d fa 41 2c 3e ec 04 69 3e 6b ae 42 3e
       0.07727005 0.16822043 0.22755784 0.19011848
000130 ca 7c 80 3e 77 b8 0c 3e e2 30 9a be 29 a8 3e 3e
       0.25095206 0.13742243 -0.3011542 0.18618836
000140 56 7a fa 3d 05 5d 0e bf 8e 67 dc be 4b 83 61 3e
       0.12230365 -0.55610687 -0.43047756 0.2202274
000150 a9 a7 8c be ed 95 84 3d 41 99 31 3e e6 1d 86 3d
       -0.27471665 0.064739086 0.17343618 0.065486714
000160 65 33 15 3c 8f 56 fc 3d 63 7c 93 3e 2e 3b 54 bd
       0.009106492 0.12321197 0.28805837 -0.05181425
000170 f2 71 ad bc 0f fa 1a bc 86 52 05 bd a6 53 f7 3d
       -0.021172497 -0.009459033 -0.032549404 0.120765015

bias_hh_l0 f4 [96]
000000 71 c4 f7 be 04 18 b0 3c 4d ed 3e 3e d0 31 42 bd
       -0.4839206 0.021495827 0.1864521 -0.047410786
000010 7e c2 7e bf 9d be 6a bf 22 47 6f be 61 d6 fb 3e
       -0.9951552 -0.916971 -0.23366979 0.49186996
000020 49 21 57 bb d0 86 91 3f 54 9a 2e 3d 66 c2 1f 3f
       -0.0032826236 1.1369267 0.042627648 0.62406003
000030 20 68 23 bc 9d c2 27 3f 35 cd d6 3d 52 56 16 bf
       -0.009973556 0.6553133 0.10488359 -0.58725464
000040 20 9e 0c be 4a 67 cf 3e d3 9c 63 be 23 1b 8f be
       -0.13732195 0.4050849 -0.22227792 -0.2795039
000050 a3 66 84 bf 17 d6 8a bd 2c 4e 49 bf 26 60 48 bf
       -1.0343822 -0.06779116 -0.78634906 -0.7827171
000060 37 96 0b bf e3 ff 9a be 97 e6 01 bf 2e 67 47 3e
       -0.54526085 -0.3027335 -0.5074248 0.19472954
000070 19 eb 91 bf 32 e7 20 bf e3 06 26 3e 08 2c c2 3e
       -1.1399871 -0.62852776 0.16213565 0.37924218
000080 61 28 87 3f 51 a5 6f 3f f8 0a b4 3e b1 2a c8 3e
       1.0559198 0.9361163 0.35164618 0.3909507
000090 d2 c1 73 3f f9 8f 6e 3f 71 5b b9 3f 2f ac 6d 3f
       0.9521762 0.93188435 1.4481031 0.92840856
0000a0 50 d3 a1 3e 15 2b d7 3e 8f cd 96 3f c3 0b d7 3d
       0.3160653 0.42025056 1.1781482 0.1050029
0000b0 04 c2 b3 3e 06 28 87 bc 4a 6d 4c 3f 5d 80 7d 3d
       0.3510896 -0.016498577 0.7985426 0.061889995
0000c0 89 6a 29 3f 02 ed 21 3f 46 f2 f2 3e d7 84 53 3f
       0.66178185 0.6325227 0.47450465 0.8262457
0000d0 42 a9 0d be 28 4a df 3e 16 cc a8 3e 18 87 56 3f
       -0.13834098 0.43611264 0.32968205 0.83799887
0000e0 b3 35 51 3f be 0a 08 3f 25 16 0a 3f ce 65 2c 3f
       0.81722564 0.5314139 0.5394004 0.6734284
0000f0 ff ca 1f 3f e3 60 7e 3f 06 e3 d7 3e d4 44 8c 3f
       0.6241912 0.9936659 0.42165393 1.0958505
000100 81 0c d6 3d ae ad f7 3e e2 cc 5f 3f 9c 69 b4 3e
       0.10451604 0.48374695 0.87422 0.35236824
000110 c8 72 88 bd 4c ad 4e bc 74 2f ef 3e 97 28 97 be
       -0.06662518 -0.012614559 0.4671589 -0.29523155
000120 98 e1 ce 3e e4 a6 07 3e da 4f 2d bc 1c 10 d4 3e
       0.4040649 0.13247257 -0.01057812 0.4141854
000130 71 42 01 3f 14 64 04 3f 1a 84 91 3e b8 40 5b 3f
       0.50492007 0.5171521 0.28421098 0.8564563
000140 24 22 2e bf 4d a9 50 be eb c8 ea bc f5 4a 54 be
       -0.68020844 -0.20377083 -0.028660258 -0.20731719
000150 4c 77 43 bf 12 7f f3 bc fe 40 91 3c 9a 22 9a 3e
       -0.7635391 -0.029723678 0.017731186 0.30104524
000160 fc 81 8a bd 74 c2 e7 3c fa 44 4a 3e 85 27 6c 3e
       -0.06763074 0.028290965 0.19752875 0.2306195
000170 01 98 44 3e b1 0e 09 bf b3 81 46 3e 3a f0 e9 3e
       0.1919861 -0.5353804 0.19385414 0.4569109

weight f4 [18, 32]
000000 a2 c1 d4 3e 94 db f8 3f 13 7f bd bf 03 39 07 40
       0.4155398 1.944201 -1.4804405 2.1128547
000010 b4 39 bb bf 1f a2 97 bd e3 5f a7 3e c4 92 ad 3f
       -1.4626985 -0.07403969 0.32690343 1.3560414
000020 49 4f ba be d9 ff 9e 3d 4e 8d 49 c0 60 5f cb 3f
       -0.36388615 0.07763643 -3.1492496 1.5888481
000030 26 bb c2 bf b0 15 73 3f 90 a9 05 3f 9c 7f 74 3f
       -1.5213363 0.9495497 0.52211857 0.95507216
000040 1d 8c 08 c0 1e 1d e4 bf 58 c0 d9 3f ba a5 b2 bf
       -2.1335518 -1.7821386 1.7011824 -1.3956826
000050 35 26 0c c0 d1 c4 d8 3e ba b5 9d 3f 20 31 40 c0
       -2.189832 0.4233766 1.2321084 -3.0029984
000060 51 27 1f bf 7c d1 96 bd 4a 64 8f 3f d4 1f 88 3f
       -0.6216937 -0.07364175 1.1202481 1.0634713
000070 b4 7c 46 bf 27 c8 0c bf 2f fc 0d bd 03 c1 6a bf
       -0.7753403 -0.5499291 -0.03466433 -0.9170076
000080 15 05 17 3e 22 df bb 3e 6c f6 e6 bf 13 99 1e 40
       0.14748032 0.36693674 -1.8043952 2.478093
000090 ba 6e 9a bf 19 ba 32 bf b4 5e 0e 3f be e2 96 3f
       -1.2065041 -0.6981521 0.55613256 1.1787946
0000a0 16 00 05 3f 29 ba 7f bf e9 d2 89 bf 7d b3 b9 3f
       0.51953256 -0.9989343 -1.076749 1.45079
0000b0 55 e7 e5 bf 45 72 fb 3e d3 41 71 bd 39 7a 7a 3f
       -1.7961222 0.49110618 -0.058900665 0.97842747
0000c0 30 ce 1f c0 da 75 98 bf 65 0e 93 3f 4a a5 d1 bf
       -2.4969597 -1.1910965 1.1488768 -1.6378567
0000d0 9f c9 da bf 17 37 17 bf 91 fe 9d 3f 54 c9 39 c0
       -1.709278 -0.59068435 1.2343313 -2.902913
0000e0 18 78 a9 bf 0a 71 ee be e0 ce da 3e 07 4f 5e 3f
       -1.3239775 -0.46570617 0.42735958 0.86839336
0000f0 e7 61 91 bf 15 c0 31 3e c4 7b c4 be 92 68 ab bf
       -1.1358002 0.1735843 -0.38375676 -1.3391287
000100 d5 6b 27 be dc cb 69 3e 32 16 0a c0 4d b8 28 40
       -0.16349728 0.22831672 -2.1576047 2.6362488
000110 83 c8 a0 bf c0 67 06 bf 6b 65 e0 3e 61 8c 9b 3f
       -1.2561191 -0.5250206 0.43827376 1.2152215
000120 aa f9 d9 3e 2f 75 b8 be 9b 45 22 bf d6 dc 0f 3f
       0.4257329 -0.36026904 -0.6338746 0.56196344
000130 5b 43 10 c0 f9 a5 79 3f 00 3c 85 3e f4 96 09 3f
       -2.254111 0.9751888 0.2602234 0.5374596
000140 ef b1 ef bf 02 37 94 bf 3d d8 d8 3f a7 15 0d c0
       -1.8726176 -1.1579287 1.6940991 -2.2044466
000150 3f ac f5 bf 96 da 6d bf 8d 37 94 3f 29 b5 3b c0
       -1.919319 -0.9291166 1.1579453 -2.9329321
000160 43 94 85 bf e6 fb a6 be 6b 86 dd 3e 44 56 92 3f
       -1.0435871 -0.32614058 0.43266615 1.1432576
000170 a7 ae c2 bf c5 e1 de be cf 3e a3 be c7 6d 75 bf
       -1.520955 -0.43531623 -0.31883857 -0.9587063
000180 fb 1f 81 3f 22 e8 83 3f 22 14 17 c0 25 36 34 40
       1.0087885 1.0305216 -2.3606038 2.8158047
000190 ec e2 d1 bf 0f 2e eb bd 3f 8b 0e 40 8a 39 f3 3d
       -1.6397376 -0.11483394 2.227249 0.11876209
0001a0 8d fa 38 be 6b b5 be bf e7 10 20 c0 62 f6 18 40
       -0.18064328 -1.4899114 -2.5010316 2.390038
0001b0 f6 f2 0f c0 d8 61 ba 3f 23 f1 62 3e 16 9c 09 3f
       -2.2492042 1.456111 0.22162299 0.53753793
0001c0 8b 77 f9 bf f7 33 fd bf af 8b 85 3f be 95 3c c0
       -1.9489607 -1.9781483 1.0433253 -2.9466395
0001d0 32 6e 0c c0 18 08 4a 3f f4 fe 97 3f 47 d3 37 c0
       -2.1942258 0.789186 1.187468 -2.8722703
0001e0 9a 56 d3 bf b7 c1 01 3e b5 29 b9 3f 1a c7 a6 3f
       -1.6510804 0.12671553 1.4465853 1.3029511
0001f0 47 d5 d0 bf f0 16 9e bf 30 49 f1 be 86 fc 8e bd
       -1.6315087 -1.235075 -0.4712615 -0.06981759
000200 48 22 36 3f 13 99 d3 3f 69 4c e2 bf f8 f5 d5 3f
       0.7114606 1.653109 -1.7679569 1.6715689
000210 86 d8 e1 bf ea cb 6a bd f9 7f 73 3f e9 c3 08 3f
       -1.7644203 -0.057323374 0.95117146 0.53423935
000220 2c 3e 8a 3e b2 8c 87 be 2d 28 0b c0 73 59 8b 3f
       0.27000558 -0.2647453 -2.1743271 1.0886673
000230 e0 93 b2 bf 48 37 c3 3f 96 1b c1 be 95 78 9a 3f
       -1.3951378 1.5251245 -0.3771636 1.2068049
000240 1a c9 15 c0 f2 92 db bf db 19 58 3f ef 91 c1 bf
       -2.3403993 -1.7154219 0.8441445 -1.512266
000250 6b 8b 33 c0 7f ed c9 3e 2f 0c 82 3f de da 0e c0
       -2.8053844 0.39439008 1.0159968 -2.2321086
000260 92 29 00 3d ee 4d 76 be a3 48 5f 3f 6c 24 a1 3f
       0.031289645 -0.24053165 0.8722021 1.258924
000270 7d 1b cc bf 6e c6 48 bd 4e c0 f6 3d e7 e4 27 3e
       -1.5945889 -0.049017362 0.12048398 0.16395913
000280 c3 56 73 3f 7e 1a 09 3f f3 79 07 c0 ff 95 02 40
       0.9505426 0.5355605 -2.1168182 2.040405
000290 f6 09 92 bf 8a b1 00 3f 5c 38 8c 3f 0c 43 4a 3f
       -1.140929 0.50270903 1.09547 0.79008555
0002a0 2f 56 b8 3e ac 00 37 bf 73 a1 20 c0 19 92 e4 3e
       0.36003253 -0.714854 -2.509854 0.44642714
0002b0 b6 82 5a bf 37 f6 fa 3e 55 d3 37 3f f4 57 3e 3f
       -0.853557 0.49015972 0.7180684 0.74352956
0002c0 20 d1 16 c0 1d 25 7a bf 28 68 c7 3f e5 df c5 bf
       -2.356514 -0.9771288 1.5578661 -1.5458952
0002d0 05 e2 c8 bf b1 17 8a 3e ed c7 46 3f 83 89 f5 bf
       -1.5693976 0.269712 0.7764881 -1.918259
0002e0 cf c3 ce be a0 1c 0d bf 6e d0 86 3f 55 ee b4 3f
       -0.40383765 -0.55121803 1.0532358 1.4135233
0002f0 dc 68 9d bf 14 22 1b bf 26 49 46 bf 5f 78 0f bf
       -1.2297626 -0.60598874 -0.77455366 -0.56043047
000300 e0 22 5c 3f d8 4d 2b 3f 41 2a 0e c0 2d 8a e6 3f
       0.85990715 0.66915655 -2.221329 1.8010918
000310 2c 2a 18 bf ed 47 8d be 86 33 74 3f fe bb a2 3f
       -0.5943935 -0.27593938 0.9539112 1.2713621
000320 81 b6 08 3e c9 25 64 bf 9b 75 29 c0 b7 ab a8 3f
       0.1335087 -0.89120156 -2.647803 1.3177403
000330 1b b6 5b bf ff 23 67 3f b3 3f 95 3e c3 df 6c 3f
       -0.85824746 0.902893 0.2915016 0.92528933
000340 ca ff d4 bf e9 d5 85 bf 0e b8 de 3f bb 0c 03 c0
       -1.6640561 -1.0455905 1.7399919 -2.047652
000350 6b 56 c9 bf b9 cd 91 3e 27 ad ba 3f c8 e2 2e c0
       -1.5729498 0.28477266 1.4584092 -2.7325916
000360 d7 87 82 bf 52 3a 85 bf f9 1e 9c 3f 48 a6 c2 3f
       -1.0197705 -1.0408423 1.2196952 1.5206995
000370 bc 41 ae bf 13 ab 35 be df c8 89 be c2 c5 1c bf
       -1.361381 -0.17741041 -0.26911065 -0.61239254
000380 9c 2f 41 3f ca 5b 83 3f a7 a1 dd bf 95 fc e8 3f
       0.7546327 1.0262387 -1.7314957 1.8202082
000390 db d4 e8 bf bf 63 4e 3c e2 54 8e 3f 5d 3b f7 3e
       -1.8189958 0.0125970235 1.1119654 0.48287478
0003a0 cf 59 f3 3e 09 5d 2e bf 05 b2 ea bf 93 88 58 3f
       0.47529456 -0.6811071 -1.8335577 0.84583396
0003b0 8c 87 9c bf 4a c1 89 3f c7 ef 23 3e a3 be 9f 3f
       -1.2228866 1.0762112 0.16009437 1.2480053
0003c0 b1 ca 28 c0 a9 17 99 bf aa a3 88 3f 66 cd 91 bf
       -2.6373713 -1.1960346 1.0674946 -1.1390808
0003d0 ca eb 08 c0 30 80 be 3e 94 7a 76 3f 06 f0 0a c0
       -2.1393914 0.37207174 0.9628079 -2.1708999
0003e0 ca 07 db be 3e 9a 30 bf 77 ec 52 3f 14 d8 81 3f
       -0.4277938 -0.68985355 0.82392067 1.0144067
0003f0 18 b9 04 c0 ce 74 44 bf 48 d3 ed be eb fa 82 be
       -2.0737972 -0.7674073 -0.46450257 -0.2558206

bias f4 [18]
000000 55 f5 02 c1 20 5b f6 c0 19 5f ff c0 7f ad 02 c1
       -8.1848955 -7.6986237 -7.9803586 -8.167357
000010 e3 f8 07 c1 cc ff f9 c0 9b 1b fe c0 2f ac 02 c1
       -8.498263 -7.812475 -7.94087 -8.167037
000020 43 b3 fb c0 3f d5 00 c1 ff 96 02 c1 01 a1 02 c1
       -7.8656325 -8.052062 -8.161864 -8.164308
000030 3a a6 04 c1 24 86 01 c1 55 68 04 c1 8a bb 04 c1
       -8.290583 -8.095249 -8.275472 -8.295786
000040 e9 b8 02 c1 b6 7c 10 c1
       -8.170144 -9.030447
