char_emb/code/output/model_child_gru_test.pt (torch_old, 41191 bytes, 7 tensors)

weight f4 [66, 15]
1.7775211 2.5164948 -0.5093543 -1.8236439 -0.13476846 0.5351349 -0.62022465 1.9012574
-0.069674484 -0.7023642 0.90692145 -2.1765368 0.5477521 -0.023726488 0.9994324 1.617219
0.25884938 -0.34666452 -0.7710156 0.13629454 0.42822823 0.60253817 -0.62755847 -0.71543115
0.50797194 -1.0950867 2.9039314 -0.4711612 1.3034118 0.78329724 0.37126538 0.6809867
0.865883 0.23721884 -1.2623665 0.74158573 -1.633114 0.13598374 1.8095045 -0.7531759
-0.021565849 -2.026187 0.7137027 0.2592251 -0.14833646 -0.64061874 0.99879754 1.5260074
0.9951348 -0.8193606 0.3299954 1.7613746 -1.1088629 -1.1421673 -0.22364728 -0.5667633
0.053309634 0.623231 0.6481743 -2.519701 0.51777697 -0.5979719 -1.2610371 0.88571495
-1.835252 1.8505944 2.2209344 0.37076804 0.4733589 0.013692338 0.5347564 0.69489324
-0.7651189 -2.0615737 -0.65566957 -0.09962253 0.23660232 0.81512207 -0.8521235 0.18390015
1.2434403 0.1991336 -1.8930838 -2.132133 1.3937526 0.7368616 -0.10218447 -0.9308198
-0.119578496 -0.7248398 -1.3098512 -0.13611601 1.3181331 1.3386481 1.0393114 -1.2751877
1.0558782 1.7726016 -1.2012889 -0.52045894 -1.1266074 1.3919494 -0.254678 0.71792096
-0.21021429 -2.1335638 -0.7436442 1.1911651 -2.7117438 0.74063736 0.9076191 0.3833798
0.3144542 0.06307324 2.7446206 -1.1163305 1.1333369 1.1283942 -0.7845146 1.0592601
3.4572911 -0.49775335 -1.9581327 0.53103167 0.5750715 -1.2325118 0.46947563 -0.43157265
0.3961377 -1.3074509 -1.5747286 -1.3286746 -1.0056046 -0.7345223 0.8987553 1.316885
0.23864454 -2.4106903 -1.7242713 0.56021714 -1.431858 -2.4271352 1.6716295 -0.562653
-0.16136974 -3.3160007 0.6568068 -0.49440578 -0.90530413 2.1516967 1.480161 0.82429034
1.3275223 -1.1273458 -0.9061602 -0.8345642 -0.6494171 0.5664172 -0.5523566 0.757142
1.212283 0.9912074 0.39233586 1.894811 -1.8632089 -2.5341833 0.19032179 -1.729425
-2.193236 0.59550196 0.577154 0.08025934 -1.8569975 -0.9198665 -0.3299585 -0.6986764
-0.8420631 -0.7732959 -0.71138483 -0.7574266 -0.108644366 0.85951155 0.14073105 1.1077464
-0.48620233 -0.6030883 -0.9581555 -1.8066592 -3.514091 1.1132803 -1.6395259 -2.5230548
-0.5054691 -0.9198311 0.6733594 -0.31075206 -1.4401594 -0.87020266 0.11110626 -0.33741638
4.427187 -0.91551405 0.22875836 -0.7151937 0.7299952 1.4521167 0.39057884 0.6480821
-0.49765822 1.4426997 -1.5384163 -0.07389344 2.8811345 1.0214638 1.0194279 1.7899694
-0.61483145 1.0284604 -0.7657811 1.6466664 2.5698638 0.3737332 -0.8983231 1.3247647
1.9436865 0.5540072 -2.174713 -1.4240706 2.526143 -0.1519534 -0.98796594 -0.6086908
0.41792482 -0.8161767 0.541121 -0.8970404 -1.3941493 -0.57060283 1.3746632 0.3062301
1.2862009 -2.251502 -1.22925 -1.0553507 0.58434385 0.00938563 1.571666 -0.38285244
-1.4513738 0.22719209 0.6427006 1.458558 -2.9434457 -0.7229099 2.1121414 -2.378248
00000000: d085 e33f 400e 2140 0b65 02bf 2a6d e9bf
00000010: be00 0abe 9afe 083f 0bc7 1ebf 675c f33f
00000020: 7fb1 8ebd 24ce 33bf 012c 683f 614c 0bc0
00000030: 7b39 0c3f 0d5e c2bc cdda 7f3f 0801 cf3f
00000040: e887 843e 037e b1be 4761 45bf cc90 0b3e
00000050: bb40 db3e f13f 1a3f aca7 20bf 7f26 37bf
00000060: 730a 023f cd2b 8cbf 03da 3940 0a3c f1be
00000070: 33d6 a63f 2b86 483f 7f16 be3e 2555 2e3f
00000080: 82aa 5d3f 7fe9 723e 3a95 a1bf 90d8 3d3f
00000090: e109 d1bf 523f 0b3e d89d e73f 23d0 40bf
000000a0: ddaa b0bc 0cad 01c0 38b5 363f 27b9 843e
000000b0: 83e5 17be 97ff 23bf 32b1 7f3f 3654 c33f
000000c0: 27c1 7e3f 9ec1 51bf 28f5 a83e b974 e13f
000000d0: 38ef 8dbf 8a32 92bf cb03 65be 6617 11bf
000000e0: 345b 5a3d 118c 1f3f c0ee 253f c842 21c0
000000f0: 088d 043f b014 19bf aa69 a1bf 37be 623f
00000100: 8ae9 eabf 47e0 ec3f ca23 0e40 4fd5 bd3e
00000110: 195c f23e d455 603c cce5 083f 86e4 313f
00000120: d5de 43bf d3f0 03c0 f6d9 27bf e606 ccbd
00000130: e147 723e d7ab 503f c424 5abf 5250 3c3e
00000140: 0d29 9f3f aee9 4b3e 9250 f2bf de74 08c0
00000150: 7c66 b23f f6a2 3c3f 1746 d1bd 354a 6ebf
00000160: 92e5 f4bd 1a8f 39bf 34a9 a7bf ff61 0bbe
00000170: 96b8 a83f d258 ab3f 2808 853f 5a39 a3bf
00000180: 0427 873f 9ce4 e23f d6c3 99bf cc3c 05bf
00000190: ac34 90bf 662b b23f 2865 82be abc9 373f
000001a0: 6a42 57be 4f8c 08c0 775f 3ebf 1978 983f
000001b0: 368d 2dc0 699a 3d3f ba59 683f 5b4a c43e
000001c0: 2400 a13e 8b2c 813d dda7 2f40 ebe3 8ebf
000001d0: 2f11 913f 396f 903f f3d5 48bf d695 873f
000001e0: 4244 5d40 87d9 febe 18a4 fabf b1f1 073f
000001f0: e337 133f f2c2 9dbf 1c5f f03e 17f7 dcbe
00000200: 90d2 ca3e 8d5a a7bf b590 c9bf 0212 aabf
00000210: a7b7 80bf a709 3cbf d414 663f b08f a83f
00000220: 3c5f 743e c048 1ac0 ecb4 dcbf 646a 0f3f
00000230: 1f47 b7bf 2f56 1bc0 f5f7 d53f 070a 10bf
00000240: 1c3e 25be 5b39 54c0 7e24 283f c122 fdbe
00000250: 03c2 67bf 66b5 0940 ea75 bd3f b104 533f
00000260: 40ec a93f de4c 90bf 1dfa 67bf 00a6 55bf
00000270: 3340 26bf b800 113f 3e67 0dbf 0fd4 413f
00000280: 172c 9b3f c5bf 7d3f 3fe0 c83e 2b89 f23f
00000290: a17d eebf 0f30 22c0 b7e3 423e cc5d ddbf
000002a0: fb5d 0cc0 d172 183f 5dc0 133f 025f a43d
000002b0: 18b2 edbf 5f7c 6bbf 52f0 a8be 75dc 32bf
000002c0: 7391 57bf b8f6 45bf 511d 36bf b6e6 41bf
000002d0: f080 debd f308 5c3f cd1b 103e a2ca 8d3f
000002e0: 83ef f8be ff63 1abf ae49 75bf 9c40 e7bf
000002f0: dee6 60c0 f87f 8e3f fcdb d1bf bb79 21c0
00000300: 6c66 01bf 0d7a 6bbf 4861 2c3f e51a 9fbe
00000310: 2557 b8bf 9ac5 5ebf ae8b e33d d7c1 acbe
00000320: 84ab 8d40 215f 6abf a23f 6a3e ef16 37bf
00000330: f7e0 3a3f f6de b93f f3f9 c73e b5e8 253f
00000340: 0fcd febe 62aa b83f d3ea c4bf 7255 97bd
00000350: 8264 3840 53bf 823f 9d7c 823f b81d e53f
00000360: 9865 1dbf 97a4 833f 3b0a 44bf f7c5 d23f
00000370: a678 2440 f559 bf3e 81f8 65bf e491 a93f
00000380: b8ca f83f 6ad3 0d3f 7f2e 0bc0 f247 b6bf
00000390: 54ac 2140 ac99 1bbe 56eb 7cbf 29d3 1bbf
000003a0: 3efa d53e f5f0 50bf e886 0a3f 71a4 65bf
000003b0: 7c73 b2bf 0713 12bf f7f4 af3f 31ca 9c3e
000003c0: 3ba2 a43f 9c18 10c0 1058 9dbf bb15 87bf
000003d0: 8f97 153f 2fc6 193c 5a2c c93f 3c05 c4be
000003e0: 9ec6 b9bf 0ba5 683e 0788 243f 07b2 ba3f
000003f0: 6a61 3cc0 a010 39bf 532d 0740 3735 18c0

weight_ih_l0 f4 [96, 15]
-0.40371153 1.0346751 1.0251144 -1.5774008 0.22545289 0.55466 0.34044868 0.10553895
-0.0021923098 1.0216969 -0.79555887 0.8657793 -0.10484254 -0.023571903 -0.4118308 -0.6614003
0.46157175 1.9300175 0.70285374 0.6477307 1.3734432 -1.3785073 -0.7384145 -0.8421647
0.09279302 0.79794025 -0.9958525 0.45726335 1.2428303 0.11582859 -0.6365883 0.95091885
0.71403104 -0.4353969 -1.3604847 0.3351374 0.106704265 0.9088525 -0.44594616 1.7160742
-0.37385553 0.50913715 -0.10637896 -1.4459614 0.8912852 -0.4242474 -0.6817846 -1.3030864
1.1474215 0.27048576 -0.9203534 0.49291676 -0.23846745 -0.6964178 -0.22540851 -0.4015452
-0.76969516 0.3730582 0.69318324 1.0679685 -0.33187744 0.4574789 0.03331611 -1.0898526
-0.5914282 0.0026912608 -0.9018971 -0.17302057 -0.24195701 1.1625562 -1.1887951 0.1901546
0.079660855 -0.7763332 -0.0025562495 0.45668903 1.0018641 0.74390966 -0.4201534 0.801808
1.0076692 0.43417102 -0.4074439 0.38760903 -0.92598885 0.19988948 -0.54238516 0.15377352
-0.14630364 -1.308657 -0.5533084 0.7118541 -0.3465212 -0.30225563 0.56185764 -0.40010738
-1.1661382 -1.1073477 -1.0670723 1.1176572 -1.6508716 -0.10602276 0.54020935 0.23603174
1.0605681 -0.8565166 0.9944981 -2.2515347 -0.06511863 -1.0043292 -0.14405961 -1.0404756
0.6001493 -2.0947938 -0.21549307 0.19205292 0.6551123 -0.51752925 0.68142134 2.4526482
1.314292 -0.16130136 -1.134984 0.72199255 -1.4259431 -2.9458477 0.627535 0.62713176
0.21558063 0.04321979 1.5457609 1.1239663 -1.1931549 0.9333378 -0.02369759 -0.40040487
-0.7949593 2.062308 -0.0020340378 0.9490675 -0.46607983 0.8574557 -0.58167225 0.57747847
-0.30779597 1.2611035 -0.043220475 0.41187346 -1.2786709 -1.684655 1.3709673 0.59357125
-1.1667457 1.3048185 0.15765004 -0.84501284 -0.41483778 -0.7509809 -1.0445584 0.20905423
-0.6916686 -1.487322 -0.69661874 1.6852118 -0.19349064 -1.1450583 -1.3706385 -1.1374127
-0.27802342 0.42846853 -0.13449033 0.81644773 -0.29978806 1.7771116 0.48305956 -0.13196528
0.10725448 -0.23640715 -1.2214746 0.35098472 -0.41511682 0.6940877 0.9038886 -0.9107891
0.98554665 2.1689749 -0.5682944 -0.6961651 -1.3108187 0.9648146 -2.4234812 1.2167584
0.71787953 0.24173982 -0.36802998 1.213808 -0.30876338 -0.9874826 0.9708605 -0.6047582
0.21875829 0.637863 0.72219026 -0.0790743 -0.50717324 -1.1269733 0.077158295 0.8285915
-0.57255095 -0.5349429 0.89210767 0.089028165 -1.3676791 -0.2462932 0.10918433 0.15447982
-0.28373042 0.94032305 -0.60385835 0.0023750984 -1.5323402 -0.016301572 0.045986608 1.0347618
0.050696377 0.71825033 -0.54492533 1.067301 -1.4593467 -0.8886616 -0.91793793 0.61256945
0.72126323 0.7759574 1.661165 2.346463 1.4978241 -1.1833138 1.2513667 -0.7070491
0.65084535 -0.7105234 -1.7676944 0.73961955 -0.10288975 -1.0427577 1.614439 -0.15459234
1.4215719 -2.1137595 -1.5368806 -0.085835926 1.1751182 -0.13643855 0.38063034 -0.47547814
00000000: 47b3 cebe 3c70 843f f336 833f 45e8 c9bf
00000010: 1fdd 663e 33fe 0d3f 4a4f ae3e ce24 d83d
00000020: dbac 0fbb f7c6 823f bfa9 4bbf b6a3 5d3f
00000030: b0b7 d6bd dd19 c1bc 7ddb d2be 8851 29bf
00000040: 2253 ec3e d00a f73f 39ee 333f aed1 253f
00000050: fdcc af3f ed72 b0bf bc08 3dbf 1b98 57bf
00000060: 440a be3d d045 4c3f 30f0 7ebf 6c1e ea3e
00000070: 1015 9f3f 8a37 ed3d 73f7 22bf 6b6f 733f
00000080: bdca 363f 58ec debe 5d24 aebf 2197 ab3e
00000090: c487 da3d 8faa 683f 0e53 e4be 52a8 db3f
000000a0: fe69 bfbe d056 023f 36dd d9bd 4315 b9bf
000000b0: 442b 643f f536 d9be 6f89 2ebf 89cb a6bf
000000c0: b5de 923f 1c7d 8a3e 489c 6bbf 965f fc3e
000000d0: d030 74be 7048 32bf 7dd1 66be 5597 cdbe
000000e0: be0a 45bf 7c01 bf3e 7574 313f 31b3 883f
000000f0: d7eb a9be ad3a ea3e 7976 083d 4a80 8bbf
00000100: d767 17bf dd5f 303b bae2 66bf 4e2c 31be
00000110: 94c3 77be a4ce 943f 702a 98bf e3b7 423e
00000120: 3b25 a33d c6bd 46bf c086 27bb 25d3 e93e
00000130: 153d 803f dd70 3e3f 591e d7be 4a43 4d3f
00000140: 4efb 803f aa4b de3e 7d9c d0be b174 c63e
00000150: 9b0d 6dbf d4af 4c3e c1d9 0abf ce76 1d3e
00000160: 9fd0 15be 1382 a7bf 9fa5 0dbf 123c 363f
00000170: 3a6b b1be 40c1 9abe e7d5 0f3f e0da ccbe
00000180: 0444 95bf 92bd 8dbf d395 88bf 640f 8f3f
00000190: c34f d3bf 7622 d9bd 294b 0a3f 4eb2 713e
000001a0: b2c0 873f ac44 5bbf 6d97 7e3f 2519 10c0
000001b0: eb5c 85bd dc8d 80bf 5d84 13be 4e2e 85bf
000001c0: 62a3 193f 1a11 06c0 37aa 5cbe 85a9 443e
000001d0: 71b5 273f cc7c 04bf a171 2e3f 30f8 1c40
000001e0: b83a a83f 2f2c 25be 2847 91bf 81d4 383f
000001f0: 4e85 b6bf c588 3cc0 22a6 203f b58b 203f
00000200: 2bc1 5c3e 3c07 313d 7edb c53f 21de 8f3f
00000210: 4db9 98bf 3aef 6e3f 7321 c2bc de01 cdbe
00000220: 7482 4bbf dbfc 0340 7e4d 05bb 16f6 723f
00000230: 04a2 eebe 3782 5b3f 79e8 14bf a1d5 133f
00000240: 6f97 9dbe d76b a13f f407 31bd 14e1 d23e
00000250: 7dab a3bf c6a2 d7bf db7b af3f 49f4 173f
00000260: ec57 95bf 4b04 a73f 036f 213e c352 58bf
00000270: 9e65 d4be 4940 40bf 17b4 85bf 5012 563e
00000280: 3211 31bf 9160 bebf 9b55 32bf 05b5 d73f
00000290: 6922 46be 4591 92bf 1571 afbf bd96 91bf
000002a0: 1659 8ebe 3a60 db3e d5b7 09be b802 513f
000002b0: d27d 99be 6578 e33f 9553 f73e e821 07be
000002c0: 3da8 db3d b714 72be 4859 9cbf 45b4 b33e
000002d0: 318a d4be bbaf 313f 3e65 673f 7929 69bf
000002e0: c94c 7c3f 7cd0 0a40 be7b 11bf e037 32bf
000002f0: e8c8 a7bf 17fe 763f 511a 1bc0 bdbe 9b3f
00000300: f4c6 373f a58a 773e 6d6e bcbe 0f5e 9b3f
00000310: 3c16 9ebe a9cb 7cbf 508a 783f 6fd1 1abf
00000320: 2c02 603e fd4a 233f 76e1 383f b5f1 a1bd
00000330: 1bd6 01bf a940 90bf 2b05 9e3d 931e 543f
00000340: b392 12bf 05f2 08bf 2b61 643f 6654 b63d
00000350: 1c10 afbf 4934 7cbe 099c df3d f52f 1e3e
00000360: 1d45 91be 03b9 703f 7696 1abf 8aa7 1b3b
00000370: b923 c4bf e08a 85bc 745c 3c3d 1373 843f
00000380: 01a7 4f3d 41df 373f 3a80 0bbf 529d 883f
00000390: dfcb babf 547f 63bf fbfd 6abf 5ad1 1c3f
000003a0: b5a4 383f 25a5 463f 0ea1 d43f 732c 1640
000003b0: b3b8 bf3f d476 97bf c92c a03f 2b01 35bf
000003c0: cd9d 263f dde4 35bf cf43 e2bf b557 3d3f
000003d0: dcb7 d2bd 1679 85bf f0a5 ce3f 744d 1ebe
000003e0: 11f6 b53f d647 07c0 81b8 c4bf bfca afbd
000003f0: 466a 963f 8cb6 0bbe fbe1 c23e df71 f3be

weight_hh_l0 f4 [96, 32]
0.22262631 0.4221217 -0.8607332 1.5062014 1.0708697 1.8022836 -0.8417502 0.57510465
-1.043255 0.31193668 2.0364547 0.53692216 -1.3375095 0.31602854 -0.8188078 -0.30369976
0.7038946 -0.20153157 0.04557953 -0.06996393 1.149361 -1.3626313 -1.4291136 -1.5603689
0.95627445 -0.96284705 -0.18173568 0.032764945 0.60674405 -0.274721 -0.23411146 0.58187705
-0.5197501 0.78281116 0.4332083 1.3704146 0.5807945 1.1570905 -0.07770903 0.78493583
-0.69295985 0.55984175 1.3334072 0.08329131 0.752874 -0.47016996 -1.0822302 -1.7851616
2.159637 1.9069321 0.1035615 -0.35821494 -0.19109528 -1.2583549 0.16960305 -1.546811
0.47793716 -0.46584877 -0.23738554 -1.2467271 -0.061037496 -0.95663923 0.62193125 1.9293402
-3.6296215 1.0162971 -1.0155886 0.9552103 -0.5491854 -0.32486576 -0.8016983 -0.39497718
-0.8554353 0.41200155 -0.12291078 -0.5841431 0.97291285 -0.06859771 1.1228493 -0.8012992
0.94506013 0.6784361 -0.26584136 0.25555915 3.185665 -1.4189568 0.28897682 -0.83647084
0.38260126 1.1880616 0.7199296 -0.5957686 2.2043078 -0.15096305 1.7549088 0.05351011
0.20917165 1.2624674 2.1929734 -0.64978725 1.3843176 -2.2645228 0.63735974 -0.3725206
1.2815785 -0.73211473 -0.103094384 0.04049118 1.4909151 -1.3259717 1.6800771 -0.16142872
0.629765 0.27693382 -0.5387439 -0.873111 1.0216011 0.24088965 0.93284327 0.4642553
0.20845132 0.43472496 -0.06761669 1.2647362 0.7446962 -0.5895554 1.6166722 2.1312656
-1.1815529 1.9160573 -1.0073302 0.99466723 0.6433044 1.9216609 -0.058680423 0.5501492
-0.83840984 1.0343385 0.14988507 0.3944942 0.1174169 0.19969578 -0.84335107 -0.8368883
0.6610095 -0.52207386 0.8154692 -0.5158284 0.87881655 -0.8135531 -1.4863423 -0.1428652
1.2235518 -1.4251148 1.1948707 -0.24531956 0.22918272 -0.040637046 -0.3688265 -0.09996201
-1.6600162 1.0422378 -0.6406109 0.9912442 0.49562654 -0.20723641 1.1536063 0.34020007
0.03376045 0.75600517 0.9584082 1.8029643 0.7945113 -0.49905756 0.036957167 -1.7781842
0.44081688 1.654644 -0.13640057 0.23061047 1.8573911 -1.1354967 0.867576 -1.1566532
0.060879234 0.5935067 -0.99116015 0.17537694 1.3727589 -2.0698576 1.3152733 0.8106073
-1.8196111 0.6166658 -1.4945325 1.9177957 0.62632793 0.511393 1.3902617 1.0298301
-0.2693665 1.2511427 1.5842236 -0.3371999 -0.7435013 -0.45267156 0.3445214 -1.3297379
1.718461 -0.48386297 -0.25353467 1.0433078 0.4868112 -2.332697 -1.066219 1.1102303
-0.47418767 -0.68465567 0.6032494 0.696934 -0.6516933 -1.663885 0.24103917 2.320585
-0.012251905 -0.25755617 0.40226346 -0.23804608 -1.5908232 -0.20058306 0.2798904 -0.65410614
-0.19182171 -0.767383 1.2123711 1.4242821 0.18383203 -0.9427098 1.8907607 0.72093815
0.68585426 -0.15249978 0.049966164 0.28017846 0.3769236 -0.7200345 -1.1639142 0.05864422
-0.257776 0.54892623 0.046199568 0.83360106 0.19731843 0.14237638 1.0162113 0.047576405
00000000: 27f8 633e 5620 d83e 0359 5cbf 35cb c03f
00000010: 4212 893f 3bb1 e63f f17c 57bf 0f3a 133f
00000020: 6189 85bf 2ab6 9f3e 4655 0240 bb73 093f
00000030: 8333 abbf 7ece a13e 639d 51bf 897e 9bbe
00000040: 7032 343f 4b5e 4ebe 9ab1 3a3d 4049 8fbd
00000050: 431e 933f b46a aebf 32ed b6bf 2bba c7bf
00000060: 67ce 743f 257d 76bf eb18 3abe 8934 063d
00000070: 9453 1b3f 3ba8 8cbe eaba 6fbe e5f5 143f
00000080: 580e 05bf 5066 483f 7acd dd3e bf69 af3f
00000090: f3ae 143f 8b1b 943f e925 9fbd 8ef1 483f
000000a0: d165 31bf ca51 0f3f 16ad aa3f a294 aa3d
000000b0: 5abc 403f 1eba f0be 8586 8abf 2d80 e4bf
000000c0: 7e37 0a40 5a16 f43f 0d18 d43d f367 b7be
000000d0: 7bae 43be c611 a1bf 6cac 2d3e e7fd c5bf
000000e0: 2eb4 f43e bb83 eebe 3215 73be c194 9fbf
000000f0: 7402 7abd 4fe6 74bf e336 1f3f 9ff4 f63f
00000100: b84b 68c0 0616 823f cffe 81bf aa88 743f
00000110: 6a97 0cbf ce54 a6be 1a3c 4dbf 733a cabe
00000120: cffd 5abf def1 d23e a6b8 fbbd 678a 15bf
00000130: d110 793f f57c 8cbd 87b9 8f3f f221 4dbf
00000140: 76ef 713f fdad 2d3f 5c1c 88be a6d8 823e
00000150: efe1 4b40 60a0 b5bf c5f4 933e f422 56bf
00000160: 50e4 c33e 6712 983f 4e4d 383f 4a84 18bf
00000170: 6113 0d40 0f96 1abe daa0 e03f 6b2d 5b3d
00000180: 1831 563e 8898 a13f ad59 0c40 7558 26bf
00000190: 5231 b13f f1ed 10c0 022a 233f 05bb bebe
000001a0: c40a a43f df6b 3bbf 2623 d3bd 14da 253d
000001b0: 4ed6 be3f 71b9 a9bf c40c d73f 924d 25be
000001c0: 4738 213f 45ca 8d3e 1feb 09bf 3484 5fbf
000001d0: d3c3 823f c7ab 763e d1ce 6e3f dfb2 ed3e
000001e0: 4374 553e 4594 de3e 9f7a 8abd e0e2 a13f
000001f0: 69a4 3e3f 1aed 16bf 1def ce3f a866 0840
00000200: 203d 97bf 5e41 f53f 32f0 80bf 83a2 7e3f
00000210: 99af 243f fcf8 f53f e25a 70bd 94d6 0c3f
00000220: 07a2 56bf 3465 843f 797b 193e 25fb c93e
00000230: 4678 f03d 0d7d 4c3e dbe5 57bf 503e 56bf
00000240: eb37 293f a2a6 05bf 97c2 503f 540d 04bf
00000250: 1ffa 603f 0445 50bf 7740 bebf 414b 12be
00000260: 589d 9c3f 296a b6bf 86f1 983f 0d35 7bbe
00000270: e0ae 6a3e 0873 26bd d4d6 bcbe e2b8 ccbd
00000280: 697b d4bf 0c68 853f 13ff 23bf 2ec2 7d3f
00000290: c3c2 fd3e c835 54be 5fa9 933f b42e ae3e
000002a0: 6648 0a3d 8e89 413f 3d5a 753f 89c7 e63f
000002b0: 1865 4b3f 7984 ffbe 6660 173d 8a9b e3bf
000002c0: c0b2 e13e 60cb d33f 97ac 0bbe 2725 6c3e
000002d0: febe ed3f f557 91bf 7619 5e3f 360d 94bf
000002e0: 815c 793d 0ef0 173f acbc 7dbf 0396 333e
000002f0: 90b6 af3f 8c78 04c0 e05a a83f f683 4f3f
00000300: 04e9 e8bf cfdd 1d3f d74c bfbf 547a f53f
00000310: 0757 203f a7ea 023f 18f4 b13f 79d1 833f
00000320: 68ea 89be 7225 a03f d7c7 ca3f 77a5 acbe
00000330: 1a56 3ebf 91c4 e7be 1c65 b03e da34 aabf
00000340: 88f6 db3f e3bc f7be 4ccf 81be 1c8b 853f
00000350: 513f f93e e84a 15c0 dd79 88bf 071c 8e3f
00000360: bac8 f2be 9845 2fbf 8d6e 1a3f 446a 323f
00000370: 5fd5 26bf 2ffa d4bf f9d2 763e 7784 1440
00000380: 37bc 48bc 67de 83be 7af5 cd3e 5ac2 73be
00000390: 18a0 cbbf a565 4dbe cb4d 8f3e 8073 27bf
000003a0: e96c 44be 3673 44bf fa2e 9b3f e04e b63f
000003b0: 773e 3c3e 6e55 71bf 7204 f23f 678f 383f
000003c0: 2594 2f3f e728 1cbe 52a9 4c3d 8d73 8f3e
000003d0: 21fc c03e 2e54 38bf 24fb 94bf ec34 703d
000003e0: 37fb 83be 6e86 0c3f c23b 3d3d e166 553f
000003f0: d80d 4a3e 1dcb 113e 3613 823f 7adf 423d

bias_ih_l0 f4 [96]
1.411013 1.8271285 0.5330591 -0.7286501 0.70456004 1.0490369 0.79386425 -0.6011181
-0.378542 2.3097334 -1.1264272 -0.7681481 0.096935496 -1.4167744 -0.5056069 -0.60514605
-0.73585534 2.284745 0.10127341 -0.29439676 -0.071264334 -0.17253213 0.80567604 0.086229876
0.14510396 1.5454541 0.3846838 0.78275114 0.68079233 1.2387944 0.22708318 0.4571753
0.1941331 1.1356876 1.646125 0.35473904 0.12683727 -0.89304227 -0.5159832 -0.48361877
0.71039534 2.3524742 0.2286748 -1.3243877 1.1589358 0.99080664 1.3799096 0.013626036
-1.1417263 0.06696971 1.5639207 1.3568536 -0.30636904 -0.5043746 0.6965101 3.5880823
-0.03476063 0.34089273 0.021240817 -0.41530266 -1.4311386 0.93802893 0.39727274 0.5087343
-0.7611633 0.35722253 -0.14355943 0.42844653 -0.16231833 1.1911336 -0.22011566 0.064579196
1.2128738 1.5090326 0.7905467 1.2456087 -0.4544794 1.0278063 -0.77735287 -0.88278776
1.2602965 0.016017837 -0.36867264 -0.579936 0.7862968 -0.060658075 -1.3257463 -1.7377795
0.802393 0.23642556 -1.0445569 -0.16458467 0.086342424 -0.093983315 -0.14679463 0.21531166
00000000: 139c b43f 59df e93f 9076 083f d088 3abf
00000010: 0c5e 343f d746 863f b03a 4b3f e0e2 19bf
00000020: 42d0 c1be acd2 1340 c42e 90bf 5ba5 44bf
00000030: 1e86 c63d dd58 b5bf 746f 01bf daea 1abf
00000040: 0461 3cbf 4339 1240 6f68 cf3d 2cbb 96be
00000050: 09f3 91bd 43ac 30be c940 4e3f 4a99 b03d
00000060: 2296 143e 71d1 c53f 46f5 c43e 6162 483f
00000070: 6848 2e3f d190 9e3f 7e88 683e e212 ea3e
00000080: d4ca 463e 365e 913f 39b4 d23f 5ba0 b53e
00000090: a1e1 013e 6b9e 64bf 7a17 04bf e19c f7be
000000a0: 78dc 353f f08e 1640 ba29 6a3e 8985 a9bf
000000b0: 0258 943f 81a5 7d3f e1a0 b03f bd3f 5f3c
000000c0: 1624 92bf 6a27 893d 8e2e c83f 61ad ad3f
000000d0: 67dc 9cbe b21e 01bf 7c4e 323f 24a3 6540
000000e0: 2a61 0ebd 7e89 ae3e 3901 ae3c 8da2 d4be
000000f0: 8d2f b7bf aa22 703f 5567 cb3e 693c 023f
00000100: 99db 42bf dfe5 b63e 3e01 13be 585d db3e
00000110: c736 26be 1177 983f 0066 61be 1942 843d
00000120: 733f 9b3f fb27 c13f 4561 4a3f 1b70 9f3f
00000130: 86b1 e8be 288f 833f 9900 47bf 61fe 61bf
00000140: 6551 a13f d737 833c a9c2 bcbe b076 14bf
00000150: bf4a 493f 9a74 78bd 0eb2 a9bf 8f6f debf
00000160: a169 4d3f 8b19 723e 0ab4 85bf e288 28be
00000170: 4cd4 b03d 537a c0bd 5551 16be a97a 5c3e

bias_hh_l0 f4 [96]
1.5347494 2.052821 0.59947336 -0.58536196 0.7411547 1.1563891 1.0564902 -0.76966107
-0.23465133 2.290185 -0.96297544 -0.6310341 0.055637028 -1.3324159 -0.41711968 -0.65613586
-0.71673423 2.3344293 0.37537783 -0.4184436 -0.02759402 -0.22780733 0.49210158 -0.003071655
0.19990604 1.498982 0.3730531 0.8941141 0.6706333 1.1831445 -0.082161255 0.392309
0.21364903 0.9941881 1.6994315 0.32766858 0.17997952 -0.90220195 -0.44782263 -0.5764886
0.55451775 2.2971764 0.21981524 -1.0282688 1.0494477 1.0576597 1.2322751 0.007478634
-1.1193309 0.15119177 1.5210143 1.4370562 -0.42347935 -0.42067665 0.66398746 3.7205315
0.16384746 0.28798866 0.119875714 -0.47313985 -1.4084367 0.8475392 0.42431095 0.39086643
-1.2031492 -0.49731764 0.099862136 -0.66787905 0.5602943 0.5612737 0.26576957 -0.28020853
1.0781639 1.1013083 0.44539642 0.72263783 -0.17508958 0.63249636 -0.5477285 -0.21721587
-0.73076946 0.10264936 -0.28623915 -1.3664922 0.11861426 0.08645253 -1.7754942 -1.4687287
0.2142614 0.7856747 -0.5661534 -0.07329886 -1.0168613 0.0033004456 1.0006758 -0.13540894
00000000: ab72 c43f 6b61 0340 1677 193f 48da 15bf
00000010: 50bc 3d3f 8f04 943f 123b 873f 8208 45bf
00000020: 7048 70be 6492 1240 8f85 76bf 738b 21bf
00000030: a7e3 633d 9b8c aabf b690 d5be 85f8 27bf
00000040: e57b 37bf 4a67 1540 8631 c03e 3d3e d6be
00000050: db0c e2bc 5346 69be bdf4 fb3e d24d 49bb
00000060: 2bb4 4c3e a4de bf3f d100 bf3e a9e4 643f
00000070: a0ae 2b3f 4771 973f 2944 a8bd badc c83e
00000080: d0c6 5a3e 1c83 7e3f f986 d93f 2dc4 a73e
00000090: 8d4c 383e b5f6 66bf 0249 e5be c294 13bf
000000a0: e0f4 0d3f f004 1340 3f17 613e 509e 83bf
000000b0: 4d54 863f 6561 873f 31bb 9d3f 540f f53b
000000c0: 3c46 8fbf 04d2 1a3e 99b0 c23f 75f1 b73f
000000d0: 49d2 d8be ee62 d7be 15fb 293f 301d 6e40
000000e0: a1c7 273e 4073 933e 6681 f53d 633f f2be
000000f0: a747 b4bf 54f8 583f 493f d93e a51f c83e
00000100: cb00 9abf 6ba0 febe 8584 cc3d 1ffa 2abf
00000110: 726f 0f3f a2af 0f3f f312 883e 7e77 8fbe
00000120: 4601 8a3f acf7 8c3f 000b e43e cbfe 383f
00000130: af4a 33be 48eb 213f ef37 0cbf d66d 5ebe
00000140: b513 3bbf d439 d23d f08d 92be 37e9 aebf
00000150: 08ec f23d 060e b13d 6543 e3bf 4dff bbbf
00000160: 5767 5b3e fa21 493f 6eef 10bf b61d 96bd
00000170: 8328 82bf 4a4c 583b 2516 803f a4a8 0abe

weight f4 [9, 32]
-1.1987214 0.11894672 0.2572791 1.2403781 0.3044134 0.3207906 0.6747523 0.91634446
0.41085586 -1.3993756 -0.17722285 -0.10217028 -1.4927195 1.3384814 -0.7097665 -1.1000296
0.7735007 -0.8925601 -0.038892146 -0.0200495 0.403643 -1.4430903 0.31035468 0.91093093
-0.13838266 0.091082744 0.69421476 1.1912144 0.36552858 -0.5867178 0.7931389 0.022417385
0.27093548 0.5416743 0.056712154 -0.06251449 2.156992 0.13576949 0.5060747 0.37644434
1.1092302 -0.1710308 -0.35951278 0.8792686 0.29424104 0.35985363 -1.1477813 -1.5827667
1.5697031 0.4144479 -1.1183314 0.68876 -0.7392572 0.3930765 -0.59020007 0.19775853
0.9206881 1.0134056 -0.151592 1.4296471 -0.6370059 -0.44250217 0.9315979 0.33068144
-2.1285012 1.2266929 -0.012818489 -0.23910639 0.84506494 0.7697358 -0.013476531 2.2840443
0.2750076 1.7314718 0.9894109 -1.01687 -0.46873224 0.93546855 -1.7455466 -1.1410198
0.7806949 -0.018098298 -1.1740422 0.17503093 0.5507208 -0.5495492 -1.4617305 -2.46828
0.43920097 0.81850886 -0.0015259087 0.9165379 -0.23643896 -0.730711 -0.03283282 0.6921143
-0.39233387 0.18878525 -0.9118752 0.82947254 0.9061577 0.4611708 0.6882365 1.0498558
0.2821926 -0.61558735 0.2814481 0.7269626 -0.2952055 -0.13936432 -1.048231 -0.44589198
0.051412348 -0.5108391 -0.71140635 -0.44835955 0.7761381 -1.418636 0.3706257 1.5179901
0.10159693 0.6426534 0.92458445 -0.6354757 -0.3318878 -0.8993055 1.0848837 1.7250339
0.8775964 0.31386396 -0.8888625 -0.06437285 0.99301785 0.081963256 -0.08622934 0.26857996
0.22006293 1.2783716 -0.6476019 0.38445425 0.4317964 0.929621 -0.1884126 -0.8938329
1.0832509 0.23679256 -1.6822841 1.7484148 1.0765121 0.5563884 0.12365199 -2.2741873
0.3774002 -0.05259005 0.5018025 0.048651695 -0.17718126 -0.33518425 0.85496044 0.010344223
-1.0886593 1.1581767 -0.5295297 1.0473198 0.04076343 0.73646563 0.28117943 -0.53198254
1.3073711 -0.2417754 0.39000398 0.22771944 -0.16395792 -0.10044239 0.19264615 -0.97905165
1.0593883 -0.09529079 -0.3668683 -0.2531079 0.27058926 -0.41601542 0.09638493 1.1131356
1.3321708 0.5743582 0.09534495 0.30237475 0.6025843 -1.2527404 0.83844984 1.498792
0.45129776 1.3119646 0.22277439 -0.31698975 1.0528866 0.90706813 0.7152651 -1.518535
0.7697877 -0.15026471 -0.64131224 1.2886008 -0.10855556 0.41265136 -1.8720251 -0.21230327
0.85178155 1.1648003 -0.5364945 0.5875201 -0.37521866 0.6734609 -0.8681924 0.70546925
0.7704349 -0.11904292 -0.93490356 -0.099167705 0.3037359 -0.00045259847 0.6215296 0.07483043
-0.776646 1.1991838 0.106894955 0.2644789 1.4538612 0.71917474 -0.11308274 0.1419991
1.7446991 1.4799727 -0.58131164 1.3835812 -0.7331257 0.82315385 -1.234664 0.019106789
1.6387854 0.6850466 -0.3457305 0.52733636 -0.3699994 0.08491616 -1.0399748 -0.8941941
-0.18769073 0.657834 0.46484795 -0.47930837 0.79312074 2.1735468 1.2229013 0.009095409
00000000: b46f 99bf 579a f33d 16ba 833e b6c4 9e3f
00000010: 13dc 9b3e aa3e a43e 91bc 2c3f 8d95 6a3f
00000020: b35b d23e bd1e b3bf e879 35be a73e d1bd
00000030: 6f11 bfbf 5c53 ab3f 42b3 35bf c5cd 8cbf
00000040: 2404 463f d27e 64bf 5f4d 1fbd d93e a4bc
00000050: 4caa ce3e 2fb7 b8bf cfe6 9e3e c532 693f
00000060: 2fb4 0dbe 9789 ba3d 0fb8 313f b779 983f
00000070: 9026 bb3e 2333 16bf 270b 4b3f aaa4 b73c
00000080: 0eb8 8a3e 2bab 0a3f 014b 683d 9907 80bd
00000090: 280c 0a40 2807 0b3e 1d8e 013f 50bd c03e
000000a0: 41fb 8d3f b322 2fbe 0f12 b8be bf17 613f
000000b0: c3a6 963e bc3e b83e 7fea 92bf 1998 cabf
000000c0: 08ec c83f 8432 d43e 7c25 8fbf 9352 303f
000000d0: f63f 3dbf 5341 c93e 5a17 17bf 3681 4a3e
000000e0: 37b2 6b3f 46b7 813f ef3a 1bbe adfe b63f
000000f0: d212 23bf a58f e2be 337d 6e3f 144f a93e
00000100: 5d39 08c0 4604 9d3f a404 52bc 4ed8 74be
00000110: 2d56 583f 680d 453f abcc 5cbc c82d 1240
00000120: cccd 8c3e dea0 dd3f 084a 7d3f cc28 82bf
00000130: acfd efbe de7a 6f3f 126e dfbf f00c 92bf
00000140: 9fdb 473f e242 94bc 0447 96bf 4f3b 333e
00000150: 0afc 0c3f 42af 0cbf fc19 bbbf 4df8 1dc0
00000160: f3de e03e cc89 513f 0001 c8ba 3aa2 6a3f
00000170: 0e1d 72be e00f 3bbf b57b 06bd 672e 313f
00000180: fcdf c8be ec50 413e a770 69bf 5058 543f
00000190: f3f9 673f 941e ec3e 4430 303f ad61 863f
000001a0: 8c7b 903e 2297 1dbf f719 903e 391a 3a3f
000001b0: 2d25 97be 85b5 0ebe 6f2c 86bf f44b e4be
000001c0: c195 523d 5ac6 02bf ba1e 36bf 628f e5be
000001d0: fdb0 463f dd95 b5bf a7c2 bd3e 804d c23f
000001e0: 0d12 d03d ef84 243f 91b1 6c3f 89ae 22bf
000001f0: 33ed a9be e338 66bf 78dd 8a3f e9cd dc3f
00000200: 28aa 603f c7b2 a03e 7e8c 63bf ead5 83bd
00000210: 6b36 7e3f 5adc a73d 0299 b0bd 5083 893e
00000220: 2d58 613e aea1 a33f 3dc9 25bf 30d7 c43e
00000230: 6b14 dd3e a4fb 6d3f 3cef 40be 3cd2 64bf
00000240: f7a7 8a3f c079 723e 1655 d7bf 0ecc df3f
00000250: 26cb 893f 786f 0e3f 413d fd3d 498c 11c0
00000260: 993a c13e aa68 57bd 2176 003f 0047 473d
00000270: 016f 35be 459d abbe b0de 5a3f d17a 293c
00000280: 3059 8bbf 223f 943f 428f 07bf 930e 863f
00000290: 8ef7 263d 0389 3c3f c0f6 8f3e 0230 08bf
000002a0: f057 a73f f893 77be 9aae c73e 492f 693e
000002b0: 96e4 27be bdb4 cdbd 0845 453e 21a3 7abf
000002c0: 099a 873f d127 c3bd 29d6 bbbe 5c97 81be
000002d0: ad8a 8a3e f9ff d4be 7665 c53d 3a7b 8e3f
000002e0: 9384 aa3f 2409 133f 3744 c33d ddd0 9a3e
000002f0: f742 1a3f cc59 a0bf a6a4 563f 6bd8 bf3f
00000300: 8010 e73e 75ee a73f f81e 643e 7b4c a2be
00000310: fdc4 863f 9e35 683f 9d1b 373f 5b5f c2bf
00000320: cf10 453f fede 19be 0a2d 24bf dff0 a43f
00000330: 6152 debd 0a47 d33e 859e efbf 0766 59be
00000340: 5b0e 5a3f 2d18 953f b457 09bf b867 163f
00000350: a91c c0be ef67 2c3f db41 5ebf a299 343f
00000360: 393b 453f c6cc f3bd d755 6fbf 7018 cbbd
00000370: 4683 9b3e bd4a edb9 901c 1f3f b240 993d
00000380: 46d2 46bf db7e 993f beeb da3d c769 873e
00000390: 2018 ba3f d61b 383f ec97 e7bd 3668 113e
000003a0: 4d52 df3f bf6f bd3f d7d0 14bf 3019 b13f
000003b0: 20ae 3bbf 36ba 523f 7809 9ebf d785 9c3c
000003c0: b8c3 d13f 375f 2f3f 9703 b1be 84ff 063f
000003d0: 9070 bdbe 86e8 ad3d e51d 85bf e8e9 64bf
000003e0: 0032 40be cf67 283f 8d00 ee3e e867 f5be
000003f0: f609 4b3f 641b 0b40 0888 9c3f e904 153c

bias f4 [9]
0.80153847 1.5126642 1.2873152 0.7981347 1.1349758 0.62994325 1.0203503 0.82135254
-0.20246477
00000000: a031 4d3f fb9e c13f bfc6 a43f 8e52 4c3f
00000010: e346 913f f643 213f d79a 823f 2944 523f
00000020: ed52 4fbe
