char_emb/code/output/model_cnn_adult.pt (torch_old, 48987 bytes, 17 tensors)

weight f4 [97, 20]
000000 04 84 84 bf 66 78 0c 3d fe 1d 88 3e 61 0c 62 3f
       -1.0352788 0.03429451 0.26585382 0.8830014
000010 9d a0 00 bf c9 25 b2 bf 93 d1 65 3f 71 59 04 bf
       -0.50245076 -1.3917781 0.8977291 -0.51698977
000020 5c c3 a5 3e 5c c4 9b bf ce ca 0a be d6 54 58 bf
       0.3237561 -1.2169299 -0.13553926 -0.8450445
000030 57 38 83 bf 52 a5 0b bd 06 7d 0b be 1b b6 04 bf
       -1.0251569 -0.03409321 -0.13621911 -0.5184037
000040 d9 49 3e bf 4e 3c d4 be 03 a4 c8 3e 55 51 c6 be
       -0.7433143 -0.4145226 0.3918763 -0.38733926
000050 ab 56 f2 bf 4b 47 bd b9 27 d6 e2 be ec 4b e0 be
       -1.8932699 -0.00036102007 -0.4430401 -0.43807924
000060 bb 85 88 bf 11 3d cb bf 1a 17 3d 3e 84 ab 4c bf
       -1.0665811 -1.5878011 0.18465844 -0.7994921
000070 31 e9 28 be 58 ba 6c bf 7e b9 91 bf 5d e5 99 3f
       -0.16495205 -0.9247184 -1.1384733 1.2023121
000080 e1 10 76 3f c0 4f 0a bf 19 34 83 3e c8 3d e8 3e
       0.96119505 -0.5402794 0.25625685 0.45359635
000090 6c 77 8f bf a3 a4 ca 3d 6c 93 e5 3c 62 97 2f be
       -1.120832 0.09894683 0.028024398 -0.17147592
0000a0 07 11 70 3e 9c d3 c0 bc dc 67 5a 3f 43 5e ca 3c
       0.23443995 -0.023538403 0.85314727 0.02470315
0000b0 56 0a 0c bf d0 80 d5 be 3e 61 94 3f 8a 2e 07 3c
       -0.5470327 -0.4169984 1.1592176 0.008250842
0000c0 dc ec 53 3d eb 9d db bf 2f b3 6d 3e 57 64 67 bd
       0.05173956 -1.7157568 0.23212884 -0.056492176
0000d0 1a 23 a4 bf 70 0f 71 bf 82 50 13 3d c6 8d 81 be
       -1.2823212 -0.9416418 0.03596545 -0.25303477
0000e0 3d 54 bd bf 54 8b 87 3f a4 59 28 be 8a f3 b8 bf
       -1.4791332 1.0589395 -0.16440445 -1.4449322
0000f0 66 26 85 bc ad a8 ba be 3a 43 d3 3f 1f e3 9d bf
       -0.016253661 -0.36456814 1.6504891 -1.2334937
000100 9a 64 4c 3f de d8 28 be 61 08 e0 3e ab 37 10 be
       0.79841006 -0.16488978 0.43756393 -0.14083736
000110 d2 5e 92 3f 8e 54 e2 3d c6 61 1e be bd 78 eb bc
       1.1435187 0.11051284 -0.15466985 -0.028744096
000120 37 c2 aa bf cc 10 0b 3f e9 28 8a bd 0b db 88 3f
       -1.334052 0.54322505 -0.06746084 1.0691847
000130 50 06 40 3d 69 1a 85 bd 72 f3 3b bf 14 ac d7 bf
       0.04688102 -0.06499178 -0.73418343 -1.6849389
000140 69 df cc 3e d3 4f 54 3e 8e e1 72 bf 38 bc 92 3b
       0.40014198 0.20733576 -0.9487542 0.004478004
000150 83 c4 e6 be a7 75 18 3f 5f 59 18 40 fa 71 37 3f
       -0.45071802 0.59554523 2.3804548 0.7165829
000160 33 e8 5a bf 97 b8 b1 bf 4e a7 06 bf cf e4 48 bf
       -0.8551056 -1.3884457 -0.52599037 -0.78474134
000170 6c 13 55 be 08 48 ea be 13 93 fa 3e 5f 79 54 3f
       -0.2080819 -0.4575808 0.48940334 0.829977
000180 b7 75 50 3f 42 6a cd 3e 98 02 55 bf b1 75 89 3e
       0.8142962 0.4012013 -0.8320708 0.26847604
000190 0f 67 b4 bf fd 21 c4 be 3d 66 63 3e 1a 79 43 bf
       -1.4093951 -0.3830718 0.2220697 -0.7635666
0001a0 b5 80 ce 3f 41 50 67 be 78 79 34 3f 84 22 5e bf
       1.6133028 -0.22589208 0.70497847 -0.86771417
0001b0 af ee fb 3d 1f ee 08 bf 9e 88 35 be 7f 1d 33 bf
       0.12301385 -0.53488344 -0.17727897 -0.6996688
0001c0 75 4b 09 bf 57 f2 78 bf 64 2d 0b 40 9a f8 e0 be
       -0.53630763 -0.9724478 2.1746454 -0.43939668
0001d0 84 e0 4b 3e 98 30 a4 3e 73 b4 31 be e8 8d d1 be
       0.19909865 0.32068324 -0.17353992 -0.40928578
0001e0 e9 d0 4d be d3 a2 67 3f 90 15 e1 be 88 27 9e 3d
       -0.20099224 0.90482825 -0.43961763 0.07722384
0001f0 1e af 86 bf 85 dd be bd 76 be 81 3e 93 2c 2b bf
       -1.0522192 -0.09319595 0.25340623 -0.6686489
000200 95 90 ac bd fe c4 ad be 88 45 9e bf 72 fb bd bf
       -0.08426014 -0.33939356 -1.2364969 -1.484236
000210 68 a3 27 be c6 fb 21 3d 11 20 2d bf ee ca f2 3f
       -0.16370928 0.03954675 -0.67627054 1.8968179
000220 e6 e6 21 c0 b8 89 6a be 87 99 5e 3f 72 b1 ca bf
       -2.529718 -0.22904098 0.86953014 -1.5835402
000230 27 b5 a1 bf ae a1 02 c0 80 4a 9f 3f ff 66 89 bf
       -1.2633408 -2.0411181 1.244461 -1.0734557
000240 e2 4a 4f bf 1b 0b 3b bf ce 3e 99 3e 8c d5 a7 3e
       -0.8097364 -0.7306382 0.2993073 0.3278011
000250 ad 54 0b 40 70 0d 33 3f 86 ae a8 3e 4f eb 07 bf
       2.1770432 0.6994238 0.3294565 -0.5309343
000260 a6 9a 5a be da a5 a4 bf 0e bd ba 3f 5c a4 32 bf
       -0.21348056 -1.2863114 1.4588945 -0.6978204
000270 6b 32 0c bf 19 07 83 bf 40 4c 94 bf 6d 05 2c 3f
       -0.5476443 -1.0236541 -1.158577 0.6719578
000280 54 9a 6b be db a0 65 3f b5 73 a2 bf ad 03 51 c0
       -0.2300809 0.8969857 -1.2691561 -3.2658494
000290 1a a5 7a bf 69 25 b4 3e 5b 75 09 c0 89 f5 82 bf
       -0.97908175 0.35184792 -2.1477878 -1.0231181
0002a0 0c 8e c8 bf 02 4c 5e 3f 98 3a cf be 4e 89 2a 40
       -1.5668349 0.8683473 -0.4047439 2.6646304
0002b0 d5 98 f9 3f 53 c0 40 3f 0c 4a 24 bd b6 28 84 3e
       1.9499766 0.75293463 -0.04010968 0.2581231
0002c0 54 4a 14 3f 0d b4 1a c0 18 a8 90 3f 10 4d 1b 3f
       0.57925916 -2.4172394 1.1301298 0.60664463
0002d0 28 a6 39 bf d4 0c 7e bf 4a 15 45 3e 10 28 d5 bf
       -0.7251916 -0.99238324 0.19246402 -1.6652851
0002e0 af 00 99 bf b0 2b 81 3e ee b7 33 3f 63 0f d2 be
       -1.1953334 0.25228643 0.7020253 -0.41027364
0002f0 f3 9c ed bd de 17 b0 be af 92 c4 be c7 8a 66 3e
       -0.11602201 -0.3439321 -0.3839316 0.22513877
000300 4a 22 a6 3f b0 44 bc be b5 d2 f2 3f d6 68 87 3d
       1.2979214 -0.36771154 1.8970553 0.06611793
000310 d3 d5 4b be 1f dd a8 3e 77 0b 05 c0 a7 c9 c6 bf
       -0.19905786 0.32981202 -2.0788248 -1.553029
000320 ba b4 9a bf 6e 20 b6 3e 60 f6 09 bf 8c f2 1f 3f
       -1.2086403 0.35571617 -0.53891563 0.6247947
000330 ec d6 8d 3e 93 45 90 bf 3d b8 ae 3f 76 f6 97 be
       0.27703035 -1.1271232 1.3649975 -0.29680222
000340 67 81 49 3e 4c b0 a9 3d a4 96 9e 3e f6 97 00 bf
       0.1967827 0.08285579 0.30974305 -0.50231874
000350 e3 a2 1e bf 82 3b de be 3d fe f9 3e fa f4 5d bf
       -0.61967295 -0.43404776 0.4882678 -0.8670193
000360 58 63 d5 3e 4f 0b 0e 40 d6 60 26 3f 06 54 67 3e
       0.41677356 2.2194402 0.6499151 0.22590646
000370 85 34 a2 bf 72 df bb 3e f2 23 b9 be 01 a8 c6 3f
       -1.2672278 0.36693913 -0.36160237 1.5520021
000380 fc 59 84 bf 6b d1 81 bf 58 57 03 3f 95 c8 92 be
       -1.0339961 -1.0142034 0.5130515 -0.28668657
000390 f8 ea 12 40 2d b1 21 be 51 e9 77 bd ad bf 09 be
       2.2955914 -0.15790243 -0.060525242 -0.13452025
0003a0 d5 f0 9c be a9 76 7a bf ce ce 58 3d 94 dd a6 bd
       -0.3065249 -0.9783731 0.0529316 -0.081477314
0003b0 12 85 3b bf fa 84 ed 3e b1 db d9 bf 10 67 07 c0
       -0.73249924 0.46390516 -1.702017 -2.1156654
0003c0 40 a7 18 bf 37 bd 91 be e1 3c 32 bf 2f 04 ce bf
       -0.59630203 -0.28464672 -0.69624144 -1.6095027
0003d0 12 30 44 3e ff 07 e1 3f 62 83 6f 3f c0 60 6f bf
       0.19158962 1.7580565 0.9355985 -0.93507004
0003e0 53 bd 7a 3f 34 a7 0c bf 5e ed 32 bf c4 a8 92 be
       0.97945136 -0.5494263 -0.69893444 -0.28644383
0003f0 f7 77 72 3f a5 3d 9f bf e7 af f7 3e 87 41 ad 3f
       0.947143 -1.2440687 0.4837639 1.3535622

weight f4 [3, 1, 2, 20]
000000 d9 99 4e 3e 88 f7 55 3e 78 6e 67 be cf 56 3b 3e
       0.20175876 0.20895207 -0.22600734 0.18294834
000010 16 b7 ef 3e af c6 28 3e f3 25 38 be 24 dd ab 3e
       0.4681937 0.16482042 -0.17983226 0.33567154
000020 9c eb 8d be 80 c6 b9 3e 0d 3b 65 3e 4d 96 f7 3d
       -0.27718818 0.36284256 0.22385807 0.120892145
000030 5a 7c be 3d 53 7e 42 3e 1d 3d c8 bd 9f 81 a0 3e
       0.09301062 0.18993501 -0.097772814 0.31348893
000040 a6 75 1e 3f 83 46 72 be 61 21 91 3e 46 46 01 3f
       0.6189827 -0.2365971 0.2834578 0.50497854
000050 eb 55 82 bc 14 ba 41 3e c3 f6 c9 bc f8 bc a1 bc
       -0.01591011 0.1891864 -0.024653798 -0.019743428
000060 54 a5 ab 3e 39 9d 57 3d 4a 53 59 bf af 8b 8c bc
       0.33524573 0.052640174 -0.84892714 -0.01715645
000070 d6 9e 2c be f6 d5 37 3e 22 ee 41 3e e9 64 43 3e
       -0.16857466 0.17952713 0.18938497 0.19081463
000080 21 e5 4a be 84 6a 66 3e d7 46 1d be f8 0a b9 be
       -0.19813968 0.2250157 -0.15359055 -0.3614118
000090 49 72 8e 3e 2c 75 13 3e 91 40 9d 3e 5e ef 54 3e
       0.27821568 0.14400166 0.30713323 0.20794436
0000a0 2e c7 5a 3e 66 19 bd 3d 6b 59 3b be 8f f1 73 3c
       0.21365044 0.0923336 -0.18295829 0.014889135
0000b0 55 4d 86 3e d5 b8 54 3e ad 99 1a bf 31 9e 03 3e
       0.26230875 0.20773633 -0.6039074 0.12853314
0000c0 85 0e b1 be e8 82 da 3e 48 34 2a 3d 3f 86 ec 3e
       -0.3458139 0.42678 0.041553766 0.46196172
0000d0 e1 a7 95 3e 42 0b 29 3e e2 54 cc bd d1 f0 3e be
       0.29229644 0.16508201 -0.099771276 -0.18646552
0000e0 92 16 0e 3f 5b d5 be 3e 84 e4 b4 3e f9 45 8b 3e
       0.5550319 0.37272152 0.35330594 0.27201822
0000f0 f7 ab b7 3d fc 79 79 3d 6b cb 11 bd 07 f4 0e 3d
       0.089683466 0.06090735 -0.035594385 0.03490069
000100 89 80 75 3e b0 80 6c 3e 9e b5 dc be 49 c5 7c be
       0.23974814 0.23095965 -0.43107313 -0.24684633
000110 37 27 ac 3c e9 f9 af 3e 22 bd 01 3f a8 e2 de 3e
       0.021014793 0.34370354 0.5067922 0.435323
000120 79 89 b1 3d 72 8e a9 3e 50 74 af 3d bd 1a 17 bb
       0.08668799 0.3311649 0.08567107 -0.0023056709
000130 78 3e a8 3e f6 aa de bd ba 4a 8e 3e cf bd ae 3e
       0.3286016 -0.10872452 0.27791387 0.34129187
000140 52 cb a1 3e 66 d2 02 3f ae 70 6c be eb af af 3e
       0.31600434 0.5110229 -0.23089859 0.34313902
000150 ac 06 9b bd 32 49 8c 3c ad f1 a6 bd b2 b5 12 bd
       -0.07569632 0.017124746 -0.08151565 -0.03581781
000160 f3 1f 89 3e 96 46 d7 3d d7 be 8a 3e a7 c8 2d 3d
       0.26782188 0.1051151 0.27098724 0.042427685
000170 5e 29 c3 3c c4 40 04 3e b8 5b bf bd d1 18 79 3d
       0.023823436 0.12915331 -0.09343666 0.060814682
000180 93 25 ca 3e 5e 74 06 bd d5 72 b0 be 06 40 a1 3e
       0.39481792 -0.03282582 -0.3446261 0.31494159
000190 0e 1f 1f 3d be e9 ea 3c 46 0c f9 be f9 a6 c9 3b
       0.038847975 0.02867591 -0.48642176 0.006153938
0001a0 bb 5e a3 3e 58 a0 75 3d 6a 01 82 be 03 33 07 3e
       0.3190821 0.05996737 -0.25391704 0.13203053
0001b0 11 6f f0 bc 5e a8 d1 3e 0b 88 03 be 9a 0e 55 3e
       -0.029349836 0.40948766 -0.12844865 0.20806351
0001c0 6b 23 a1 3e 81 a8 5f 3e 8e e5 a2 be b9 8a cf be
       0.31472334 0.21841623 -0.3181576 -0.40535524
0001d0 2c 3c 2b be 24 d2 67 bd 1e 51 04 bd 42 a7 e8 3e
       -0.16722172 -0.05659689 -0.032303922 0.45440108

bias f4 [3]
000000 08 2e 06 c0 d6 5e 12 c0 3b 4c 0d c0
       -2.0965595 -2.2870383 -2.2077777

weight f4 [3, 1, 3, 20]
000000 66 46 4f 3f d6 a1 8d 3f d0 1c 2c bf c1 98 3c be
       0.80966794 1.1065013 -0.67231464 -0.18417646
000010 51 ba 80 3f 09 e9 db 3d 55 c3 13 bf a4 6b 0f 3e
       1.0056859 0.10737807 -0.5771993 0.14005905
000020 1c a6 b0 be 75 84 32 3f 91 79 03 3c 04 c7 b6 3f
       -0.3450173 0.69733363 0.008024589 1.4279485
000030 e1 f0 8d 3f 7d 6c 9f 3f 06 b3 c3 be 0f b9 0d be
       1.1089135 1.2454983 -0.38222522 -0.13840126
000040 dd b4 ed 3f f1 8b e0 be f3 b9 46 3f 90 be 19 3f
       1.857082 -0.43856767 0.77627486 0.600564
000050 ac 5c f1 3e 0b 05 36 3f b4 11 5e bf f1 31 a2 3f
       0.47141016 0.71101445 -0.8674576 1.2671491
000060 2c 40 58 3f b3 04 b5 3f cf fa 5c bf 44 41 8e 3e
       0.8447292 1.4142059 -0.86320204 0.2778417
000070 2e 0f 97 bf 5e 97 be 3f 4b 26 64 3f 1a 9b 90 3e
       -1.1801507 1.4889944 0.8912093 0.28243333
000080 4c c0 80 3f 7e 6b 56 3f a6 86 b2 3e 73 96 f7 3e
       1.0058684 0.8375777 0.34868354 0.4835697
000090 89 df 74 3f e9 4a 5b bf ba 53 34 3e 06 6b 9e 3f
       0.9565359 -0.8566118 0.17610064 1.2376411
0000a0 e3 1a 0f 3e 6a 9e 7e bd ee ff f0 be 83 68 91 bd
       0.139751 -0.062162794 -0.4707026 -0.07100012
0000b0 5a c7 e0 bc 02 6f 9d 3e 51 75 a9 bf c7 36 ea 3d
       -0.027438808 0.30748755 -1.3238927 0.11436229
0000c0 ec e7 88 3d 35 7c 16 3e 7d 03 30 3f c1 95 bf 3f
       0.066848606 0.14695819 0.6875532 1.4967576
0000d0 ea f2 24 3f 5b 74 82 3f 49 a6 31 bf 77 63 13 3e
       0.6443316 1.0191759 -0.69394356 0.14393412
0000e0 9b f5 bf 3e f4 e8 22 bd ca 6d db 3e 91 e8 35 3e
       0.3749207 -0.039772943 0.428572 0.17764498
0000f0 31 63 23 3f 1e f4 06 3f ef 77 ac bd c1 4c 88 3c
       0.6382323 0.52716243 -0.08421313 0.016638162
000100 b0 c9 7b 3e 9b ca b9 be c2 43 8c bf dc 9c 98 3e
       0.24588656 -0.36287388 -1.0958178 0.29807174
000110 12 27 b0 3e 6c db 8d 3f 6f a9 7d 3e 2b 7a 81 3e
       0.34404808 1.1082587 0.24771665 0.2528852
000120 25 00 84 3e 9b 81 50 3f 69 b5 1c 3e 9c dd 37 be
       0.2578136 0.8144776 0.15303577 -0.17955631
000130 06 b7 06 3d 2a 07 0f bf d6 75 4c 3f ac 82 01 3f
       0.03288939 -0.55870306 0.79867303 0.50590014
000140 d7 19 20 3f 50 a6 9d be 68 75 15 bf dc 9b 93 be
       0.6253943 -0.3079095 -0.5838227 -0.2882985
000150 48 ea 3f 3f 62 16 9b 3e e4 fd 8c bf 99 9a af bd
       0.7496686 0.30290514 -1.1014981 -0.08574409
000160 af ba 26 bf 2b d6 90 3f 7b b1 b8 3e c4 f2 22 3f
       -0.65128607 1.1315359 0.36072907 0.6365168
000170 0f 9c 4e 3f d8 df 0b 3f 8a d9 3c bf 28 c0 5d bd
       0.80706877 0.54638433 -0.7376944 -0.054138333
000180 ca 0b 32 3f ad ae 22 bf 70 51 ca 3e 8c 01 33 3f
       0.6954924 -0.63547784 0.39515257 0.69924235
000190 3e a3 76 be 95 37 93 3e a1 82 53 bf de e5 35 3f
       -0.2408571 0.28753343 -0.826212 0.71053874
0001a0 b4 65 c2 3e 83 8d 3b bc 9d 3e 91 bf b1 51 ce 3e
       0.37968218 -0.011447313 -1.1347233 0.402967
0001b0 01 a9 35 3e 21 7d 86 3f a4 4e 19 3f 55 a0 24 3f
       0.17740251 1.0506936 0.5988562 0.6430715
0001c0 aa 44 8c 3f b4 a6 e0 3e f0 fa 27 bf 02 73 ad b9
       1.0958455 0.43877184 -0.65617275 -0.0003308282
0001d0 a7 70 93 3e d0 08 15 bf 8f d1 5d 3f 49 72 85 3f
       0.28796884 -0.5821657 0.86647886 1.0425502
0001e0 cc 2d 82 3e dc 5a c6 3e 42 f5 7e be 87 73 2d 3e
       0.25425565 0.38741195 -0.24898246 0.16938601
0001f0 3d cf c8 3e e6 b2 47 3e f8 56 f5 be 27 4a 8a 3e
       0.3922061 0.19501838 -0.47917914 0.270097
000200 0c 98 a0 3d b5 15 fa 3d 6e ca 1d 3f dd 73 bd 3d
       0.07841501 0.122111715 0.6163701 0.09250615
000210 d6 42 cb 3d a2 68 8c 3e e4 17 8b bd c7 76 fb be
       0.09924857 0.27423579 -0.06791666 -0.49114057
000220 34 51 13 3e db 31 18 3e be c1 98 bd 77 07 0f 3e
       0.14386445 0.14862768 -0.074588284 0.13967691
000230 a8 50 17 3f eb 6f c2 3e 82 13 69 3d b3 a6 b9 be
       0.59107447 0.37976012 0.05690337 -0.36259994
000240 71 fc 05 3f 3e e9 81 3e e6 24 a5 be a5 bc ad 3e
       0.5233832 0.25373262 -0.32254714 0.33932987
000250 60 a5 4c be bd 81 d1 3e a9 16 b6 3e 90 97 b7 bd
       -0.1998496 0.40919295 0.35564163 -0.08964455
000260 d7 07 36 3b 6f 44 f4 3e 3b b9 57 be 14 2c ee be
       0.002777567 0.4770846 -0.21066754 -0.46518004
000270 a2 aa ee 3e 97 03 94 3e f5 c7 c1 bb 58 93 cc 3e
       0.46614558 0.2890899 -0.0059137293 0.39956164
000280 41 3f 1d 3e 2e b2 30 3e f8 c0 1a be b7 aa 53 3d
       0.1535616 0.1725547 -0.15112674 0.05167648
000290 06 02 70 3e db f9 dc 3d 95 36 4f be c8 d2 28 3e
       0.23438272 0.10789844 -0.20235665 0.16486657
0002a0 ed 56 84 bd 56 68 4a 3f bf 12 1e 3f 4c 0f a1 bd
       -0.06461892 0.79065454 0.61747354 -0.07864246
0002b0 0c d5 bd 3e 9c 1f 25 3f 9d 13 00 be c1 fe 91 3d
       0.37076604 0.6450136 -0.12507482 0.071286686
0002c0 4b 50 27 3f 9a 8f 06 bf 6d db 0c 3f cb 96 0f 3e
       0.6535689 -0.5256287 0.5502232 0.14022367

bias f4 [3]
000000 0f 66 27 c0 ca 41 3b c0 86 7f 0e c0
       -2.6156042 -2.9258904 -2.2265334

weight f4 [3, 1, 4, 20]
000000 f9 8b b5 3e e7 ea 42 3f 54 d7 7d bf 73 83 ee 3d
       0.35458353 0.7613968 -0.9915669 0.11646166
000010 80 f6 2e 3e 62 97 ab bd 12 72 c2 bf c0 b3 2e be
       0.1708622 -0.08378483 -1.5191061 -0.17060757
000020 d6 1a e6 bd 0a 31 02 40 13 e5 9c 3e b8 af c5 3e
       -0.11235587 2.034243 0.3064352 0.38610625
000030 6d bc 48 3e 36 2f 6b 3f 61 93 a0 be 01 d3 9e be
       0.19603129 0.91868913 -0.3136244 -0.31020358
000040 61 fa 08 3f 6f 35 43 bf bd 40 da 3e 43 a4 ba 3e
       0.5350705 -0.7625341 0.42627516 0.36453447
000050 6b a2 f2 be 7d 31 28 3e 2b 4c ce bf f0 64 a4 3f
       -0.4738954 0.16425128 -1.6116995 1.2843304
000060 60 73 8f 3f d5 c5 28 be 1d f1 0c c0 eb d1 41 3f
       1.1207085 -0.16481717 -2.2022164 0.75710934
000070 7f 16 08 3e 8a f5 f5 3f 97 25 59 3f 61 04 c1 3f
       0.13289832 1.9215558 0.8482298 1.5079461
000080 51 93 ab 3f fd d9 d4 3f 0b 1f b2 bf e9 b6 31 bf
       1.3404332 1.6629025 -1.3915724 -0.69419724
000090 f5 98 be 3f 5f c1 87 bf d7 55 c3 3d 5c e8 63 3f
       1.4890429 -1.0605887 0.09537857 0.8902643
0000a0 9c 2b 80 3e 90 e6 28 bf 0c 2a f4 be f7 62 81 be
       0.2503327 -0.6597681 -0.4768833 -0.25270817
0000b0 90 a2 66 3e fa b7 af 3f c8 9e 80 bf aa f8 05 bf
       0.2252295 1.372802 -1.0048456 -0.52332556
0000c0 ed f4 b6 3d 0a 95 73 3e 4b 8a 3a 3f e9 29 16 3d
       0.08933435 0.23787323 0.7286727 0.036661062
0000d0 d7 0a 23 3f e2 97 9c 3e c2 e2 47 bf 52 f4 97 3e
       0.63688415 0.30584627 -0.7808038 0.2967859
0000e0 b2 82 b1 3e 55 e5 e1 be 61 65 e0 3e 9e 4a 79 3e
       0.34670025 -0.4412028 0.43827346 0.2434487
0000f0 e0 76 7d 3e 73 4c f4 3c 18 2a b1 bc 97 a8 67 3e
       0.24752378 0.02982161 -0.021626517 0.22622906
000100 f5 98 99 3f 88 04 93 3e de f4 45 bf d6 44 b9 3e
       1.1999804 0.28714395 -0.7732676 0.3618533
000110 31 ec 31 bf fa 23 cf 3e cb ba 11 3f fc 64 a4 3f
       -0.69501024 0.40457135 0.5692565 1.2843318
000120 ef f9 94 be 59 86 3c bc dc 53 a7 3d a4 2e 00 bf
       -0.29096934 -0.01150664 0.08170292 -0.5007117
000130 f9 06 03 bd de 22 5d be 71 e1 a1 3f f4 e5 51 3f
       -0.03198907 -0.21595332 1.2646924 0.81991506
000140 26 e8 7a 3b b7 84 c8 3e 4a 0c 42 bf d5 f5 e6 3e
       0.0038285344 0.39163753 -0.758 0.4510943
000150 c4 7a 1f 3f 9f 33 99 bd bf c3 85 bf 5b 5b f6 be
       0.622967 -0.07480549 -1.0450362 -0.48116574
000160 c3 80 2b 3e 23 91 5a 3f 22 24 ab 3e 67 bf a9 3e
       0.16748337 0.8537771 0.33426005 0.3315384
000170 14 bb 82 bd c6 8a 42 3e ec d2 2f be a8 48 6d bf
       -0.063833386 0.1899825 -0.17170304 -0.9268899
000180 df e6 67 3f d9 28 60 3d e4 cb 89 3e f3 5e f4 3e
       0.90586656 0.054726455 0.2691337 0.4772869
000190 63 fa 85 3f 29 1d cf bb 56 92 a9 be a6 6f 1b 3e
       1.0467037 -0.006320615 -0.33119458 0.15179309
0001a0 b5 d2 36 bd df c3 bb 3f cd 15 18 bf 11 ad 08 3f
       -0.04463454 1.466915 -0.59408265 0.5338908
0001b0 2a d5 b8 bf dc 70 e5 3e ed 08 46 3f aa 26 b0 be
       -1.4440053 0.44812667 0.7735737 -0.34404498
0001c0 c9 1a c5 3d 0d ac 2b 3f d4 57 c5 be e7 bb 2e bd
       0.096242495 0.67059404 -0.3854357 -0.042659666
0001d0 7a 6b e6 3e f3 f3 73 bf 1b 36 13 3e c9 49 53 3f
       0.45003873 -0.9529411 0.14376108 0.8253446
0001e0 6b 1e 30 bf 3d bd fd 3d 07 41 a3 bd 45 a2 bd be
       -0.68796414 0.1238961 -0.07971387 -0.37037864
0001f0 4f 5f 08 be 41 1c 3d 3f 5b fb 53 bf 7c 59 11 be
       -0.13317607 0.7387124 -0.82805413 -0.14194292
000200 00 50 11 bf df b6 9d 3f 91 05 e0 bd 35 a7 e0 3e
       -0.56762695 1.2321433 -0.10938562 0.4387757
000210 24 dc 3a 3f c5 b7 53 3f 61 fb cf bd a2 9c 5c 3e
       0.7299216 0.82702285 -0.101553686 0.21544126
000220 bb ed 8e 3f d2 c2 80 bf 7e ef 3f 3e ef cf df 3e
       1.11663 -1.0059454 0.18743703 0.43713328
000230 3a f3 33 3e ae 7a 6b 3f f8 d5 90 bf 76 97 cf be
       0.17573252 0.9198407 -1.1315298 -0.40545243
000240 fa e6 0a bf c0 1d c6 bc 0d cf 29 c0 81 97 8c bf
       -0.5425869 -0.024184108 -2.6532624 -1.0983735
000250 ef e3 d4 be 47 b3 d5 3f 77 4c 13 3f ca 05 be 3f
       -0.4158015 1.6695336 0.5753855 1.4845517
000260 c9 59 92 3f 94 a6 83 3e a9 26 82 bf 7f 2e cd 3c
       1.143365 0.25713027 -1.0168048 0.025046585
000270 4d 0f 87 3f 7e 28 39 bf 50 85 6b 3f 4c 30 0f bd
       1.0551544 -0.7232741 0.92000294 -0.03495817
000280 3d 10 0b 3f 33 50 1e b9 8d 08 52 be ba ac 11 3f
       0.5432165 -0.00015097931 -0.20511074 0.56904185
000290 29 30 9f 3e 0c 51 4e 3e 95 07 15 bf ec 90 a5 3e
       0.3109143 0.20148104 -0.58214694 0.3233713
0002a0 ed d4 92 bd ab ab 53 3f f1 aa 3b 3f e0 06 0b be
       -0.071695186 0.8268382 0.7330771 -0.13576841
0002b0 8e de 0e 3e d4 4d 7f 3e 12 8b 78 bf 78 98 16 bf
       0.13952085 0.24932033 -0.97087204 -0.588264
0002c0 74 39 97 3e 09 7a 5e bf ab 36 2d 3f a2 5a e1 3d
       0.2953602 -0.8690496 0.6766154 0.11003615
0002d0 09 5a 1c 3f f2 c2 d1 3c 62 ca 6c 3e ee 71 c2 bd
       0.6107488 0.025605652 0.23124078 -0.094943866
0002e0 5e 4d 3b be 38 81 ac 3d 3a c6 b6 bd bd ad 04 3d
       -0.18291232 0.08423084 -0.089245275 0.032392252
0002f0 02 35 31 3e 7e fd ed 3e b4 1b 7e 3f 98 8b 77 be
       0.17305377 0.46482462 0.9926102 -0.24174345
000300 ab e4 29 3f 7e 2a 49 3e 9a ef 03 bf 24 0f 26 3f
       0.66364545 0.19645116 -0.5153748 0.6486685
000310 f7 a4 f4 3e 88 60 f3 3d 23 de b5 3e 0b 16 91 3d
       0.47782108 0.11883646 0.3552104 0.070842825
000320 c4 ec 61 3f 29 42 46 3f cc ac df be 32 2c dd 3e
       0.882519 0.774447 -0.4368652 0.4319778
000330 e7 f0 ba be c3 6d 16 3e 04 99 33 be fe 75 51 bd
       -0.3651192 0.14690308 -0.1753884 -0.051137917
000340 3d 8a c2 be f6 04 70 3f 1a 39 26 3f 40 1f cd bd
       -0.37996092 0.9375757 0.6493088 -0.10015726
000350 71 46 f4 3e e9 da d9 3c 79 f0 52 bf f0 65 7b be
       0.47709993 0.026593642 -0.8239818 -0.24550605
000360 28 4f 19 3f d9 b4 63 bf 86 e5 94 bd af cb b9 3e
       0.5988641 -0.88947827 -0.072703406 0.3628821
000370 ec e2 04 3e 33 69 c3 bc f3 57 84 be 91 fc 89 3e
       0.12977189 -0.023853874 -0.2584835 0.26950505
000380 3b d5 85 bc be ce 86 be 7d ec 08 bf a5 48 08 bf
       -0.016337028 -0.26329607 -0.5348585 -0.53235847
000390 c1 a5 33 3e 18 c4 3a 3f eb 7f 0c 3f f6 c5 78 3e
       0.17543699 0.72955465 0.5488269 0.24294266
0003a0 7c c6 e0 3e cd 07 01 3e b6 94 60 be ec a0 20 be
       0.43901432 0.12600632 -0.21931729 -0.15686387
0003b0 f8 34 7f 3f f3 90 ed be 05 f2 63 3f bb ad 85 3e
       0.996902 -0.4639965 0.8904117 0.26109108

bias f4 [3]
000000 9b 9f 0e c0 ca 4d 06 c0 9c 15 13 c0
       -2.2284915 -2.0984979 -2.298194

weight f4 [3, 1, 5, 20]
000000 74 12 05 bd 83 df 90 be 9d ac 9a be 85 12 a5 3d
       -0.0324883 -0.28295526 -0.30209818 0.08060173
000010 b7 5b e2 3d b5 e5 9a 3e 47 47 75 bf cb 05 93 3e
       0.110526495 0.30253378 -0.95811886 0.28715357
000020 3c 6c 90 be a4 7f 05 3e 33 8b 55 3d e3 f8 a8 bd
       -0.28207576 0.13036972 0.052134704 -0.082505964
000030 bb 46 50 3e 22 df 75 3d c7 46 6b be 86 cf 6f be
       0.20339482 0.06002725 -0.22976218 -0.23419008
000040 8b f5 21 3e 7a b1 cf bd 2a 64 97 3e 9f 84 d1 3e
       0.15816323 -0.10141273 0.29568607 0.40921494
000050 22 f7 90 3d 35 60 44 be e8 80 2f bd c3 b7 04 bf
       0.07078387 -0.19177325 -0.042847544 -0.518429
000060 d0 42 05 3f 95 9e fd 3e 31 b8 88 bf 13 dc cc 3d
       0.5205507 0.4953505 -1.0681211 0.10002913
000070 1d 92 f4 be ea 6d 27 3f 58 2e 2a bd 97 5b 85 3d
       -0.47767726 0.6540209 -0.041548103 0.0651161
000080 9f 7d 92 bd 62 c5 35 3f 1f 2d 6d be 8a c4 82 be
       -0.071528666 0.7100431 -0.23161744 -0.25540572
000090 6d a7 b4 3e ea bf bc be d3 b4 11 3f f8 7c 67 3d
       0.35283986 -0.3686517 0.5691654 0.056515664
0000a0 62 5d b3 3d 68 1a 11 3e d0 c6 8a 3d a2 94 11 be
       0.08758046 0.1417023 0.06776202 -0.14216855
0000b0 cd fe 6e 3e 8d c7 11 3e 8c ba 96 be c3 21 18 3e
       0.23339386 0.14236279 -0.294392 0.14856629
0000c0 4a 3a a1 3e 73 0d 14 3e 16 09 9c 3e d0 b4 01 3f
       0.31489784 0.14458255 0.30475682 0.5066652
0000d0 87 2c 08 3f 2b 41 e1 bc 5b 9d 20 bf 6a 7f eb bd
       0.53192943 -0.027496895 -0.62740105 -0.11498912
0000e0 50 ca 38 3e 1d 64 4f 3b 64 50 6c 3e 66 1e 50 3e
       0.18045926 0.0031645366 0.23077542 0.20324096
0000f0 5e e2 5e be e4 cd 77 39 dd f8 b5 bd b4 4c 81 3d
       -0.2176604 0.00023632456 -0.088853575 0.06313458
000100 c5 35 bf be 32 c8 ce bd 2d 0e ba be 20 b2 fc 3d
       -0.3734571 -0.10096778 -0.3633894 0.12338662
000110 1b 74 5f be 0e 0c ed 3e 45 0e 96 3e 7a cd 5f 3d
       -0.21821634 0.4629826 0.29307762 0.054639317
000120 05 04 1d bd 88 55 29 3e 43 a2 cb be fb d3 d5 bd
       -0.03833391 0.16536534 -0.39772233 -0.10440823
000130 b8 fb 13 3e 6c 11 8b bd 9c 4c 8e 3e 87 e9 ca 3d
       0.14451492 -0.06790432 0.27792823 0.09907823
000140 45 f5 19 be 51 bb 7d 3d ec a3 ee be df 64 02 3e
       -0.15034969 0.061946217 -0.46609437 0.12733792
000150 90 c0 f5 3e 41 4a a6 3d f6 1b 23 bf c7 3a 2c bc
       0.47998476 0.081196316 -0.6371454 -0.0105120605
000160 9a 1f 37 be d6 ba 0e 3f 11 26 a3 3e 97 b9 3c 3c
       -0.17883149 0.5575384 0.3186498 0.011518857
000170 c6 20 fb bd d6 32 e5 3e 76 02 46 be e3 22 d6 bc
       -0.122621104 0.44765347 -0.19336876 -0.026139682
000180 17 bc 08 3e aa 85 d9 bd e5 4a 20 3d 30 45 a3 bd
       0.13353 -0.106211975 0.039133925 -0.07972181
000190 2f 19 05 bf e0 23 b4 3e a2 8d bf be ea 30 ca be
       -0.5199155 0.3518362 -0.37412745 -0.39490443
0001a0 c9 2b a5 3e 69 93 2e 3e 9d 92 55 bf b6 09 81 be
       0.32259968 0.1704842 -0.8342684 -0.2520272
0001b0 48 55 2b bf 64 ea f3 3e 88 60 51 3e 3c 4a cb 3e
       -0.66927004 0.47639763 0.2044698 0.39705074
0001c0 23 33 b1 3d 48 8e 0a bd b0 84 2c bf a5 57 70 be
       0.08652332 -0.033827096 -0.67389965 -0.23470934
0001d0 ea 3e 50 3f e1 14 07 bf 25 f3 e4 3e 98 6a 22 3f
       0.81346 -0.52766234 0.44716755 0.634439
0001e0 41 93 75 be 60 f2 68 3f d5 e5 1d 3e 83 9b 93 bd
       -0.23981954 0.90994835 0.15419705 -0.07207396
0001f0 39 45 57 3e a7 5a 13 3f 2e 89 5b bf fd 24 6a bd
       0.210225 0.575602 -0.85756195 -0.05716418
000200 ce ad 04 bf 72 16 23 3f 03 8b 2b 3f 60 0b 60 3e
       -0.51827705 0.63706124 0.6700899 0.21879339
000210 0b 42 c1 3d 4a 9e 3c 3c c8 4a fc be 84 64 97 3e
       0.09436425 0.011512348 -0.49275804 0.29568875
000220 ed 19 99 3e 42 b9 41 be b4 49 34 3f 98 8c 1e 3f
       0.29902592 -0.18918326 0.7042496 0.6193328
000230 5c 0f f9 be a3 61 36 3e d7 a3 77 be e4 25 83 3e
       -0.4864453 0.17810683 -0.24183594 0.25614846
000240 0f 15 35 3f 3a b1 b5 3e f2 86 37 bf 9f 1a c1 3e
       0.7073526 0.35486776 -0.71690285 0.37715623
000250 43 71 b9 be ed 9f 52 3f 2b 26 ff 3e 93 b2 83 3e
       -0.36219224 0.8227528 0.49833807 0.2572218
000260 67 2c 0a 3f 21 89 ac 3e 47 be 41 bf 11 ee b0 3e
       0.53974 0.3369837 -0.75680965 0.3455663
000270 30 12 37 be 0a e9 11 bf af b9 77 3f 9f 0e 84 3d
       -0.17878032 -0.56996214 0.96767706 0.06448101
000280 8a 47 ee 3e c2 c6 8a 3e b4 5a 37 be 30 5d df 3c
       0.46538955 0.27104765 -0.17905694 0.027266115
000290 64 17 da 3b a4 f4 25 3e a3 b6 18 bf 11 21 9e 3e
       0.0066556204 0.16206604 -0.5965368 0.30884603
0002a0 e5 d1 48 bf 2a 42 73 3e ed ea 03 3f 58 dc 3b be
       -0.78445274 0.23755708 0.51530343 -0.18345773
0002b0 9b d9 66 3f 0f b7 82 3e ce 39 1b bf 96 64 00 bf
       0.9017579 0.25530288 -0.6063508 -0.5015348
0002c0 12 d7 e8 bd c3 c2 ed be 5b c7 a1 3f 4a 50 11 3f
       -0.113691464 -0.46437654 1.2638963 0.56763136
0002d0 33 b2 79 be f1 34 09 3c e2 b1 ec bd d6 7a c5 3e
       -0.24384384 0.008374439 -0.11557366 0.3857028
0002e0 1d 2e ce 3e 42 2d 91 be 35 d8 0c bf 7a 2f 80 3e
       0.40269557 -0.2835484 -0.55017406 0.25036222
0002f0 30 8a b8 bd ec 15 59 3f 39 fd 22 3f a0 a3 b2 bd
       -0.09010732 0.84799075 0.6366764 -0.08722615
000300 d5 13 0b 3f d5 45 d2 3e 1a 09 d9 be 2e 3c 2b be
       0.54327136 0.41068903 -0.42389756 -0.16722175
000310 f1 2e e1 3e 57 26 7d bd 2b 1b 4a 3f 6a 79 c6 3e
       0.43981126 -0.06180414 0.78947705 0.38764507
000320 53 34 2a 3f 50 11 39 bf 25 d8 d8 bd e8 08 fd 3e
       0.6648609 -0.7229204 -0.10588101 0.49420857
000330 26 e6 7b 3d 4d fd cf be e3 55 ef be 63 2b a0 3e
       0.061498784 -0.4062294 -0.46745214 0.312831
000340 27 a5 17 3e 6a 77 43 3f 36 f5 24 3f ea 73 b8 3c
       0.14809094 0.76354086 0.6443666 0.02251621
000350 7a 5c 84 3f 2e 81 a9 be 25 68 81 bd 9f b4 00 bd
       1.0340722 -0.3310637 -0.06318692 -0.031422254
000360 44 5f e0 bd 53 3e d1 3e 1a a7 50 3e 80 6c 08 3f
       -0.109556705 0.40867862 0.20376244 0.5329056
000370 e2 4c c7 3e 16 6c a9 3e 9c bd 85 be 32 77 81 3e
       0.38925844 0.33090276 -0.26121223 0.2528625
000380 30 bc 43 3c 48 77 38 3f 97 4e 10 bf 19 8a 7e 3f
       0.011946723 0.7205701 -0.5636992 0.9942947
000390 21 dd c7 be 0e 34 cd 3e 50 aa 79 3f d0 ee 9f 3e
       -0.39035895 0.40078777 0.975255 0.31236887
0003a0 0f 36 14 3f e2 3b 16 3f 3b bf 00 be bc 57 91 bb
       0.57894987 0.58685124 -0.12572949 -0.0044355076
0003b0 37 0b cd 3e 6a 9a c8 be 09 c2 94 3e ae d1 b1 bd
       0.4004762 -0.3918031 0.29054287 -0.08682571
0003c0 08 cf e8 bd 33 6e 07 bd b8 b4 8c be 1e 77 d8 3d
       -0.11367613 -0.03306408 -0.27481627 0.10569595
0003d0 35 8e ec be 63 11 ba 3d 2f 43 92 bf 7b 13 b7 3e
       -0.46202245 0.090853475 -1.1426753 0.3575705
0003e0 25 38 42 be fd d2 98 3f 19 fb 16 3f 8b 64 3e 3f
       -0.1896673 1.1939389 0.58976895 0.74372166
0003f0 a0 54 4f 3f a3 41 1c be e0 bb 8b be 33 b8 19 bd
       0.809885 -0.15259413 -0.27291775 -0.03752918

bias f4 [3]
000000 7a 2c e6 bf f6 78 09 c0 91 bd e8 bf
       -1.7982323 -2.1480079 -1.8182851

weight f4 [3, 1, 6, 20]
000000 1d af 2b 3f 13 f2 8e 3f 83 54 31 bf 65 e7 d8 be
       0.67064077 1.1167625 -0.6926958 -0.4236404
000010 e3 38 a8 3f 6a 40 ad 3e 4b 7a 3d bf 75 a7 c6 3e
       1.314236 0.33838207 -0.7401473 0.38799635
000020 6d 93 8b be 64 29 f6 3e 2f 87 48 3e d0 bc f2 3e
       -0.27260914 0.48078454 0.19582818 0.47409678
000030 21 44 1b 3f e9 31 c4 3b 91 47 41 bf d5 5b cb be
       0.6065083 0.005987395 -0.75499827 -0.397185
000040 9b 72 5b 3f c8 df 88 bf fb 4e 83 be 1d e7 94 3d
       0.8572175 -1.0693293 -0.25646195 0.07270644
000050 19 05 07 bf 4f 3f e3 bc ac fe bf be 52 7e 6c be
       -0.52742153 -0.027740149 -0.37498987 -0.23095062
000060 24 13 08 3f 3c 26 4d 3f b6 67 a0 be d4 c5 4d bf
       0.53154206 0.80136466 -0.31329125 -0.80379987
000070 05 ad 9b bd 24 e3 84 3e e2 38 a9 3e 93 d7 7c 3f
       -0.0760136 0.25954545 0.3305121 0.9876644
000080 6d 99 c4 3e 3d 71 e7 3e b3 ab 4f be 96 0d 5c 3e
       0.38398305 0.4520358 -0.20280342 0.21489558
000090 e6 42 05 3f 34 3e a6 3e ec 24 b7 3c 20 ca 1e 3f
       0.52055204 0.32469332 0.022356473 0.6202717
0000a0 d1 26 54 3e 24 9b f0 3d 7c 5c 1a be cf b3 89 3e
       0.20717932 0.11748341 -0.15074342 0.26894996
0000b0 5a dc c8 3d 8f 93 88 3d 3f 94 a0 be 6c 49 41 be
       0.09807654 0.066687696 -0.31363103 -0.18875664
0000c0 1e 32 84 bd b3 24 9b 3e bb 2b 6b 3c dc 1a 1a 3f
       -0.064548716 0.30301437 0.014353688 0.60197234
0000d0 fa 34 87 3e 96 d3 91 3e 27 69 74 bf 9b 95 8c be
       0.26407605 0.2848174 -0.9547295 -0.2745789
0000e0 bf a3 99 3f fb 47 cc bd dd 2d af be 3c 48 54 3e
       1.2003096 -0.09974667 -0.34214678 0.2073068
0000f0 7e d8 58 bd 08 b7 9b 3e 50 d5 2a 3f f2 18 0b 3f
       -0.052940838 0.3041308 0.6673174 0.5433494
000100 97 cb 69 3e 4a fe 9c 3b 19 d9 59 bf 15 2e dd 3e
       0.2283157 0.004791056 -0.8509689 0.4319922
000110 99 4c 84 3e 6c 2c 71 3e 76 83 48 3e fd 65 94 3e
       0.2583969 0.23552102 0.19581398 0.2898406
000120 12 bf 4b 3f 18 49 d6 3c ee 4a 23 bf 1b c3 88 be
       0.79588425 0.0261579 -0.6378621 -0.26711354
000130 54 82 18 bc 26 82 2a 3e 5c 6b b4 3d 1c 6c 10 3f
       -0.009308416 0.1665121 0.0880954 0.5641496
000140 68 35 7c 3f 15 a5 1c 3f a6 e5 57 bf 49 c7 b3 be
       0.9851899 0.61189395 -0.8433479 -0.3511298
000150 bc 60 13 3f 10 44 88 3f 14 9f 48 bf 78 45 2d 3f
       0.5756948 1.0645771 -0.78367734 0.67684126
000160 ad 10 ac 3c 2b c7 cf 3e 6a e8 1d 3f ec 7b d3 3e
       0.021004045 0.4058164 0.6168276 0.41305482
000170 7e 14 67 3f c3 e2 48 3f c5 4c 3c bf a9 74 4a bf
       0.90265644 0.7847101 -0.7355464 -0.7908426
000180 11 6b c7 3f b8 9e d9 be 28 b0 4a 3f 55 1e 8d be
       1.5579549 -0.42503905 0.79175043 -0.27562204
000190 75 c5 50 3d 7e ce 32 3e 52 6e 6e be ce b9 6a be
       0.05096956 0.17461583 -0.23284271 -0.22922441
0001a0 80 2d da 3e e3 4b 45 3f 63 44 33 bf a2 86 20 3f
       0.4261284 0.7706892 -0.70026225 0.62705433
0001b0 e9 13 11 3d 5b d5 51 3f 96 58 62 3d 14 20 cf 3e
       0.03541938 0.8196618 0.055260263 0.4045416
0001c0 22 27 0e 3f 3e 69 5e bd 98 c6 84 be df 53 69 3b
       0.5552846 -0.054299586 -0.25932765 0.003560297
0001d0 dd 23 82 be 36 f1 21 bf f2 8b ea 3e 6b 9d f2 3e
       -0.25417987 -0.63258684 0.45809895 0.47385725
0001e0 c2 c2 38 3f 2f 39 e9 3e 30 40 6b be 4c 3e 18 3e
       0.72172177 0.4555144 -0.22973704 0.14867514
0001f0 24 8b a3 3d 4b eb 13 3d c0 74 be bf 76 a9 38 3f
       0.07985523 0.036113065 -1.4879379 0.72133577
000200 2e f0 8d be c6 24 c7 3f e1 34 42 3f 18 c2 d5 be
       -0.27722305 1.5558097 0.75861937 -0.41749644
000210 57 f4 ef be 92 1a 08 3f 7f 5f 8f bd f4 dc 6c 3f
       -0.46866104 0.53165543 -0.07000636 0.9252465
000220 a9 18 cb bd 18 81 21 be 72 ec 03 3f 55 80 64 3f
       -0.09916813 -0.15771902 0.5153266 0.8925832
000230 f5 2f 8d 3e 7c 61 86 3e a8 30 f1 be 7a 97 79 3e
       0.2757565 0.2624625 -0.47107434 0.2437419
000240 90 6a 58 bd 8d 9c 14 be 72 5a 84 bf 9f d7 e5 3e
       -0.052836 -0.14512844 -1.0340102 0.44891068
000250 a0 6d 23 be 90 c6 99 3f 97 95 30 3f bc c1 39 3f
       -0.15959787 1.2013721 0.68978256 0.7256124
000260 1e 13 1b 3f af 2d 0c 3f 30 2e 6b be 5b bd 20 3f
       0.60576046 0.5475721 -0.22966838 0.62788934
000270 cf ab 2f 3f 5d cf 11 3e cc 8d 84 3e 39 da 3c 3f
       0.68621534 0.14239259 0.25889432 0.7377048
000280 3e 09 1d 3f d1 0e 34 3e 6e 5e 9b be f5 f6 ab be
       0.6134223 0.17583777 -0.30345482 -0.3358685
000290 cb 8f 35 3e 86 72 cd be 44 d1 1f bf 13 b8 02 3f
       0.17730634 -0.40126437 -0.6242869 0.51062125
0002a0 74 23 3f be 9a 2e 83 3f ad f5 af 3c 32 28 3d 3f
       -0.18665868 1.0248597 0.021479452 0.7388946
0002b0 3a 62 8f 3d 31 c1 c8 3e a4 60 1d bf 43 8b 42 3f
       0.07001157 0.39209893 -0.61475587 0.75993747
0002c0 f0 f5 50 3f 75 2d e7 bc 03 b4 3f 3f 94 b7 0b 3f
       0.8162527 -0.028219918 0.7488405 0.54576993
0002d0 6d 72 14 3f 61 5b d3 3e a2 22 38 bf 43 94 dd be
       0.579871 0.41280654 -0.71927845 -0.43277177
0002e0 18 f7 0b 3e d3 74 2f be 24 b7 0c bf 9d 4b a2 3d
       0.13668478 -0.17134409 -0.5496695 0.07924578
0002f0 64 33 9c be ef d9 26 3f c6 17 49 be da 82 2f 3f
       -0.30507958 0.6517629 -0.19637975 0.6855904
000300 26 a9 4b 3f cf 30 97 3d db 56 fc bd 80 fc c3 3e
       0.79554975 0.073823564 -0.12321254 0.3827858
000310 7e 0b 95 bd 82 79 1b bf 09 4a 1b 3f db e4 19 3e
       -0.072775826 -0.6073228 0.60659844 0.15028708
000320 6e cf 28 bf 9a d9 2a 3e 36 20 11 bf 3d 9f 52 bd
       -0.6594151 0.16684571 -0.56689775 -0.051421393
000330 c2 59 68 be 9b 45 c3 3d e4 fe 94 bf d6 c5 1c 3e
       -0.2269049 0.095347606 -1.1640286 0.15309843
000340 4f 98 18 be 57 c8 8e 3f ed 17 5e be 39 8b 43 be
       -0.14901851 1.1154889 -0.21688814 -0.19096078
000350 38 60 be bc d4 9e 81 3e bc ad 19 be 0a ff 0f bf
       -0.02323924 0.2531649 -0.1500768 -0.56248534
000360 21 e9 0f 3f c0 e5 84 3e 46 d8 b5 3e fb a2 97 3c
       0.562151 0.25956535 0.35516566 0.018510332
000370 66 c9 c4 be dc 8d e1 bd 68 1a 9e be c3 f1 15 bf
       -0.38434905 -0.11013386 -0.3087952 -0.58572024
000380 49 1b 09 3f ba 52 2e be bf a1 08 bf aa db 50 be
       0.5355726 -0.17023745 -0.53371805 -0.20396295
000390 33 87 d3 be c6 d3 3e 3f a2 f3 51 be b4 f1 1d 3f
       -0.41314086 0.7454189 -0.20503095 0.61696935
0003a0 c9 42 1f 3e 32 c2 2c 3e 19 7e a0 be 7d 35 0b be
       0.1555282 0.16870955 -0.31346205 -0.13594623
0003b0 62 62 82 3d 32 53 1a 3c a6 35 80 3e 36 a1 0f 3e
       0.06366421 0.009419249 0.2504093 0.14026341
0003c0 55 5d d7 3e 8c 31 51 3e 6f 73 a2 be e5 81 a8 be
       0.42063394 0.20429057 -0.31728694 -0.32911602
0003d0 fc 04 f1 be f2 d4 95 be 7c b9 82 bf 7d 56 c9 3c
       -0.47074115 -0.29264027 -1.0212855 0.024577374
0003e0 1a 40 08 3f ed 0e 83 3f 9c 14 0b 3f 2f 9b 7e 3e
       0.5322281 1.023893 0.5432832 0.24863885
0003f0 18 f7 cd be d7 f3 cf 3e 3e 49 87 bf 7a d8 b7 be
       -0.4022758 0.40615723 -1.0569227 -0.35907346

bias f4 [3]
000000 e2 e9 06 c0 69 f9 ef bf 6a 37 19 c0
       -2.108025 -1.8747989 -2.3940072

weight f4 [3, 1, 7, 20]
000000 b6 e2 36 3f 52 1d ef bd 8b dc f0 bd 18 be 18 be
       0.71439683 -0.11675514 -0.11760815 -0.14916265
000010 70 91 5a 3e d6 98 84 3e b6 27 7a bf 1a 67 fe b8
       0.21344543 0.25897855 -0.97716844 -0.00012130868
000020 e2 7b 55 bd 76 37 9f 3e a3 68 fa 3e 1c 01 f1 bd
       -0.052120097 0.31097 0.48907956 -0.1176779
000030 58 d5 03 3f 54 9a e6 bc c4 5b d2 be 41 70 8a be
       0.5149741 -0.028149761 -0.41085637 -0.27038768
000040 2b d9 3b 3f ea e3 f4 be f7 5d 39 3f 26 e4 fe 3e
       0.7337825 -0.47830135 0.72409004 0.49783438
000050 ea ab 5a bd 84 86 c6 bd be f4 82 be 90 f6 02 3f
       -0.053386606 -0.096936256 -0.25577348 0.51157475
000060 6e 71 74 3e d1 5d 32 be 02 71 58 bf a4 91 ff 3d
       0.23871395 -0.174186 -0.84547436 0.124789506
000070 82 cc 14 3e 1a 24 3e 3e 47 a9 07 bf bb 51 19 3f
       0.14531139 0.18568459 -0.5299267 0.59890336
000080 e5 b3 7a 3e a6 f9 36 3f 58 5b b8 bc 5e d5 55 bf
       0.24482687 0.71474683 -0.022504494 -0.835287
000090 0e 71 77 bc 04 b7 b7 be 43 f2 86 3e c2 1b 50 3e
       -0.015102638 -0.35881817 0.26356706 0.20323089
0000a0 00 d1 59 3e a6 9e bc 3d a8 ff 78 3e 53 21 6d 3e
       0.21271133 0.09209947 0.24316275 0.23157243
0000b0 0c 52 93 3e f4 ac 0f be 98 fe 81 bf d0 94 9f be
       0.28773534 -0.1403082 -1.0155821 -0.31168222
0000c0 03 83 5e bf 65 9b 2b 3f d3 3b 83 3e 9b ed 93 3d
       -0.8691866 0.6703399 0.2563158 0.07223054
0000d0 8b 71 3b 3f 74 6d 44 3f 42 22 ea be 91 27 a0 3e
       0.7322013 0.7672951 -0.45729262 0.31280187
0000e0 30 d4 b4 bc 3e c4 38 bf 49 b9 92 3e c7 4d 5c be
       -0.022073835 -0.7217444 0.28656986 -0.21514045
0000f0 a2 ab 59 3d cd 8b b3 be a7 54 41 be e7 6c fa 3e
       0.053142197 -0.35067597 -0.18879949 0.4891121
000100 d6 2f 01 3f 2a 13 b7 bd 64 da 48 bf 7e 2a c2 be
       0.50463617 -0.08939202 -0.7845824 -0.37923044
000110 bb 74 05 bf 62 f6 61 3f 91 75 12 3f 5a 8f 94 be
       -0.5213124 0.88266575 0.5721064 -0.2901562
000120 7a be 13 3f de 0f 2c 3f 7e 4f 16 be c5 d5 9d 3e
       0.5771252 0.6721171 -0.14678761 0.30827156
000130 c3 c3 3c be 48 61 9b bd 12 1f 4d 3f ba 01 dd 3d
       -0.18434052 -0.07586914 0.80125535 0.10791345
000140 3b e1 5e bd 76 75 e3 3e a6 8a 5b bf 50 5c 1c be
       -0.054414015 0.44425553 -0.85758436 -0.1526959
000150 00 5c df 3d d3 01 2f be 08 9f 94 bf 4a 59 00 3e
       0.109062195 -0.1709054 -1.1611032 0.12534061
000160 0a 7e 33 3e b0 88 61 3f e9 17 a1 3f 61 db f8 3d
       0.17528549 0.88099194 1.2585422 0.12151218
000170 24 9a 52 3e 41 30 13 3f 2a 09 6f bf 7d c6 0c 3f
       0.20566612 0.57495505 -0.9337336 0.5499037
000180 13 a6 a1 3f e2 d4 41 3e 7b 07 54 3f 33 31 60 3d
       1.2628807 0.18928865 0.82823914 0.05473442
000190 23 60 07 bf 7a 42 36 3e 3d 9a e6 be 25 db 2d bd
       -0.5288107 0.17798796 -0.4503955 -0.04244532
0001a0 bb e8 bc bd ab c1 82 3e b8 fa 30 bf 7d 98 ba be
       -0.09224077 0.25538382 -0.69132566 -0.36444464
0001b0 ea 14 ac bc 30 60 59 3f 5b d2 93 3e 2c c7 c2 bd
       -0.021006066 0.84912395 0.28871426 -0.09510645
0001c0 cd e6 5a 3f 4d 5f cd 3d b5 0c b1 be cd 43 bd 3e
       0.85508424 0.10027943 -0.34580007 0.3696579
0001d0 a1 00 23 3c 22 6a 73 be 82 76 0f 3f c7 a8 0f 3d
       0.00994888 -0.23770955 0.56040204 0.035073068
0001e0 5c 50 87 be cb be 25 3f 91 70 a9 be e1 f8 d7 bd
       -0.26428497 0.6474425 -0.33093694 -0.10545517
0001f0 21 41 93 3d 85 ff bc 3e ee 14 bc bf fa 72 81 3e
       0.07190157 0.36913696 -1.4693887 0.25283033
000200 ce e0 3b 3e 97 cd 07 3f de ee 29 3f ac 9a 87 bc
       0.18347475 0.5304808 0.6638011 -0.016553245
000210 13 2c c6 3e 70 6e d8 3d 65 f0 b2 bf c8 e8 ea 3e
       0.387055 0.10567939 -1.3979613 0.45880723
000220 20 05 46 3d c2 a8 66 be 41 4f 89 3f 32 f8 97 3e
       0.04834473 -0.22525313 1.0727311 0.29681545
000230 4e 7a d7 3e e1 75 20 3f 35 80 30 bf 95 fe 2d 3e
       0.420855 0.6267987 -0.6894563 0.16991647
000240 dd cd 91 bd b6 b2 2d 3d a8 ff e8 be aa a8 9f be
       -0.071193434 0.04240676 -0.4550755 -0.31183368
000250 2b ec d2 be 85 89 09 3f ef 1a 07 3f 07 7b 4b bf
       -0.41195807 0.53725463 0.5277547 -0.794846
000260 69 5d 51 3f 77 b1 51 3f fc f3 85 be 46 e5 37 3f
       0.8178316 0.81911415 -0.26162708 0.7183422
000270 cb 41 10 3f cb ae 21 bf 65 96 a8 3e 28 77 a5 be
       0.5635039 -0.6315734 0.32927242 -0.32317472
000280 ea f0 e1 be 01 95 2f 3f 89 7e 0d bf ef fa fb 3d
       -0.44129115 0.68586737 -0.552712 0.12303721
000290 a9 e0 e9 3c 7e 28 82 be 62 68 cd be 68 b8 2b 3e
       0.02854951 -0.25421518 -0.401187 0.16769564
0002a0 c0 a4 19 bd 96 3e a2 3e 43 9a 4d 3d c2 2f 27 3f
       -0.037510633 0.31688374 0.050195944 0.6530725
0002b0 ff cc ed 3e b7 53 f2 3d f8 c9 85 bf bf a3 82 bd
       0.46445462 0.118323736 -1.0452261 -0.06378888
0002c0 0b 2a 32 3f 77 24 98 bd d2 25 d6 3e 05 df 02 3e
       0.695954 -0.0742883 0.4182573 0.12780388
0002d0 46 09 60 be 34 ac e2 bd 46 38 fc 3b 1a 53 81 3e
       -0.21878538 -0.110680014 0.007697138 0.25258714
0002e0 59 89 01 3f d6 34 ff 3e 96 d9 65 bc 85 0c 05 3e
       0.506002 0.49844998 -0.014028927 0.12993057
0002f0 34 0f b5 be 11 82 ff 3e 45 26 65 3f 5c a7 9d 3e
       -0.35363162 0.4990392 0.8951152 0.30791748
000300 62 be da be 60 e0 b4 be ec e1 89 3c a7 7b 52 bf
       -0.42723376 -0.35327435 0.01683136 -0.8221993
000310 1e 70 7a 3e 6a a7 c6 be 22 3e 09 3e d6 0b 7d 3e
       0.24456832 -0.38799602 0.13402608 0.24711546
000320 88 fe f0 3e d3 7e 1c 3f 2f 4f 0e bf ed 7b 8f 3e
       0.47069192 0.6113102 -0.55589575 0.28024235
000330 5c a4 2c bc 65 d2 8a be eb 72 f9 be 57 69 0f 3e
       -0.010537233 -0.27113643 -0.48720488 0.14005028
000340 6c 9a 0c 3f cf f3 29 3f 7b c5 49 3f 39 d5 20 3f
       0.5492313 0.6638765 0.78816956 0.6282535
000350 43 c3 62 bd 3d e8 33 3e 10 a3 b4 be 70 f0 00 be
       -0.055361997 0.1756906 -0.35280657 -0.1259172
000360 c4 88 2e 3f 6d 46 39 bf af 53 6a 3f be f2 2c 3d
       0.6817744 -0.72373086 0.9153394 0.042223684
000370 f7 cb 0b 3f c5 6d d0 bd b1 0e 26 bf 8b 90 bd be
       0.546081 -0.10177187 -0.6486617 -0.3702434
000380 0e 7a fc 3e 64 1b 14 3d 7b 88 8a be 5c d6 34 bf
       0.4931187 0.036158934 -0.2705725 -0.70639586
000390 c8 71 88 be 30 ea 2a 3f e9 37 f3 3e ee ef b8 be
       -0.26649308 0.6676359 0.47503594 -0.36120552
0003a0 a3 9f 65 3f 22 78 f1 bd 2f e7 35 bf 86 9a 01 3f
       0.8969671 -0.11790492 -0.71055883 0.5062641
0003b0 7b b7 43 3f dc b8 0c bf d5 aa 6c 3d 1a 27 a7 3e
       0.76451844 -0.54969573 0.057780106 0.3264702
0003c0 a7 c1 33 bf 1e b9 81 3e 89 94 eb be ef 7c dd 3e
       -0.70217365 0.25336546 -0.4601176 0.4325938
0003d0 45 c2 de 3e 78 7e ae 3e 61 e4 bb be 1a 1e fe be
       0.4350759 0.34080863 -0.36697677 -0.4963234
0003e0 ff d8 66 3d 53 bc ff 3e a8 94 a9 bd 11 2c 34 3e
       0.056359287 0.49948367 -0.08280307 0.17594935
0003f0 c3 aa 11 3e cf ff 74 3e 46 af ca 3e a1 fa 24 bf
       0.14225297 0.23925708 0.39586848 -0.6444493

bias f4 [3]
000000 6e 98 f4 bf 09 73 f2 bf 83 b6 da bf
       -1.9109018 -1.8941356 -1.7086948

weight f4 [3, 1, 8, 20]
000000 61 51 6c bc 72 0c e2 bc 5e d0 66 be 03 e1 12 be
       -0.014423699 -0.027593825 -0.22540423 -0.14343648
000010 69 73 52 3f 0a 98 ff 3e 51 67 0f be e1 a6 31 bd
       0.8220735 0.49920684 -0.14004256 -0.04337204
000020 67 d9 b2 bd 2f e0 ed 3e 7c 86 42 3e 72 18 ce be
       -0.087328725 0.464601 0.18996614 -0.40253025
000030 c9 0d fa 3e 58 0c 85 3e 53 ab fa be a5 ad 91 bd
       0.48838642 0.2598598 -0.48958835 -0.07113198
000040 86 df e0 3e 4d 65 93 be f9 ad 20 3f bd 25 b8 be
       0.43920535 -0.28788224 0.6276546 -0.35966292
000050 f3 0a 75 bd 3e a1 09 3f fc 87 2a 3e 11 1f 58 be
       -0.059824895 0.5376166 0.16653436 -0.21105601
000060 b5 0e 5a be 7c 6a ed 3d b7 cd 85 be 33 42 df 3d
       -0.21294673 0.11592576 -0.2613351 0.109012984
000070 49 86 1b bd 87 17 f7 3e 9f 77 02 3e ac 23 af 3e
       -0.03796986 0.48260137 0.12740944 0.34206903
000080 6a 5e d4 be b8 45 90 3d 97 2f 23 3d 72 cb 9d be
       -0.41478282 0.07044548 0.039840307 -0.3081928
000090 37 9f cd 3e 18 ed 1d be 36 2a 38 3e 43 01 9b 3e
       0.40160534 -0.15422475 0.17984852 0.302744
0000a0 cb 2a 2d be 9a 26 06 be f6 6e dc bd 1a ea 26 bf
       -0.16910855 -0.13100663 -0.107633516 -0.6520096
0000b0 f7 88 26 3e 3a 39 a5 3e 78 ac 1a bf 5e 30 a1 3e
       0.16263185 0.32270223 -0.60419416 0.31482214
0000c0 82 d8 b9 be 74 e2 4a be 74 b0 af 3e 7c d3 44 3f
       -0.36297995 -0.19812948 0.3431431 0.768852
0000d0 58 36 28 bd 4c 7e d8 3c 3e 52 52 bf c5 77 ea be
       -0.04106745 0.02642741 -0.8215674 -0.45794502
0000e0 fd d0 9f 3e 4a 2a f3 be d5 15 11 3e 5c 17 cd 3e
       0.31214133 -0.47493201 0.14168485 0.40056884
0000f0 30 9d bb 3e 28 99 75 be 70 d8 2d bf f5 8d b0 3d
       0.36643362 -0.23984206 -0.6790838 0.08620826
000100 bf 4d 1e 3f d1 38 de 3e 07 59 4b bf b4 1b c3 3c
       0.6183738 0.43402722 -0.7943272 0.02381692
000110 d3 e5 90 be 5f 4f 7e 3f 2e 5b 13 3f 8c 2c 9b 3e
       -0.28300342 0.9933986 0.57561004 0.30307424
000120 7d 13 01 bf ba 56 56 3e d6 85 69 be 48 f0 3f be
       -0.5042036 0.20931521 -0.2280496 -0.18744004
000130 67 ba 84 bc d4 38 4b bf a8 92 53 3f 31 8b 36 3f
       -0.016202165 -0.7938359 0.82645655 0.7130614
000140 11 f7 94 3e ef d4 db 3a 2f 2a 14 be 4a 55 81 be
       0.29094747 0.0016771833 -0.14469217 -0.25260383
000150 a9 ce 15 3e b7 68 03 3d be 82 2b bf ba f9 4e be
       0.14629616 0.032082286 -0.6699637 -0.2021245
000160 46 e8 9f bd 54 78 80 3e 45 5c 15 3f 84 9e 26 3f
       -0.078079745 0.25091803 0.5834392 0.65085626
000170 61 f9 54 3e 80 73 b5 3e 92 6c 5c bf bb 6d 09 3e
       0.20798256 0.35439682 -0.86103165 0.13420765
000180 da 5c 3b 3f be 7a d7 bc 72 29 2f 3f fd b8 22 3d
       0.73188555 -0.026303645 0.68422616 0.0397272
000190 9d f1 53 be 4b 79 f0 3e 67 20 cd be 90 24 4b 3e
       -0.20697637 0.4696754 -0.40063784 0.19838166
0001a0 5a 8d 8e 3e 2f 5f f0 3e ba 80 4b bf 6f d6 8e bd
       0.27842218 0.4694762 -0.79493296 -0.06974494
0001b0 fe fb 20 bf 11 b3 76 3f 06 5f 17 3f 9b 5a 1f bc
       -0.6288451 0.96366984 0.5912937 -0.009726192
0001c0 56 fa 83 be 37 2d 29 3d 6f e7 3f bf b7 c5 e7 be
       -0.2577693 0.041302886 -0.74962515 -0.45268032
0001d0 23 5e 35 3d 03 6a 37 bf 95 3b 43 be 7e 04 e8 3e
       0.04427923 -0.71646136 -0.19065697 0.45315927
0001e0 43 c0 a7 3d a4 13 00 be fb 3c 3c bf a4 bb 41 be
       0.08190968 -0.12507492 -0.7353055 -0.18919235
0001f0 82 58 95 3e 6c ce df 3e 2f f4 28 bf 34 64 4e be
       0.2916909 0.43712175 -0.65997595 -0.20155412
000200 05 99 c2 3e 02 dc 9f 3e 0e af 05 3f e4 0f 56 3f
       0.3800737 0.3122254 0.5222024 0.83618
000210 5f 16 05 be bd ae 47 3e 72 3d 41 be 0f 3a c4 be
       -0.12996815 0.19500251 -0.18871096 -0.38325545
000220 16 31 0e 3d 54 5f e4 be 0e 27 ee 3e c6 58 aa 3f
       0.03471478 -0.4460398 0.4651417 1.3308342
000230 6a 9b 8e 3e 68 4a 22 bf 94 e1 aa bf ec de b6 bd
       0.27852947 -0.63394785 -1.3350091 -0.08929238
000240 8d a9 33 3f 5b 43 c4 be bc 23 83 bf 5f d8 f9 3e
       0.7018059 -0.38332638 -1.024528 0.4879789
000250 bf bb 32 be 4c 8f df 3e 67 3f 6c 3f 0d a5 28 3f
       -0.17454432 0.43664014 0.92284244 0.6587685
000260 e1 79 d9 3d 89 06 9c be 37 b8 80 bf 1f 85 df be
       0.1061895 -0.30473736 -1.0056218 -0.4365625
000270 6b aa 24 3f 5a 08 0a be 7b 73 14 3f b5 ab 24 3f
       0.6432254 -0.13479748 0.5798871 0.64324504
000280 88 87 6a be 12 aa 73 3e 53 60 51 bf 74 c2 9e 3e
       -0.22903264 0.23795345 -0.81787604 0.3100773
000290 2e 2a 1e 3f e6 3e 6f 3e ec ea 8d bf 9a 5a c5 bd
       0.6178311 0.23363838 -1.1087317 -0.096364215
0002a0 8e f3 3b be 20 c0 28 3e e4 53 b2 3e be 64 e1 3e
       -0.18354627 0.1647954 0.34829628 0.44022173
0002b0 97 d3 dd 3e 8c 68 ee 3e ad aa a1 be 8e 46 ae bc
       0.43325493 0.46564138 -0.31575528 -0.021273877
0002c0 47 61 d9 be f5 a1 6e be 37 56 8c 3f 86 96 06 be
       -0.4245703 -0.23303969 1.0963811 -0.13143358
0002d0 07 9c bb bd bd 8a 02 bf fb cc 2e 3e da 73 70 3e
       -0.09160619 -0.5099295 0.17070381 0.23481694
0002e0 b1 1b 82 be e5 2d 97 3e f1 03 4b bf f3 c2 e7 3e
       -0.25411752 0.29527202 -0.7930289 0.45265922
0002f0 ea 6a e3 3d f7 c5 65 3f 0c e3 ba 3e cf ed 2e 3f
       0.111043766 0.89755195 0.36501348 0.6833162
000300 53 d3 8c bc be b5 59 3f 55 76 e7 3d 41 38 d0 be
       -0.017190611 0.8504294 0.11301867 -0.40667918
000310 5d b4 0b bf 42 27 09 bf 02 7c 5d 3e 05 4c 50 bc
       -0.5457209 -0.5357553 0.21629336 -0.012713437
000320 13 23 2d 3f 25 35 f3 3e 5d 8d 3d bf 07 8f 8c 3e
       0.67631644 0.47501484 -0.7404383 0.2745287
000330 18 42 e9 3e 83 13 1a 3f ff 11 eb be 73 22 b6 be
       0.45558238 0.6018602 -0.45912167 -0.35573158
000340 6a 3f 4d be f6 29 81 3f 84 51 ab 3e 7b 60 48 3c
       -0.20043722 1.009093 0.3346063 0.012230034
000350 58 0e 84 be 2e bb 74 3e ba 75 b6 3d ae 99 ac be
       -0.25792193 0.23899528 0.08909173 -0.33710998
000360 a1 32 5f 3f 4a ba be be 27 a5 97 3e a7 5f 17 3f
       0.8718663 -0.37251502 0.2961819 0.5913033
000370 73 69 02 bf f7 b8 c5 be 08 57 35 3e 20 66 d2 3c
       -0.5094215 -0.3861768 0.17708981 0.025683463
000380 3d 77 3d 3f ca 68 a0 3d c0 f6 73 bf 7e 38 77 be
       0.7401007 0.07832487 -0.95298386 -0.24142644
000390 f4 b0 eb be 1c ca 25 3d ff 36 bf 3f fc 20 1b 3f
       -0.46033442 0.04047595 1.4938658 0.60597205
0003a0 df 98 9e 3e 10 e6 91 3e 96 b0 5e bf 38 d4 63 bf
       0.30976006 0.28495836 -0.869882 -0.88995695
0003b0 77 84 52 be 5a ba 7a 3e b6 61 de 3e 02 cf 64 3e
       -0.20558344 0.2448515 0.43433923 0.22344592
0003c0 05 45 d2 be ed f6 9a bd 96 98 cb be b6 83 15 bf
       -0.41068283 -0.075666286 -0.3976485 -0.584041
0003d0 51 23 59 3e 47 a4 b7 3e 30 43 f9 be 1b 39 2e be
       0.21204878 0.3586752 -0.48684072 -0.17013972
0003e0 52 3f 32 bf 3d 0b 0e 3f 7f 0d 6e 3e 13 a7 d1 3e
       -0.6962787 0.554859 0.23247336 0.4094778
0003f0 7c 48 b9 3e fc c0 d7 3d ae 96 77 3e 16 99 40 3e
       0.36188114 0.10534856 0.24178573 0.18808398

bias f4 [3]
000000 c9 96 bc bf dd 77 aa bf 16 d7 7c bf
       -1.4733516 -1.3317829 -0.98765695
