char_emb/code/output/model_child_gru.pt (torch_old, 42941 bytes, 7 tensors)

weight f4 [91, 10]
0	0xc002a865	-2.041528
1	0xbfce4e9f	-1.6117743
2	0x3f110290	0.56644535
3	0xbe117676	-0.14205346
4	0xbfacc712	-1.3498251
5	0x3f85b6ad	1.0446373
6	0x3e038bfe	0.12846372
7	0xbbb00c16	-0.0053725345
8	0xc02b01c2	-2.6719823
9	0x3f33f561	0.70296293
10	0x4005d59f	2.0911634
11	0xbfd9487e	-1.6975248
12	0xbe500766	-0.20315322
13	0x3fa3445f	1.275524
14	0x3ddf6ddf	0.10909628
15	0x3f6e7be8	0.93157816
16	0x3fa99e95	1.325152
17	0x3e25eef5	0.16204436
18	0xbccbf075	-0.024894932
19	0xbed207d5	-0.410216
20	0xbe0b6194	-0.13611442
21	0xbfcdc1e4	-1.6074796
22	0xbff68180	-1.925827
23	0xbf9bccd1	-1.217188
24	0x3e81bd5f	0.2533979
25	0xbebdc147	-0.3706152
26	0xbf114255	-0.5674184
27	0xbf7f6382	-0.9976121
28	0xbf2f317c	-0.6843488
29	0xc016506a	-2.348658
30	0xbf9ae337	-1.210059
31	0xbe9a3863	-0.30121145
32	0x3f9f42da	1.2442276
33	0xbf5e0b66	-0.8673614
34	0xbf6c96f3	-0.9241783
35	0xbf01f81e	-0.5076922
36	0xbf880740	-1.0627213
37	0xbe7c59ac	-0.24643582
38	0x3d94480d	0.07240305
39	0xbf1c95c7	-0.6116604
40	0xc015ceee	-2.340755
41	0x3f87c684	1.0607457
42	0x3eca92ec	0.39565217
43	0x3f513331	0.81718737
44	0x3ec85878	0.39129996
45	0xbf1f0c4c	-0.6212814
46	0xbf2792e3	-0.65458506
47	0xbe864fe2	-0.2623282
48	0x3e69f9f0	0.2284925
49	0x3e3a9759	0.18221797
50	0x3f9c74da	1.222316
51	0xbec3a8f3	-0.38214836
52	0xbeefb149	-0.46814945
53	0x3fa95563	1.3229183
54	0x3f133055	0.57495624
55	0xbfd7827b	-1.6836694
56	0x3f28309f	0.6569919
57	0xbec7f529	-0.3905423
58	0x3ed9a4ca	0.42508537
59	0xbfc46af1	-1.5345136
60	0xbfa7f3b5	-1.3121248
61	0x3f785b5c	0.97014403
62	0x3f993981	1.1970674
63	0x3e707bea	0.2348477
64	0xc0090dd1	-2.1414683
65	0xc02bc459	-2.683859
66	0x3f389ae9	0.72111374
67	0xbf783447	-0.9695477
68	0xbe8e162e	-0.27751297
69	0xbd5bdb89	-0.053676162
70	0xbf284dfa	-0.6574398
71	0xbfa1a65f	-1.2628897
72	0xbf209427	-0.6272606
73	0xbf0635d1	-0.5242587
74	0xc02a42b4	-2.6603212
75	0x3e777881	0.24167062
76	0xbf957a00	-1.1677856
77	0x3f2e8c66	0.6818298
78	0xbf0ce389	-0.5503469
79	0x3e5fe260	0.21863699
80	0xbf8554c9	-1.0416499
81	0xbe93a20c	-0.2883457
82	0xbfe64223	-1.7988933
83	0xbe8bed6e	-0.27329582
84	0x3e87424a	0.26417762
85	0x3fea035f	1.8282279
86	0xbfdcb3fb	-1.7242426
87	0x3e9acb7b	0.30233368
88	0xbfbe5456	-1.4869487
89	0xbff39b4b	-1.9031767
90	0x40105b3b	2.2555683
91	0x3f869076	1.0512836
92	0xbf3503e7	-0.7070908
93	0xbeae6796	-0.34063405
94	0xbe30c8c9	-0.17264093
95	0xbf8c5b6f	-1.0965403
96	0xbf9a459a	-1.2052491
97	0xbef274b7	-0.4735467
98	0xbfc4b1a9	-1.5366718
99	0xbd52cc53	-0.05146439
100	0x3e17beb9	0.14818849
101	0x3f5a27e9	0.8521715
102	0xc061b4d0	-3.526661
103	0xbfd27191	-1.6440908
104	0x3d991c22	0.07476069
105	0x3ececd35	0.40390936
106	0x3f52ae2c	0.82297015
107	0xc01e450c	-2.4729643
108	0x3f2d5b54	0.6771748
109	0xbf183ed6	-0.5947088
110	0xc0086b12	-2.131535
111	0xbee6d594	-0.45084822
112	0x3ef262d5	0.47341028
113	0x3edbe81d	0.42950526
114	0xc07cf655	-3.952535
115	0xbe1ec2f7	-0.1550406
116	0xbeb32df0	-0.34995985
117	0xbf04242e	-0.51617706
118	0xc03a74fe	-2.9133906
119	0xbe248188	-0.16065037
120	0xbf80f526	-1.0074813
121	0xbfc51836	-1.5398014
122	0xbee2a69c	-0.44267738
123	0xbfafcebb	-1.3734964
124	0x3f9e61b9	1.2373573
125	0x3fad5055	1.354014
126	0xbf45474e	-0.7706193
127	0xbfb75d5d	-1.4325367
128	0xbfef64df	-1.8702658
129	0x3f7c61b3	0.9858658
130	0xbf59c800	-0.850708
131	0xbee4ad9b	-0.446637
132	0x3ea11edc	0.31468856
133	0xbe478ab1	-0.194865
134	0xc004ecd7	-2.0769556
135	0x3f098ac4	0.53727365
136	0x3df8d25b	0.12149497
137	0x3f435797	0.76305526
138	0xbc6384f6	-0.013886681
139	0x3f1bcdc3	0.6086084
140	0x3f189528	0.59602594
141	0x3f99405a	1.1972764
142	0x3ead9f2c	0.339105
143	0xbf63f9cb	-0.8905303
144	0xbe61678e	-0.22012159
145	0x3c0d2acb	0.00861616
146	0x3f368f70	0.7131262
147	0x3da7131a	0.0815794
148	0xbf598b12	-0.8497783
149	0x400c3b6f	2.1911275
150	0xbf7dbe83	-0.9911882
151	0x3efaff47	0.49022886
152	0xbdf2f69d	-0.11863444
153	0xbf89136f	-1.0709056
154	0x3fb31c25	1.3992964
155	0xbf6f3538	-0.9344058
156	0xbfc91b71	-1.57115
157	0xbed0b74a	-0.40764838
158	0xbed742aa	-0.42043048
159	0x3d9b7bcc	0.07591972
160	0xbf80c02c	-1.0058646
161	0xbeb04331	-0.34426263
162	0xbefcae14	-0.4935156
163	0xbfa3a4ae	-1.2784631
164	0x3e21c1b9	0.15796556
165	0xbfdf6a41	-1.7454301
166	0xbfa473c6	-1.2847831
167	0x3f965378	1.1744223
168	0xbd6e68f6	-0.058205567
169	0xbf51f80c	-0.82019114
170	0xbf8139b2	-1.0095732
171	0x3dc6fe00	0.097164154
172	0xbf36108c	-0.71119
173	0x3fa778bc	1.308372
174	0x3f88cd67	1.0687684
175	0x3f6039e5	0.8758834
176	0x4029bb9c	2.6520758
177	0xbf8c29e5	-1.0950285
178	0x3ebc6cbd	0.3680171
179	0xbf8335fb	-1.0250849
180	0x3ed38263	0.41310415
181	0x3f9f57b1	1.2448636
182	0x3fe299a4	1.7703137
183	0x3fe1a89c	1.762958
184	0x3e308292	0.17237309
185	0xbfab81eb	-1.3399023
186	0x3e8582b5	0.26076284
187	0x3ff4fff4	1.9140611
188	0x3e50d3f7	0.20393358
189	0x3f1a040e	0.60162437
190	0x3efdf029	0.4959729
191	0x3ff060b3	1.877951
192	0xbe93d172	-0.28870732
193	0xbf696d68	-0.91182566
194	0xbfbb0d9a	-1.4613526
195	0xbf2f5c5d	-0.6850031
196	0xbebe1ad5	-0.37129846
197	0x3fcca842	1.5988848
198	0x3f9173d1	1.1363469
199	0xc0066b9a	-2.1003175
200	0xbf97ea57	-1.186839
201	0x3f0b7771	0.5447913
202	0xbeb51556	-0.3536784
203	0x3e498dee	0.19683048
204	0xbe19e727	-0.15029584
205	0x3d8645e0	0.06556296
206	0xbf4bf8c3	-0.79676455
207	0x3f59b847	0.8504681
208	0x3d889182	0.066683784
209	0x3ec98933	0.39362487
210	0xbf8301c9	-1.023492
211	0xbf0f6ab0	-0.5602217
212	0x3f9cd740	1.2253189
213	0x3f239db7	0.6391253
214	0x3f4ed73b	0.80797166
215	0x3f92514b	1.1431059
216	0x3ebd221b	0.36940083
217	0xbf28e35b	-0.65971917
218	0x3f9a357b	1.2047571
219	0xbe3661dd	-0.1781077
220	0xbfdb443a	-1.7130196
221	0x3fbd0d16	1.4769619
222	0xbf14c04e	-0.58105934
223	0x3f1c3949	0.6102491
224	0xbf48a83a	-0.78381693
225	0x3fbd2ad6	1.4778697
226	0xbf07bdc2	-0.5302392
227	0xbfa22259	-1.2666732
228	0x3ed80e12	0.42198235
229	0xbf8cd01e	-1.1001012
230	0xbf30140e	-0.687806
231	0xbf9f61cf	-1.2451724
232	0xbe935512	-0.2877584
233	0x3ecd73db	0.40127453
234	0xbc51f32b	-0.012814323
235	0xbeddbe4c	-0.43309247
236	0x3ea467eb	0.32110533
237	0xbd654e18	-0.05598268
238	0x3cb2c80b	0.021823904
239	0x3f54429a	0.82914126
240	0xbea43ca9	-0.3207753
241	0xbec42ade	-0.38313955
242	0xbec05e35	-0.37571874
243	0xbefd6488	-0.49490762
244	0x3fa88068	1.3164186
245	0xbe0c1460	-0.13679647
246	0x3ede7725	0.43450275
247	0xbf8833fb	-1.0640863
248	0x3f02123c	0.50809073
249	0x3e4bf330	0.19916987
250	0xbf7c1d95	-0.9848264
251	0x3db80dd3	0.08987012
252	0x3f2bd452	0.6712085
253	0xc0026587	-2.0374467
254	0x3efde4c4	0.49588597
255	0xbe92eccc	-0.28696287

weight_ih_l0 f4 [108, 10]
0	0x3ebbfa31	0.36714318
1	0xbebc14f2	-0.3673473
2	0xbf597119	-0.849382
3	0xbe976491	-0.29568914
4	0x3ecfb126	0.4056484
5	0xbefb1c09	-0.49044827
6	0xbf265d26	-0.64985883
7	0x3decae4e	0.115566835
8	0x3e68c183	0.22730069
9	0xbf2a6848	-0.6656537
10	0x3fa8ec27	1.3197068
11	0xbfd180c0	-1.6367416
12	0xbf6a686d	-0.9156559
13	0xbfe1987e	-1.7624662
14	0x3f3f29dd	0.74673253
15	0xbddc9c05	-0.10771946
16	0xbee62e70	-0.44957304
17	0xbec2d3d7	-0.38052246
18	0xbd7d88ec	-0.061898157
19	0xbf9c8b57	-1.2230023
20	0x3f79453b	0.9737126
21	0xbf272cff	-0.65303034
22	0xbf2c919e	-0.67409694
23	0xbf406655	-0.75156146
24	0x3f0fabbd	0.56121427
25	0xbd7a58be	-0.061119787
26	0xbeab7146	-0.33484858
27	0xbe5e2bbf	-0.21696375
28	0x3e0768dc	0.13223594
29	0xbf091748	-0.5355115
30	0x3ea09dec	0.31370485
31	0x3f11f0f5	0.57008296
32	0xbe0fea42	-0.14054206
33	0xbd7e3e77	-0.06207129
34	0xbf197a76	-0.59952486
35	0x3f85d101	1.0454408
36	0x3ee508a0	0.44733143
37	0x3d62ae60	0.05534208
38	0xbefc669d	-0.49297038
39	0x3e2c0bc1	0.16801359
40	0x3f771900	0.9652252
41	0xbf94cbae	-1.1624658
42	0xbddb7501	-0.10715676
43	0x3e809aa9	0.25117996
44	0x3e3b4a82	0.18290141
45	0xbf8629a7	-1.0481461
46	0x3e8c1727	0.27361414
47	0xbe46a965	-0.19400556
48	0x3e6f52ef	0.2337148
49	0xbe81b04c	-0.25329816
50	0xbe1241b9	-0.14282884
51	0x3ac36ac6	0.001490914
52	0x3f0b6273	0.54447097
53	0x3de34ada	0.11098261
54	0xbedec01c	-0.43505943
55	0xbf93a6af	-1.1535243
56	0x3f5bc109	0.85841423
57	0x3e9bd4e7	0.3043587
58	0x3f59a3be	0.85015476
59	0x3cc4f3b5	0.02404199
60	0x3f031d13	0.5121624
61	0xbf19e895	-0.60120517
62	0xbf8151cc	-1.0103087
63	0xbf826c56	-1.0189312
64	0x3ead43a1	0.3384066
65	0x3e4fb6a7	0.2028452
66	0xbf7911a2	-0.9729253
67	0xbf731d61	-0.94966704
68	0xbe7cab69	-0.24674763
69	0xbffd79a6	-1.9802749
70	0xbd955612	-0.07291807
71	0xbf5526c9	-0.83262306
72	0x3d91667d	0.07099626
73	0xbebc9707	-0.36833975
74	0x3df7088d	0.12062178
75	0xbf25ff3b	-0.64842576
76	0x3cadcdfb	0.021216383
77	0xbe0fa795	-0.14028771
78	0xbe2c8215	-0.16846497
79	0xbf398da8	-0.72481775
80	0xbcc204a2	-0.02368385
81	0x3e5fc90a	0.21854034
82	0x3f57da44	0.8431742
83	0x3eda5672	0.42644078
84	0x3e9f05f2	0.31059223
85	0xbf1720f2	-0.59034646
86	0x3ea0fad5	0.3144137
87	0x3d5edacf	0.05440789
88	0x3dd48718	0.103773296
89	0x3e271c59	0.16319408
90	0xbe9e0c86	-0.3086893
91	0xbd57d394	-0.05269201
92	0x3f2f7194	0.6853268
93	0xbfa0dd39	-1.2567512
94	0xbf513f20	-0.81736946
95	0xbf795797	-0.97399276
96	0xbf8c352d	-1.0953728
97	0xbf0edbe6	-0.5580429
98	0xbeacc268	-0.3374207
99	0xbe9d53dd	-0.30728045
100	0xbf2ba415	-0.67047244
101	0x3e758a0a	0.23978439
102	0xbd9daf8b	-0.07699498
103	0x3fc820eb	1.5635046
104	0xbd470877	-0.048592057
105	0x3e5d9ee8	0.21642649
106	0xbedb5ac7	-0.42842695
107	0x3f322e59	0.6960197
108	0xbe87318f	-0.26404998
109	0xbf044043	-0.51660556
110	0x3d360705	0.044440288
111	0x3f1a09f5	0.60171443
112	0xbce16c17	-0.027517362
113	0xbca69c07	-0.020338072
114	0x3cfb4d5c	0.030676536
115	0xbe827de8	-0.25486684
116	0x3e92376a	0.28557903
117	0xbdd39d8d	-0.10332785
118	0xbeb3b471	-0.35098603
119	0x3ef357d3	0.47527942
120	0x3dd280ba	0.10278459
121	0xbfb9d9f0	-1.4519634
122	0x3d937b13	0.07201209
123	0xbef86bad	-0.4851965
124	0xbe1c0e3e	-0.15239808
125	0xbfa5f0d6	-1.2964122
126	0x3d852d1c	0.065027446
127	0x3e21bed4	0.15795451
128	0x3f4cb4c6	0.7996334
129	0xbe8bf77c	-0.27337253
130	0x3defcbcb	0.11708792
131	0xbf260d61	-0.64864165
132	0xbf4b6963	-0.7945768
133	0xbeda44d2	-0.4263063
134	0x3f2851e8	0.6574998
135	0x3ebe3760	0.37151623
136	0x3d92d074	0.071686655
137	0xbf1bede6	-0.6090988
138	0x3f3e402f	0.74316686
139	0xbf580942	-0.84389126
140	0x3ea936c8	0.33049607
141	0xbf21db0e	-0.63224876
142	0xbc0aae81	-0.008464457
143	0xbe65ef01	-0.22454454
144	0xbe846d0f	-0.25864455
145	0xbebee680	-0.37285233
146	0xbf348722	-0.70518696
147	0x3e9189b0	0.2842536
148	0x3ea696f6	0.3253705
149	0xbf15fbd8	-0.5858741
150	0xbe354823	-0.17703299
151	0x3defed5c	0.117151946
152	0xbe6203a2	-0.22071698
153	0x3e2652c8	0.16242516
154	0xbf544c36	-0.8292879
155	0xbe3028ed	-0.17203112
156	0xbe8a834c	-0.27053297
157	0x3f81fdb7	1.0155553
158	0x3ebe459e	0.3716249
159	0x3f117d22	0.5683156
160	0xbea05301	-0.31313327
161	0xbf93ce15	-1.1547266
162	0x3f705f44	0.93895364
163	0xbdc345ad	-0.09534774
164	0x3d5a8240	0.053346872
165	0x3dad4526	0.08460455
166	0xbf6cf054	-0.9255421
167	0x3e85c444	0.261263
168	0x3f884f0b	1.0649122
169	0x3e997415	0.29971376
170	0x3ea7582d	0.3268446
171	0xbeab8168	-0.33497167
172	0x3f24f904	0.6444247
173	0x3f37e6bb	0.7183644
174	0xbef9bb4f	-0.48775718
175	0xbe1f603b	-0.15564053
176	0xbe9cc153	-0.30616245
177	0x3ec4e413	0.38455257
178	0x3f4227e1	0.758421
179	0x3dbf465a	0.0933959
180	0xbe0fd091	-0.14044406
181	0xbe8b4be3	-0.27206334
182	0x3f16528d	0.5871971
183	0xbd03c5f7	-0.032171216
184	0xbf9335dd	-1.1500813
185	0xbf73aeb4	-0.9518845
186	0xbd3278e5	-0.043572325
187	0x3eb324b3	0.34988937
188	0x3f675cde	0.9037608
189	0x3eae57c9	0.3405135
190	0xbf37ab9c	-0.7174623
191	0x3fc1816a	1.5117619
192	0x3fba4786	1.4553077
193	0x3ef919bd	0.4865245
194	0xbd753fe5	-0.059875388
195	0x3dd86ffe	0.10568236
196	0x3edc0e66	0.42979735
197	0xbe178827	-0.14798032
198	0xbf2974dc	-0.6619394
199	0x3fa271fe	1.2691038
200	0xbef813e4	-0.48452675
201	0xbd3e9ab5	-0.04653426
202	0x3f12059d	0.57039815
203	0xbea411bd	-0.32044783
204	0xbce12562	-0.027483646
205	0xbf4ed69f	-0.80796236
206	0xbf46e585	-0.7769397
207	0xbf42474e	-0.7589005
208	0x3e2fc5b8	0.17165267
209	0xbed640aa	-0.4184621
210	0x3f15a576	0.584556
211	0xbfc9910d	-1.5747391
212	0xbf405fdb	-0.75146264
213	0x3eceadd4	0.40366995
214	0xbf636c7b	-0.88837403
215	0x3f92364d	1.1422821
216	0xbf0921bd	-0.53567106
217	0xbecfe8b4	-0.40607226
218	0xbe31d84c	-0.17367667
219	0xbf467668	-0.77524424
220	0x3e2d3aea	0.16917005
221	0xbf3d7308	-0.7400365
222	0xbf7bee1e	-0.98410213
223	0xbf7925e6	-0.97323453
224	0x3f33a34a	0.70171034
225	0x3f77f01d	0.9685076
226	0xbf21ed10	-0.63252354
227	0xbe987318	-0.2977531
228	0xbe8ddafa	-0.27706128
229	0xbfcc9ad3	-1.5984749
230	0x3f06c368	0.52641916
231	0x3ef5a2c4	0.47975743
232	0x3e7ce163	0.24695353
233	0xbe5e1e6f	-0.21691297
234	0xbebab12f	-0.36463305
235	0xbf850b4c	-1.0394073
236	0x3e3af497	0.18257366
237	0x3f547c0d	0.83001786
238	0xbf365afc	-0.7123258
239	0x3e9ee6cd	0.31035462
240	0xbd038cc3	-0.032116663
241	0x3eb7ba80	0.35884476
242	0xbb2df40f	-0.0026543175
243	0x3eab996d	0.33515492
244	0x3fa479ca	1.2849667
245	0xbe01e9a1	-0.12686779
246	0x3ed8baea	0.42330104
247	0xbf23f699	-0.64048153
248	0x3d8f2a1a	0.06990452
249	0x3e173f0a	0.14770141
250	0xbe9cde30	-0.30638266
251	0x3fa827cd	1.3137146
252	0x3fb4942d	1.410772
253	0x3dcdbe83	0.10046103
254	0x3f2da3d2	0.67828095
255	0xbf1f593d	-0.6224554

weight_hh_l0 f4 [108, 36]
0	0xbf94ebaa	-1.1634419
1	0x3e22ab85	0.15885742
2	0xbe78bb9a	-0.24290314
3	0x3ee1e800	0.44122314
4	0x3de8b76e	0.113631114
5	0x3e803a7f	0.2504463
6	0xbf6c5a7d	-0.92325574
7	0xbfbda171	-1.4814893
8	0xbe9e8bf4	-0.3096615
9	0xbf88b551	-1.0680333
10	0x3e495f42	0.19665244
11	0x3f320a25	0.6954673
12	0xbdc6a707	-0.09699827
13	0xbeaeb951	-0.3412576
14	0x3e7fb8d1	0.24972846
15	0xbf5d20db	-0.8637826
16	0xbefb9c35	-0.49142614
17	0xbddac3f3	-0.106819056
18	0x3f8c0731	1.0939695
19	0xbda41c19	-0.08013172
20	0xbf26a8e6	-0.6510147
21	0x3e053db4	0.13011819
22	0xbf504e93	-0.81369895
23	0xbe57dc24	-0.2108007
24	0x3fba63e3	1.4561733
25	0x3f8e0624	1.1095624
26	0xbed09273	-0.40736732
27	0x3e0fbde5	0.14037283
28	0x3d88241c	0.06647512
29	0xbee99237	-0.45619366
30	0xbde6ec34	-0.11275521
31	0xbe55b2d0	-0.20868993
32	0x3fccf291	1.6011525
33	0xbe5421fd	-0.2071609
34	0xbd3d0265	-0.04614486
35	0x3e2c1e0a	0.16808334
36	0x3ea5b88a	0.32367355
37	0xbedc097f	-0.42975995
38	0x3d9e6b1f	0.077352755
39	0x3ee1518f	0.44007537
40	0xbe2c40cc	-0.16821593
41	0xbf3342a7	-0.7002358
42	0xbf5c1d5a	-0.85982287
43	0xbd73f562	-0.059560187
44	0x3f066649	0.52499825
45	0x3f0461ba	0.5171162
46	0xbe31b923	-0.1735578
47	0xbdaef0a9	-0.08541996
48	0xbe8406b9	-0.2578638
49	0xbdb3b418	-0.087745845
50	0x3f093eac	0.53611255
51	0xbdbe050b	-0.092783056
52	0xbeb8a727	-0.36065027
53	0x3ebbbb29	0.3666623
54	0x3ed2f4d0	0.41202402
55	0xbe8269b1	-0.2547126
56	0xbf070b86	-0.5275196
57	0xbe39426d	-0.18091746
58	0xbd8408ae	-0.06446968
59	0x3e2a0e67	0.16607057
60	0x3ec4255d	0.38309756
61	0xbe9dbdb8	-0.30808806
62	0xbe1676c5	-0.14693744
63	0x3f0c3174	0.5476296
64	0xbf6be160	-0.9214077
65	0xbe0ef170	-0.13959289
66	0xbd49d3e3	-0.049274337
67	0xbdf6d24a	-0.12051828
68	0x3dc31610	0.095256925
69	0x3f0b6d82	0.5446397
70	0x3f32a9d3	0.6979038
71	0x3ef3edd2	0.4764238
72	0x3ea95084	0.3306924
73	0x3da53df3	0.080684565
74	0xbe8c2a38	-0.2737596
75	0x3efa6ed9	0.48912695
76	0xbf47c62b	-0.78036755
77	0x3f832ad7	1.0247449
78	0xbfe6d752	-1.803446
79	0xbeee6420	-0.46560764
80	0xbeffcf36	-0.49962777
81	0x3de197cb	0.1101528
82	0x3f0a4f1a	0.5402695
83	0x3dd35d61	0.10320545
84	0x3f1bfe3f	0.60934824
85	0x3ec897ec	0.39178407
86	0x3f404100	0.7509918
87	0xbfa79580	-1.3092499
88	0xbf1bdb50	-0.6088152
89	0x3dfcfd92	0.12353052
90	0xbe4d87f7	-0.20071398
91	0x3ef8f9f3	0.48628196
92	0xbf983f27	-1.1894273
93	0x3ee802c7	0.4531462
94	0xbe7898fa	-0.24277106
95	0x3f81b68d	1.0133835
96	0x3f9ce34f	1.2256869
97	0x3edec42c	0.43509042
98	0x3eb37932	0.35053402
99	0xbdb4d28b	-0.088292204
100	0xbd1510a9	-0.03639284
101	0x3ecef649	0.40422276
102	0x3e78c6d8	0.24294603
103	0xbf104c75	-0.56366664
104	0x3f5bf2f7	0.8591761
105	0xbe7cf2ca	-0.24701992
106	0x3fa4b605	1.2868048
107	0x3e733ec9	0.2375442
108	0x3ef4e546	0.47831172
109	0x3e46cdd6	0.19414458
110	0x3e059026	0.1304327
111	0xbefa7395	-0.48916307
112	0xbf715eae	-0.94285095
113	0xbba0d704	-0.0049084444
114	0x3eb771e8	0.3582909
115	0x3f39ac00	0.72528076
116	0xbf30802b	-0.6894557
117	0x3ed54816	0.4165656
118	0xbf5cb4bc	-0.8621328
119	0x3e2c7128	0.1684004
120	0xbf449bde	-0.76800334
121	0x3f06ee44	0.52707314
122	0xbe5fe4dc	-0.21864647
123	0x3f4082d4	0.7519963
124	0x3ee73990	0.45161104
125	0xbef81562	-0.48453814
126	0xbfbfb919	-1.4978362
127	0x3fd01dbf	1.6259078
128	0x3fe8151e	1.8131444
129	0xbf4cfa95	-0.8006986
130	0xbe734ab5	-0.23758967
131	0x3f4b1be6	0.79339445
132	0xbef2a982	-0.4739495
133	0x3fc0973a	1.5046151
134	0x3f1e9404	0.61944604
135	0x3e21e1fb	0.15808861
136	0x3f074c5b	0.52850884
137	0x3f10ded4	0.5659001
138	0xbec8c14b	-0.3920997
139	0x3e740342	0.23829368
140	0x3da39b1f	0.079885714
141	0x3f764dad	0.96212274
142	0x3e35c055	0.1774915
143	0xbee91d92	-0.45530373
144	0xbef11203	-0.47084054
145	0x3ed8e745	0.42363945
146	0xbed186c9	-0.40923145
147	0x3f3cc859	0.73743206
148	0xbe4e2593	-0.20131521
149	0xbfae86fc	-1.3634944
150	0x3fa6e14c	1.3037505
151	0x3f1ed284	0.6203997
152	0xbe0187bf	-0.1264944
153	0x3f07e234	0.53079534
154	0xbe5eeee9	-0.21770824
155	0xbf91245b	-1.133922
156	0x3d6878e6	0.056755923
157	0xbf561c44	-0.8363688
158	0xbe95c0b4	-0.29248583
159	0x3e101fcc	0.1407463
160	0xbe66cd7c	-0.22539324
161	0xbdb5c77e	-0.08875941
162	0xbebe410c	-0.37159002
163	0x3d004a4e	0.031320862
164	0x3f3f6ff7	0.7478022
165	0x3eca96b8	0.39568114
166	0xbebf9c91	-0.37424138
167	0x3f5d0385	0.86333495
168	0xbfdbef34	-1.7182374
169	0x3db04b5c	0.08608124
170	0x3fa3ba56	1.279124
171	0x3f8cf84f	1.1013278
172	0x3e8797ab	0.264829
173	0x3eaa2c5d	0.33236971
174	0x3e734544	0.23756891
175	0x3d5a537f	0.053302284
176	0xbdea0b66	-0.11427955
177	0x3f662f3f	0.8991584
178	0x3a80d9f9	0.0009830586
179	0x3e5e9408	0.21736157
180	0x3eae5683	0.34050378
181	0x4001c3c0	2.0275726
182	0xbfa423f0	-1.2823467
183	0x3f9b621e	1.2139318
184	0xbf16d10c	-0.5891273
185	0xbf7ec7df	-0.9952373
186	0xbe178155	-0.1479543
187	0x3f5ab2d7	0.8542914
188	0x3eca8e1a	0.3956154
189	0x3e958608	0.2920382
190	0x3dd6fd66	0.10497551
191	0xbedc344c	-0.4300865
192	0x3f2306ee	0.6368245
193	0xbf394ffa	-0.7238766
194	0xbf65b2cd	-0.89725953
195	0xbe6b9ef3	-0.23009853
196	0x3f3115ea	0.69174063
197	0xbf03b2eb	-0.5144488
198	0x3e9c4a16	0.30525273
199	0x3e5105e8	0.2041241
200	0xbf809b15	-1.0047327
201	0x3edaa98b	0.42707476
202	0x3e317271	0.17328812
203	0x3f1dd0c8	0.616467
204	0xbff4fce9	-1.9139682
205	0x3f1cc951	0.61244684
206	0x3f166ee0	0.5876293
207	0x3f447835	0.7674592
208	0x3f1edcca	0.6205565
209	0xbe913a22	-0.28364664
210	0x3f3fc58b	0.749108
211	0x3e279d11	0.1636851
212	0xbf0e325e	-0.55545604
213	0xbfc156fb	-1.5104669
214	0x3f223520	0.6336231
215	0x3d6e00bb	0.058106165
216	0xbdebbd66	-0.11510734
217	0x3dd02ab3	0.10164394
218	0xbd80e79a	-0.062941745
219	0x3f394ee0	0.7238598
220	0xbee5b579	-0.44865015
221	0x3cc3051e	0.023806151
222	0x3e91e998	0.2849853
223	0x3cce6c9d	0.025198275
224	0x3f566a31	0.83755785
225	0x3fa64490	1.2989674
226	0xbe765d28	-0.24058974
227	0xbf22d540	-0.63606644
228	0x3f5b4ca2	0.8566381
229	0x3e7ae7bd	0.24502464
230	0xbeeb6823	-0.45977888
231	0xbe624e45	-0.2210017
232	0x3fb526ae	1.4152429
233	0xbf2edf89	-0.6830984
234	0xbf474082	-0.77832806
235	0x3f7d477c	0.989372
236	0x3deb5355	0.11490504
237	0x3de1566e	0.11002813
238	0xbfab788d	-1.3396164
239	0x3e6edc9f	0.23326348
240	0x3d2397f9	0.039939854
241	0x3d8faf24	0.07015827
242	0xbd9dc0ba	-0.07702775
243	0xbe2a485d	-0.16629167
244	0xbed848a3	-0.42242917
245	0xbf167557	-0.58772796
246	0x3f97a879	1.1848289
247	0x3ccb0a95	0.02478532
248	0xbf590df6	-0.8478693
249	0x3f1b9e60	0.60788536
250	0xbe639df8	-0.22228229
251	0x3ed9e22f	0.42555377
252	0x3f208cb7	0.62714714
253	0xbe7db9dc	-0.24777931
254	0xbef46ae4	-0.477378
255	0xbe99618d	-0.29957238

bias_ih_l0 f4 [108]
0	0x3e060850	0.13089108
1	0x3ca0304e	0.019554283
2	0x3e46975e	0.1939368
3	0x3f388b47	0.7208752
4	0x3f4bb4c1	0.79572684
5	0xbe283531	-0.16426541
6	0xbea723d6	-0.32644528
7	0x3f242528	0.64119196
8	0x3e812448	0.25222993
9	0x3f296d70	0.66182613
10	0xbf0d73cb	-0.5525481
11	0x3fb05bf5	1.3778063
12	0xbd764515	-0.060124476
13	0xbee9a223	-0.45631513
14	0xbca2f71e	-0.019893225
15	0xbee857f3	-0.453796
16	0xbf506887	-0.81409496
17	0xbec12747	-0.3772528
18	0x3ee52a42	0.44758803
19	0x3de37202	0.1110573
20	0xbc05c12e	-0.008163733
21	0x3d191b9e	0.037379853
22	0xbf68883c	-0.9083288
23	0x3f16068d	0.58603746
24	0xbea0c4ff	-0.31400296
25	0x3ea88b00	0.3291855
26	0xbd5b574d	-0.053550053
27	0x3e83de4f	0.25755545
28	0x3de1de0d	0.11028681
29	0x3f0d2549	0.5513502
30	0xbe9d8f1b	-0.30773243
31	0x3f15fe52	0.58591187
32	0xbdcc68d5	-0.099809326
33	0x3e75c330	0.2400024
34	0xbec94972	-0.39313847
35	0xbf0d2ef0	-0.55149746
36	0xbecfd286	-0.40590304
37	0x3f50aa69	0.81510025
38	0x3f318612	0.693452
39	0x3e6a85c4	0.2290259
40	0xbf946141	-1.159218
41	0x3f2dbfab	0.6787059
42	0xbed65f5c	-0.41869628
43	0xbe014f32	-0.12627867
44	0xbe957cb6	-0.2919671
45	0xbe3ea4c2	-0.18617538
46	0x3f29bfe3	0.6630842
47	0xbee6d7a1	-0.45086387
48	0x3ab352a9	0.0013681251
49	0x3d2084a6	0.039189003
50	0xbed1302d	-0.40857068
51	0x3f2f3baa	0.68450415
52	0xbef152f8	-0.47133613
53	0xbf153043	-0.58276767
54	0xbd6b4bc9	-0.05744532
55	0xbeb166a0	-0.3464861
56	0x3f83672d	1.0265862
57	0xbf173e37	-0.5907931
58	0x3f7471d1	0.9548617
59	0xbd90a498	-0.07062644
60	0xbe94ca6d	-0.2906069
61	0x3ef38188	0.47559762
62	0x3eda03ec	0.42581117
63	0x3eac6a94	0.33675063
64	0x3fa1bef1	1.2636396
65	0x3ef6c625	0.48198047
66	0x3fdffd3b	1.7499155
67	0x3fd92147	1.696328
68	0x3f3de967	0.7418427
69	0x3f5cd365	0.8626006
70	0x3ea26b05	0.31722274
71	0xbd9b3838	-0.07579082
72	0x3f3435fa	0.7039486
73	0xbf24cfc8	-0.6437955
74	0xbe544c5c	-0.20732254
75	0x3e2a3bb7	0.16624342
76	0x3eb39f06	0.35082263
77	0xbf74b21e	-0.95584285
78	0xbec0e346	-0.37673396
79	0x3e801c73	0.25021705
80	0xbda8eb36	-0.08247988
81	0x3e04c4cb	0.12965696
82	0x3ea1c306	0.31594104
83	0xbe622676	-0.22084984
84	0xbf041f0a	-0.5160986
85	0x3f570a76	0.8400034
86	0x3f2a1fda	0.6645485
87	0x3d8b989e	0.06816219
88	0xbe80aa59	-0.25129965
89	0x3f02e6e3	0.51133555
90	0xbf2668d6	-0.65003717
91	0xbea159ff	-0.31513974
92	0x3fafb3bb	1.3726724
93	0x3ec13c4f	0.37741324
94	0xbee8cd60	-0.4546919
95	0x3f02f052	0.5114795
96	0xbe9745c4	-0.29545414
97	0xbd917605	-0.071025886
98	0x3eee79f0	0.46577406
99	0xbdacf0da	-0.08444376
100	0xbe89da55	-0.26924387
101	0xbef00754	-0.4688059
102	0xbf1efdfd	-0.62106305
103	0xbdb228b2	-0.08699168
104	0xbec6a58f	-0.38798186
105	0x3f2ca6f8	0.67442274
106	0x3d7fee45	0.06248309
107	0xbdd931dd	-0.10605214

bias_hh_l0 f4 [108]
0	0x3e15e808	0.14639294
1	0xbce3dae8	-0.027814344
2	0x3dedf89c	0.11619684
3	0x3f4219f6	0.75820863
4	0x3f297cd4	0.662061
5	0xbda626c4	-0.08112863
6	0xbed156b0	-0.4088645
7	0x3f33570b	0.7005469
8	0x3e8ce982	0.27521902
9	0x3efcf8f2	0.4940868
10	0xbef10e25	-0.47081104
11	0x3fbc2c74	1.4701066
12	0xbe5231a4	-0.20526749
13	0xbed208ce	-0.41022342
14	0xbe0748d9	-0.13211383
15	0xbef87268	-0.48524785
16	0xbf298818	-0.6622329
17	0xbe988c01	-0.29794315
18	0x3e902cd6	0.28159207
19	0x3e4c9c20	0.19981432
20	0xbd6e606d	-0.058197428
21	0x3dfb3418	0.122657955
22	0xbf8bff72	-1.0937331
23	0x3f47a33a	0.7798344
24	0xbea239cb	-0.31684718
25	0x3e9b7098	0.3035934
26	0xbe9837c3	-0.29730043
27	0x3ec5e067	0.38647768
28	0x3dfae9b2	0.12251605
29	0x3f49e92f	0.78871435
30	0xbeb9f61d	-0.36320582
31	0x3f18467b	0.59482545
32	0x3db1ed1b	0.086878024
33	0x3e0e3fa1	0.1389146
34	0xbe849165	-0.25892177
35	0xbf25d1d2	-0.64773285
36	0xbee82ea3	-0.4534808
37	0x3f56b35d	0.83867437
38	0x3f528910	0.8224039
39	0x3eb70eb4	0.35753405
40	0xbf861a79	-1.0476829
41	0x3f1fe76f	0.62462515
42	0xbe008e1f	-0.12554215
43	0xbe465e80	-0.19371986
44	0xbe884c4d	-0.26620713
45	0xbe5ab3fc	-0.21357721
46	0x3f044221	0.51663405
47	0xbef5644d	-0.47928086
48	0x3db50271	0.08838356
49	0xbd876c42	-0.066124454
50	0xbeddcef8	-0.43321967
51	0x3f1cd288	0.61258745
52	0xbf042d3e	-0.51631534
53	0xbf2a5b4e	-0.6654557
54	0x3d30adfc	0.043134674
55	0xbd67ce8a	-0.056593455
56	0x3f98f886	1.1950843
57	0xbf598dfc	-0.84982276
58	0x3f53ca5f	0.8273067
59	0x3ddbb798	0.10728377
60	0xbea0d70c	-0.31414068
61	0x3ee26ff2	0.44226032
62	0x3ea366b7	0.31914303
63	0x3e5c95bb	0.21541493
64	0x3f88d11e	1.0688818
65	0x3e3cc33a	0.18433848
66	0x3fd894b2	1.6920378
67	0x3fd16d07	1.6361398
68	0x3f5ffb41	0.8749276
69	0x3f65c720	0.89756966
70	0x3e846101	0.25855258
71	0xbe134a98	-0.14383924
72	0x3f656842	0.8961221
73	0xbf8a8654	-1.0822244
74	0x3ed39cc3	0.41330537
75	0xbdc63641	-0.09678317
76	0x3b6abf55	0.003581961
77	0xbe907f1b	-0.28221974
78	0xbfb09204	-1.379456
79	0x3f7013a8	0.93779993
80	0xbdcb9051	-0.099396355
81	0xbe92f50f	-0.2870259
82	0xbf15ead0	-0.5856142
83	0xbda58852	-0.08082642
84	0xbd317df6	-0.043333016
85	0x3ea106ea	0.31450588
86	0x3f57ba7d	0.84268934
87	0xbde645a5	-0.112437524
88	0xbd4c3c87	-0.04986241
89	0x3f3503f7	0.70709175
90	0xbf0e7d29	-0.5565973
91	0x3de06ab6	0.109578535
92	0x3f203812	0.62585557
93	0x3f0b2051	0.54346186
94	0xbf121741	-0.5706673
95	0x3f328c75	0.6974557
96	0x3c0fd323	0.008778366
97	0xbe0af206	-0.13568887
98	0x3ec29a82	0.38008505
99	0xbe1a9a26	-0.15097865
100	0x3e171b8a	0.14756599
101	0xbe02932a	-0.12751451
102	0xbf88b4df	-1.0680197
103	0x3f08cde4	0.53439164
104	0xbf340b3f	-0.7032966
105	0x3ec4f331	0.3846679
106	0x3f0a4b81	0.5402146
107	0x3cff7195	0.03118209

weight f4 [9, 36]
0	0xbf648cb1	-0.8927718
1	0xbe9ce107	-0.30640432
2	0xbe6074d5	-0.21919568
3	0xbed241f1	-0.41065934
4	0x3f70b68a	0.9402853
5	0xbe78a1ce	-0.24280474
6	0x3de1f1df	0.110324614
7	0x3c4553bc	0.01204389
8	0xbf84591a	-1.0339692
9	0x3f2d9b47	0.6781506
10	0xbf0025d7	-0.5005774
11	0xbf45b355	-0.77226764
12	0x3e693108	0.2277261
13	0x3e71efab	0.23626582
14	0xbe73b3fe	-0.2379913
15	0x3ee708d0	0.4512391
16	0x3c3280b1	0.01089494
17	0x3ed9298b	0.42414507
18	0xbe88add6	-0.26695126
19	0x3ec9d687	0.39421484
20	0x3f7661c7	0.96242946
21	0x3dada53d	0.08478782
22	0xbe262dba	-0.16228381
23	0xbc175615	-0.009236832
24	0xbe920d5f	-0.28525826
25	0xbc1e0f18	-0.009647153
26	0x3ecda1a4	0.40162385
27	0xbe4429dd	-0.19156595
28	0xbf5500c3	-0.8320429
29	0x3f402955	0.7506307
30	0x3e52f411	0.20600916
31	0x3e9d2468	0.30691838
32	0xbe931c8e	-0.28732723
33	0x3f2547d1	0.6456271
34	0xbf04df19	-0.5190292
35	0x3de33d6a	0.11095698
36	0x3da6d3e3	0.08145883
37	0x3e9835cd	0.29728547
38	0x3f4963a1	0.78667647
39	0x3f60246e	0.8755559
40	0x3ee922d6	0.4553439
41	0xbf6f5045	-0.93481857
42	0xbf52dd1f	-0.82368654
43	0x3e176de0	0.14788008
44	0xbe0744e2	-0.1320987
45	0xbd931e75	-0.071835436
46	0xbf072748	-0.52794313
47	0x3dfb9f24	0.12286213
48	0xbeaa5e95	-0.33275285
49	0x3f446e3a	0.7673069
50	0xbcb29003	-0.021797186
51	0x3f5b7083	0.85718554
52	0x3f0b9938	0.5453067
53	0x3e4fe60e	0.20302603
54	0xbde28f44	-0.11062482
55	0x3e83537c	0.2564963
56	0x3eabcb12	0.33553368
57	0xbdccce5e	-0.10000299
58	0x3f239f87	0.63915294
59	0x3ed2514f	0.4107766
60	0x3e944eeb	0.2896646
61	0xbeb7fb24	-0.35933793
62	0xbeb63f18	-0.35595012
63	0xbe9cadb9	-0.3060129
64	0xbe14ed51	-0.14543654
65	0x3f94bee8	1.162076
66	0x3e88c1b3	0.2671028
67	0xbd81c623	-0.0633662
68	0xbead6a2c	-0.33870065
69	0x3e9da3b0	0.30788946
70	0xbcdc76be	-0.02691209
71	0x3e9a9d89	0.30198315
72	0x3f0a3f6b	0.5400302
73	0xbf57e492	-0.84333146
74	0x3f432e4f	0.76242536
75	0xbe95cfad	-0.29260007
76	0x3feb4b10	1.8382282
77	0xbf4b7c06	-0.7948612
78	0xbf95d99a	-1.1707032
79	0x3f8ab05f	1.0835074
80	0xbf0c9eeb	-0.5492999
81	0x3d3d04ee	0.04614728
82	0xbe0267df	-0.12734936
83	0xbf4aba56	-0.79190576
84	0x3ea389be	0.31941026
85	0x3f04d8aa	0.51893103
86	0x3ecc3733	0.39885864
87	0xbeeded18	-0.4646995
88	0x3dd20d4e	0.10256444
89	0x3ee3d67b	0.44499573
90	0xbf8a1288	-1.0786905
91	0x3d9bf0f7	0.0761432
92	0x3f5e4283	0.8682024
93	0xbf18dc09	-0.59710747
94	0xbe9ccf81	-0.30627063
95	0x3ec8c657	0.3921382
96	0x3ee35f44	0.4440862
97	0xbf3c0913	-0.73451346
98	0xbe4a55c6	-0.19759282
99	0x3f3edebe	0.7455863
100	0xbf9779d6	-1.1834056
101	0x3e046e93	0.12932806
102	0xbf739b7b	-0.9515912
103	0x3f14550e	0.57942283
104	0xbf52138e	-0.8206109
105	0x3f5e428b	0.86820287
106	0xbf820318	-1.0157194
107	0x3ea88235	0.3291184
108	0x3db9d953	0.090746544
109	0xbe681405	-0.22663887
110	0xbebdd54a	-0.3707679
111	0xbefc272c	-0.49248636
112	0x3f48f082	0.78491986
113	0xbef8b3bb	-0.48574623
114	0x3e2aae8b	0.16668145
115	0x3f3b2cce	0.7311524
116	0xbeb591ca	-0.3546279
117	0xbe8463c7	-0.25857374
118	0x3e77ed26	0.24211559
119	0xbef1df9a	-0.47240907
120	0xbe4d6ed1	-0.20061804
121	0xbc2173a7	-0.009854234
122	0xbdc85dcf	-0.097835176
123	0x3e3cf868	0.18454134
124	0x3f40d3de	0.75323284
125	0x3da23ee2	0.0792215
126	0xbe74b0d3	-0.23895578
127	0x3ea4045a	0.3203457
128	0x3f2e8d17	0.68184036
129	0xbe8d9e0b	-0.2765964
130	0xbeed55a4	-0.463544
131	0x3ea017ae	0.31268066
132	0x3e95ddc4	0.29270756
133	0xbe2a2a16	-0.16617617
134	0x3ef67121	0.48133186
135	0x3d25dfcd	0.040496636
136	0xbf139ba8	-0.5765939
137	0x3eeb68b4	0.4597832
138	0xbe3f28b1	-0.18667866
139	0xbdbf7b39	-0.09349675
140	0x3ebdce94	0.3707167
141	0x3eac6448	0.3367026
142	0x3f48fa97	0.7850737
143	0x3e05800e	0.1303713
144	0xbe9c985f	-0.30585
145	0xbe701459	-0.23445262
146	0x3da5dcd0	0.08098757
147	0xbe74c71e	-0.23904082
148	0x3f9fdb5e	1.248882
149	0xbeb8c6e3	-0.3608924
150	0x3f002e6a	0.5007082
151	0x3ed38ac7	0.41316816
152	0xbea1b864	-0.3158599
153	0xbe22f938	-0.15915382
154	0xbf0839db	-0.5321328
155	0xbe1969be	-0.14981744
156	0xbf759a76	-0.95938814
157	0x3f1c21b6	0.6098894
158	0x3e54fe05	0.20800026
159	0xbdd5e6ad	-0.104443885
160	0x3f5ccf03	0.86253375
161	0x3efab875	0.48968855
162	0xbf3ba5fa	-0.73300135
163	0x3e6e478e	0.23269483
164	0x3f713ae5	0.9423049
165	0xbd1be34d	-0.038058568
166	0xbf8e609d	-1.1123234
167	0x3e910daf	0.28330752
168	0x3f0667a0	0.5250187
169	0xbd9a0813	-0.07521071
170	0xbfc60534	-1.5470338
171	0x3cd42ac1	0.025899293
172	0x3e4b7e28	0.19872344
173	0xbd3b4952	-0.04572422
174	0xbd3aa934	-0.04557152
175	0xbdac0d71	-0.08401001
176	0x3d7147d7	0.058906402
177	0x3f7883c7	0.97076076
178	0x3edecd47	0.4351599
179	0xbc5f2526	-0.013619697
180	0x3e4ad37b	0.19807236
181	0x3eed327d	0.46327582
182	0x3e94e061	0.29077438
183	0x3e682339	0.22669686
184	0x3e886fae	0.26647705
185	0xbf7dcec2	-0.9914361
186	0xbd9b8e3a	-0.07595487
187	0x3e92fb43	0.28707322
188	0x3ee46aa6	0.44612616
189	0x3e865575	0.26237074
190	0xbd8ef93b	-0.06981131
191	0xbe3ef16d	-0.18646784
192	0xbf24ef99	-0.64428097
193	0xbd5f4713	-0.05451114
194	0xbe7a6845	-0.24453838
195	0x3e90ca8d	0.28279534
196	0x3e9e28bc	0.30890453
197	0x3f7d1761	0.988638
198	0xbf09c8a3	-0.5382177
199	0x3f8824b6	1.0636203
200	0x3ce6a077	0.028152687
201	0x3ee5e37a	0.44900113
202	0x3eb1361a	0.3461159
203	0x3eeee6e3	0.46660528
204	0x3e97575b	0.29558834
205	0x3e0f1840	0.13974094
206	0xbf8056a9	-1.0026447
207	0xbe91163c	-0.28337276
208	0x3f0305ee	0.51180923
209	0x3ebc5c95	0.36789384
210	0xbf166a8b	-0.5875632
211	0xbec745e0	-0.38920498
212	0x3c506558	0.012719475
213	0x3de7dd1a	0.11321469
214	0x3efd61af	0.4948859
215	0x3dcf0fcf	0.10110437
216	0xbea4a39b	-0.3215607
217	0xbda5f8d8	-0.08104104
218	0x3f99c551	1.2013341
219	0xbec09304	-0.37612164
220	0x3ed8f47b	0.42374024
221	0xbf28955b	-0.658529
222	0x3eeb4dbc	0.45957744
223	0x3ea7c755	0.32769266
224	0x3f20f365	0.6287139
225	0xbd8a33ac	-0.06748137
226	0xbecffa1f	-0.40620515
227	0xbeefa73d	-0.4680728
228	0xbf286e7b	-0.6579358
229	0x3c811885	0.015758762
230	0xbe563500	-0.20918655
231	0xbee2a90f	-0.44269606
232	0x3f44239b	0.7661683
233	0x3e4c63bd	0.19959922
234	0x3dd907c6	0.10597186
235	0x3e40ad12	0.18816021
236	0x3f442951	0.76625544
237	0x3d35b63c	0.044363245
238	0xbf217531	-0.63069445
239	0x3f55a227	0.8345055
240	0x3d5b1c13	0.05349357
241	0xbf105e1f	-0.5639362
242	0xbf8637df	-1.04858
243	0xbd45e195	-0.048310835
244	0x3daf2605	0.085521735
245	0xbe5fbb34	-0.21848756
246	0xbe6421e4	-0.22278553
247	0xbe013945	-0.12619503
248	0xbca83ff4	-0.020538308
249	0x3e50be3a	0.20385066
250	0x3e9e1256	0.30873364
251	0xbef1b9c9	-0.47212055
252	0x3efb8e88	0.4913218
253	0xbd5ed3cf	-0.054401215
254	0x3f882069	1.0634891
255	0xbe84c93e	-0.25934786

bias f4 [9]
0	0x3f820005	1.0156256
1	0x3ee1a51d	0.44071284
2	0x3f5d635d	0.8647974
3	0x3f592e24	0.8483603
4	0x3f0f2f6a	0.55931723
5	0x3ed6d310	0.41957903
6	0x3f109379	0.56475025
7	0x3f17de5c	0.5932367
8	0x3dea84b2	0.11451091
