char_emb/code/output/model_adult_gru.pt (torch_old, 44512 bytes, 7 tensors)

weight f4 [97, 10]
0	0xbfb67c59	-1.4256698
1	0xbf3746f7	-0.7159266
2	0x3fe45de4	1.7841153
3	0x3f55586b	0.8333804
4	0xbed521ac	-0.41627252
5	0xbf89fa5e	-1.0779531
6	0x400e8366	2.22677
7	0xbef3a1a0	-0.47584248
8	0xbfc2ae5f	-1.5209464
9	0x3fecac59	1.8490096
10	0xbdc5cd62	-0.09658314
11	0xbf31bd02	-0.6942903
12	0xbf9e1b9e	-1.2352178
13	0x3ff83137	1.9390019
14	0xbfb22323	-1.3916973
15	0xbfcaa648	-1.5831995
16	0xbfda6b97	-1.7064084
17	0x3fa40a87	1.2815713
18	0x3f0c307e	0.54761493
19	0x3f27b04d	0.6550339
20	0x3ef3eb0c	0.47640264
21	0x3f0242e2	0.50883305
22	0x3ea62380	0.3244896
23	0xbda2fb7d	-0.07958124
24	0xbec8f284	-0.39247525
25	0xbf822b6b	-1.01695
26	0xbef6220d	-0.48072854
27	0x3f7a88d9	0.9786506
28	0x3fb45152	1.4087317
29	0xbf563d20	-0.8368702
30	0xbf5917e4	-0.8480208
31	0xbec54dd4	-0.3853594
32	0xc01e6c10	-2.4753456
33	0x3f5c3719	0.8602157
34	0xbf418c6a	-0.7560488
35	0xbf668b65	-0.9005645
36	0xbeabb598	-0.33536983
37	0x3fdff393	1.7496208
38	0xbf931603	-1.1491092
39	0xbe48de85	-0.19616134
40	0xbf64f366	-0.89433897
41	0xc03f2e87	-2.9872148
42	0x3ec685a4	0.38773835
43	0xbfaca2d3	-1.348719
44	0x3f97ab28	1.1849108
45	0xbf9d6d97	-1.2299069
46	0x3fa798b9	1.3093482
47	0xbcfe155c	-0.031016044
48	0xbf2a307b	-0.66480225
49	0x40376052	2.865254
50	0x3f6de79d	0.9293154
51	0xbfa4563a	-1.2838814
52	0xc05a34e2	-3.4094777
53	0xbfaf0554	-1.3673501
54	0x3ef005e1	0.46879485
55	0xc02a0406	-2.6564956
56	0xbf5789fd	-0.8419493
57	0xbe0836fc	-0.13302225
58	0xbf2bf8ac	-0.6717632
59	0x4029efd0	2.655262
60	0x3f8f2b7f	1.1185149
61	0x3f549631	0.83041674
62	0x3f76c207	0.9638981
63	0xbe25fc13	-0.1620944
64	0x404896be	3.1342006
65	0xbc9d6f48	-0.019218102
66	0xbbad6e60	-0.0052926987
67	0x3e372d23	0.17888312
68	0xbf1e7595	-0.61898166
69	0xbd0c1225	-0.03419699
70	0x40142a5d	2.3150856
71	0x3dc41ad8	0.095754325
72	0x40043ab1	2.0660822
73	0xbf9cc944	-1.2248921
74	0x3e0f778e	0.1401045
75	0x3fbfd6eb	1.4987463
76	0xbf64fec9	-0.8945127
77	0x404e36ed	3.2221024
78	0xbe79f9ec	-0.24411744
79	0xbf819374	-1.0123124
80	0xbf88ce49	-1.0687953
81	0xbd64d0a4	-0.055863038
82	0x3f8fd66e	1.1237314
83	0x3ead2926	0.33820456
84	0x3f9184e7	1.1368684
85	0xc07489d6	-3.8209128
86	0x3f79f54e	0.9763993
87	0xbf4dfbe1	-0.8046246
88	0x4002663f	2.0374906
89	0xc01d00f6	-2.4531837
90	0x3f3cab30	0.7369871
91	0x3f6a5217	0.9153151
92	0xc0043a47	-2.066057
93	0x3fbd7e42	1.4804156
94	0xbfa34803	-1.2756351
95	0xbf09bc59	-0.5380302
96	0xbe4b16b5	-0.19832881
97	0xbfa538c5	-1.290795
98	0xbfd9bfba	-1.7011635
99	0x3efe7b0f	0.4970326
100	0x403f6b14	2.9909105
101	0x3ce64527	0.028109146
102	0xbf801010	-1.0004902
103	0xbeb1908f	-0.34680602
104	0x3f9bcc81	1.2171785
105	0x3f8a8f98	1.0825071
106	0xbfb4998a	-1.4109356
107	0xc02c755c	-2.694663
108	0xbfa9af38	-1.3256598
109	0x3e5c5ec9	0.21520533
110	0xc00b89e7	-2.180292
111	0x3ef4f7c5	0.47845283
112	0x3d5ae8f1	0.053444806
113	0xc00d2ccb	-2.205859
114	0x3ed1f057	0.41003677
115	0xc036e3d2	-2.857655
116	0x402db320	2.714058
117	0x3f231053	0.63696784
118	0xbfa7a0d0	-1.3095951
119	0xbf140b51	-0.5782977
120	0xbf9ef5b4	-1.2418733
121	0x3f3a363c	0.72739005
122	0x3f3cbb7d	0.73723584
123	0xc079e121	-3.9043658
124	0xbdae9dae	-0.08526169
125	0xbf776442	-0.96637356
126	0x4008262d	2.12733
127	0xbe4e0d15	-0.20122178
128	0xbf7b29ab	-0.98110455
129	0x3fd092a5	1.6294752
130	0x3fbf6324	1.495213
131	0x4032bdd1	2.7928355
132	0xbec9c750	-0.39409876
133	0xbf9ab3b9	-1.2086097
134	0xbf88c9cb	-1.0686582
135	0xc039a0ac	-2.9004316
136	0x3f30801d	0.68945485
137	0x400dd5a8	2.2161655
138	0xbfc6f1e3	-1.5542568
139	0x3f8d692a	1.1047719
140	0x3f0cb90b	0.54969853
141	0xbe8ea09d	-0.27856913
142	0x3fa07964	1.2537045
143	0xbe81709e	-0.25281233
144	0xbf5596f3	-0.83433455
145	0xbf930590	-1.1486073
146	0xbf90630a	-1.1280224
147	0x3f937c22	1.1522257
148	0x3f924b3a	1.1429207
149	0xc055f664	-3.3431635
150	0x3fa7d190	1.3110828
151	0xbd63c479	-0.055607293
152	0xbed0654b	-0.4070228
153	0xbff6c5e5	-1.9279143
154	0xbe6fcd50	-0.23418164
155	0x3fb0ea3b	1.3821481
156	0x3fdfd71e	1.7487524
157	0x3d22b235	0.039720733
158	0x3f366014	0.71240354
159	0x3d97e87b	0.07417389
160	0x3e2bb9b5	0.1677006
161	0x3fa11412	1.258425
162	0x3dd2b167	0.10287743
163	0x3f815c5d	1.0106312
164	0x3f660d24	0.898638
165	0xbfaf985a	-1.3718369
166	0xc0235220	-2.5518875
167	0xbee34f95	-0.44396654
168	0x3f63c94b	0.88979024
169	0xbe6c60e8	-0.23083842
170	0x3d444cf4	0.04792495
171	0xbf9f996f	-1.2468699
172	0xbf6afb83	-0.91790026
173	0xbe703962	-0.2345939
174	0x3fa600f2	1.2969038
175	0x3faa0ed7	1.3285779
176	0xc028307e	-2.6279597
177	0xbd18b298	-0.037279695
178	0xc026a90c	-2.6040678
179	0xbfc8c8a4	-1.5686231
180	0xbee95968	-0.45576024
181	0x3f8b9251	1.0904027
182	0x401f6168	2.4903202
183	0xbfcd66d6	-1.6047008
184	0x3f4a3f07	0.7900242
185	0xbf259277	-0.6467661
186	0x3fb189d4	1.3870187
187	0x40012ce8	2.0183659
188	0xbebb278b	-0.36553606
189	0xbf9a8268	-1.2071047
190	0xbf2a699b	-0.6656739
191	0x3fa70bf8	1.3050528
192	0x3f9e7a71	1.2381116
193	0x3fa2f82f	1.273199
194	0x3ffbc040	1.9668045
195	0x3f866135	1.0498415
196	0xbf16e9d8	-0.5895057
197	0x3ff2b2f6	1.8960865
198	0xbdc03d0e	-0.09386645
199	0x3f5f8e02	0.8732606
200	0xbfd1ab79	-1.6380454
201	0xbf66d676	-0.9017099
202	0x3f2a3275	0.6648324
203	0x40551b39	3.3297865
204	0xbd8c2d61	-0.06844593
205	0xbf8c4254	-1.0957742
206	0xbe753932	-0.239476
207	0xbd72e152	-0.059296913
208	0xbfb55492	-1.4166434
209	0xbeb00b32	-0.3438354
210	0xbefba562	-0.49149615
211	0x4006b6ab	2.1048992
212	0x3f73b0b3	0.95191497
213	0xbc0e6dc0	-0.008693159
214	0xbf788f72	-0.9709388
215	0xbf02c53a	-0.51082194
216	0x3fdb6560	1.7140312
217	0x3deb930b	0.115026556
218	0xbec042e6	-0.3755104
219	0x3ffb38c1	1.9626695
220	0x3ee85ebc	0.45384777
221	0xbfabbe6d	-1.3417488
222	0x3fd878d7	1.6911877
223	0xbec48af3	-0.3838726
224	0x3fb855a2	1.4401133
225	0xc007709a	-2.1162477
226	0x3f0e9dc9	0.5570951
227	0x3ce2c7e3	0.027683204
228	0xbf019fd1	-0.50634485
229	0xbf918579	-1.1368858
230	0x4045602d	3.083995
231	0x3e65c266	0.22437438
232	0xbdf6f76c	-0.12058911
233	0xbf5ca6ca	-0.86192
234	0x3f9e26b3	1.235556
235	0x3ff5535c	1.9166064
236	0xbfb91653	-1.4459938
237	0xbf5c6d90	-0.8610468
238	0x3f075624	0.52865815
239	0x3ed7bd7e	0.4213676
240	0x3d87f570	0.0663861
241	0xbe3172b2	-0.17328909
242	0xbf6c82c5	-0.9238704
243	0x3fdff747	1.7497338
244	0x3f8b5646	1.0885704
245	0x3ff4266c	1.9074225
246	0xbfc4843a	-1.5352852
247	0x3f8b082e	1.0861871
248	0x3e26fe17	0.16307865
249	0xbf739d51	-0.9516192
250	0xbfa6d8b3	-1.3034881
251	0x40160667	2.3441408
252	0xbfa7bdff	-1.3104857
253	0xc0083232	-2.1280637
254	0x3fa3da7b	1.280105
255	0xbfb19db9	-1.3876258

weight_ih_l0 f4 [108, 10]
0	0xbea11f8e	-0.31469387
1	0xbf57d239	-0.8430515
2	0xbeca5344	-0.39516652
3	0x3ef46d59	0.47739676
4	0x3f71027c	0.94144416
5	0xbee9fc0b	-0.45700106
6	0xbf968c2f	-1.1761531
7	0xbffa0be4	-1.9534879
8	0xbf1e31d4	-0.6179478
9	0x3f23e6f9	0.6402431
10	0x3f68e752	0.90977967
11	0xbfb72e4d	-1.4311005
12	0x3f37bb0d	0.7176979
13	0xbf16f84d	-0.58972627
14	0x3e85de2b	0.26146063
15	0xbd853c98	-0.06505698
16	0x3f4f9f2a	0.8110224
17	0xbf1acef0	-0.6047201
18	0xbf3a0791	-0.72667795
19	0xc021aadf	-2.5260541
20	0x3f1a3a35	0.60245067
21	0x3fb6d4e4	1.4283719
22	0x3e639995	0.22226556
23	0xbf100e7a	-0.5627209
24	0xbf74d268	-0.95633554
25	0xbf07c7cf	-0.5303926
26	0xbe740f58	-0.23833978
27	0x3f77ca39	0.9679294
28	0x3fabe4d7	1.3429211
29	0xbe3ae963	-0.18253092
30	0xbf845a94	-1.0340142
31	0xbe169c34	-0.14708024
32	0x3fbb0aba	1.4612648
33	0x3fa9b9cd	1.3259827
34	0x3c3366fc	0.010949846
35	0x3f7485d3	0.955167
36	0xbfdb5cc9	-1.7137691
37	0x4014b9fc	2.3238516
38	0x3fbfd664	1.4987302
39	0x3eb260dd	0.34839526
40	0xbf92a320	-1.1456032
41	0xbfa12208	-1.258851
42	0x3dca6dcb	0.098842226
43	0xbf8da359	-1.1065475
44	0xbfd88bbe	-1.6917646
45	0xc07ac05f	-3.9179914
46	0x3e9839d5	0.29731622
47	0xbd62a95c	-0.055337295
48	0x401ce007	2.4511735
49	0xbf97fb21	-1.1873513
50	0x3f008942	0.5020944
51	0xbf4f1e73	-0.80905837
52	0xbf8b0588	-1.0861063
53	0x3fae6f5e	1.3627737
54	0x3c7da884	0.015482072
55	0xbf33df8a	-0.7026297
56	0xbfcbb5cb	-1.5914854
57	0x3f7653fb	0.96221894
58	0xbec2f9e5	-0.3808128
59	0xbe968e78	-0.2940557
60	0x3df506c5	0.11964182
61	0x3f9cc150	1.2246494
62	0x3f9b2227	1.2119797
63	0xbfc69235	-1.5513369
64	0x3fa2a8fc	1.270782
65	0xbf820c45	-1.0159994
66	0x3f2baf16	0.67064035
67	0x3f9b4cd2	1.2132819
68	0xbe02f840	-0.12790012
69	0xbda14ce0	-0.07875991
70	0xbf64e200	-0.8940735
71	0x3f3cfbd4	0.7382176
72	0x3dfff49a	0.12497826
73	0x3ee92a53	0.45540103
74	0xbf95c734	-1.1701417
75	0xbf01e9ae	-0.5074719
76	0xbee3315d	-0.443736
77	0xbef60d97	-0.48057243
78	0x3f3ae25a	0.73001635
79	0x3f6c4e6b	0.92307156
80	0xbfe0ae15	-1.7553126
81	0xbf39f749	-0.7264295
82	0x3fb356cc	1.4010863
83	0x3dc3fae0	0.09569335
84	0xbe53cbbd	-0.20683189
85	0xbf5727e3	-0.8404524
86	0xbeafdf5a	-0.3435009
87	0xbfcc9a9d	-1.5984684
88	0xbee9a7b1	-0.4563575
89	0xc01c023c	-2.4376364
90	0xbfcc36ab	-1.5954183
91	0xbe5ac860	-0.213655
92	0xbeeb4578	-0.45951438
93	0x3f26ca78	0.6515269
94	0xbf4de3db	-0.80425805
95	0xbf201db3	-0.6254532
96	0xbe4feed5	-0.20305951
97	0xbf329e20	-0.6977253
98	0x3f584220	0.844759
99	0xbf25f40c	-0.6482551
100	0x3f43ee6c	0.7653568
101	0x3eca6834	0.39532626
102	0x3f2bedb0	0.6715956
103	0x3f5f55f1	0.8724051
104	0xbf86fcb3	-1.0545868
105	0xbf5baace	-0.858075
106	0xbdf222f5	-0.11823074
107	0xbf81af44	-1.0131612
108	0xbe309a67	-0.172464
109	0xbeb32ff8	-0.34997535
110	0xbf696d75	-0.91182643
111	0xbd76217f	-0.060090538
112	0x3d98c9c8	0.07460362
113	0xbf17c242	-0.5928079
114	0x3ee18f62	0.44054705
115	0xbf225e2d	-0.6342495
116	0x3f858fdb	1.0434526
117	0xbfc94604	-1.5724492
118	0x3f75cb62	0.9601346
119	0x3fb8fd45	1.4452292
120	0x3fae3623	1.3610271
121	0xbe96ca1b	-0.2945107
122	0x3e4f1ea3	0.2022653
123	0x3e98fa4f	0.2987847
124	0xbf1d0c6e	-0.6134709
125	0x3f7984f1	0.9746848
126	0xbe81f40b	-0.25381503
127	0xbeeb9d27	-0.46018335
128	0xbd84f306	-0.064916655
129	0xbf862828	-1.0481005
130	0xbea73e54	-0.3266474
131	0x3f2b1c3d	0.66839963
132	0x3f7ffd04	0.99995446
133	0x3f99b432	1.2008116
134	0xbfa25ab1	-1.2683927
135	0xbf50b95f	-0.81532854
136	0x3fcc55f3	1.596373
137	0xbf1afd78	-0.6054301
138	0x3ffeb9c2	1.9900439
139	0x3e72544a	0.23664966
140	0xbf549123	-0.8303396
141	0x3f8bbcd2	1.0916998
142	0x3ea176d8	0.31535983
143	0xbecc5d72	-0.39915043
144	0xbe81d0a7	-0.25354502
145	0x3e954d4d	0.29160538
146	0x3f3513ad	0.7073315
147	0xbf21500c	-0.63012767
148	0xbea1587e	-0.31512827
149	0xbcf71350	-0.030160576
150	0xbf119258	-0.5686393
151	0x3f164a50	0.5870714
152	0xbeb427db	-0.35186657
153	0x3fd7b46a	1.6851933
154	0xbf9fc4fa	-1.2481987
155	0x3d830418	0.06397265
156	0xbf8c0b7e	-1.0941007
157	0xbf5861a0	-0.84523964
158	0x3fdecc9b	1.7406191
159	0xbf66b798	-0.9012389
160	0x3f72baf6	0.9481653
161	0xbfd88cb7	-1.6917943
162	0xbf80a981	-1.0051728
163	0xbf236027	-0.6381859
164	0x3fb8781f	1.4411658
165	0xbed39c5d	-0.41330233
166	0xbfae9d0a	-1.3641675
167	0xbfdb8aaf	-1.7151698
168	0x3e508e30	0.2036674
169	0xbe9ee061	-0.31030563
170	0xbf106d04	-0.56416345
171	0xbfbbd80f	-1.4675311
172	0xbf8f217c	-1.1182094
173	0xbea620a5	-0.3244678
174	0x3cf1d728	0.02952154
175	0xbef231c0	-0.4730358
176	0xbe5b91ad	-0.2144229
177	0x3ebfdcbd	0.37473097
178	0x3e7da77c	0.24770921
179	0xbf938d8f	-1.1527575
180	0xbf53a05b	-0.8266656
181	0x3f308175	0.68947536
182	0xbff35ba0	-1.9012337
183	0xbe5a3072	-0.21307543
184	0x3e8aca36	0.271074
185	0xbf4cb87c	-0.79969
186	0xbede8b22	-0.43465525
187	0xbfe20fe3	-1.7661098
188	0xbf20706a	-0.6267153
189	0x3f542a1e	0.82876766
190	0xbfcbc6dd	-1.5920063
191	0xbe2a380e	-0.16622946
192	0xbe82ba4c	-0.25532758
193	0xbedc1196	-0.42982167
194	0xbf6e89ea	-0.9317919
195	0xbf33a829	-0.7017847
196	0x3eb518dc	0.3537053
197	0x3e6c3240	0.23066044
198	0x3e896f5e	0.2684278
199	0x3f4a69fa	0.7906796
200	0x3fd467d1	1.6594182
201	0xbf699177	-0.91237587
202	0xbf5401bf	-0.82815164
203	0xbf9852f8	-1.190032
204	0x3f1de15c	0.61671996
205	0x3e40dca4	0.18834168
206	0x3f7c0acb	0.9845397
207	0xbf24a4cc	-0.6431396
208	0x3f43b9e4	0.7645552
209	0x3f8ae62a	1.085149
210	0xbfb133dd	-1.3843952
211	0x3ef04d86	0.46934146
212	0xbec7c56f	-0.39017817
213	0xbeef93bc	-0.467924
214	0xbf3c256d	-0.7349461
215	0xbf68b206	-0.9089664
216	0x3eeb25fa	0.4592741
217	0xbf85ed67	-1.0463074
218	0x3fdaa825	1.7082564
219	0xbf757e96	-0.9589628
220	0x3fa2f648	1.2731409
221	0xbf0271fe	-0.5095519
222	0xbe69403f	-0.22778414
223	0x3e0c68e3	0.13711886
224	0x3ee2cfdd	0.44299212
225	0x3efa4e4b	0.48887858
226	0xbf8782bf	-1.0586776
227	0x3f0ee3e3	0.5581648
228	0xbf26db8e	-0.65178764
229	0xbeb05d5d	-0.3444623
230	0x3f30189b	0.68787545
231	0xbf95d6b9	-1.1706153
232	0x3dedc828	0.116104424
233	0xbf2ebf75	-0.6826089
234	0xbe568867	-0.20950471
235	0xbfd1b9aa	-1.6384785
236	0x4007cc98	2.1218624
237	0xbec95dbc	-0.39329326
238	0xbf13d223	-0.5774252
239	0xbfa6fd3b	-1.304603
240	0xbe836503	-0.25663003
241	0x3f0ae135	0.5424989
242	0x3fa693e9	1.3013889
243	0x3d6fa461	0.058506373
244	0xbef580a2	-0.47949702
245	0xbf83d900	-1.0300598
246	0x3fa41efa	1.2821953
247	0xbe7c019a	-0.24609986
248	0x3fe0ca26	1.7561691
249	0x3e168b12	0.14701489
250	0x3ed5944a	0.41714698
251	0xbebe9e39	-0.3723009
252	0xbf62c658	-0.885839
253	0x3fd1635d	1.6358448
254	0xbfe8aa3d	-1.8176953
255	0xbf192123	-0.5981619

weight_hh_l0 f4 [108, 36]
0	0x3eb77841	0.35833934
1	0xbf93eeed	-1.1557289
2	0x3f358cd1	0.70917994
3	0xc022d88d	-2.5444672
4	0x3e04973f	0.12948321
5	0x3f0ac833	0.5421173
6	0x3e22033a	0.15821543
7	0xbfc794ea	-1.559232
8	0xc009a9fb	-2.1509998
9	0xc00fe51c	-2.2483587
10	0xbf842eee	-1.0326822
11	0xbf44cf2d	-0.76878625
12	0x3f3f5a0d	0.7474678
13	0x3f1a1de2	0.6020185
14	0x3feeedaf	1.8666285
15	0xbf0bba2f	-0.5458097
16	0x3f0a2f31	0.5397826
17	0x3ebbc35f	0.36672494
18	0x3cca38cc	0.024685286
19	0x3fbbe089	1.4677898
20	0x3f86ca74	1.0530534
21	0x3fc72d96	1.5560787
22	0x3f95103d	1.164558
23	0xbdeebfb8	-0.11657661
24	0xc04270bf	-3.0381315
25	0x3fde8eb7	1.7387303
26	0x3f86272a	1.0480702
27	0x3efb2562	0.49051958
28	0xbee7aa05	-0.45246902
29	0xbf3b7fd5	-0.7324193
30	0x3e3401aa	0.1757876
31	0x3e7dfcfb	0.24803536
32	0x3ece0c13	0.40243587
33	0xc0166434	-2.349866
34	0x3f2a2a22	0.6647054
35	0x3f8bd5ec	1.0924659
36	0x3eb81eeb	0.3596109
37	0x3e0504b7	0.1299008
38	0xbfab4e22	-1.3383219
39	0x3fa371b4	1.2769074
40	0xbf7001bf	-0.93752664
41	0xbf2ef240	-0.68338394
42	0x3fc48b6c	1.5355048
43	0x3f621217	0.8830885
44	0x3fb4d019	1.4126006
45	0x400d8b30	2.2116203
46	0xbfd592f3	-1.668547
47	0x40287e46	2.632707
48	0x3f2e3051	0.68042475
49	0xbed46970	-0.41486692
50	0xbea33075	-0.31872907
51	0x3f673bde	0.90325725
52	0xbe811a2c	-0.2521528
53	0xbe608600	-0.21926117
54	0x3f457a77	0.7713999
55	0xbe31420a	-0.17310348
56	0xbfd46d5a	-1.6595871
57	0x3d245466	0.04011955
58	0xbf64ac9e	-0.8932589
59	0xbf18a8bb	-0.5963246
60	0x3f96e466	1.1788452
61	0x4028da25	2.6383145
62	0xbfd6cff8	-1.6782217
63	0xbf2f3152	-0.6843463
64	0x3fc37fc9	1.5273372
65	0x3e88fddc	0.2675618
66	0xbf1555a6	-0.58333814
67	0xbf028ab6	-0.50992906
68	0xbf862ac6	-1.0481803
69	0xbe553247	-0.2081996
70	0x3f8b7f60	1.0898247
71	0xbe985099	-0.2974899
72	0xbfb189d1	-1.3870183
73	0xbf9f8d9d	-1.2465092
74	0x3efc4f36	0.49279183
75	0x3eb58204	0.35450757
76	0x3d87192d	0.06596599
77	0xbf24aed3	-0.6432926
78	0x3f38718d	0.72048265
79	0xbfa4484a	-1.2834561
80	0xbd8d6632	-0.06904258
81	0xbfa3c846	-1.2795494
82	0xbed85179	-0.4224966
83	0xbfa62384	-1.2979589
84	0xbfaddc6a	-1.358289
85	0x3e55e56b	0.20888297
86	0x3f1be209	0.6089178
87	0xbe45038c	-0.19239634
88	0x3fedbf81	1.8574067
89	0x3f2c65ec	0.6734302
90	0x3f5ed772	0.87047493
91	0xbf860497	-1.0470151
92	0x4074f379	3.8273604
93	0x3b0c7b71	0.0021435881
94	0xbde93a5c	-0.11388084
95	0xbc7b4b68	-0.0153378025
96	0xc01bcba5	-2.4343045
97	0xbf993092	-1.1967947
98	0xbf939d72	-1.1532423
99	0xbf807e0a	-1.0038464
100	0x3e36dca9	0.17857613
101	0xc01c495a	-2.441977
102	0x3fdfefe4	1.7495084
103	0xbee30a9b	-0.4434403
104	0xbf4f3356	-0.8093771
105	0xbf244ec7	-0.64182705
106	0xbf653126	-0.8952812
107	0x3d20052a	0.039067425
108	0x3f8407a7	1.0314835
109	0xbf826d41	-1.0189592
110	0x3f821858	1.0163679
111	0xbeedf5be	-0.4647655
112	0xbfc22063	-1.5166134
113	0x3f5bb5dd	0.85824376
114	0xbf6c6e54	-0.9235585
115	0x3ec735f2	0.38908345
116	0x3da2a346	0.07941298
117	0x3fc1e99a	1.5149415
118	0x400e30ec	2.221736
119	0xbf18f9ed	-0.59756356
120	0x40232a56	2.549459
121	0x3f8a65bf	1.08123
122	0x3ebc1627	0.3673565
123	0xbff346ce	-1.9005983
124	0xbff78928	-1.9338732
125	0x3fe34995	1.775683
126	0xbe279f70	-0.16369414
127	0xbf82b49f	-1.0211371
128	0xbe997275	-0.29970136
129	0x3e78d1bd	0.24298759
130	0xbe8502c2	-0.25978667
131	0xbf0afdef	-0.5429372
132	0x3fb85988	1.4402323
133	0x3ea41c66	0.32052916
134	0xbefa2d39	-0.48862627
135	0x3ed1bef9	0.40966013
136	0x3e682a3c	0.22672361
137	0xbf9bd005	-1.2172858
138	0xbf0167ce	-0.5054902
139	0xbf8475c1	-1.0348436
140	0x3f2aae7f	0.6667251
141	0x3fdb6f0a	1.7143261
142	0x3f57fed0	0.8437319
143	0x3eaa1850	0.33221674
144	0xbef35374	-0.47524607
145	0xbfc3983e	-1.5280836
146	0x3f60b506	0.8777622
147	0x3ef0bbc1	0.47018245
148	0x3e629454	0.22126895
149	0x3f737132	0.950946
150	0xbf20b09c	-0.62769485
151	0xbea90ed1	-0.33019117
152	0x3ea605a4	0.32426178
153	0xbeecf07a	-0.4627722
154	0xbf0e8f45	-0.5568736
155	0xbe1ba7ce	-0.15200731
156	0xbf53f223	-0.82791346
157	0xbfc56e5d	-1.5424305
158	0x3fc96dbb	1.5736612
159	0xbfc8f211	-1.5698873
160	0x3f024b29	0.50895935
161	0xbf1c5308	-0.61064196
162	0x3ed4fed1	0.4160066
163	0xbe486ce2	-0.19572785
164	0xbebe0c91	-0.37118962
165	0x3e62efc7	0.2216178
166	0xbf21e908	-0.632462
167	0x3e06a3ec	0.13148469
168	0xbfb26458	-1.3936872
169	0x3db2b846	0.087265536
170	0xbeffe578	-0.49979758
171	0xbf993cb3	-1.1971649
172	0xbf33bee0	-0.7021313
173	0x3f072070	0.5278387
174	0x3f21116a	0.62917197
175	0xbf92a9e9	-1.1458102
176	0xbf0a828e	-0.5410546
177	0x3f3768e5	0.7164443
178	0xbfe44aa3	-1.7835277
179	0x3e5641a2	0.20923474
180	0xbec03e71	-0.3754764
181	0xbea608e6	-0.32428664
182	0x3f1e52c4	0.6184504
183	0xbf15dcf2	-0.5854026
184	0xbe312e43	-0.17302804
185	0xbf2f5c03	-0.68499774
186	0x3f2774fa	0.6541287
187	0x3f9d00e1	1.2265893
188	0xbe214f3b	-0.1575288
189	0x3ffd95d2	1.9811347
190	0x3f139fc7	0.57665676
191	0x3f14a271	0.58060366
192	0x3f8b5a51	1.0886937
193	0x3eb8bd8c	0.36082113
194	0xbe21fc9d	-0.1581902
195	0xbf7afcf9	-0.98042256
196	0xbf978955	-1.1838785
197	0x3ebf2a54	0.3733698
198	0x3f7555b0	0.95833874
199	0x3e04da64	0.12973934
200	0xbfc91062	-1.5708125
201	0xbf13acf9	-0.5768581
202	0xbeefb213	-0.46815547
203	0xbf530f5a	-0.824453
204	0x3fd51616	1.6647365
205	0x40151cc6	2.3298812
206	0x3eb62ed6	0.35582608
207	0x3e5dfe5d	0.21679063
208	0x40195c9c	2.3962774
209	0x3f8cd0b8	1.1001196
210	0xbf3b73d0	-0.7322359
211	0xbfd10c1b	-1.6331819
212	0xbf6ac8e6	-0.91712797
213	0x3f3a7074	0.7282784
214	0x401fb262	2.4952626
215	0xbf3d318e	-0.7390374
216	0x3fac0e1a	1.3441803
217	0xbf1825f7	-0.5943293
218	0xbf28a0db	-0.65870446
219	0xbfbf96ed	-1.4967934
220	0xbfaa9d69	-1.3329288
221	0x3ea1e811	0.31622365
222	0x3f72359e	0.94613063
223	0xbf293df6	-0.6611017
224	0xbf73d47b	-0.95246094
225	0x3f4ded20	0.8043995
226	0x3f0844e8	0.5323014
227	0xbf58b917	-0.84657425
228	0xbfdf5ce3	-1.7450222
229	0xbfe3585f	-1.7761344
230	0x3f5e77f3	0.8690178
231	0xbf777096	-0.9665617
232	0x3f433845	0.76257735
233	0xbe7b45f3	-0.24538402
234	0x3f4ab7bf	0.79186624
235	0xbfb888c9	-1.4416744
236	0x3ea388bf	0.31940266
237	0x3dbf7935	0.0934929
238	0xbfaa6fd3	-1.3315376
239	0xbf832570	-1.02458
240	0x3ea9bbc8	0.33151078
241	0xbf7930a4	-0.97339845
242	0x3ea0f364	0.31435692
243	0x3e95fed9	0.29295996
244	0xbf6e5480	-0.93097687
245	0xbece2dc8	-0.40269303
246	0x3f0167a5	0.50548774
247	0xbfcdf28c	-1.6089644
248	0xbeb21e76	-0.34788865
249	0x3bbaa154	0.0056955013
250	0xbfb247c0	-1.3928146
251	0xbee70b86	-0.4512598
252	0xbf527cac	-0.82221484
253	0x3f16079e	0.5860537
254	0xbf119204	-0.5686343
255	0x3f4b7292	0.79471695

bias_ih_l0 f4 [108]
0	0xbf8b6d8d	-1.0892807
1	0x3f8aae42	1.0834429
2	0x3e70ab59	0.23502864
3	0x3ef50adf	0.47859856
4	0xbd7262dc	-0.05917631
5	0x3f43441e	0.76275814
6	0xbf8326dd	-1.0246235
7	0xbea70a7a	-0.3262518
8	0x3e6bf6df	0.23043393
9	0x3eafee31	0.34361413
10	0x3ff265bc	1.8937297
11	0x3fcfdaaa	1.6238606
12	0xbf524741	-0.82139975
13	0x3f937428	1.1519823
14	0x3f0691d7	0.52566284
15	0x3e14e087	0.14538775
16	0xbf24a00d	-0.6430672
17	0x3e5cdfcf	0.21569751
18	0x3f79ac40	0.9752846
19	0x3f291218	0.66043234
20	0xbfb40bb4	-1.4066072
21	0xbe64c137	-0.2233933
22	0xbed66b55	-0.41878763
23	0xbe37dd6c	-0.1795556
24	0x3f1387c7	0.57629055
25	0xbeee6341	-0.465601
26	0xbfbea144	-1.4892964
27	0xbf6e6d48	-0.931355
28	0xbfd0453b	-1.6271127
29	0xbe8ee975	-0.2791249
30	0x3efe278e	0.49639553
31	0xc05879cb	-3.3824337
32	0xbfdf3909	-1.7439281
33	0xbe247817	-0.16061436
34	0xbfbb62df	-1.4639548
35	0xbf83af25	-1.0287825
36	0x3f8e5999	1.1121093
37	0x3fb0e979	1.382125
38	0x3fc275c7	1.5192193
39	0x3f91a0d9	1.1377212
40	0x3f33220a	0.69973814
41	0x400c756d	2.194667
42	0x3f12d965	0.5736297
43	0x401d9bd3	2.4626358
44	0xbf35b712	-0.7098247
45	0x3f97ee8e	1.1869676
46	0xbfb3c0f9	-1.4043266
47	0x3fc6b148	1.5522852
48	0x3fcdcbc7	1.6077813
49	0x3f09e13f	0.53859323
50	0x3fe5a041	1.7939531
51	0x3f905bcf	1.1278018
52	0x3f2b8e4c	0.67014
53	0x3ec6e09c	0.38843238
54	0x3ffaa9ea	1.9583104
55	0xbf32f2bd	-0.6990164
56	0x3f8dfa4d	1.1092011
57	0x3f213e39	0.6298557
58	0x3f9005d4	1.1251779
59	0xbf80cd82	-1.0062716
60	0x3db68b1c	0.08913252
61	0x3d11710f	0.03550821
62	0x3f411068	0.7541566
63	0x3c77d424	0.015126262
64	0x3ef337b8	0.47503448
65	0xbf92f1d6	-1.1480052
66	0xbe941f63	-0.28930196
67	0x400cbba1	2.198952
68	0x3fd3701e	1.651859
69	0x3f94961d	1.1608311
70	0x3fd4653a	1.6593392
71	0x3fa069b2	1.2532256
72	0xbf5aee93	-0.85520285
73	0x40053fc3	2.0820167
74	0xbeb878c3	-0.36029634
75	0x3f379379	0.717094
76	0x3f7acc4b	0.97967976
77	0xbe93fd98	-0.28904414
78	0xbddb30e1	-0.10702682
79	0x3f8d9208	1.106019
80	0x3ee07e8d	0.4384655
81	0x3e67bf47	0.2263156
82	0xbfee8694	-1.863482
83	0x3f380083	0.7187578
84	0xbe05cd6d	-0.13066645
85	0xbf851d43	-1.0399555
86	0xbffbe3cc	-1.9678893
87	0x3eb8ac57	0.36068985
88	0xbca3fbbd	-0.0200175
89	0xbfbd2c9d	-1.477924
90	0x3fe64c5b	1.7992052
91	0xbe71c34c	-0.23609656
92	0xbf3fb2c5	-0.74882156
93	0xbfeab9be	-1.8337934
94	0xbf4dfaf5	-0.80461055
95	0xbdc20f6e	-0.09475599
96	0xbe6c465b	-0.23073713
97	0x3fb58ed2	1.418421
98	0xbe00f922	-0.12595037
99	0x3f86ee5d	1.0541493
100	0x3eaa09dd	0.3321065
101	0x3f896a67	1.0735596
102	0xbe8caa1c	-0.27473533
103	0x3f1d2e3d	0.6139868
104	0xbf235bd6	-0.63812006
105	0x3f31f2d1	0.69511133
106	0xbeafa1bf	-0.3430309
107	0x3f45d24e	0.77274024

bias_hh_l0 f4 [108]
0	0xbf985651	-1.1901342
1	0x3f6aa9d3	0.9166538
2	0x3eb3f06d	0.35144368
3	0x3eb3bb60	0.35103893
4	0x3e492eb8	0.19646728
5	0x3f266708	0.65000963
6	0xbf84fbc9	-1.0389339
7	0xbe5937d8	-0.21212709
8	0x3ecf26db	0.40459332
9	0x3ef84943	0.48493394
10	0x3ff9e772	1.9523757
11	0x3fd7aeec	1.6850257
12	0xbf3219a7	-0.6957039
13	0x3fa63aed	1.2986733
14	0x3f16c601	0.5889588
15	0x3d242923	0.040078294
16	0xbf5d80c3	-0.865246
17	0x3e462e14	0.19353515
18	0x3f54b85c	0.8309381
19	0x3f5fb80e	0.8739022
20	0xbf96aa44	-1.1770711
21	0xbe5f2160	-0.21790075
22	0xbe713acb	-0.23557584
23	0xbe37ad1c	-0.1793713
24	0x3f0c9efb	0.54930085
25	0xbec53c1e	-0.38522428
26	0xbfafa668	-1.3722658
27	0xbf7d92c1	-0.99052054
28	0xbfdc556b	-1.7213567
29	0xbee696bc	-0.45036876
30	0x3f13f20b	0.57791203
31	0xc05c38c1	-3.440964
32	0xbff6ab5b	-1.9271044
33	0xbeba5048	-0.36389375
34	0xbfbe8c67	-1.4886597
35	0xbf990254	-1.1953835
36	0x3f8f2b7d	1.1185147
37	0x3fa2f993	1.2732414
38	0x3fa2dbb0	1.2723293
39	0x3f8b9f3f	1.0907973
40	0x3f331a3a	0.69961894
41	0x400a19c4	2.1578226
42	0x3f2ba4db	0.67048424
43	0x40295a2f	2.6461294
44	0xbf3c3044	-0.7351115
45	0x3f98485d	1.1897084
46	0xbf90a38d	-1.1299912
47	0x3fc80e4e	1.5629365
48	0x3fdc2b3c	1.7200694
49	0x3ee5dd7f	0.4489555
50	0x3fefc7bd	1.873283
51	0x3f858947	1.0432519
52	0x3f16d122	0.5891286
53	0x3e90ebd7	0.28304932
54	0x4002b954	2.0425615
55	0xbf186259	-0.59525067
56	0x3f7f26a5	0.9966834
57	0x3f31984a	0.69373
58	0x3f798ef8	0.9748378
59	0xbf3c2149	-0.7348829
60	0x3e1d47d2	0.15359429
61	0xbd725307	-0.059161212
62	0x3f591a92	0.8480617
63	0xbe2f5843	-0.17123513
64	0x3e9b5fab	0.30346426
65	0xbf99fe31	-1.2030698
66	0xbf09fd8d	-0.5390251
67	0x400a15b5	2.157575
68	0x3fcf21e3	1.6182216
69	0x3f974e62	1.1820796
70	0x3fd4bd8e	1.6620347
71	0x3fa5672a	1.2922108
72	0xbf167908	-0.5877843
73	0x3fa199a2	1.262501
74	0x3f69957b	0.91243714
75	0x3f8a7c4a	1.081918
76	0xbea94c62	-0.33066088
77	0xbdaf12a8	-0.0854848
78	0xbd92548d	-0.07145033
79	0x3f2c2981	0.6725083
80	0x3fb77c38	1.4334784
81	0x3e22d282	0.15900615
82	0xbf6a8f3c	-0.9162481
83	0x4014f9ca	2.327746
84	0xbc1a52fc	-0.009419199
85	0xbf282122	-0.65675557
86	0xc009fcc9	-2.1560538
87	0xbe6f2094	-0.23352271
88	0x3fb2f705	1.3981634
89	0xbf7a76a7	-0.978373
90	0x3fd1a296	1.6377742
91	0x3e65db4c	0.22446936
92	0xbf26af53	-0.65111274
93	0xbf8322c9	-1.024499
94	0xbfee81bd	-1.8633343
95	0xbf2df340	-0.67949295
96	0x403e9ff1	2.978512
97	0x3f6d5fc3	0.92724246
98	0x3f17cbe3	0.5929548
99	0xbc1b986d	-0.00949679
100	0xbdd44008	-0.103637755
101	0xbd7a00a4	-0.061035767
102	0xbf06e96d	-0.5269993
103	0x3c1191b7	0.008884839
104	0xbeb34adf	-0.3501806
105	0xbe9d594e	-0.30732197
106	0x3d968451	0.07349456
107	0x3d8d3000	0.06893921

weight f4 [18, 36]
0	0x3f4e73c1	0.80645376
1	0xbf997893	-1.1989921
2	0xbee7e240	-0.45289803
3	0xbfdd4ccc	-1.7289062
4	0x3f40e774	0.7535317
5	0xbd587e00	-0.052854538
6	0xbf80afa3	-1.00536
7	0xbfd6c6d4	-1.6779428
8	0xbf197de5	-0.59957725
9	0xbe3ca5e7	-0.18422662
10	0x3fa24b97	1.2679318
11	0xbe4fdf4e	-0.20300028
12	0xbf30a626	-0.6900352
13	0x3e2e858d	0.17043133
14	0x3f620505	0.8828891
15	0xbf6a50e6	-0.9152969
16	0xbfbb62b0	-1.4639492
17	0x3f3b33c3	0.7312586
18	0x3c3e7f8f	0.011627092
19	0xbfa2207c	-1.2666163
20	0xbf4af5f9	-0.79281574
21	0x3fcc8531	1.5978147
22	0xbefba134	-0.49146426
23	0xc0274407	-2.613527
24	0xbfa05af6	-1.2527759
25	0xbf93fd7f	-1.1561736
26	0xbeae4a32	-0.34040982
27	0x3e6e0297	0.23243175
28	0x3dd8137c	0.10550591
29	0x3e1d870c	0.15383548
30	0xbe0d6977	-0.13809763
31	0xbebb898d	-0.3662838
32	0x403796be	2.8685756
33	0xbf3c9d71	-0.73677737
34	0xbe44726e	-0.19184276
35	0x3e886674	0.26640666
36	0x3f03bec6	0.5146297
37	0xbef99b06	-0.48751086
38	0x3d2f711a	0.04283247
39	0xc0182447	-2.3772142
40	0x3dd50f73	0.10403337
41	0x3f66a184	0.90090203
42	0xbe90ff37	-0.28319713
43	0xc0133ee3	-2.3007133
44	0xbfe8e228	-1.8194017
45	0xbed5ad53	-0.41733798
46	0x3f7b78ce	0.9823121
47	0xbf2e9e9d	-0.68210775
48	0x3f633e7e	0.8876723
49	0x3ed00468	0.40628362
50	0x3fd411f3	1.6567978
51	0xbfb4c817	-1.4123563
52	0xbfa90136	-1.3203495
53	0x3f8cb7f7	1.0993642
54	0x3f15883d	0.5841101
55	0xbc63ea24	-0.013910804
56	0xbf77f5e8	-0.968596
57	0x3ff7460c	1.9318252
58	0x3e710adf	0.23539303
59	0xc009e514	-2.1546068
60	0x3e31d6db	0.17367117
61	0xbf81ff21	-1.0155984
62	0xbe9864c9	-0.29764393
63	0xbf671867	-0.9027161
64	0x3e868f4f	0.2628121
65	0x3e26eb42	0.16300681
66	0x3ca1bd22	0.019743506
67	0x3f22589c	0.6341646
68	0x402daeb8	2.713789
69	0xbf09571b	-0.5364854
70	0xbf0677fa	-0.5252682
71	0xbf011295	-0.5041898
72	0x3f16bb11	0.5887919
73	0xbf46851c	-0.7754686
74	0xbd8f9f31	-0.07012785
75	0xbfa4d335	-1.2876955
76	0x3f1fe0c4	0.6245234
77	0x3f38cf58	0.7219138
78	0xbf63c3ff	-0.8897094
79	0xc01ea520	-2.4788284
80	0xbfa40c25	-1.2816206
81	0xbf3c7bb0	-0.7362623
82	0x3f891edf	1.0712546
83	0xbf1e7960	-0.61903954
84	0x3f7b1ecc	0.9809387
85	0x3d98a244	0.07452825
86	0x3f9e1904	1.2351384
87	0xbfec110d	-1.8442703
88	0xbf512e50	-0.8171129
89	0x3f314de3	0.6925947
90	0x3d45544c	0.048176095
91	0xbf419f28	-0.7563348
92	0xbe87c568	-0.26517797
93	0x3fb3e122	1.405308
94	0xbcd2a2ef	-0.025712458
95	0xc0282ea8	-2.6278477
96	0xbf8ecb4f	-1.1155795
97	0xbf7a08ce	-0.97669685
98	0xbdbf89d5	-0.09352461
99	0xbf0b555e	-0.54427135
100	0x3f1761ec	0.5913379
101	0x3ed5f689	0.41789654
102	0xbd02e0af	-0.031952556
103	0x3f319186	0.69362676
104	0x40638410	3.5549355
105	0xbdc85bb9	-0.0978312
106	0xbf8e02b9	-1.1094581
107	0xbf0ed315	-0.55790836
108	0x3ef9987c	0.4874915
109	0xbfdc0f1c	-1.7192111
110	0xbe9a1353	-0.30092868
111	0xbf6b0abb	-0.9181325
112	0x3f257cea	0.6464373
113	0x3fb1fe40	1.3905716
114	0xbe87c97c	-0.26520908
115	0xbff0cf17	-1.8813199
116	0xbfd991d1	-1.6997625
117	0xbe94a384	-0.29031003
118	0x3f99a051	1.200205
119	0xbf1681b6	-0.58791673
120	0xbebfa4e4	-0.3743049
121	0xbc672fb9	-0.014110499
122	0x3f47be89	0.7802511
123	0xbfa96bcb	-1.3236021
124	0xbfef04cf	-1.8673342
125	0x3f46eb3e	0.777027
126	0x3f11c6fe	0.56944263
127	0x3e0eb0ec	0.13934678
128	0xbdeed11c	-0.11660978
129	0x3f96fa5d	1.1795155
130	0x3e7a20f8	0.24426639
131	0xbfe350ff	-1.7759093
132	0xbe6bc966	-0.23026046
133	0xbf61d47b	-0.88214844
134	0xbdee9f58	-0.11651486
135	0xbeefb7ab	-0.46819815
136	0x3f530983	0.8243639
137	0x3f3f29f5	0.74673396
138	0x3eaa7178	0.33289695
139	0x3f185d16	0.5951704
140	0x3eb39bf5	0.35079923
141	0xbcb03fda	-0.021514822
142	0x3dcc516e	0.09976469
143	0xbf1a61fc	-0.6030576
144	0x3f482267	0.78177494
145	0xbf3cb5b7	-0.73714775
146	0x3e70fbbd	0.2353353
147	0xbf5ff362	-0.8748075
148	0x3c46305e	0.012096493
149	0x3cd1bae4	0.025601812
150	0xbf95d690	-1.1706104
151	0xc000bde1	-2.0115893
152	0xbf8c991b	-1.0984224
153	0xbe4e0445	-0.20118816
154	0x3f9ae0ef	1.2099894
155	0xbed4c4e7	-0.41556475
156	0x3f1d3048	0.61401796
157	0xbdd3091a	-0.1030447
158	0x3f9f6971	1.2454053
159	0xbfadf009	-1.3588878
160	0xbffaa856	-1.9582622
161	0x3f367271	0.71268374
162	0xbcbf37f6	-0.023342114
163	0xbf4da481	-0.8032914
164	0xbe6a8757	-0.2290319
165	0x3f6132c7	0.87968105
166	0xbe5f8548	-0.21828187
167	0xbff4ed35	-1.913489
168	0xbf1666fb	-0.58750886
169	0xbf027987	-0.50966686
170	0xbdc0515e	-0.093905196
171	0x3e8bb4fa	0.27286512
172	0x3dd49d79	0.10381598
173	0x3efed411	0.4977117
174	0x3ed4a5e2	0.4153281
175	0x3b7a2e79	0.0038174673
176	0x4075cc2a	3.8405862
177	0xbe358a1d	-0.17728467
178	0xbf12ec9c	-0.5739229
179	0xbf044ae0	-0.5167675
180	0x3f732c71	0.9498969
181	0xbfb381c3	-1.4023975
182	0x3dd8b09e	0.10580562
183	0xbf5e245a	-0.8677422
184	0x3f175312	0.5911113
185	0x3fa1a446	1.2628257
186	0xbf80f5fe	-1.0075071
187	0xc014b63a	-2.3236222
188	0xbf432903	-0.76234454
189	0x3e7ae43d	0.24501128
190	0x3fc5347b	1.5406641
191	0xbea9cfcc	-0.3316635
192	0x3f89df87	1.077134
193	0x3e79713a	0.24359599
194	0x3f736ac7	0.95084804
195	0xbf483f7f	-0.7822189
196	0xbfc91b38	-1.5711432
197	0x3f9eada9	1.2396747
198	0x3f0bd1eb	0.54617184
199	0xbec51079	-0.3848913
200	0xbf4b210c	-0.793473
201	0x3fbea2d5	1.4893442
202	0xbd8d0eae	-0.068875656
203	0xc0408702	-3.0082402
204	0xbe790235	-0.24317248
205	0xbf7460af	-0.9546003
206	0xbf276c33	-0.65399474
207	0xbe94a5f6	-0.29032868
208	0x3ed1b81d	0.4096078
209	0x3eab5655	0.33464304
210	0xbdebfe0b	-0.11523064
211	0x3e3a71ee	0.18207523
212	0x405f5d0b	3.490054
213	0xbedc7dcb	-0.43064722
214	0x3dbbfa84	0.091786414
215	0xbfa29937	-1.2703007
216	0x3e95c9d0	0.29255533
217	0xbe435444	-0.19075114
218	0xbdfe4c9b	-0.12416955
219	0xbfcc8b23	-1.5979961
220	0x3f088544	0.5332835
221	0x3f57852a	0.8418757
222	0xbe5ae252	-0.21375397
223	0xc0220828	-2.5317478
224	0xbf47bad6	-0.78019464
225	0x3e369ab3	0.1783245
226	0x3fad5fc6	1.3544853
227	0xbf08f440	-0.53497696
228	0x3eaab790	0.33343172
229	0x3ecbb947	0.39789793
230	0x3f99f092	1.2026541
231	0xbf63e33d	-0.89018613
232	0xbffc9780	-1.9733734
233	0x3fdd1d53	1.7274574
234	0x3e05f3c3	0.13081269
235	0xbe0ee53a	-0.1395463
236	0xbf93a64e	-1.1535127
237	0x3f32e6db	0.6988351
238	0xbeebe0ff	-0.46070096
239	0xc008b6d5	-2.1361592
240	0xbef4dc4a	-0.47824317
241	0xbf4fd2e4	-0.8118117
242	0xbf02c59e	-0.5108279
243	0xbee6a530	-0.45047903
244	0x3ecbf6a9	0.39836624
245	0xbe180f10	-0.14849496
246	0x3e4947fd	0.19656368
247	0x3f0ea526	0.55720747
248	0x404bc486	3.1838698
249	0xbe814bab	-0.25253043
250	0xbe7c6766	-0.24648818
251	0xbfad634c	-1.3545928
252	0x3f8ab20b	1.0835584
253	0xbfa8cc0c	-1.318727
254	0x3d6c6890	0.057716906
255	0xbfa48017	-1.285159

bias f4 [18]
0	0xc0879f8d	-4.2382264
1	0xc04e2439	-3.2209609
2	0xc04dd14c	-3.2158995
3	0xc08c148a	-4.377507
4	0xc088abf5	-4.270991
5	0xc05cf2e2	-3.4523244
6	0xc056994b	-3.3531063
7	0xc0815ce9	-4.0425916
8	0xc0761de0	-3.8455734
9	0xc07be0e5	-3.9356015
10	0xc06114a2	-3.5168843
11	0xc052c441	-3.2932284
12	0xc075d31b	-3.8410099
13	0xc0564f48	-3.348589
14	0xc0968be4	-4.7045765
15	0xc06af8ab	-3.6714275
16	0xc080e26b	-4.027639
17	0xc0845e4e	-4.136512
