char_emb/code/output/model_child_gru_64.pt (torch_old, 255447 bytes, 7 tensors)

weight f4 [38, 20]
000000 4b ca 99 3f e7 86 7e bf 08 de a5 bf 2d e6 a7 3f
       1.201486 -0.99424595 -1.2958384 1.3117119
000010 7a 95 b8 be 61 e4 32 bf 70 70 99 be 78 c7 37 3f
       -0.36051542 -0.6987973 -0.29968596 0.7178874
000020 ed d2 fc 3d 4c 7c a9 bf 8f 88 66 3f 0b 87 c1 3f
       0.123449184 -1.3241057 0.9005212 1.5119337
000030 a7 87 8a bd 9c 67 7c 3f af 62 86 bf ef 01 c3 bf
       -0.06764155 0.98595595 -1.0498866 -1.5234965
000040 c6 75 27 bf 6f 34 2d bd 92 04 c5 bd a6 95 29 3f
       -0.65414083 -0.042286333 -0.09620012 0.6624397
000050 14 8b 4f bf ee fb 8a 3f 9e 42 e2 3f df 9f db 3d
       -0.8107159 1.0858133 1.767658 0.10723852
000060 56 24 bf bf 69 cf 07 3f db 61 9e 3e 63 c7 07 3e
       -1.4932964 0.5305086 0.30934033 0.13259654
000070 fa 9a 78 bf 96 28 68 bf 13 22 02 bf 77 3e 15 be
       -0.97111475 -0.9068693 -0.50833243 -0.1457461
000080 68 7b 00 3e 0a 11 19 3f 3b bb 3b 3e f9 85 f1 3d
       0.12547076 0.59791625 0.18333142 0.117931314
000090 88 0b 51 3f a8 0e 02 40 5b 31 93 bf e9 c9 8b bf
       0.8165822 2.0321445 -1.1499437 -1.0920993
0000a0 c8 4c 57 3f c0 97 90 3e 27 0e cd 3f 33 85 e3 3f
       0.84101534 0.28240776 1.6019944 1.7775024
0000b0 32 80 a2 bf fb 07 b6 3f 96 5c b6 3f a7 c6 fe be
       -1.2695372 1.4221185 1.4247005 -0.49760935
0000c0 9c a4 7c be 66 23 6b be 02 cb 26 40 d1 b7 29 be
       -0.24672168 -0.22962722 2.6061406 -0.16574027
0000d0 ce f5 12 bf 31 61 06 3f a1 38 8e 3f 68 ec 57 be
       -0.5740632 0.5249205 1.1111032 -0.21086276
0000e0 ae 31 04 bf 47 20 87 bf c4 87 85 bf e8 af a5 bf
       -0.51638305 -1.0556725 -1.0432057 -1.2944307
0000f0 92 51 ff 3d 86 ef 0d 40 e3 ad a6 3f a5 07 71 3d
       0.1246673 2.2177444 1.3021816 0.05884518
000100 aa 1a 98 3f 75 44 a1 3e 89 5e ca 3d 86 e3 03 bf
       1.1883137 0.3149754 0.098813124 -0.5151905
000110 8c d6 4a 3f ac 61 b6 3f 32 d3 38 3e 7c 1d 81 be
       0.7923362 1.4248557 0.18049315 -0.25217807
000120 e7 e5 02 3e 50 c8 a1 bf 39 1e ce bf 04 e9 ac be
       0.12783013 -1.2639256 -1.6102973 -0.33771527
000130 8d 1b 66 bf b5 63 14 be 4b 63 fb 3f b6 67 1e c0
       -0.8988579 -0.1449116 1.9639677 -2.47508
000140 b1 2d ac be e9 07 95 be e2 64 bd bf ef 1d 0f 3f
       -0.3362861 -0.29107597 -1.4796412 0.5590505
000150 d1 3a 16 be c5 1f 43 c0 49 69 ab 3f 5f 68 49 bf
       -0.14670874 -3.048814 1.3391505 -0.7867488
000160 18 fb 0c 3f f6 1d 8b bf 79 7c 95 bf db e8 98 3e
       0.5507064 -1.0868518 -1.1678611 0.29865155
000170 2a ec c7 3f 34 44 0c c0 96 f7 c0 3f fb 64 ad bd
       1.5618947 -2.1916628 1.5075557 -0.08466526
000180 b6 26 06 c0 9b bb 89 bf 84 5d 26 bf 22 52 9a 3f
       -2.0961127 -1.0760378 -0.64986444 1.2056315
000190 45 de e6 bf 81 2a a1 be c1 cd ab 3e 8b b1 6e 3e
       -1.8036581 -0.3147774 0.33555415 0.23309915
0001a0 9b f1 38 3f f6 28 54 3f 3e bf da be f0 93 ad 3c
       0.7224366 0.82875 -0.4272403 0.021188706
0001b0 c9 45 c4 be 1b 71 87 bf 9f 54 38 3e 88 b8 48 3f
       -0.38334492 -1.0581392 0.1800103 0.7840657
0001c0 bd 9e 6d be 4f b7 80 3e 71 bf ca 3f d3 32 d9 bf
       -0.23205085 0.25139853 1.5839673 -1.6968635
0001d0 b4 db 03 3f c6 2a b7 3f ca 3a 98 be 8e be cf be
       0.51507115 1.4309928 -0.29732352 -0.4057507
0001e0 12 82 96 3f 76 7f b4 bf 0f 15 d3 be 60 8c ce 3e
       1.1758444 -1.4101398 -0.41227004 0.40341473
0001f0 9f b0 44 40 c1 65 c9 bd f6 bd dc 3f 65 46 7d be
       3.07328 -0.09833861 1.7245471 -0.24733885
000200 25 44 18 bf 8a b3 2f 3f 58 46 03 40 35 78 c4 3e
       -0.5947898 0.6863333 2.0511684 0.3837296
000210 30 49 4e 3e 11 07 8f be 6d 86 b1 bf 67 e6 bf be
       0.20145106 -0.2793508 -1.3869148 -0.3748047
000220 dc d6 d3 3e ee 49 c3 3f 5a 31 b1 3f 0d d5 94 3f
       0.41374862 1.5256937 1.3843186 1.1627518
000230 0c dd 19 3e 63 d4 04 c0 6b 86 c4 3f 08 d7 bd 3f
       0.15025729 -2.075463 1.5353521 1.4831247
000240 07 df 9d be a0 bd e4 3f 27 27 db bf f7 56 4f be
       -0.3083422 1.7870369 -1.7121323 -0.20248018
000250 60 13 bc 3f ac 08 3f bf e0 8a 58 be 39 3b 65 bf
       1.4693413 -0.7462261 -0.21146727 -0.8954349
000260 50 b4 96 3f 23 ec 59 bf 94 17 cb 3e 3f 02 be 3f
       1.1773777 -0.8512594 0.39666426 1.4844435
000270 41 ba f7 bd ea b1 9f be fc 58 d6 bf de 7b 62 bf
       -0.12096072 -0.31190425 -1.6745906 -0.88470256
000280 67 ff 88 3f e6 c5 10 40 16 04 99 3f e7 b7 1f 3f
       1.0702943 2.2620788 1.1954372 0.6238999
000290 8f 16 cd bf e4 d4 0d 40 cf c5 1f be 0f e1 93 be
       -1.6022509 2.2161188 -0.15602802 -0.28882644
0002a0 fe 52 89 3f 8c b9 c8 3e 33 71 9a 3d ba 39 df bd
       1.0728452 0.3920406 0.07541122 -0.10899682
0002b0 a4 7e 1d 3f 32 67 2f 3f 06 7f 17 bf 2a 34 c0 bf
       0.61521363 0.6851684 -0.591782 -1.5015919
0002c0 24 04 02 c0 4c 76 0f 3f ad 76 13 3f 7e 80 8d bd
       -2.0315027 0.5603988 0.5760296 -0.069092736
0002d0 38 da b3 bf e2 42 ef bf 5c e1 a1 be c5 de 87 be
       -1.405097 -1.8692286 -0.31617248 -0.26537147
0002e0 af 0d f4 3f f9 fd 6f bf d2 d8 8a bf 28 df e2 3e
       1.9066676 -0.93746907 -1.0847418 0.4431088
0002f0 e3 0d de 3f cc 6e 77 3f b1 b3 cd 3d 4a cf a1 bf
       1.7347988 0.9665344 0.10044039 -1.2641385
000300 cf 58 fe 3e 6f 93 a9 be 96 2e 2d be d4 bd b6 bf
       0.4967713 -0.33120295 -0.16912302 -1.4276681
000310 c1 22 f7 be a8 e4 0d 3f 4f 92 70 bf 4f f4 cb 3e
       -0.48268703 0.55427027 -0.9397325 0.3983483
000320 8e cc cc bf 77 d2 0e bf b5 a3 6e 3e b5 17 0c 3d
       -1.5999925 -0.55789894 0.23304637 0.034202296
000330 ff a6 d0 3f aa b8 f7 be 6b fc a2 3f a4 56 9d 3f
       1.6300963 -0.48383075 1.2733282 1.2292066
000340 f8 b4 b8 bf 6d f7 33 3f 44 a0 af 3f 8f 63 40 bf
       -1.4430227 0.70299417 1.3720784 -0.75151914
000350 35 3c c7 3f 3c fd 86 3f c3 72 48 bf 4a ba 7a 3f
       1.5565249 1.0546031 -0.7830011 0.97940505
000360 9a f0 1a 40 2c 9d 07 3f 56 7b 11 c0 62 fa 88 bf
       2.4209352 0.529742 -2.2731528 -1.0701411
000370 76 91 36 3f 11 2d bc bf ef 9d 96 3f 45 15 c8 be
       0.71315706 -1.4701253 1.1766948 -0.39078727
000380 47 d1 9b 3f 4d 77 08 40 8f ba a1 be fd 37 62 3e
       1.2173241 2.1322815 -0.31587645 0.2209167
000390 77 a9 1d bf a1 af 86 3f 87 38 11 40 50 20 a4 be
       -0.6158671 1.0522348 2.2690752 -0.32055902
0003a0 86 52 c5 3f 6d ca d4 3e cf 0a d2 3f a7 d1 8e 3f
       1.5415809 0.4156069 1.6409549 1.1157731
0003b0 87 d1 45 bf 1e 4f b4 3f 58 bd 1a 3e 05 f5 8b bd
       -0.7727284 1.4086645 0.15111291 -0.06833843
0003c0 ab af c4 bf db 5e a3 3e 8d 8e e4 3f ec d7 38 bf
       -1.536611 0.31908306 1.7856003 -0.7220447
0003d0 6c 0c 3a bf 9a ca 78 bf 2c 70 95 3f 52 43 2b 3f
       -0.72675204 -0.97184145 1.1674857 0.668996
0003e0 8c b9 4d bf 8a 40 f3 bf 5d c0 1c 3e d9 22 22 bf
       -0.8036125 -1.9004071 0.15307756 -0.63334423
0003f0 9d 37 8b 3c e9 3d a1 bf 80 d0 ab bf 51 ed 33 3e
       0.016994292 -1.2597018 -1.3423004 0.17570998

weight_ih_l0 f4 [384, 20]
000000 e6 e7 93 be 37 6f b1 3d 1a 1d b7 3e 5c b4 c1 be
       -0.28887862 0.08663791 0.3576439 -0.37832916
000010 37 ad 93 bd 08 e9 5c be d2 b1 03 bf 11 77 bf 3e
       -0.072107725 -0.2157327 -0.5144321 0.37395528
000020 5f e6 b8 3e 9e 5d 0b 3f 25 e0 0c bf 4c af d4 be
       0.3611326 0.54439723 -0.5502952 -0.4153999
000030 bf ca 07 be db 5f 41 3e 43 8a 0b bc c2 fc 22 3e
       -0.13260935 0.18884222 -0.008516851 0.15916732
000040 ee f2 25 be 1d 2e 20 bd 19 58 03 3f 32 7d 98 be
       -0.16205952 -0.039106477 0.513063 -0.29783016
000050 81 01 99 3d 5b 9c bf be ac b4 52 be 18 b2 d5 3e
       0.0747099 -0.37423977 -0.20576733 0.41737437
000060 32 39 33 bd fc cd c8 be c7 78 91 bd f1 02 7a 3e
       -0.043755718 -0.39219654 -0.071031146 0.24415185
000070 39 d2 57 bc 12 44 87 bc d6 37 d5 bd 2c 35 27 be
       -0.01317268 -0.01651195 -0.104110405 -0.16328877
000080 d1 ef a7 3d b7 f2 b2 be 39 91 88 bc 3f c7 7f 3e
       0.08200038 -0.34950802 -0.01667081 0.2497835
000090 3f 2b 89 be 29 2d 60 bd 1b 80 b1 be 77 68 9b 3d
       -0.26790807 -0.054730568 -0.3466805 0.075882845
0000a0 4f 9a 54 3d 42 ef b9 be 94 42 b6 3d 01 8d 10 3d
       0.051904973 -0.36315352 0.088994175 0.03529072
0000b0 b4 ee 01 be 98 04 b6 3e 58 10 ad 3e a9 84 27 be
       -0.12688714 0.3555038 0.33801532 -0.163592
0000c0 83 c7 30 be 62 c0 1b bf 4f 28 ba 3e 08 b3 a5 3e
       -0.17263608 -0.6084043 0.36358878 0.32363153
0000d0 5d 1c fe 3d 46 28 4a ba f5 6c 0f be a5 e6 75 bd
       0.124077536 -0.00077116897 -0.14006408 -0.060034413
0000e0 91 66 96 3e aa c7 54 3d 6c 3b 04 bf 29 28 4a 3e
       0.29375127 0.051948227 -0.5165317 0.19741882
0000f0 31 a8 47 3e f7 7d 96 bd 21 f7 7c 3e e9 26 cd bd
       0.19497754 -0.07348245 0.24703647 -0.10017187
000100 49 0c 96 b9 41 3e 18 3e 5e 9c 78 be 9e 6a 7b 3d
       -0.00028619383 0.14867498 -0.242784 0.061380975
000110 a5 43 23 3e 72 fe 7f 3d 75 50 5f 3e 62 73 11 bd
       0.15943773 0.062498517 0.21808036 -0.03551043
000120 f5 68 5a 3e e9 01 92 bd ac 11 27 be 3a 66 5e 3e
       0.213291 -0.071292706 -0.16315335 0.21718684
000130 bc 57 72 bd fb 16 27 3e 2a 31 0a 3f aa 53 67 3e
       -0.0591657 0.1631736 0.5398127 0.22590509
000140 83 f2 a4 be 38 b8 66 be c8 fa d2 3d c5 10 16 bd
       -0.32216272 -0.22531211 0.10301739 -0.036637086
000150 d1 3a 08 3f e0 ad 75 be c5 79 84 bd 0c ee d5 be
       0.53214747 -0.2399211 -0.06468538 -0.41783178
000160 67 3a 7f be 90 93 81 3e 39 83 d2 3d ea 9b e6 3c
       -0.24924622 0.25307894 0.10278935 0.028150517
000170 e5 49 ae be 55 3c a5 be 87 a6 9d 3c 9a f6 e5 3d
       -0.34040752 -0.32272592 0.019244445 0.11228676
000180 f7 41 61 be d8 e6 7f be 39 4d 7c 3e 68 82 3b 3e
       -0.2199782 -0.24990404 0.24638833 0.18311465
000190 25 8c af 3d dc bc 0a 3f b9 60 0b 3e e9 c5 90 be
       0.08571652 0.54194427 0.13611116 -0.28275993
0001a0 07 bd 2c 3e 87 a6 64 be d9 00 09 be 30 bd d9 bd
       0.16868983 -0.2232915 -0.1337923 -0.10631788
0001b0 4d cb ef 3d 3d 67 0c 3e dc d4 d7 3d 98 62 32 3c
       0.117086984 0.13711257 0.105386466 0.010887764
0001c0 49 a3 c5 3d d2 9f 91 3e 91 97 a1 bd 95 a1 ea bd
       0.09650285 0.28442246 -0.07890237 -0.114566006
0001d0 05 10 2e bc 98 76 a4 3e bf 96 30 3e 2d 93 47 bd
       -0.010623937 0.3212173 0.17245005 -0.048724342
0001e0 c0 e0 61 3e c3 15 7c 3c 4a 52 d1 3d 61 cd e9 3d
       0.22058392 0.015386048 0.102207735 0.11416126
0001f0 3b 10 33 be 76 9c 48 be 77 48 38 be 14 d7 e7 bd
       -0.1748666 -0.19590935 -0.17996393 -0.1132032
000200 72 f8 3c be 79 32 fb 3e f3 33 09 bf 58 3a a6 bd
       -0.1845415 0.49061945 -0.53594893 -0.08116597
000210 3c e4 02 3b 96 33 b9 bd fb b0 22 3e cc 1f 03 3f
       0.0019972464 -0.09043042 0.15887825 0.51220393
000220 f8 cf f0 bd 83 7e c1 be 13 4f 31 3e 36 8b ed 3d
       -0.11758417 -0.37791833 0.1731532 0.11598818
000230 9b 34 13 bf d4 7a 05 3d 18 52 b0 3e c5 70 aa be
       -0.57502145 0.03258784 0.34437633 -0.3328916
000240 53 ae f8 bd c1 91 38 3e f0 7f bb 3e df bc e9 3e
       -0.12142625 0.1802435 0.36621046 0.4565191
000250 5b 8e ba be 36 fd ee 3d 66 44 e6 be 82 94 8f be
       -0.36436734 0.1166939 -0.4497406 -0.2804299
000260 b8 84 d0 be e5 da 89 3c 7d 16 4b be 8d 06 f5 3c
       -0.40726256 0.01682801 -0.19832797 0.02991035
000270 27 a8 71 3e 1d ab 29 be c1 96 2e be fd 08 38 be
       0.23599301 -0.16569181 -0.17049696 -0.17972179
000280 cf f1 6f 3d 61 7c 33 3c 33 01 37 3e 14 6f aa be
       0.058580216 0.010954947 0.17871551 -0.3328787
000290 e3 75 70 3e a4 0e 84 3d 12 39 06 bf c6 6d 88 3d
       0.2348247 0.06448105 -0.5243083 0.066615626
0002a0 1a 57 06 3e 57 6f 47 3d 48 c0 fe bd af 2b 6f be
       0.13119164 0.048690166 -0.124390185 -0.23356508
0002b0 46 d9 1e 3f 42 14 0d 3e e3 b6 74 3d 3d 5f ae bd
       0.6205028 0.13777259 0.059744727 -0.08514259
0002c0 32 a7 e7 3d 21 8e 01 3f 1d e8 22 bc 4d 66 97 be
       0.11311187 0.50607497 -0.009943035 -0.29570237
0002d0 f9 30 6f 3e 1a 8e 1a 3e 98 80 04 3e 49 eb 93 be
       0.23358525 0.1509327 0.1293968 -0.28890446
0002e0 45 a0 79 bd e5 53 69 3e 3d 74 c1 be ca ec 41 be
       -0.06094386 0.2278591 -0.37783995 -0.18937984
0002f0 8c f3 5a 3e c5 f2 af 3e 40 de 11 be 97 80 86 be
       0.21381968 0.34364906 -0.14244938 -0.2626998
000300 11 ef 36 be 3f fd 6f be 90 a8 b6 3e 73 e5 eb 3e
       -0.17864634 -0.2343645 0.35675478 0.46073493
000310 f7 11 1e 3d f6 98 1a 3d 7f 56 42 3c 2c 41 ab be
       0.03859135 0.03774353 0.011861443 -0.3344816
000320 f1 c0 d9 bd ab fa 01 be fd c3 32 be 7f df 0e 3e
       -0.10632504 -0.12693278 -0.17457576 0.13952444
000330 ec 20 83 3e f3 12 31 3e 09 fb 81 bd 52 c6 f6 3d
       0.25611055 0.17292385 -0.06346709 0.12049545
000340 a5 5a bd 3d a5 5f 25 3e a8 ba d4 bd b3 f0 23 bc
       0.09245805 0.16149767 -0.10387164 -0.010006118
000350 8f c0 23 3e c0 b6 b9 3e 05 20 03 3d 10 2b 19 be
       0.15991424 0.3627224 0.032012958 -0.14957833
000360 18 1c e9 be 5c 36 73 3e 2b b5 19 3e 38 4c f2 be
       -0.45529246 0.23751205 0.15010516 -0.47323775
000370 38 de 07 3f 0f 4d 48 be 80 09 74 bd 6c 3a 24 3e
       0.53073454 -0.19560646 -0.059579372 0.16037911
000380 d0 c2 51 be b1 f0 13 bd ff 5d 92 be f9 ac 08 bf
       -0.20484471 -0.036118213 -0.28587338 -0.53388935
000390 6e 51 2f be 3e d3 08 bd 04 c6 91 3d 30 0f 80 be
       -0.17120907 -0.03340458 0.071178466 -0.25011587
0003a0 9c 9c 25 3e b9 65 ed 3d f4 29 c4 3d 2b 1c d3 3c
       0.16173023 0.11591668 0.095783144 0.025770267
0003b0 ab 95 55 3d de 8d 7a 3e b0 b1 80 be 5d d2 36 be
       0.052144688 0.2446818 -0.25135565 -0.17853685
0003c0 ff 27 12 3e 65 40 39 be 1a 0a 0d 3e f7 ff ec bd
       0.1427307 -0.18090971 0.13773385 -0.11572259
0003d0 5d c3 08 3e d1 79 d2 3b 55 b7 29 3c 68 a8 d2 bd
       0.13355775 0.006423213 0.010358651 -0.10286027
0003e0 66 11 58 3d 83 eb e5 bd 0c c9 b4 bd c4 3e 3c be
       0.052750967 -0.11226561 -0.08827409 -0.18383318
0003f0 89 7d ed 3e 06 80 9e 3d 24 0e 53 be 06 8a dd 3c
       0.46384838 0.07739262 -0.20610863 0.027043354

weight_hh_l0 f4 [384, 128]
000000 25 74 0f be 60 8b 42 3e b2 70 95 3e 30 38 fa bc
       -0.1400915 0.1899848 0.29187542 -0.03054437
000010 72 ca fc bd 88 45 0c 3e 54 a9 21 bf 54 0a ad bd
       -0.12343301 0.13698399 -0.63149 -0.084492356
000020 63 5e ac 3d 3e 5f d2 be 29 00 1e 3e a3 0e 9e bd
       0.0841644 -0.4108829 0.15429749 -0.077176355
000030 27 7f b2 bd c0 74 20 bd 2b c3 13 3e c1 c2 d6 3e
       -0.08715659 -0.03917384 0.1442992 0.4194546
000040 cd a1 d2 be 19 7b 76 bc 7d d1 b3 3c f7 9c 11 3e
       -0.4113907 -0.015043997 0.021950478 0.14220034
000050 8b 10 2c be 39 fa 75 bd a4 c9 39 3e d8 f0 2b 3e
       -0.16803186 -0.060053084 0.18143326 0.16791093
000060 9d cf 54 bc 23 97 81 bd 0d a0 01 3d 23 9f b0 be
       -0.012988952 -0.06327655 0.031646777 -0.34496412
000070 ec 29 46 bd ff 89 01 3e f2 fe 94 3d 10 7e ff 3d
       -0.048379824 0.12650298 0.072751895 0.124752164
000080 2c 56 55 3e ef 85 90 3b c6 ac a3 bd eb f1 a0 3b
       0.20833653 0.0044104974 -0.07991938 0.0049116514
000090 dc 12 94 be 10 37 dd bc 0e 71 6c be b2 1a 71 be
       -0.2892064 -0.027003795 -0.23090002 -0.2354534
0000a0 e0 e3 ca 3d a9 ec be bd 52 ea 98 be 61 08 58 3e
       0.09906745 -0.09322483 -0.29866272 0.21096946
0000b0 0b fa 4b be c8 99 e2 be 4b 7f 04 3e 97 c3 8e bc
       -0.19919603 -0.4425795 0.12939183 -0.017427249
0000c0 58 37 c0 be f3 d0 a4 3e 0f 36 70 be 52 73 c1 3d
       -0.37542224 0.32190666 -0.23458122 0.09445824
0000d0 20 9b e0 3d 9b 9b 8f be 06 64 b6 bd f6 c1 b8 3c
       0.10967088 -0.28048405 -0.08905797 0.022553425
0000e0 86 58 aa bd 2e 1c 26 3e 86 76 91 3d 48 1b 27 be
       -0.08317666 0.16221687 0.07102685 -0.16319
0000f0 7f b3 16 bc c2 1b 4a be 21 40 a3 3b 1a b4 20 be
       -0.009198069 -0.19737151 0.00498201 -0.15693703
000100 24 e1 47 bd 8a f8 af 3e d7 ad e8 bd 4e 44 71 3d
       -0.048798695 0.34369308 -0.11361282 0.05890303
000110 9e bd a7 be 58 80 2c bd a2 fe e9 bd 54 47 03 3e
       -0.32761854 -0.042114586 -0.114255205 0.12820178
000120 90 1e 06 3c fc c6 19 bf b2 1c 8e 3d 20 ca a9 3d
       0.008185998 -0.6006925 0.06939067 0.082905054
000130 98 c1 47 3e ca d5 07 be d0 3b 15 3e d4 be da bd
       0.19507444 -0.13265148 0.14573598 -0.10680929
000140 f0 8d 13 3e fe 64 04 3e 58 26 38 be 39 81 3b be
       0.14409614 0.1292915 -0.17983377 -0.18311013
000150 b0 65 40 be 1c 4f 84 be 60 1d 77 be d2 44 14 be
       -0.1878879 -0.25841606 -0.241323 -0.14479378
000160 be 63 37 3e 44 bf 1a bd c6 ff e8 3e 49 26 98 be
       0.17909142 -0.03778006 0.4550764 -0.2971671
000170 16 c3 a7 3b b5 4c c1 bd 48 b4 f4 3d 2b dc a9 3e
       0.0051196916 -0.09438459 0.119484484 0.33175787
000180 7c 57 e2 bd 89 9e ac 3d 36 36 9e be 0f 49 5c 3e
       -0.110518426 0.08428676 -0.30900735 0.21512245
000190 a2 0e be bd 91 d7 78 3e e3 0d eb 3d 2d 47 08 3f
       -0.09280135 0.24300982 0.11477258 0.53233606
0001a0 53 f6 07 bd f0 db 4f 3e 1b 46 a7 be 37 5c 28 3e
       -0.033193897 0.20298743 -0.32670674 0.16441427
0001b0 26 b4 ee 3c 6b 44 85 3e 1d 62 b3 3c 65 42 34 3d
       0.029138636 0.2602876 0.02189737 0.04400863
0001c0 81 fd 0c 3d aa 4e 3c 3e 02 e0 45 be bf b3 92 be
       0.034421448 0.18389383 -0.19323733 -0.2865276
0001d0 a9 11 dd bd 6c ac 3c 3e a9 1c 25 bd 46 c1 e1 3d
       -0.10794384 0.18425149 -0.040310536 0.11023192
0001e0 af 24 ba 3d f4 eb 88 3d f5 0f e0 bd 21 8e 8f be
       0.09089028 0.066856295 -0.109405436 -0.28038123
0001f0 ea 42 af 3b 96 a7 90 3d 1e d6 0c be d3 c9 a2 bd
       0.005348553 0.070632145 -0.13753554 -0.07948651
000200 4d 43 30 be d2 c7 03 3e 4f eb cb 3d cb d4 59 3e
       -0.17213173 0.12869194 0.09956991 0.2127258
000210 e3 21 19 be 03 00 35 3d 6e 9d 0f 3f 2e ac 05 3e
       -0.14954333 0.044189464 0.56099594 0.13053963
000220 ed 5d b8 3c 53 95 f9 3e 3b 58 6e 3c 97 eb 9c bd
       0.022505725 0.48746738 0.014547403 -0.07662123
000230 66 c2 c6 be a3 f5 7d 3e ad 12 ba be f4 22 15 be
       -0.3882019 0.24800734 -0.36342373 -0.14564115
000240 1a db 8f 3e 67 03 4f be 45 79 83 be 88 ca 5e bc
       0.2809685 -0.20216142 -0.2567846 -0.013598092
000250 2a 81 a5 be 53 71 52 3a 78 f7 c2 be c6 5e b5 bb
       -0.32325107 0.0008027751 -0.3807943 -0.0055349795
000260 4d 09 2f be df 8d f9 bd d3 81 46 ba 94 7b 0a be
       -0.17093392 -0.12185263 -0.0007572446 -0.13523704
000270 44 97 ff 3d 36 17 68 be 72 e8 70 3e 3a 06 59 3e
       0.124800235 -0.22665104 0.23526171 0.21193781
000280 63 8b f7 bd ac 3c 78 3e 76 f3 e0 3d e8 33 02 3c
       -0.12087133 0.24241894 0.109839365 0.007946946
000290 9f 32 bf bd 30 36 88 bd 27 fe 9e 3d 03 63 75 bd
       -0.09335827 -0.066509604 0.077633195 -0.059908878
0002a0 70 fd 6d be 1e 88 9c 3c 62 92 01 3e 39 48 58 3d
       -0.2324121 0.019107874 0.12653497 0.052803252
0002b0 ca 8f 82 3e 51 45 cb 3d 45 de b9 bd 58 fb 1e 3e
       0.25500327 0.099253304 -0.09075598 0.15525568
0002c0 eb 1c 16 be 0d f0 16 bf 92 49 61 3e b9 ed cf bd
       -0.14659469 -0.5896004 0.22000721 -0.10152764
0002d0 17 45 5c be cb 42 31 be 61 a9 15 3e 52 df ec ba
       -0.2151073 -0.17310636 0.14615394 -0.0018071926
0002e0 04 b5 76 be 40 f6 1d 3e 4f a8 ae be e5 01 44 3d
       -0.2409249 0.15425968 -0.34112784 0.04785337
0002f0 c2 ee 10 3e 17 63 dc 3b 8c 7f d2 bd 2e a2 ab 3d
       0.14153579 0.0067256796 -0.10278234 0.08380543
000300 1f 78 d8 3c 8b 10 f5 3d ec 17 bf bc 81 0f 98 be
       0.026424466 0.11966046 -0.023326837 -0.2969933
000310 5b 4b be 3d 6b 7b 89 3e 60 21 3d 3d 9e 68 da bd
       0.09291717 0.26851973 0.046174407 -0.106644854
000320 a7 3d 00 3f 9a 90 06 3f d2 e3 82 3e f9 90 8a be
       0.50094074 0.52564394 0.25564438 -0.2706373
000330 05 0c 9a ba 49 6b ca 3e ee 1f 4f bd fa af c2 3e
       -0.001175285 0.39534977 -0.05056756 0.38024884
000340 30 98 db bd 78 82 1f bd be 99 67 3e bf 3d 2d be
       -0.10722387 -0.038942784 0.22617242 -0.16918086
000350 e6 09 05 3e d7 02 5a 3e a8 fa c7 3d ff 4a 2d 3e
       0.12992057 0.21290146 0.09764606 0.1692314
000360 53 6c 09 3e b9 b6 5f 3d 8b 72 84 3e de 13 fa 3d
       0.13420229 0.054617617 0.2586864 0.122108206
000370 38 45 c3 3e 17 1c 2f 3e fa 66 cf 3e bf 96 99 be
       0.38138747 0.17100559 0.40508252 -0.29997823
000380 2f 64 a4 be e3 40 a1 3e 32 57 18 be 72 c2 ae be
       -0.32107684 0.31494817 -0.14877012 -0.34132725
000390 b8 32 c3 3e c8 39 29 be c1 18 10 3e 25 a3 1b 3d
       0.38124633 -0.16525948 0.14071943 0.037997384
0003a0 70 34 d5 3c df 8c 83 be 01 1c 7e 3e b8 c8 ca 3d
       0.02602598 -0.25693414 0.2481537 0.09901565
0003b0 7e b7 30 be 0d de 9c bc 06 ef 87 3c 1b b7 fa 3c
       -0.17257497 -0.01914885 0.016593467 0.03060489
0003c0 34 7b bd 3e 7c 68 c1 be 00 54 90 3e 4a 00 ee bd
       0.3700806 -0.37775028 0.28189087 -0.11621149
0003d0 ca 4b 1b 3e b2 7b b1 be 1f 7f 4a 3e 00 1d c5 bd
       0.1516563 -0.34664685 0.19775055 -0.09624672
0003e0 b1 cc 86 bd 89 23 43 be fe 5a 65 be 3e ac 96 3e
       -0.065820105 -0.19056524 -0.22397992 0.29428285
0003f0 87 40 4f 3e de 33 b6 3e 1d 85 63 be 5b f5 35 3c
       0.20239459 0.35586447 -0.22218747 0.011105861

bias_ih_l0 f4 [384]
000000 88 39 c9 bb 9d b6 57 3d a5 84 38 3d 5a 7b 14 bd
       -0.0061408915 0.052664388 0.045048375 -0.03625045
000010 3e 5c e1 bd 8f 3a 0a be 4a 91 34 3d 00 b8 4f 3e
       -0.11003922 -0.13498901 0.04408387 0.20285034
000020 73 a7 df bd 34 20 0a be e4 e0 ad bd 51 ed 95 be
       -0.1092061 -0.13488847 -0.0849016 -0.2928262
000030 bd 9c f7 bd ec 1e 31 3d 9e d5 d3 3c 5e f6 21 be
       -0.12090442 0.04324238 0.025858697 -0.15816638
000040 9f 85 40 be 2e 12 7d bd 24 d5 56 3d 34 73 7c bc
       -0.18800972 -0.061784916 0.05244936 -0.015408326
000050 81 93 15 be 4a 1d 29 3d 6b 3e 00 be 06 6e 4d be
       -0.1460705 0.041287698 -0.1252381 -0.20061502
000060 97 a6 39 3d ce bd 33 3e aa b1 2c 3d a2 2a e5 3b
       0.045324888 0.17552873 0.04216162 0.0069936076
000070 c8 e8 0a be 88 b8 7e bd 0c 85 e5 bd e2 9e eb bd
       -0.13565361 -0.0621877 -0.11207017 -0.11504914
000080 e1 1d 62 be 1a 57 2a be d5 64 a5 bd cf 6f e1 bd
       -0.2208171 -0.16634789 -0.08075873 -0.11007654
000090 07 ab 3b bc 38 ba fe bd 3a a5 d6 bc 83 a8 80 bd
       -0.01145435 -0.12437862 -0.026201833 -0.06282141
0000a0 3f 6c 8a 3d c3 9f 06 3e c4 ec 47 3e d5 1c 18 bd
       0.067589276 0.13146882 0.19523913 -0.03713687
0000b0 11 36 1e be 38 80 f0 bd 37 bc 90 bd 03 ae 4b bc
       -0.15450312 -0.11743206 -0.07067149 -0.012431624
0000c0 94 96 d6 bc 6a c4 3f 3e b2 6e e5 bd 26 63 22 3e
       -0.026194848 0.1872727 -0.11202754 0.15858135
0000d0 e9 e8 fd b9 81 fb 02 be 18 81 5e bd 03 c2 4f bd
       -0.00048429452 -0.12791254 -0.054322332 -0.050722133
0000e0 53 e6 ab bc 1c 37 dd bd 41 16 7d bd c3 c6 cc 3c
       -0.02098385 -0.10801527 -0.0617888 0.02499712
0000f0 a4 ac d2 bd e6 26 0c be b9 ba de bd 90 24 25 be
       -0.10286835 -0.13686714 -0.10875458 -0.16127229
000100 6b 6e 57 be de 81 96 3d a9 d0 e4 3d 91 f1 b8 3d
       -0.21038215 0.07348989 0.11172611 0.0903045
000110 a5 ee fa bd ec d5 1d bd 15 4e fa bd 00 79 8b be
       -0.12252549 -0.03853409 -0.12221924 -0.27240753
000120 b9 80 e1 3d c3 02 35 bd 86 c3 77 3d e7 17 01 3c
       0.1101088 -0.044192087 0.0604892 0.007879234
000130 1d 2e 5a 3d 7c 04 e6 3d 64 50 b8 bd 1f e3 c0 3d
       0.053266633 0.11231324 -0.08999708 0.0941832
000140 c0 f7 14 bd a2 9e e5 3d 8e 9d 19 bd 8a 8d f7 bd
       -0.036369085 0.112118974 -0.03750377 -0.12087543
000150 ca 0e c0 bc 27 e8 b4 3d e8 7f 48 bc d1 1d 0c be
       -0.023444552 0.08833342 -0.0122375265 -0.13683249
000160 48 f7 a6 3d a8 51 36 be 93 a1 09 be ab 24 1e be
       0.08152634 -0.17804587 -0.13440542 -0.15443675
000170 e9 2f 86 bd 31 d9 34 bd 1a 8a b4 bd a5 68 4d 3d
       -0.06552107 -0.044152442 -0.08815403 0.050148625
000180 36 dd 7d 3d 88 0e 9b bc cf 80 ad 3c eb 71 a3 3c
       0.06197854 -0.018927827 0.021179585 0.019951781
000190 e3 27 d3 3d 2e 9d 5b bd 9b 8a a8 bd ef b2 b7 bb
       0.10310342 -0.053616695 -0.08229562 -0.0056060473
0001a0 32 45 0b be 6b 91 1c 3e 6e da 50 bd 3d d1 aa bd
       -0.13600615 0.15289848 -0.05098956 -0.0834069
0001b0 b7 21 a6 3c 7b 7b 88 3e 5e 1d 57 bd b4 50 cb bc
       0.020279748 0.26656708 -0.05251824 -0.024818756
0001c0 22 d5 20 bd e0 b6 09 be 0a e5 1a 3c de 23 41 3e
       -0.03926576 -0.13448668 0.009454021 0.18861338
0001d0 36 da 60 be 62 78 f2 bd 47 9c 6a 3d 5e ed 33 bc
       -0.21958241 -0.118393674 0.057277944 -0.010981886
0001e0 4c a3 87 3d 72 9f 6d 3d 06 42 af bd ef e9 3b 3d
       0.06622943 0.058013387 -0.08557515 0.045877393
0001f0 f3 11 77 be c2 e5 9b bd c0 6d 9f 3d ff 4b 3c be
       -0.24127941 -0.07612182 0.07784605 -0.18388365
000200 9e 20 64 be c5 52 0b 3e 68 02 b3 3d 2e 1b 17 be
       -0.22278067 0.13605793 0.08740693 -0.14756462
000210 8f 59 78 bd 13 02 b3 bd 5e d3 56 3e 8e c9 4b 3f
       -0.060632285 -0.0874063 0.20979068 0.79604423
000220 44 b7 c1 3d 7e 59 04 3e b1 a0 a3 3d 70 28 d3 3d
       0.09458783 0.12924764 0.07989634 0.10310447
000230 ba 11 f1 3d cc c6 9e bd e9 f8 97 3e 69 c3 6d 3d
       0.11770959 -0.07752761 0.2968209 0.058047686
000240 b1 c8 bc 3d a0 a3 ad 3d e9 c7 ce 3d 52 f6 31 3e
       0.09217966 0.084784746 0.100967236 0.1737912
000250 0d ab 62 bd b8 fb c5 3e 32 03 7c 3d 11 c5 56 3e
       -0.055338908 0.3866861 0.061526485 0.20973612
000260 35 ec 3a 3d 8e 28 68 3d cb ca 91 3e c0 46 ee bc
       0.04563542 0.0566793 0.2847503 -0.02908647
000270 f3 c2 b1 3d ec d5 85 3e e5 82 f3 bd 45 00 d5 3c
       0.08679762 0.26139772 -0.118902005 0.026001105
000280 26 12 8f bd 48 b6 74 3c 56 13 36 3e af 0e ec bc
       -0.069858834 0.014936037 0.17780814 -0.028815595
000290 6f d7 8e 3e 0b e1 90 3d 06 c6 15 3e 6a b2 a1 3b
       0.27898738 0.070741735 0.14626321 0.0049345987
0002a0 a4 42 89 3e e7 ca 3f 3f 6e c6 37 bd 30 87 4d 3c
       0.26808655 0.7491898 -0.04486697 0.012544438
0002b0 22 ea 82 bc 85 5c 5a 3e 6f 72 61 3e a0 04 19 3e
       -0.015980784 0.21324356 0.22016309 0.1494317
0002c0 bd f2 ad 3b 2c ff 51 be 7f bc 05 3e ac ac 3b 3e
       0.0053084777 -0.20507497 0.13060187 0.18327588
0002d0 5c 98 13 3d 02 9c 27 3e bc 07 a9 bd 3f 56 40 3c
       0.036033973 0.16368106 -0.08253428 0.011739313
0002e0 9a a4 b4 3b 6b 5c 27 bd 0a a6 3d 3d c0 9e bb bd
       0.005512786 -0.04085962 0.046300925 -0.091611385
0002f0 87 0d c9 3c ba 0d fa bd bc 11 66 3e 97 e0 11 be
       0.024542583 -0.122096494 0.22467703 -0.1424583
000300 ee 59 6a 3e 1a db 49 be d6 2e 03 3f 5d 27 7b be
       0.22885868 -0.19712487 0.5124334 -0.24526735
000310 82 92 de 3d 7b 88 a5 3d c0 d8 cb bd 64 c9 b2 3d
       0.10867788 0.08082672 -0.09953451 0.087298185
000320 43 95 33 3d 85 6e ee 3d 68 de 47 3e aa 6d 72 bd
       0.04384352 0.11642174 0.19518435 -0.059186615
000330 fb a0 7d bd 98 92 7d bc b1 24 1a be 60 d5 70 be
       -0.0619211 -0.015476845 -0.15053059 -0.23518896
000340 bb 44 47 3e a0 39 bd bd 53 0f 81 3e 70 7c 82 3e
       0.19459812 -0.09239507 0.25207004 0.25485563
000350 09 f9 0b be a0 8b e6 bd c2 74 23 3e 1c 9c 0a 3e
       -0.13669218 -0.112571 0.15962508 0.13536114
000360 03 31 83 3c ac 75 21 3e ed c3 ec 3d 10 ba c0 bd
       0.016014582 0.15767545 0.115608074 -0.094104886
000370 a0 5d ad 3e d1 fb 17 be 87 aa 6d 3d 89 2e 27 be
       0.33860493 -0.14842154 0.058023956 -0.16326346
000380 87 a4 8c b8 66 62 0f 3e a1 69 f2 bd c6 3c 39 3e
       -6.706366e-05 0.1400238 -0.11836553 0.1808959
000390 0a 58 b6 3d ed d4 cc bd 0d 26 53 bc 99 89 7c 3e
       0.08903511 -0.1000155 -0.01288749 0.24661864
0003a0 cd 52 94 be 9b ed 34 3f cc cf fb 3c 26 d5 1e 3b
       -0.28969422 0.7067506 0.030738734 0.0024235933
0003b0 38 0f bf 3d 43 db 2d 3f 36 0a 10 be 8e e7 92 3e
       0.093290746 0.6791269 -0.14066395 0.28692287
0003c0 9f b3 10 be 81 49 bc 3e 56 7b b5 3e 2d 24 8c be
       -0.1413102 0.3677483 0.3544566 -0.2737135
0003d0 91 14 f4 3d 1f 4f 50 3e fd 01 a4 be 2f 1d da 3d
       0.11917985 0.20342682 -0.32032767 0.106500976
0003e0 2f 23 71 3e 78 83 80 3e 95 4a 88 3d c5 9a c2 3e
       0.23548578 0.25100303 0.066548504 0.38008705
0003f0 48 70 d3 3d fe 31 09 3e 8c fc 29 be 56 0c 86 3d
       0.1032415 0.13397977 -0.16600245 0.06545322

bias_hh_l0 f4 [384]
000000 bf 85 9e 3c 01 b7 e2 3c 16 24 28 3d 93 e6 e2 3a
       0.019350884 0.027675154 0.04105004 0.0017311148
000010 4a 7a 71 be 70 1b 78 be 1d b6 a4 3d 01 07 0e 3e
       -0.23581806 -0.24229217 0.08042548 0.1386986
000020 55 b9 5e bd fd 05 7d bd ea 9d 73 be e4 79 38 be
       -0.054375965 -0.06177329 -0.23790708 -0.18015248
000030 ed 97 1a be 30 8f 02 3e 44 64 ae 3d ee 21 13 be
       -0.15097018 0.12749934 0.08515218 -0.14368412
000040 4c fd 94 bd 55 7e 2b 3d b8 04 0b 3c 34 4c 40 bd
       -0.07274875 0.041868526 0.008485012 -0.046947673
000050 c3 3b 82 be a5 ed 5e bd 66 dc b2 bd cd 47 e3 bd
       -0.2543622 -0.054425854 -0.08733444 -0.11097679
000060 4a 88 4c 3d 0b 9a ec 3d ca 28 a5 3c 6e a1 15 bd
       0.049934663 0.11552819 0.020161051 -0.036530904
000070 d1 e5 4a bd c5 ae 1a be b6 cc a7 bd 9b 27 5d be
       -0.049535576 -0.15105732 -0.081933424 -0.2159714
000080 ff 24 ba bd 09 0d b1 bd 81 2f bb bd db c0 55 be
       -0.09089088 -0.086450644 -0.0913992 -0.2087435
000090 22 0f 88 bd a7 37 93 be 5e d4 c8 bd e9 44 86 bd
       -0.06643511 -0.28753397 -0.09806131 -0.06556112
0000a0 c6 99 81 3d b9 f0 1d 3e dc 45 b9 3d da 31 04 be
       0.06328158 0.1542386 0.09046528 -0.12909642
0000b0 7b 7f a4 bd ca c0 56 be 32 04 12 bd 64 13 01 bc
       -0.080321275 -0.2097198 -0.035648532 -0.007878158
0000c0 1e 85 7a 3d 65 4b 3b 3e e6 d0 0e be 54 40 8f 3e
       0.061162107 0.1829048 -0.13946876 0.27978766
0000d0 3c 47 22 3e 4b 49 13 be 0e 61 f1 bd 89 d8 bd bd
       0.15847486 -0.14383428 -0.1178609 -0.092698164
0000e0 e2 1d fb 3d d1 34 76 bd e1 1a 5d bd 2b 7d f9 bc
       0.12261559 -0.060108963 -0.05398071 -0.030455193
0000f0 9a bf 1b be 94 35 de 3b d5 0f 0c be ff 13 fc bd
       -0.15209809 0.0067812894 -0.13677914 -0.123085015
000100 26 35 7e be 2a 38 9b 3c 52 55 b5 3d ce ce f8 3d
       -0.24824962 0.01894768 0.08854164 0.1214882
000110 2a 43 19 bc 3c 60 17 3d f4 c5 6b bd ad 38 0e be
       -0.009354392 0.03695701 -0.05756183 -0.13888808
000120 f4 bb cc 3d 12 37 98 3d 9e 27 35 bd 5f c3 a8 3d
       0.09996787 0.07432379 -0.044227235 0.08240389
000130 00 83 03 3e 57 35 0b 3e bc ba b8 bd d7 6f f4 3d
       0.12842941 0.13594566 -0.09019992 0.11935394
000140 49 6c 22 be 9a 82 d0 3d b2 2e 27 be ab 13 03 be
       -0.1586162 0.1018116 -0.16326407 -0.12800471
000150 2f be b5 3d 74 ba 4a 3d d5 dd 27 bd 34 03 b6 bd
       0.08874165 0.04949422 -0.04098304 -0.0888733
000160 9e db 85 3d 14 46 74 be 41 f6 c1 bd 2f b9 30 be
       0.06536029 -0.23854858 -0.09470797 -0.17258142
000170 e8 47 7a bd 27 4d 88 bd 4b b7 09 be 69 fe 62 bd
       -0.06110373 -0.06655341 -0.13448827 -0.055418406
000180 ff 30 43 bd b2 ef e9 3d 11 13 23 3c 7e 31 8e 3d
       -0.04765415 0.114226714 0.009953276 0.06943034
000190 d5 94 5b 3e 93 ee 2a 3d ed 5e 5c bc ad 44 0f bd
       0.21443494 0.04173143 -0.013450366 -0.034977604
0001a0 39 44 6d be db 50 3d 3e 76 9e ba bc 66 f6 6f bd
       -0.23170556 0.18487875 -0.022780638 -0.058584593
0001b0 96 b8 a0 ba 46 c2 eb 3d bd 9d 01 bd 12 65 8d bd
       -0.0012262042 0.11511664 -0.03164457 -0.06904043
0001c0 86 99 c7 bb e2 09 f5 bd 06 4a 18 bd a8 dc 8f 3e
       -0.0060912995 -0.119647756 -0.03717997 0.28098035
0001d0 0f 19 1e be 91 bd 49 be 34 10 1d 3e 3d bf 1e be
       -0.15439247 -0.1970122 0.15338212 -0.15502639
0001e0 c8 62 88 3c d1 db d8 bc 8c a1 4b bd 81 f7 53 bd
       0.016648665 -0.026472004 -0.04971461 -0.05174971
0001f0 d6 17 72 be 1b db a8 bd 18 3d 00 3e e0 be ec bd
       -0.23641905 -0.08244916 0.12523305 -0.11559844
000200 da 53 99 be a2 cc e8 bc 62 58 ce bc 47 26 12 be
       -0.29946786 -0.028417889 -0.025188629 -0.14272414
000210 cc b4 a4 3c d9 c0 81 bd 71 15 77 3e 09 97 3e 3f
       0.020105742 -0.06335611 0.24129273 0.7444921
000220 3c c9 43 3e 57 8e bb 3b b9 73 e9 3d f7 af 6e 3d
       0.19119734 0.0057237553 0.113990255 0.058273282
000230 f0 90 a2 3d df e4 93 bd ea f8 64 3e 40 af 98 bc
       0.07937801 -0.07221388 0.22360578 -0.018638253
000240 89 57 c0 3d b3 62 bb 3c 4e b6 3a 3d fe 0e c5 3d
       0.09391696 0.022874212 0.045584016 0.09622
000250 5b 5e cf 3c ea f9 df 3e b5 e2 9e 3d d4 e2 9f 3e
       0.025313547 0.43745357 0.07758085 0.31227744
000260 46 72 51 3d 6d 34 30 3d d2 17 8e 3e 90 61 83 bd
       0.05113437 0.043018747 0.27752548 -0.06415093
000270 d9 3a 14 3e 4e 70 15 3e 8a e4 24 be 54 d5 42 3e
       0.14475574 0.14593622 -0.16102806 0.1902669
000280 83 b2 a2 bd 98 aa 01 bd 8a 1a 40 3d e4 49 63 3d
       -0.07944205 -0.03165683 0.04690031 0.05549039
000290 80 f3 ba 3e 8c de fd 3c 7f 7c 31 3e 22 8e 9b 3c
       0.365139 0.030989908 0.17332648 0.018988673
0002a0 7f e6 8e 3e 83 05 3e 3f 49 0d 7a 3d 63 3e 8e 3d
       0.2791023 0.7422716 0.061047826 0.06945493
0002b0 85 36 d7 bc 38 aa 45 3e b7 30 22 3e 33 11 9e 3e
       -0.026271114 0.19303215 0.15838896 0.30872497
0002c0 9e aa 11 3c d3 02 48 be e5 83 0d 3e c2 53 5c 3e
       0.008890776 -0.19532327 0.13819845 0.21516326
0002d0 4d b8 25 3e 9f 1a 25 3e 45 30 ff bd e5 f7 30 3e
       0.16183586 0.16123436 -0.124603786 0.17282064
0002e0 2d 7e 82 3b 03 8b f3 3c 63 03 25 3e a2 19 eb bd
       0.0039823265 0.029729372 0.16114573 -0.114794984
0002f0 00 41 1b 3e bc 63 04 bd ce 9e 8f 3e 37 ee 13 bd
       0.15161514 -0.032321677 0.28050846 -0.03611585
000300 7f e1 92 3e 99 2e 43 be b8 43 1b 3f 44 c8 12 be
       0.28687665 -0.19060744 0.60650206 -0.14334208
000310 20 d9 ce 3d 5f e9 0e 3d 97 70 42 3d 45 51 6a 3e
       0.10100007 0.03489053 0.047470655 0.22882564
000320 20 b7 ac 3c c4 2b 29 3e 69 c3 02 3e 46 c0 cc 3d
       0.021083415 0.16520602 0.12769856 0.09997611
000330 e9 1a 27 3d 0b d9 91 bd ce da 5e bd 5f 29 69 be
       0.040797148 -0.07121476 -0.054407887 -0.22769688
000340 54 3a c9 3d 60 d7 56 be 66 89 61 3e 47 3e fd 3d
       0.09825578 -0.20980597 0.2202507 0.12365394
000350 b8 2b 11 bd 28 76 98 bd 82 81 28 3e d5 56 0b 3e
       -0.035442084 -0.074444115 0.16455653 0.13607343
000360 e9 53 2b bc 6d 2d ce 3d b0 b1 18 3d d0 c4 fb bd
       -0.010457017 0.10067258 0.03727883 -0.122933984
000370 75 cb dc 3e 9a 38 e2 bd 50 79 8b bb 62 f9 a0 bd
       0.43123975 -0.11045952 -0.004256405 -0.07860066
000380 9d 79 43 3d e0 13 13 3e 2f 69 67 bd 76 be 67 3e
       0.0477234 0.1436305 -0.056496795 0.22631249
000390 2d f0 6f 3e d2 9e f3 3c 7d 45 8c 3c 73 57 9f 3e
       0.23431464 0.029738817 0.017122978 0.31121406
0003a0 cc 1f 4c be 4a 61 3a 3f a9 0a 5a 3c 8b f9 62 bc
       -0.19934005 0.728047 0.013308206 -0.013853441
0003b0 cb 86 0f 3e 92 1e 47 3f a1 d6 c9 bd 4f 68 61 3e
       0.14016263 0.7778102 -0.0985539 0.22012447
0003c0 62 2f 7a be a7 99 b7 3e 10 df a9 3e 55 83 22 be
       -0.24432138 0.35859415 0.33177996 -0.15870412
0003d0 77 d7 55 3e 33 1e 93 3e de e7 9f be 14 0a fb 3d
       0.20882975 0.28733978 -0.31231588 0.122577816
0003e0 e8 8a b1 3e 43 71 86 3e 93 d1 03 3e d9 f7 a6 3e
       0.3467629 0.26258287 0.12872915 0.32610968
0003f0 67 bf 01 3d 1a b5 6a 3d a6 6a a5 bd ab 4b 96 3d
       0.031676676 0.05730162 -0.08076982 0.07338651

weight f4 [9, 128]
000000 32 aa d4 3c b9 81 e1 3d 84 d2 3d 3f 83 6c 2a bd
       0.025960062 0.11011071 0.74149346 -0.04160739
000010 06 60 cf 3d 20 15 32 3e 44 cf 1d 3e 36 a5 7a be
       0.10125737 0.17390871 0.15411097 -0.24477085
000020 b6 3d 09 3f 2e e1 ed 3d 76 e6 b2 be 1d 88 ca 3d
       0.5360979 0.11615215 -0.34941453 0.09889243
000030 a0 6e f0 3d ab f7 b5 bd f2 de 5d be 1c d6 bc 3d
       0.1173985 -0.088851295 -0.21667078 0.092205256
000040 3c dc ff be b1 c4 a3 3c fe a3 73 3d 3c 20 d2 3c
       -0.49972713 0.01999125 0.059482567 0.025650136
000050 6d 3d fc bd 83 4d 0a 3f 67 c1 84 be 11 95 84 3e
       -0.123164035 0.54024523 -0.25928804 0.2589498
000060 4b 17 52 3e 17 73 0a 3e ef 53 b4 3e 0c a0 88 3e
       0.20516698 0.13520466 0.35220286 0.26684606
000070 09 d3 6d 3e bb 62 33 3d 5c aa 2d be fc 0a e0 3e
       0.23225035 0.04379533 -0.16959518 0.4375838
000080 1e 80 b5 3e 68 05 cf 3c 11 95 42 bf cc 9a 4a be
       0.35449308 0.025271133 -0.7600871 -0.19785613
000090 ae 6c b4 bc 7f 4a d0 be ce a4 16 3e 65 4a 74 be
       -0.022024479 -0.40681836 0.14711305 -0.23856504
0000a0 96 b6 94 be b1 13 1b 3f 0b d7 a0 3e 94 e1 0d 3f
       -0.29045552 0.6057692 0.31414065 0.5542233
0000b0 35 ce 95 3e 25 65 46 3d 87 2f 88 bd 22 c7 02 be
       0.29258886 0.048436303 -0.0664969 -0.12771276
0000c0 3a f7 79 3d 96 23 ae 3e 51 dd 79 3e 99 76 03 bf
       0.06102679 0.34011525 0.24400832 -0.5135284
0000d0 00 01 32 3e a5 d0 20 3f e1 8d 46 3e f5 17 bd be
       0.17383194 0.62818366 0.1939006 -0.3693234
0000e0 c2 bc 60 3e 23 e5 c2 be 5d 48 9d 3e 52 ed 94 3d
       0.21947005 -0.38065442 0.3071927 0.07271828
0000f0 65 61 ff bb 37 3e 19 3e 90 78 1a 3f c1 fb 2c be
       -0.0077935928 0.1496514 0.60340214 -0.16892911
000100 dd b8 80 be d3 32 9b be c6 35 88 3f f5 42 2b 3d
       -0.2514104 -0.30312213 1.064141 0.041811902
000110 73 b8 97 3d 5a 7a d1 3e 93 2b a8 bd e2 8a 6d 3d
       0.07408228 0.4091366 -0.08211436 0.057993777
000120 b3 c3 1c 3f 14 d6 8e 3e 38 e5 2c be 22 2c 08 3f
       0.61236113 0.27897704 -0.16884315 0.5319234
000130 31 9a 4c bd ca 95 c9 bd 7a d5 d6 be 3a 16 49 be
       -0.049951736 -0.09843023 -0.41959745 -0.19637385
000140 08 b9 26 be b3 d2 48 3f c7 ef 22 be ec 2c df 3d
       -0.16281521 0.784465 -0.1591178 0.1089724
000150 92 e6 0d 3e 65 86 90 bd fe a4 3d be b4 cf 04 3f
       0.13857487 -0.07056884 -0.18519971 0.5187943
000160 55 6e 5d be 56 f4 90 3d 15 03 ce 3e db 8e 5d be
       -0.2162412 0.070778534 0.40236726 -0.21636526
000170 b5 e4 22 bf c2 27 01 bf f1 af 97 bd bc f2 c7 bd
       -0.6363023 -0.5045129 -0.07406605 -0.09763095
000180 21 1b 17 3e c6 20 2c be 58 77 88 3e 96 af b2 bc
       0.14756443 -0.16809377 0.26653552 -0.021812242
000190 1b 0b a9 3e 8b db 9c bd 3b e1 3e be 72 8d 82 bd
       0.33016285 -0.07659062 -0.18640606 -0.06374635
0001a0 89 43 33 be 9c 64 2d be e5 f7 67 3f ac 26 65 3e
       -0.17506231 -0.1693291 0.9061263 0.22378033
0001b0 c2 b0 b4 3c 4c b4 cb bb 0c 8e 3b 3e 18 2b 32 be
       0.022056941 -0.0062165614 0.18315905 -0.17399251
0001c0 e6 3f 0e 3f 68 e9 91 be 7b 7c 4f 3e 2f 5f f6 be
       0.5556625 -0.28498387 0.2026233 -0.48119494
0001d0 aa f2 8d 3d 5c eb c2 3e f2 83 d7 3e cb a7 9b 3e
       0.0693105 0.3807019 0.42092854 0.30401453
0001e0 9f db ac 3e 0f b0 4a 3e 6f 1f 29 3d 7e c5 1a 3f
       0.33761308 0.19793724 0.041289743 0.604576
0001f0 5a bf b6 3e cb 38 94 be 3f c9 4c 3e bd 09 01 3f
       0.35692865 -0.2894958 0.19998644 0.50405484
000200 7d fc 73 3c 40 48 6f be cd 94 80 be 1b e0 57 3e
       0.014891741 -0.23367405 -0.25113526 0.21081583
000210 0e ea 54 3e 86 87 1a 3e 34 2f ab be 56 48 77 bd
       0.2079241 0.1509076 -0.3343445 -0.06037172
000220 f2 27 1d 3d a0 bb 3c 3d 69 73 0a be 67 1e 7a 3e
       0.038368173 0.04607737 -0.13520588 0.2442566
000230 e1 91 6b 3d a7 da 07 3e 58 75 f1 3c ff c2 0f 3e
       0.057512168 0.13267003 0.0294749 0.14039229
000240 1b 36 af 3e 8a fc 1f bd c5 76 79 be 4d a3 91 3d
       0.34220967 -0.0390592 -0.24361713 0.07111225
000250 40 4b 7d 3e d4 29 19 3e 74 33 09 bd 3f 45 0a 3f
       0.24735737 0.14957362 -0.033496335 0.5401191
000260 ee 85 be bd e6 f1 60 be 84 ad 81 be 9d 81 2e 3d
       -0.09302889 -0.21967277 -0.25327694 0.042604078
000270 a6 ab 05 3d dd d5 0e bd b9 d8 bd 3e d0 9a ef be
       0.0326344 -0.034871925 0.3707941 -0.467978
000280 8a 07 b1 be f6 25 95 bd 95 7e f2 3d 8b 19 07 be
       -0.34576064 -0.07282631 0.1184055 -0.13193338
000290 6e 60 1d bf e3 0c 90 3d d0 b8 9c bd 78 35 c6 be
       -0.61475265 0.07033708 -0.07652438 -0.38712668
0002a0 7a 5a b6 bd 0a 5b 71 be fb 7c cb 3e 32 ea 33 be
       -0.08903976 -0.23569885 0.3974379 -0.17569807
0002b0 d0 ba 44 be b8 a6 7c 3e c8 08 6f 3e 79 93 83 be
       -0.19211888 0.24672973 0.23343194 -0.2569845
0002c0 81 1e 11 bf b1 72 22 be 2e a1 70 bd f1 78 38 bd
       -0.5668717 -0.15864064 -0.058747463 -0.045037214
0002d0 d6 3c 15 3e f9 2b 98 bd 2d 03 7f bd 9b 0b fb 3e
       0.14573988 -0.07430262 -0.062258888 0.49032292
0002e0 b0 20 08 3f ad 9e 94 3e 13 71 52 3e 14 5f ca bd
       0.5317488 0.2902731 0.20550947 -0.09881416
0002f0 68 c8 95 be ca fe 0c be f9 d4 1b be 86 12 6d be
       -0.2925446 -0.1376907 -0.15217961 -0.23151597
000300 7f 27 78 be 3a 87 81 be 62 37 c3 be 13 85 b6 3d
       -0.24233817 -0.25298482 -0.3812819 0.08912101
000310 91 b9 07 bf 8b 7f 04 3f ab 63 87 bd e0 fd 86 be
       -0.53017527 0.51757115 -0.06610807 -0.26365566
000320 43 78 52 be 4e 4b 31 3e 15 90 e7 be 5d e0 d1 3e
       -0.20553689 0.17313883 -0.45227113 0.40991488
000330 7e da 88 3e 7e 78 63 3e 86 a7 ee 3e f7 94 34 bf
       0.26729196 0.22213933 0.46612185 -0.705398
000340 43 12 84 bd 61 7f dc 3e 5e 1a 36 3e b0 4a 82 be
       -0.06448796 0.43065932 0.17783496 -0.25447607
000350 fe 77 8c be ae 6c 91 3e 96 7a ce be 74 d5 ef bc
       -0.27435297 0.2840323 -0.403279 -0.029276587
000360 ea 58 87 bd 08 03 c0 3d 88 33 cc bd 9c 14 cd bd
       -0.06608756 0.09375578 -0.09970766 -0.100136966
000370 3b 35 5e 3e e2 b3 c6 3e eb 42 70 3d 8a 12 b2 3e
       0.21699993 0.38809115 0.058657568 0.3477977
000380 85 d3 07 3e b9 55 f2 3e f4 5a 87 3d ae 72 3b 3d
       0.13264282 0.47331026 0.06609145 0.045763664
000390 7e 04 d4 bd ca a0 ac 3e f4 6b 7f be bb 36 01 bd
       -0.10352419 0.33716422 -0.24943525 -0.031546336
0003a0 ee ed 0a be 92 c6 5d be 03 78 c8 be 10 74 0a be
       -0.13567325 -0.2165778 -0.39154062 -0.13520837
0003b0 e9 a0 1d bf f8 f0 83 bf 61 0f dc be ff 3e cf be
       -0.61573654 -1.0307913 -0.42980483 -0.4047775
0003c0 36 75 14 3e 8d 3d 61 be a0 42 17 3e 37 fe 21 3f
       0.14497837 -0.21996136 0.14771509 0.63278526
0003d0 19 6b 02 3f a9 0c 37 3d 24 4f 24 3e c7 62 3f be
       0.5094467 0.044689808 0.16045815 -0.18690024
0003e0 08 e8 da 3d 88 d4 0c 3e 93 b2 58 bd fc fe a7 3e
       0.10688788 0.13752949 -0.052904677 0.32811725
0003f0 12 e6 d3 be bc 6c 1e be a8 30 ed 3c d0 52 85 be
       -0.41386467 -0.15471166 0.028953865 -0.26039743

bias f4 [9]
000000 0d 0c 9f bd f6 c2 c3 b9 5f f6 d2 bc 42 4a a4 3d
       -0.077659704 -0.00037338556 -0.025752245 0.08021976
000010 7b c2 ae 3c 24 e7 08 be c7 0a a8 bd a5 9d 1e bb
       0.02133297 -0.13369423 -0.082051806 -0.002420285
000020 a4 ac 6a be
       -0.2291742
