char_emb/code/output/model_child_gru_test_32.pt (torch_old, 41191 bytes, 7 tensors)

weight f4 [66, 15]
000000 30 3e e9 3e 03 6d f0 3c 59 95 bb bc f9 5e a5 be
       0.45555258 0.029348856 -0.022898363 -0.3229902
000010 18 06 5a bf ee 82 50 3f cf b7 51 3d f6 af 14 c0
       -0.8516555 0.8144978 0.051200684 -2.3232398
000020 16 85 1a 3f 53 56 b3 be a9 7f b1 3e 22 ee db be
       0.60359323 -0.35026798 0.3466771 -0.42955118
000030 25 b0 0d c0 46 80 59 3f fb aa 26 bf 9d 89 1f 3e
       -2.213876 0.84961355 -0.65104645 0.15579839
000040 d2 78 12 c0 71 4b 89 bf 80 8c ba 3f 3f c1 83 bf
       -2.2886243 -1.0726148 1.4574127 -1.0293349
000050 36 b7 23 40 e6 11 bc bf 15 80 17 c0 18 cb 76 be
       2.5580573 -1.4692962 -2.3671925 -0.24100912
000060 42 5f 61 be ee 9f e5 be 6f 6d 0d 3f f0 b3 1b bf
       -0.22008994 -0.4484858 0.5524511 -0.6082144
000070 fc 51 b3 3f a4 b1 15 40 09 6f 91 bf f8 4f 45 3f
       1.4009395 2.3389673 -1.136201 0.7707515
000080 ba 13 46 40 2f 6b 14 bf 9c 22 f7 3f af 89 a9 bf
       3.094954 -0.5797605 1.9307437 -1.3245143
000090 4d 23 26 bf 50 0d 53 bf 4b 49 cc bf 5a 3e c7 3a
       -0.64897615 -0.8244219 -1.5959867 0.0015201077
0000a0 a4 0c 36 3e cf 69 62 3e ac db 40 c0 fe f1 a1 3f
       0.1777826 0.22110675 -3.0134077 1.2651975
0000b0 f7 a1 e9 be ff 51 de 3e 39 d0 24 bd c5 47 72 3f
       -0.45631382 0.43421933 -0.04023764 0.9464076
0000c0 69 88 d7 3f 09 f8 cb be 0d e4 32 bf 7d 7d 89 bf
       1.6838504 -0.39837673 -0.6987923 -1.0741421
0000d0 c0 c5 8c bf 95 d9 ed bf af f7 3a bf c7 93 d5 be
       -1.0997849 -1.8582026 -0.73034185 -0.41714308
0000e0 51 39 86 3f 3a 84 73 bf 8f 46 c0 be 58 1f 0d 3e
       1.0486242 -0.95123637 -0.37553832 0.13781488
0000f0 13 45 35 3f 86 3b 24 3f e2 07 b3 be 20 52 7a c0
       0.70808524 0.64153326 -0.34966952 -3.9112625
000100 c1 f4 f1 3f 69 d9 8d 3f 78 ab b2 3f 15 25 51 3e
       1.8902818 1.1081973 1.3958578 0.20424302
000110 49 2e 5c bf 6e ab 91 be 42 56 1f be d8 a3 09 40
       -0.86008126 -0.28451103 -0.15560248 2.1506252
000120 e9 b3 59 3f e3 94 37 bf 66 a0 e2 bd b6 84 a6 be
       0.85040146 -0.7171156 -0.1106575 -0.32523125
000130 5e 7a 82 bf 3f dd e0 3f dd 7c 4b bc 12 40 f4 be
       -1.0193594 1.7567519 -0.012419906 -0.47705132
000140 fe f9 f7 3f 29 9d ad 3e 71 d3 9b bf 19 1c cc 3e
       1.9373167 0.33908966 -1.2173902 0.39865187
000150 d6 2a d6 bf 74 e9 a6 bf 92 7d 2d 3e 5e 37 a6 3f
       -1.6731822 -1.3039994 0.16942433 1.2985647
000160 3e 4b 0e bf 84 7f 84 bf ed 6b b1 bf 5b 75 a1 3e
       -0.5558356 -1.0351415 -1.3861061 0.31534848
000170 1d 61 00 bf 78 ac f2 be 56 7f 1f 40 5e df bc bf
       -0.50148183 -0.47397208 2.492147 -1.4755666
000180 ec 84 de be f4 49 50 bf 7e 09 1f 3f 65 ef b0 3e
       -0.43460786 -0.81362844 0.6212386 0.34557644
000190 7b c8 70 3b bb 23 ce bf fb 5d 1e bf d7 c8 c3 3e
       0.003674059 -1.6104654 -0.6186215 0.38239166
0001a0 ee c7 c4 3b 50 94 01 40 83 28 e7 bf 35 b3 82 3f
       0.006005279 2.0246773 -1.8059238 1.021094
0001b0 2d 4c 73 c0 24 88 c4 be 81 b8 1c c0 98 9d 92 3e
       -3.8015244 -0.38385117 -2.4487612 0.2863586
0001c0 c2 7d 62 3f da 0a a0 3d 0f a3 19 40 ca 58 d4 bf
       0.8847314 0.0781457 2.4005773 -1.6589596
0001d0 02 8a 56 40 7e 9a 54 bf 78 b8 89 3e b1 cc 5a 3e
       3.3521733 -0.83048236 0.2689855 0.21367146
0001e0 23 2c 16 bf a1 d7 8f bd e3 2e 04 bf 42 ab 8a 3f
       -0.586611 -0.0702355 -0.51634043 1.0833514
0001f0 e7 29 d4 be e1 c9 1a 3f cb 59 7d bf 73 c8 2c bf
       -0.4143822 0.6046429 -0.9896514 -0.6749336
000200 39 c1 ad 3e 94 fa ba bf 89 5e 9a 3e d9 10 03 bf
       0.3393648 -1.460772 0.3015025 -0.5119758
000210 24 cc 10 3f d0 4a 7b bf c0 ca 22 be 04 bd 47 bf
       0.56561494 -0.9816103 -0.15897655 -0.7802279
000220 1b 53 90 be 84 15 45 bf c1 bd 71 bf f0 73 19 3f
       -0.28188404 -0.76985955 -0.94430166 0.5994253
000230 2f 4c ad bf 47 b3 ab 3f 52 54 77 be e5 a5 bc 3f
       -1.3538874 1.3414086 -0.2415326 1.4738127
000240 e3 59 00 bf 7e 3a 2d 3f fa f6 5b be 9f 5e 2e 3f
       -0.50137156 0.67667377 -0.21480933 0.6811313
000250 db 71 9f bf e9 7d ac bf 6c 3b cc bf eb 95 0e be
       -1.2456621 -1.3475925 -1.5955634 -0.13924377
000260 f5 58 85 3f 13 a9 c6 bf 94 f5 04 c0 af ad 73 3f
       1.0417773 -1.5520347 -2.077489 0.95186895
000270 53 8a 05 3f 96 96 65 bf 63 2c 28 3f d9 2e cd bf
       0.5216419 -0.896829 0.6569273 -1.6029922
000280 64 d9 9f bf 89 29 2d bf 67 e4 a8 bf 43 37 cd 3e
       -1.2488217 -0.676415 -1.3194703 0.40081224
000290 bd f2 90 3e c8 b5 e5 3f 30 92 13 bf 83 42 0d bf
       0.28310195 1.79461 -0.5764494 -0.55179614
0002a0 55 62 c5 bf 23 07 1c 3e 8f 83 0a bf 5f 83 19 c0
       -1.5420634 0.15237097 -0.5410699 -2.3986433
0002b0 21 40 15 3f 2c 2a 2b 3f 8b e2 16 be 00 16 2a 3f
       0.5830098 0.66861224 -0.14734857 0.6643982
0002c0 f0 4c 3f 3f 23 36 0a c0 ec db d3 be 41 66 4f 3f
       0.7472677 -2.1595542 -0.41378725 0.810154
0002d0 ec cc 9b 3f 44 8d ba 3f 2a c6 f6 3e cb 8b b3 bf
       1.2171912 1.4574361 0.48198062 -1.4027036
0002e0 61 87 11 3e 26 d2 96 bf 8c 22 aa 3f 90 76 3e be
       0.14211799 -1.1782882 1.3291793 -0.18599916
0002f0 56 c2 af 3f 7f 03 d9 bf e6 a2 89 3f e9 7f 23 c0
       1.3731182 -1.6954192 1.0752838 -2.554682
000300 b7 12 1c bf 4a df 06 3e 94 5f 2c 3d 98 74 a0 bf
       -0.60966057 0.13171116 0.042083338 -1.2535582
000310 e5 db 11 c0 08 68 4f bf 50 01 23 3e ba fc e5 3f
       -2.2790463 -0.81018114 0.1591847 1.7967751
000320 5a ee e4 bf a8 2f 47 3e d8 e7 c4 bf 25 33 b4 be
       -1.7885239 0.19451773 -1.5383253 -0.3519527
000330 22 5b 04 bf b4 02 1a bf df 73 ca bd fc 48 8c bd
       -0.5170156 -0.60160375 -0.09885382 -0.06849858
000340 a8 17 03 bf c0 b2 77 3f 40 73 bc 3f 91 79 15 bf
       -0.5120797 0.96757126 1.4722672 -0.5838862
000350 87 bf 3a 3f 4a 62 0d 3f 84 8b 93 bf 60 17 57 be
       0.729485 0.552281 -1.1526952 -0.2100501
000360 ea 19 a3 3e 69 1c b0 3f df 77 6e 3f 4c 3e 8d 3f
       0.31855708 1.375867 0.9315166 1.1034636
000370 d7 51 18 bf 01 32 aa 3f e0 e6 1b c0 fe e1 75 be
       -0.5949988 1.329651 -2.4359665 -0.2401199
000380 fb 89 05 c0 b9 27 fc 3f df 01 3a bf 0c e6 90 be
       -2.0865467 1.9699622 -0.72659105 -0.28300512
000390 b6 5c 0a 3f ea a5 b1 3f 1a 0d 0c c0 c2 56 bb bf
       0.54047716 1.3878758 -2.1882997 -1.4635851
0003a0 3a 68 c0 bd 68 f8 89 3f 4b b1 47 bf a6 57 0b 40
       -0.0939488 1.0778933 -0.780049 2.1772246
0003b0 b6 c4 42 3f 86 9b 94 bf 53 64 41 be b2 0e 9f be
       0.7608141 -1.1609962 -0.18885927 -0.310659
0003c0 cd d3 b2 bd 72 0b 4b bf 11 41 f1 3b 2d 7c a8 3f
       -0.08731804 -0.7931434 0.007362493 1.3162895
0003d0 5e 07 0a 40 a4 7a 83 bf d3 0a cf be 8c fd 1e 3f
       2.1566997 -1.0271802 -0.40437946 0.6210563
0003e0 d5 bd 25 3f 76 bd ca bf 3b 57 07 3f 35 cc eb 3e
       0.64742786 -1.5839069 0.5286748 0.46054235
0003f0 3f d3 be 3d d5 65 2a 40 6f 11 1c 3f e4 0f bd 3f
       0.09317636 2.6624653 0.609641 1.4770474

weight_ih_l0 f4 [96, 15]
000000 44 a0 c1 3e 90 db 14 be c3 da 1f 40 3b c2 b3 bd
       0.37817585 -0.14536881 2.4977272 -0.08777281
000010 e6 12 22 3f 8f 10 48 3f 62 07 ba 3e 8a a7 79 3f
       0.63310087 0.78150266 0.36333758 0.9752127
000020 cb 3b 8e bc ac 84 80 be 77 c5 da 3e 8e b8 b4 be
       -0.017362496 -0.2510122 0.4272878 -0.35297054
000030 10 70 a7 3e 6e 3d ea bc 43 e0 b7 3d d8 ca 89 3f
       0.32702684 -0.028593745 0.089783214 1.0765028
000040 20 e6 c5 3f 2b 93 fa bf cd f8 dc bf 4f aa 51 3f
       1.5460854 -1.9576162 -1.7263428 0.81900495
000050 51 ef 50 3e 88 b4 1d 40 de 85 0b be e6 1f a5 be
       0.20403792 2.4641438 -0.13625285 -0.322509
000060 6b 9a 31 bf 46 47 4b bf 03 dc 28 3f 63 eb cc 3e
       -0.6937625 -0.7940563 0.6596071 0.40023336
000070 d4 44 46 bd fe 0c 6c bf 6f 59 63 bf 56 04 2e bf
       -0.048405483 -0.92207325 -0.8880834 -0.67975366
000080 e7 a2 aa 3e e6 0a 0d bd 45 21 15 c0 03 c7 a8 3f
       0.3332741 -0.03443422 -2.3301556 1.3185734
000090 b8 e1 60 bf ca c4 8c bf 03 f2 27 3f 3e 04 3e 3f
       -0.8784442 -1.0997555 0.65603656 0.74225223
0000a0 da 88 35 bf 77 7a 7a 3f b7 9a 13 3f 67 f7 b5 bf
       -0.70911944 0.97843117 0.5765795 -1.4216126
0000b0 07 b7 5c bc 0a 0e a1 3c fb 03 a5 bd 67 4d 23 3e
       -0.0134713715 0.019660015 -0.080574 0.15947495
0000c0 85 57 34 3f f3 7d 98 3f eb bc 13 bf 98 9c 8f 3f
       0.70446044 1.1913437 -0.5771014 1.1219664
0000d0 3f 5b 66 3f fc e1 33 bf 1b bc 3e 3f 54 12 81 3b
       0.8998298 -0.702667 0.74505776 0.0039389525
0000e0 7a 7c 2c 3c 83 49 7b 3e 91 70 28 bf 7b f5 4d bd
       0.010527724 0.24539761 -0.6579676 -0.050282937
0000f0 67 89 bb bf 78 9d ec 3e 2b 92 ac 3f 68 69 3a be
       -1.4651307 0.4621389 1.3482107 -0.18204272
000100 3b 5d 30 3f 52 b8 97 3f 84 a9 8d bf 29 7d a6 3f
       0.6889226 1.1853125 -1.1067357 1.3006946
000110 db 34 0e 3f 7f 8a 0b 40 14 5b 4e 3e 98 37 21 3f
       0.555494 2.1803281 0.20151931 0.62975454
000120 5c c8 db 3f fa b0 c1 3f 72 22 8e 3f 38 83 c5 be
       1.717052 1.5132134 1.1104262 -0.38576674
000130 d3 39 39 3d d4 5c 70 bf a0 98 8e be 92 e7 ed bd
       0.04522116 -0.93891644 -0.2785082 -0.11616434
000140 20 4b 9d 3e 22 52 ad bf 78 2b 05 3f c6 01 70 3f
       0.30721378 -1.354069 0.52019453 0.93752706
000150 3f 88 00 bf f8 79 c0 3f b9 78 4a 3e 71 89 ef bf
       -0.50207895 1.5037222 0.19772615 -1.8713819
000160 21 ec 52 bf 0e 1e 93 bf 45 31 1d 40 ee cc 0d bf
       -0.82391554 -1.1493547 2.4561322 -0.5539082
000170 81 af a9 bf 26 91 4c bf e8 49 3b bf 0b 66 77 bf
       -1.3256685 -0.7990898 -0.73159647 -0.9664008
000180 22 ab 0f bf 84 99 2d 3f 06 c0 16 3f 1e ae 87 3f
       -0.561205 0.6781237 0.58886755 1.0600011
000190 e9 28 74 bf f5 fe 01 40 81 2c 0a 3e 8f d7 8e be
       -0.95374924 2.0311863 0.1349354 -0.27898833
0001a0 ed d6 b9 bf e1 4d e9 be 6c 46 9e 3e d8 77 50 3e
       -1.4518715 -0.4556723 0.30913103 0.20358217
0001b0 29 0c 17 3f 35 a6 0d 3e 67 8a 00 3f 2c ed 79 3e
       0.5900293 0.13832934 0.50211185 0.2440688
0001c0 fd e6 16 3f 16 76 a2 bf 9a f8 68 be fa 34 31 bf
       0.5894621 -1.2692287 -0.22751084 -0.6922146
0001d0 8a 12 41 3f 13 99 ac 3e 3e 8a f1 3e f0 fe 36 3f
       0.75418913 0.33710536 0.47175783 0.71482754
0001e0 7f cd 78 be c6 ff 9e 3f ea 9d cb be 3c f8 d7 3f
       -0.2429714 1.2421806 -0.39768916 1.687263
0001f0 f6 de a4 be ec 7e bb bf c2 76 f1 3f f6 5c ae be
       -0.32201356 -1.4648108 1.8864367 -0.340553
000200 31 d9 56 3d 68 30 05 c0 85 08 0c bf 7f 16 1d bf
       0.052453224 -2.0810795 -0.547005 -0.6136245
000210 e0 40 38 bd e6 95 9a bf dc 10 85 3f 7b 74 23 3e
       -0.044983745 -1.2076995 1.039577 0.15962403
000220 17 91 8e 3e a5 ef 5b bf a3 dd b9 be 26 19 bd bf
       0.2784507 -0.85912544 -0.36301908 -1.47733
000230 6e 1d 00 3e 65 33 c0 3f 26 c6 98 be b7 88 e5 be
       0.12511227 1.5015684 -0.29838675 -0.44830868
000240 45 8d 65 bf e9 ed 34 bd 8f 77 9b bd b0 27 48 3d
       -0.89668685 -0.0441722 -0.07591163 0.048865974
000250 e5 99 ab 3e 58 90 27 3e f3 65 ab bd 1b cf 2f 3f
       0.3351585 0.16363657 -0.08369055 0.6867539
000260 45 53 9f bd f9 61 27 40 bc 45 a2 3c 48 5c 3e bf
       -0.07779554 2.6153548 0.019808643 -0.7435956
000270 e7 26 ab bf ee ef 71 3f b9 fd ba 3f c6 c4 90 be
       -1.3371247 0.9450673 1.460868 -0.28275126
000280 62 a1 91 3f a8 87 e7 be 0e e4 36 be 0c 6a 8f bf
       1.1377375 -0.45220685 -0.17860433 -1.1204238
000290 1b f3 6c bf 5c 5b 68 3e 72 4e 01 bc f1 0f 02 bf
       -0.9255845 0.22691101 -0.007892238 -0.50805575
0002a0 86 64 82 3f 59 39 2d bf df 49 fc 3f 90 54 de bf
       1.0186927 -0.6766563 1.9710044 -1.7369556
0002b0 c7 0c 61 3e 78 e7 2c 3e d9 3b d0 3d 46 68 d6 bf
       0.2197753 0.16885173 0.10167665 -1.6750572
0002c0 86 27 1a 3d 84 e1 e2 be dd 15 af 3e 35 33 18 3e
       0.03763535 -0.4431268 0.34196368 0.14863284
0002d0 a5 7b 90 be e3 69 8f 3f cd 43 1f be 47 0f 95 3f
       -0.28219333 1.1204189 -0.15553208 1.1645287
0002e0 75 4b 06 3f af 9f 92 bf d0 65 3b 3f 48 cf d3 bc
       0.5245889 -1.1454982 0.7320223 -0.025855675
0002f0 05 ca 8a bf 5a 51 8c bb f2 c7 71 3e 00 cd a9 be
       -1.0842901 -0.004282159 0.2361143 -0.33164215
000300 a6 41 48 40 ca 47 3e 3f c0 2e 4b 3f 15 2d e7 3f
       3.1290069 0.7432829 0.7936821 1.8060633
000310 40 b6 2b bf 11 06 01 3f 14 b1 3a bf 09 71 d1 3d
       -0.67074966 0.5039988 -0.7292645 0.10226638
000320 17 d7 dd be cf 3b ba 3f 38 e6 b2 3e 1e 00 87 bf
       -0.43328163 1.4549502 0.34941268 -1.0546911
000330 9d fd 2b bd 4a db 5a 3f 7a cc 88 bf 65 98 1e bf
       -0.04198991 0.8549086 -1.0687401 -0.61951286
000340 46 fd a3 be 32 b9 46 3b 72 fc 8a 3f 97 e0 01 bf
       -0.3202917 0.0030322787 1.085829 -0.5073332
000350 0a dc e0 bd 6b b4 2a bf ec 46 e5 3e 96 c5 7d 3e
       -0.10979469 -0.66681546 0.44780672 0.24782404
000360 ba 58 6f bf d9 9d b4 3f 3f ef 0c 3f 44 c1 69 3c
       -0.9349476 1.4110671 0.5505256 0.0142672695
000370 e1 b0 22 3f 02 f1 8c 3f 01 e9 d3 bf 42 84 d0 3c
       0.63551146 1.101105 -1.6555482 0.02545369
000380 99 bb be bf c4 8a b1 be 7c e3 91 3e 05 f8 e9 3e
       -1.4901 -0.34676182 0.2849387 0.45697036
000390 77 f9 53 3d 46 fb 65 3f de 7e 64 3f 71 8b 88 bf
       0.05175158 0.8983654 0.89256084 -1.0667554
0003a0 9f 5c 9f 3f 82 f0 52 3e cc 34 a0 3f b4 54 80 bf
       1.2450141 0.20599559 1.2516112 -1.0025849
0003b0 dc 68 50 3f b7 41 38 3f 5f 36 61 3f 14 25 db 3d
       0.8141 0.7197527 0.8797359 0.107004315
0003c0 c0 51 96 3e 1c f6 22 bf 2f cc 53 3f f0 9a 4f bf
       0.29359245 -0.63656783 0.82733434 -0.8109579
0003d0 02 79 85 3f 22 c5 42 bd 85 23 0a be aa 44 1e bf
       1.0427554 -0.04755128 -0.13490112 -0.61823523
0003e0 5b 26 22 bf 66 05 d6 bd 84 2f 61 bf 59 5f 5f 3f
       -0.63339776 -0.104502484 -0.8796313 0.87254864
0003f0 9b 4a 10 be 6d b4 91 3e e7 3c 61 3f b8 35 cf be
       -0.1409096 0.28457966 0.87983555 -0.40470672

weight_hh_l0 f4 [96, 32]
000000 89 4c c2 3f 58 6f c7 3e cc e2 68 3f 92 46 99 3f
       1.5179607 0.38952136 0.90971065 1.1974661
000010 a3 43 cb bb a6 31 e3 3e 9e 81 ae 3f 7c 06 ce bf
       -0.0062031313 0.44373816 1.3633306 -1.6095729
000020 41 6d de bd 93 ca 36 3d 75 90 be bf a7 2e 41 bf
       -0.10860682 0.044626784 -1.4887835 -0.7546181
000030 c1 5a 97 bf e4 66 25 3f 3a 17 29 bf 3d 38 f2 3f
       -1.1824571 0.64610124 -0.66051066 1.8923413
000040 a4 e5 96 bf 70 d1 23 3f 51 45 c6 be 4c d8 c7 3c
       -1.1788831 0.6399145 -0.3872476 0.02439513
000050 5c 22 fa be 8a 9d bf be 36 46 18 bf d9 c5 15 be
       -0.4885434 -0.3742488 -0.59482133 -0.14626254
000060 a0 06 ce 3d 42 4a 1d bf 8d 78 8a 3f ee ca d6 bc
       0.10059857 -0.61441433 1.0818039 -0.026219811
000070 2b 7d ae 3e 51 d7 46 bf c8 89 93 3f 8f f0 f8 3e
       0.3407987 -0.77672297 1.1526423 0.48621032
000080 77 df 15 40 bd b1 94 bf 7c ba 35 be 91 fc d0 be
       2.3417642 -1.1616741 -0.1774692 -0.40817693
000090 21 94 73 3f 9c 0d ed be 91 59 87 be f9 2b 55 3f
       0.951479 -0.46299446 -0.2643552 0.8327022
0000a0 df 31 29 bf bb 4f 8e bf 1d 98 03 bf 93 44 ea bd
       -0.6609172 -1.1118082 -0.5140398 -0.11438861
0000b0 8b fb 07 c0 77 e8 b4 3d 8f 3a 13 40 48 4e 01 40
       -2.124728 0.08833402 2.3004491 2.020403
0000c0 ca 79 bf be 3f 76 5b be 5e 98 c4 bf 9e 9d 25 3f
       -0.37397605 -0.21431826 -1.5358999 0.6469363
0000d0 17 ee b4 bf 93 76 9c 3f 1a 99 bd 3e a8 d1 14 3e
       -1.4135159 1.2223686 0.3703087 0.14533103
0000e0 fd 3e af 3f e1 9e 8d 3e b0 34 95 3f 5c 39 c0 bf
       1.3691097 0.27660277 1.1656704 -1.5017505
0000f0 30 17 97 3f 97 36 c3 3e 87 0c 49 bf 8c 17 1b 3f
       1.1803951 0.38127586 -0.7853474 0.60582805
000100 42 5a 7f be f3 70 25 3f d6 34 ac 3f 87 7a cc be
       -0.24936774 0.6462547 1.3453624 -0.3993723
000110 ce f2 0a be f2 f9 bf be 1c 5d 84 bf 14 05 72 3f
       -0.13569185 -0.3749538 -1.0340915 0.94539
000120 5b be 80 3f b1 cb b7 3f 7f f4 98 bf 3c cc d0 3f
       1.0058092 1.4359037 -1.1949614 1.6312327
000130 f5 dd 01 bf bc 15 14 be fc 34 39 3f 2f 9d f2 bf
       -0.50729305 -0.14461416 0.7234647 -1.8954219
000140 d3 d7 0d 3f 97 c7 bc bd 45 1f dc be 3c 91 8b bf
       0.55407447 -0.09217756 -0.42992607 -1.0903697
000150 57 e3 42 3f 92 2f d0 bf 24 6d 7b bf 2d e3 d1 3e
       0.76128143 -1.6264517 -0.9821341 0.40993634
000160 8d 79 75 bf ac 88 b2 3d 06 66 ee be b6 1f 42 bf
       -0.95888597 0.08717474 -0.46562213 -0.7582964
000170 68 c2 9b 3f 46 04 80 3e b4 9f 97 bf 00 bf 17 c0
       1.2168703 0.2500326 -1.1845613 -2.3710327
000180 10 56 c0 3c e2 80 ad be c7 73 93 bf 89 9a 6a be
       0.023478538 -0.33887392 -1.1519707 -0.22910513
000190 ec 6e 1f 3e c6 70 60 bf 4c b3 61 bd 60 79 41 bf
       0.15569657 -0.8767208 -0.05510263 -0.7557583
0001a0 df dd c7 3c 56 4b e0 3e ca a4 a4 3d 88 57 84 3f
       0.024397789 0.43807477 0.080392435 1.0339212
0001b0 83 b0 47 bf 9a 92 f2 3e c7 58 cb bf cf a5 c5 3f
       -0.7800371 0.47377473 -1.5886468 1.5441226
0001c0 bc 65 c7 bf d4 df 8c bf 45 70 7d bf 60 bb 9b bd
       -1.5577922 -1.1005807 -0.98999435 -0.07604098
0001d0 96 b7 e2 be fa 27 6f bf 27 b0 c8 bf 29 bb 4f 3f
       -0.4428069 -0.93420374 -1.5678757 0.8114496
0001e0 f1 f0 65 bf be 7c 35 bf 7f 4a 08 3f 50 dc a4 3f
       -0.8982077 -0.70893466 0.5323867 1.2879734
0001f0 1d d4 29 3f cd 90 94 bf 75 95 00 3f 0c 7a 29 be
       0.66339284 -1.160669 0.50228053 -0.16550463
000200 7c 63 be 3e db 30 af be f9 f0 0b 40 04 ec 65 3c
       0.37185276 -0.3421696 2.1865828 0.014033321
000210 cc 54 96 3f 16 77 a7 3d f9 fd 84 be 8a 55 49 3f
       1.1744628 0.08177011 -0.25975016 0.7864615
000220 86 ab b0 bf 58 0e 1e c0 5b aa 05 3e 4a 8a b2 bf
       -1.3802345 -2.4696255 0.13053267 -1.3948452
000230 12 f6 e7 bd 41 04 b3 bf 57 4a d7 be fe a3 a0 3e
       -0.11326231 -1.3985673 -0.42048904 0.31375116
000240 9f 88 64 3f 5b db b2 bf a8 21 7f 3f a0 5c b5 3e
       0.8927097 -1.3973192 0.9966073 0.3542223
000250 85 af 2d bf 66 b3 8c 3f 60 89 bf 3f 06 b5 8d be
       -0.67845947 1.0992248 1.4963799 -0.27677172
000260 cd 5f 35 3f 85 75 6c 3f 09 2d 30 3e f6 22 d6 be
       0.70849305 0.9236682 0.1720468 -0.41823548
000270 70 a2 e5 bf b8 8a 01 be 33 22 66 be 63 7a f3 3e
       -1.7940197 -0.12650573 -0.22473983 0.4755431
000280 35 11 e4 3e 87 b3 1d 3e f9 2b 6b 3e 3d 3f 8d 3f
       0.44544378 0.15400515 0.22965993 1.1034924
000290 5b 06 b5 3c bd ed 5f bf 0a a5 57 3e 4e 6f 73 3e
       0.022097757 -0.87472135 0.21059051 0.23772928
0002a0 96 7a 8a bf d0 0f c9 be 3b d1 42 3f 57 69 fa bd
       -1.081866 -0.39269876 0.7610051 -0.12227123
0002b0 68 38 ed bf 55 dc 31 bf b2 b1 a9 bf 5d b7 db 3f
       -1.8532839 -0.69476825 -1.3257353 1.7165333
0002c0 5f d1 88 bf e1 5d 99 3f 59 fb 0e c0 f7 b2 c6 3f
       -1.0688895 1.1981775 -2.234091 1.5523366
0002d0 25 59 c4 bf 29 f7 89 3f 66 8e 98 bf 31 cc 8e 3f
       -1.5339705 1.0778552 -1.1918457 1.1156064
0002e0 f4 b8 b2 3e 77 3f 8c bd 93 87 03 bf f4 26 b6 3d
       0.34906733 -0.068480425 -0.51378745 0.088941485
0002f0 97 15 7b bf 9a 75 5f bf 33 d5 c5 3f 79 7e 23 3f
       -0.9807982 -0.8728882 1.5455688 0.63864857
000300 0c 5b ba 3e 1c 2c a0 3e 39 5c ae 3e 6d 6f 8b bd
       0.36397588 0.31283653 0.34054735 -0.06808362
000310 c1 1c f7 3f 0c 41 d9 bf a8 81 b7 bd 0a bb 8a 3f
       1.930565 -1.6972976 -0.08960277 1.083833
000320 61 86 d4 3f 4a 93 ac 3f d6 eb 80 3e 6a 44 1a bf
       1.6603509 1.3482449 0.2517993 -0.6026064
000330 96 7c 9c 3f 00 cb 1c 3f 5f 26 47 be 37 45 e2 3e
       1.2225521 0.61247253 -0.19448231 0.44193432
000340 91 37 bf 3c be f3 84 bf 26 03 34 3e 76 63 ad 3e
       0.023341926 -1.0386884 0.17579326 0.33864945
000350 8a 67 e8 3d dc f6 0f c0 6c f0 82 bf 00 5d 05 3f
       0.113478735 -2.249442 -1.0229621 0.5209503
000360 02 c1 a6 bf b7 ef 69 bf 41 7b ce 3e 93 f7 32 3f
       -1.3027651 -0.913814 0.4032841 0.6990902
000370 d5 81 71 3f c7 ea 22 bf 4b 4c 1d bd 48 ab dd bf
       0.9433873 -0.6363949 -0.038402837 -1.7317896
000380 50 0d 83 3f 96 e4 4b be b0 c6 82 bf d1 c0 d0 3f
       1.0238438 -0.19911417 -1.0216885 1.6308843
000390 ea 86 5b 3e 8f 31 d7 be 19 3a 92 3f c6 39 9e bf
       0.21438184 -0.42029998 1.142398 -1.2361381
0003a0 9b 73 d6 3e df cd a6 3f fc e0 cb 3d 8a c7 6d 3f
       0.41885075 1.3031577 0.09955022 0.928826
0003b0 13 9b 36 be 3d db 16 3f 3a cf b1 bb d2 7e 97 3f
       -0.17832594 0.5892828 -0.0054263147 1.1835577
0003c0 0b 9d b0 bc 73 9c 0e 3f 59 cd 95 bf 42 9a fb 3e
       -0.021559259 0.5570747 -1.1703292 0.49141127
0003d0 f4 e7 58 bf 28 c1 e8 be 31 f4 7e bf 59 12 69 3f
       -0.8472893 -0.45459867 -0.99591357 0.9104362
0003e0 ca 7e 2e 3e 8e 17 4c be de a9 ca 3e e0 b6 77 3e
       0.17040554 -0.1993086 0.39582723 0.24190855
0003f0 77 43 0b 3f 8e ca a1 be f5 e4 ff 3d 2e 5a cf 3f
       0.5439982 -0.3159985 0.12494842 1.6199396

bias_ih_l0 f4 [96]
000000 91 82 f3 3f 80 ed 06 3f 0b cd 82 bf 78 8c 02 40
       1.9024221 0.52706146 -1.0218824 2.0398235
000010 63 d9 49 bf ff be a0 3e ad 11 60 3d b5 cb ce 3f
       -0.7884733 0.31395718 0.054704357 1.6155916
000020 b3 92 f8 3d 70 ac c4 bf fd e3 07 bf 4e 31 2a bf
       0.12137356 -1.5365124 -0.5308226 -0.66481483
000030 c1 fa 83 3e e5 82 3f 3f f2 ae 3f bf 17 8b bd be
       0.25777248 0.74809104 -0.7487632 -0.3702018
000040 7d 1f 0a 40 df 63 b6 bf 38 cb d8 3e 19 39 7a 3f
       2.158172 -1.4249228 0.42342544 0.97743374
000050 12 8d d0 bf bf 62 bc 3f ab 16 66 bd d2 4a 71 bf
       -1.6293051 1.4717635 -0.05617396 -0.9425479
000060 eb e1 45 3e 6b 05 08 3f d2 b8 0f bf 40 ad c5 3c
       0.19324462 0.5313327 -0.5614139 0.024130464
000070 55 b1 75 3e f1 0f 05 bf b2 c0 63 3f ee f3 a1 3f
       0.23993428 -0.5197745 0.88965905 1.2652566
000080 51 1c b8 3f e0 a2 13 bf b0 a6 56 3e b9 6d e4 be
       1.4383641 -0.576704 0.20962024 -0.44614962
000090 c1 63 d4 bf 92 58 9a 3f cf fb 5e 3f e6 09 98 3f
       -1.6592942 1.205828 0.8710298 1.1878021
0000a0 04 6b 5c 3f 60 bc d1 3e e3 13 6d be b9 e1 16 bf
       0.8610079 0.4096403 -0.23152117 -0.58938175
0000b0 af d0 c6 3f 9f 50 9a bc fe 16 ae 3f c5 5b a4 3f
       1.5532435 -0.018837271 1.3600767 1.2840506
0000c0 07 15 f4 be b8 9d 1c 3f 3f 76 9d 3e 57 60 15 40
       -0.47672293 0.6117816 0.30754277 2.334005
0000d0 12 75 cb bf 1d 24 13 be 7d 9d 0d bf ea d0 ee 3f
       -1.5895102 -0.14369245 -0.55318433 1.8657506
0000e0 dc 7d 75 3e cd e6 7f bf a3 f6 98 3f 2b a2 4e be
       0.23973793 -0.9996155 1.1950268 -0.2017905
0000f0 a6 af 96 3f 6d 60 0f be 41 72 d7 bf f2 da 9e 3f
       1.1772354 -0.14001627 -1.6831743 1.2410567
000100 08 96 85 3f 1d 1c e6 bf e6 84 85 bf 8a df 81 3f
       1.0436411 -1.797733 -1.0431182 1.0146344
000110 69 b1 f5 be d3 2c 07 bf e7 00 33 3f 65 c2 1b c0
       -0.47986916 -0.5280277 0.6992325 -2.43374
000120 0f a5 f2 3f dc e4 4c bf 79 ca 71 be e4 8b 1a 3e
       1.8956622 -0.8003671 -0.23612393 0.15092427
000130 00 88 72 bf 36 02 51 3e 9e ba 99 be cd 08 77 3f
       -0.9473877 0.20411 -0.3002519 0.96497804
000140 02 bd 8d bf 7a a1 b0 be c7 d1 a0 be 07 c7 28 3f
       -1.1073306 -0.34498197 -0.31410047 0.6592869
000150 d8 1c 4c bd d8 04 29 3f 42 34 b1 be d2 f1 96 bd
       -0.049832195 0.66023016 -0.34610182 -0.07370342
000160 cd 46 9a bf 39 fb 22 3e a7 c9 8e 3e 40 95 5b 3d
       -1.2052857 0.15916146 0.27888224 0.053609133
000170 f2 20 5b 3f cf a7 d1 bf 27 41 d8 3e 79 42 f4 be
       0.85597146 -1.6379336 0.42237207 -0.47706965

bias_hh_l0 f4 [96]
000000 f9 86 03 40 2c 3b a0 3e ef e2 8a bf d0 c7 02 40
       2.055113 0.31295145 -1.0850505 2.0434456
000010 bd 7b 29 bf 1d 04 a7 3e f7 41 82 3e 64 18 dd 3f
       -0.66204435 0.32620326 0.25440952 1.7273068
000020 2d e2 05 3e 22 59 bb bf f7 65 19 bf de c9 6e bf
       0.1307456 -1.4636576 -0.5992121 -0.93276775
000030 42 f5 27 3e 24 01 22 3f 00 7e 4c bf ce 2b 21 bf
       0.16402152 0.6328299 -0.7987976 -0.62957466
000040 bd 0d 0a 40 22 b2 cf bf cc 30 14 3e cf eb 74 3f
       2.1570885 -1.6226237 0.1447174 0.95672315
000050 a0 07 ca bf 1f 7f bd 3f cb df 38 be 0e 54 80 bf
       -1.5783577 1.4804419 -0.1805412 -1.0025651
000060 4b 5b 45 3d 17 1b c1 3e 5b f1 b8 be c2 e1 4a 3e
       0.048182767 0.3771598 -0.3612164 0.19812682
000070 46 eb 9e 3c 81 7e cf be 01 6d 3d 3f 5f 1a 9e 3f
       0.019399296 -0.40526202 0.7399445 1.2351798
000080 f9 e4 bb 3f 62 a4 21 bf db 6f 03 3e 25 f9 f7 be
       1.4679252 -0.63141453 0.12835638 -0.4843227
000090 f5 ac e0 bf 90 31 81 3f f5 59 55 3f 68 27 74 3f
       -1.7552782 1.009325 0.8334039 0.9537263
0000a0 9d f5 6e 3f 2a eb db 3e 26 d6 ba be b3 b5 1b bf
       0.93343526 0.42952853 -0.36491507 -0.60824126
0000b0 ff bf b6 3f ec 1b 82 3d ce c5 af 3f 76 85 79 3f
       1.4277343 0.06352982 1.373224 0.9746927
0000c0 29 62 fc be 40 18 03 3f 88 53 53 3d 4e ff 17 40
       -0.4929364 0.5120888 0.051593333 2.3749576
0000d0 a6 0a bf bf c2 97 2c bd da f8 57 bf a4 e7 f7 3f
       -1.4925125 -0.042136915 -0.8436409 1.9367566
0000e0 56 c8 7d 3d 92 04 6f bf a6 e7 94 3f b3 4e c7 be
       0.061958633 -0.9336635 1.1633193 -0.3892723
0000f0 05 c9 b4 3f 92 af 92 be 3f cf e8 bf c0 fe 9e 3f
       1.4123846 -0.28649575 -1.8188246 1.2421494
000100 15 16 5b 3f 95 35 02 c0 0a a2 b2 bf 03 5b b6 be
       0.8558057 -2.0345204 -1.39557 -0.3561631
000110 bc f7 c0 3d 0f 45 53 bf 56 38 fe 3f 1a 27 27 c0
       0.094222516 -0.8252725 1.9860942 -2.6117616
000120 23 56 9d 3f 69 92 50 bd c3 34 2d bf 75 ef bc 3e
       1.2291912 -0.050920878 -0.67658633 0.3690144
000130 20 f6 38 bf 1c 15 4b bf 6d 29 4a bf 33 a8 88 3e
       -0.72250557 -0.79329085 -0.7896946 0.26690826
000140 de cf d8 bf 34 87 6f 3f bf 0c 2a bf 54 66 ef 3f
       -1.6938436 0.9356568 -0.664257 1.8703103
000150 43 0e 57 3f 1f 5f e4 3d 7b 10 11 3e c4 76 34 3f
       0.84006137 0.111509554 0.14166443 0.7049372
000160 a0 a3 db bf 31 07 22 3e 1a 81 91 3f ba f3 60 bf
       -1.7159309 0.15823056 1.1367524 -0.878719
000170 56 6b 0f 3f 24 e7 06 c0 44 d6 54 3f e2 4a fd be
       0.56023157 -2.1078577 0.83139443 -0.49471194

weight f4 [9, 32]
000000 7e 0c 62 3e b5 31 ba bd 18 0e a3 3f 86 2b 7d 3f
       0.22075078 -0.09091512 1.2738676 0.98894536
000010 cb c7 91 3d 4c ee 3d bf fe 6a ae 3c d2 cf 84 be
       0.071181856 -0.7419174 0.021291252 -0.25939804
000020 f5 b2 6b 3f 5b 85 ad 3f 29 ba 4d bf 92 8e e1 be
       0.9206994 1.3556322 -0.8036218 -0.44054085
000030 36 23 b7 3f cd a5 10 c0 63 df a7 3f 4b 73 eb be
       1.430762 -2.2601197 1.3115047 -0.459864
000040 9f 44 60 bf 69 cf ce 3e 0b c1 9a be e2 64 9b 3c
       -0.8760471 0.40392616 -0.30225405 0.018969003
000050 6b 1f 06 3e f8 26 fe 3e 4b 86 8e 3f b5 3e a2 3e
       0.13097923 0.49639106 1.1134733 0.31688467
000060 48 36 9c bf f1 95 bc be 85 97 76 3f e7 60 7c 3f
       -1.2204065 -0.36833146 0.9632495 0.9858536
000070 e7 cd 78 bf 78 35 63 bf 24 bb 3f 3f 18 e1 67 3f
       -0.9718918 -0.8875346 0.7489493 0.9057784
000080 35 4e 43 3f 3e e0 1e bf 2a ea a5 bf 06 61 9c 3f
       0.7629121 -0.62060916 -1.2962086 1.2217109
000090 6d 78 a3 3e 51 55 07 bf c2 b6 8b bd 19 56 c8 be
       0.31927815 -0.5286456 -0.06821968 -0.39128187
0000a0 96 7f 25 bf 0c 4b b6 3f 32 1f 62 3e 4f d2 82 3f
       -0.64647806 1.4241652 0.22082213 1.0220431
0000b0 2e c3 09 bf 4f 4e 79 be c0 b2 5b 3f f7 9b 08 3f
       -0.53813446 -0.24346279 0.85819626 0.53362983
0000c0 dc 62 2b bf 04 c8 46 3f ed b7 b4 bf b7 c2 1d 3e
       -0.6694772 0.7764895 -1.411863 0.15406309
0000d0 1a 63 80 3f 31 5f 27 bf 96 de 82 bf 38 c7 11 40
       1.0030243 -0.65379626 -1.0224178 2.2777843
0000e0 cd 9c 1c bf a2 e8 cb 3e ad b7 83 3f a5 84 8b 3e
       -0.6117676 0.39825922 1.0290428 0.27249637
0000f0 8c d5 ab 3f 20 99 43 bf ee 7d e6 bc 44 f8 9e ba
       1.3424544 -0.76405525 -0.02813622 -0.0012128432
000100 6c e5 01 40 2d ac 98 bf f3 51 df be b3 0e 0b 3f
       2.0296278 -1.1927544 -0.4361721 0.54319304
000110 28 4d 7d 3d 35 e4 e5 bf 20 39 02 3e 8c f3 d8 bf
       0.06184116 -1.7960268 0.12717104 -1.6949325
000120 5a 08 c5 3f d0 c1 09 3f 0c c2 d9 3e 50 32 92 3f
       1.5393174 0.5381136 0.4253086 1.1421604
000130 96 0f e0 bd 6c 8e 78 be 12 6f 61 3f 46 b1 54 bf
       -0.10940473 -0.2427308 0.88060105 -0.83083
000140 71 d0 ac 3f 7d f6 46 3e 0f bb 48 bf d4 49 d3 3e
       1.3501111 0.19429965 -0.7841043 0.41267264
000150 43 59 bc 3f 63 2b 09 3e f7 e2 08 3f d5 7a 98 3f
       1.471474 0.13395457 0.5347132 1.1912485
000160 0b 1c 19 c0 fb 44 f3 3f f8 a0 2a 3f 05 64 c9 3e
       -2.3923366 1.9005426 0.6665187 0.3933412
000170 b3 54 b3 3f 5d f9 9e bf 7b b7 d6 3f ac 9b d5 3f
       1.4010223 -1.241985 1.6774744 1.6688132
000180 31 91 b7 3e 2c dd 46 bf 64 79 b7 3e a3 59 4c 3f
       0.3585296 -0.7768123 0.358348 0.79824275
000190 8f 1f a4 3e 24 3c e0 be a6 44 33 3f 39 62 96 bf
       0.32055327 -0.43795884 0.70026624 -1.1748725
0001a0 03 0d 0d be 4d 4c b4 3e ec 1a 00 3f e6 c0 8f 3e
       -0.13774495 0.35214463 0.5004108 0.28076857
0001b0 b7 cf a3 3f 68 8a 8d 3d bb 8c a3 3e 3d 66 84 be
       1.2797765 0.069111645 0.31943306 -0.25859252
0001c0 13 22 df be 69 d1 ba be 39 b4 ca be 0c 99 20 3f
       -0.43580684 -0.36487892 -0.39590624 0.6273353
0001d0 ed e3 9e 3e 9b 53 d9 3e 44 7f 8d be 78 3d a8 3f
       0.3103327 0.42446598 -0.27636158 1.3143759
0001e0 96 d9 93 bf c5 ae fe be 99 6d 03 3f 8c 98 66 be
       -1.1550777 -0.49742714 0.5133911 -0.2251913
0001f0 21 6c c6 3e 70 14 36 bf a2 bf 15 3f a7 cd 81 3e
       0.3875437 -0.71124935 0.58495533 0.25352213
000200 7e 87 6f 3f e7 f5 ef bf e7 9b d1 3e 61 67 90 3f
       0.9356612 -1.8746918 0.40939257 1.1281549
000210 fc a5 69 3f 12 78 5f bf 76 52 43 bf 61 e7 23 bf
       0.912689 -0.8729259 -0.762977 -0.6402493
000220 c2 77 88 bf b6 61 cb be 6c e7 45 be c3 98 15 3f
       -1.0661547 -0.39722985 -0.19326562 0.5843622
000230 46 e9 aa bf b8 52 8b be 42 9d 49 3e 6e 33 e2 3d
       -1.3352439 -0.27211547 0.19688895 0.11044966
000240 e3 fd ed 3e 3f 68 b7 3f 79 c5 51 bf f7 ed bd 3f
       0.46482763 1.4328688 -0.81941944 1.4838246
000250 8a 4e a6 be 6e b8 f2 be e9 95 47 be 23 9e ca 3e
       -0.32481796 -0.47406334 -0.1949078 0.39573774
000260 74 50 1f bf fa 04 5f 3f 2e ce 89 bd 4d b4 e5 3e
       -0.62232137 0.8711697 -0.06728779 0.4486412
000270 bd 76 7c 3d da 8d ca bf 89 1d 6d 3e e6 9b 0f 3f
       0.061636675 -1.582454 0.23155798 0.5609726
000280 d3 7f d9 3e af 50 be 3d 61 ce 22 be c7 c3 03 3e
       0.42480335 0.09292733 -0.1589904 0.12867652
000290 ce dd 7e 3e 60 1d bb be ee 49 f7 be 64 4a 1d bf
       0.248893 -0.3654585 -0.4829859 -0.61441636
0002a0 35 9c 5e bd 73 58 b8 3e 1e 03 d9 3e 09 f6 98 3e
       -0.05434819 0.3600498 0.4238519 0.2987521
0002b0 df 02 e2 be 4d aa 63 bf 83 92 a5 3f 25 7c 21 3e
       -0.44142815 -0.88931733 1.2935337 0.15770014
0002c0 84 4e 38 3f de 03 58 3c 41 5c 84 bf 57 e7 a4 3e
       0.71994805 0.013184516 -1.0340654 0.32207748
0002d0 e8 5c c7 3f d5 63 31 3f 8f d4 73 bf b1 8e 38 3f
       1.5575228 0.69292957 -0.95246214 0.7209273
0002e0 7c 9e 85 bf 4f 4f f0 be 69 7a 17 be cd ca 2b 3f
       -1.043899 -0.46935508 -0.1479279 0.67106324
0002f0 68 33 a7 3f a3 38 7a bf 1b 3a 7c 3e d8 d7 21 3f
       1.3062563 -0.9774267 0.2463154 0.63219976
000300 e2 a8 90 3c 8e 43 82 bf 27 c8 49 bf c3 98 bb 3d
       0.017658655 -1.0176866 -0.78821033 0.09159996
000310 e0 b8 6d be 68 51 83 bf e3 c6 55 3f e9 e8 d9 bf
       -0.23215055 -1.0259218 0.835066 -1.7024204
000320 42 3f 82 be ed 5a 16 3f bb 85 3f bf 4a 32 bc bd
       -0.25438887 0.5873249 -0.7481343 -0.091892794
000330 fc 4d ec bf cd f7 0c be 1d 41 15 3f 1e b4 5e 3d
       -1.8461299 -0.13766403 0.5830248 0.054370992
000340 cc 93 41 bf 29 a2 9f 3e 4c ae 1b be 26 79 b1 3f
       -0.75616145 0.31178406 -0.15203208 1.3865097
000350 d9 f2 8d 3f 51 45 9b 3e 43 cc 81 3e 26 e8 9a 3f
       1.1089736 0.30326322 0.25351152 1.2102096
000360 0d 72 48 3f b8 97 ec 3d fe cd 8d be e7 76 7c 3e
       0.7829903 0.115523756 -0.27696222 0.24654733
000370 5a 5c 4d 3f 2f 90 12 bf c2 db b5 be d5 fa 6e bf
       0.8021904 -0.57251257 -0.35519224 -0.9335149
000380 dd 0b 2b 3f c8 de a3 3e c7 85 93 3d 75 0f 0c 3f
       0.66814977 0.32005906 0.072032504 0.54711086
000390 cf 71 a4 bf 75 54 3c 3e 94 47 b0 3f bd 64 c2 bf
       -1.2847232 0.18391593 1.3771844 -1.5186993
0003a0 fe f8 8e 3f 0c ba 3c 3f 93 7a b8 be df 4c 40 3f
       1.1169736 0.73721385 -0.36031017 0.75117296
0003b0 22 80 85 bf f2 dc dc 3e 21 22 42 3f 8e 6f 8b 3f
       -1.0429728 0.43137318 0.75833327 1.0893419
0003c0 bf 30 5b bf 0b 70 ec 3e 17 ad 1d bf ec 89 08 3f
       -0.85621256 0.46179232 -0.6159224 0.5333545
0003d0 6c a1 a4 3f c6 ce 24 3e 16 a1 a7 bd 59 3e 0e 3f
       1.2861762 0.16094503 -0.081850216 0.55563885
0003e0 19 eb b9 be a9 49 1a 3f 7e 00 71 bf b1 be 09 be
       -0.36312178 0.60268646 -0.94141376 -0.13451649
0003f0 80 35 57 3f 72 ea b9 bf 61 85 1f 3f f9 d2 f0 3e
       0.8406601 -1.4524672 0.62312895 0.4703596

bias f4 [9]
000000 69 e0 2b 3f a0 14 70 3f 8c ad 00 40 0b 25 59 3f
       0.671393 0.9378147 2.0105925 0.8482215
000010 76 d1 19 3f 4c fd 82 3f d7 92 c5 3e 51 78 a0 3f
       0.6008524 1.023355 0.38588592 1.2536718
000020 48 03 4a 3f
       0.78911257
